Learning/results/test11/KartAgent/KartAgent-470896.onnx (onnx, 108737 bytes, 7 tensors)

41 f4 [1, 2]
-0.0938113 -0.12574811
00000000: 2420 c0bd 1dc4 00be

distribution.mu.bias f4 [2]
0.0035926397 0.054844003
00000000: 7e72 6b3b 1ba4 603d

distribution.mu.weight f4 [2, 128]
-0.036750264 0.03410477 0.0123793855 -0.020648504 -0.03646315 -0.0013848941 -0.012756587 -0.013761146
0.0046142056 -0.035179537 -0.025301488 -0.0008140472 0.045257878 -0.03044851 -0.05943249 -0.0048912414
-0.001567566 0.001612163 -0.0025839969 -0.00933026 -0.0016809156 -0.0138593055 -0.0033074492 -0.028063301
0.001015202 0.00065299904 -0.00015837738 -0.021562627 -0.022478398 -0.026492933 -0.03744609 0.06182332
-0.0037093703 -0.030457322 0.0055964435 0.0021863661 -0.029546278 0.0060657808 -0.047234774 0.040642317
0.031969737 -0.012385913 -0.0048642843 0.03888939 -0.018395277 0.003492166 -0.010454027 -0.0048880465
-0.0022835257 0.0031518056 0.026979737 -0.007066417 -0.017154142 0.0024760545 0.0016286393 -0.028846681
-0.0016971857 0.0009910527 0.0020718356 0.019579947 0.010683378 0.0040829764 0.04382104 0.015451493
0.006524997 0.0011491674 -0.024827838 -0.022456903 -0.017478213 -0.032705516 -0.0040189554 -0.010310226
-0.006310716 0.00025442636 0.0016950002 0.0028339734 -0.019707417 -0.0072769015 -0.001379268 -0.030625066
0.0100670615 -0.0015201406 0.0024977194 0.032951027 -0.010728954 0.01381901 0.01075848 -0.0051435647
0.047844615 -0.0009846374 -0.0025559096 0.026355784 -0.01485932 -0.0057164296 0.005307005 0.037082367
-0.0034070255 -0.021453151 -0.0006262623 -0.0009980896 0.030578896 -0.0023089927 -0.02814216 0.0008173501
-0.015826676 -0.0030019763 0.04721888 0.036563482 -0.0153784 -0.014568488 -7.862752e-05 0.022374103
0.0391588 -0.039848216 0.0006409662 -0.009982217 0.03492985 -0.0009629589 -0.05624517 -0.00058613654
0.0018270909 -0.0043117944 0.0034367598 0.022973794 -0.031339925 -0.036240846 0.0016776279 -0.004815103
0.0045958487 -0.06806454 -0.016821908 -0.0007578038 -0.04436398 -0.00070518564 -0.016665533 -0.0071553187
-0.009609655 0.0013712969 -0.042906623 -0.0017218614 -0.013241992 0.033238824 0.06589077 -0.0055402154
-0.00038660967 0.02341676 -0.006374275 -0.010997401 0.03883717 -0.013198619 0.0025737728 0.03748936
0.0049485266 -0.0019400701 0.0010699404 -0.022432704 -0.060513183 -0.020000461 -0.011393784 -0.0120842755
-0.0044233184 -0.07619542 0.05281547 -0.0015109741 -0.02465348 0.0038636662 0.052867647 0.0012027993
-0.0029185244 -0.006144424 0.0021363322 -0.002355317 -0.00400554 -0.0073515894 0.0047429586 -0.0037895062
-0.007841438 -0.0063404217 0.018535545 0.061101306 -0.015228971 -0.07899185 -0.0055806725 -0.012793543
-0.0009516477 0.015798833 0.008755682 -0.026341671 -0.08104344 -0.0025052049 -0.009857293 0.013112213
0.001149859 0.0041257925 0.0053286674 0.009115972 0.005306857 0.023327366 -0.0038738206 -0.01403488
-0.018230742 -0.006336121 -0.0016229514 -0.0012755668 -0.010373107 -0.039369088 -0.008951383 -0.021960359
-0.07871617 -0.00072944444 -0.0029943483 -0.054371055 0.02261969 -0.036010925 -0.0009658773 0.012494423
-0.028344873 -0.0043141716 0.00039044314 -0.07160214 0.0069209514 -0.010598523 0.0034244093 0.014954518
-0.006409957 0.024076307 -0.065753 -0.00051058555 0.015172066 0.018459294 0.00076165696 0.0053616147
0.040395655 -0.006843639 0.019737946 -0.021467397 0.004684187 -0.018039126 -0.0055447505 -0.092665754
0.0036694452 0.0065817935 0.0032068316 0.0054624644 -0.026446963 0.0021135306 -0.08140984 0.00028421788
-0.0033900246 -0.0033676345 0.00071394217 0.012866137 0.027025407 0.056102045 0.008217351 -0.010645649
00000000: 7287 16bd 71b1 0b3d e8d2 4a3c 0d27 a9bc
00000010: 625a 15bd 5685 b5ba 0101 51bc 6e76 61bc
00000020: c332 973b 6b18 10bd 1145 cfbc c865 55ba
00000030: 5360 393d 276f f9bc 7c6f 73bd b546 a0bb
00000040: c976 cdba 374f d33a 4658 29bb f2dd 18bc
00000050: 2b52 dcba 2412 63bc cac1 58bb 02e5 e5bc
00000060: 8710 853a 062e 2b3a 1b12 26b9 1ba4 b0bc
00000070: 9e24 b8bc b507 d9bc 1261 19bd 733a 7d3d
00000080: e818 73bb a281 f9bc 5f62 b73b 2349 0f3b
00000090: 090b f2bc 75c3 c63b 4079 41bd 8f78 263d
000000a0: b3f2 023d 49ee 4abc 9364 9fbb 7b4a 1f3d
000000b0: b1b1 96bc d3dc 643b 5e47 2bbc e82b a0bb
000000c0: 34a7 15bb 868e 4e3b 9c04 dd3c 678d e7bb
000000d0: d886 8cbc 4d45 223b 1178 d53a e04f ecbc
000000e0: 1a74 deba 36e6 813a a2c7 073b 2066 a03c
000000f0: 5609 2f3c 7dca 853b b17d 333d 4228 7d3c
00000100: a4cf d53b a99f 963a c063 cbbc 8af7 b7bc
00000110: 782e 8fbc 38f6 05bd 71b1 83bb 39ec 28bc
00000120: 1fca cebb 8764 8539 c52a de3a 2fba 393b
00000130: 7371 a1bc 1373 eebb 8ec8 b4ba 6be1 fabc
00000140: 51f0 243c 743f c7ba c7b0 233b a8f7 063d
00000150: 7fc8 2fbc 2169 623c 5644 303c 598b a8bb
00000160: b7f8 433d f30e 81ba 0c81 27bb 16e8 d73c
00000170: 8174 73bc e350 bbbb 62e6 ad3b aee3 173d
00000180: 6748 5fbb 85be afbc c02b 24ba 54d2 82ba
00000190: 9880 fa3c 7852 17bb 638a e6bc 7043 563a
000001a0: f2a6 81bc cebc 44bb 9668 413d 97c3 153d
000001b0: aff5 7bbc abb0 6ebc d4e4 a4b8 e549 b73c
000001c0: fa64 203d e237 23bd 8306 283a 748c 23bc
000001d0: 9a12 0f3d 146f 7cba 5661 66bd f5a6 19ba
000001e0: ff7a ef3a f449 8dbb 433b 613b 8a33 bc3c
000001f0: 4b5e 00bd 4871 14bd dae3 db3a 03c8 9dbb
00000200: c698 963b 6c65 8bbd 19ce 89bc 5aa7 46ba
00000210: 01b7 35bd 35dc 38ba 2886 88bc 2a77 eabb
00000220: d071 1dbc 17bd b33a dbbe 2fbd 15b0 e1ba
00000230: f1f4 58bc 6f25 083d bdf1 863d b28a b5bb
00000240: dfb1 cab9 81d4 bf3c 4bdf d0bb 712e 34bc
00000250: b913 1f3d 053f 58bc beac 283b 718e 193d
00000260: 4027 a23b f349 feba 3e3d 8c3a cac4 b7bc
00000270: acdc 77bd 02d8 a3bc feac 3abc 20fd 45bc
00000280: 7cf1 90bb 580c 9cbd 0955 583d e10b c6ba
00000290: 18f6 c9bc 9035 7d3b bf8b 583d 3fa7 9d3a
000002a0: b744 3fbb 2a57 c9bb b501 0c3b a95b 1abb
000002b0: e840 83bb 9ae5 f0bb d26a 9b3b 5d59 78bb
000002c0: 6079 00bc 50c3 cfbb dbd7 973c 5d45 7a3d
000002d0: ef82 79bc 7bc6 a1bd 13de b6bb 029c 51bc
000002e0: ff77 79ba 8e6c 813c fe73 0f3c 7dca d7bc
000002f0: 1afa a5bd 5d2e 24bb 7c80 21bc 9cd4 563c
00000300: deb6 963a a831 873b 1a9c ae3b 285b 153c
00000310: 25e5 ad3b 0819 bf3c eddf 7dbb 8ef2 65bc
00000320: a358 95bc 3c9f cfbb 36b9 d4ba eb30 a7ba
00000330: f7f3 29bc 7b41 21bd d2a8 12bc 36e6 b3bc
00000340: f135 a1bd 3038 3fba d43c 44bb 2fb4 5ebd
00000350: ee4c b93c 3180 13bd ee32 7dba 69b5 4c3c
00000360: 8233 e8bc e55d 8dbb 64b4 cc39 25a4 92bd
00000370: 26c9 e23b 6da5 2dbc 0e6c 603b cb03 753c
00000380: 9e0a d2bb ad3b c53c 82a9 86bd d1d8 05ba
00000390: 4294 783c f237 973c efa9 473a 7cb0 af3b
000003a0: ea75 253d 9b40 e0bb 79b1 a13c 65dc afbc
000003b0: cf7d 993b cac6 93bc bdb0 b5bb 8bc7 bdbd
000003c0: 137b 703b 16ac d73b b529 523b 79fe b23b
000003d0: 4da7 d8bc 2983 0a3b 34ba a6bd 1403 9539
000003e0: 2d2b 5ebb 88b3 5cbb d927 3b3a 7dcc 523c
000003f0: 6364 dd3c 42cb 653d 11a2 063c 176b 2ebc

network_body.linear_encoder.seq_layers.0.bias f4 [128]
0.014881526 -0.011223217 0.011590928 -0.037355077 -0.050338384 -0.0144757265 -0.030260526 -0.0047489703
0.010443754 0.018352881 -0.028667757 0.029498182 -0.0032639129 -0.012704221 -0.016760552 -0.04113108
0.022734696 -0.026466457 -0.016957836 -0.008743136 -0.033818908 -0.016254744 -0.041209314 -0.05983214
0.0040094904 -0.015576032 -0.004071619 -0.045567602 -0.012854752 -0.00081626914 -0.022089258 -0.034369536
-0.05781603 -0.01649282 -0.026943233 0.03463879 -0.021934684 -0.08437905 -0.06013864 0.028434891
-0.03298508 -0.051702145 -0.056250893 0.0077426657 -0.060139347 0.012300824 -0.00064570765 -0.017695865
-0.0059704515 0.0010203252 -0.0047157463 0.028193604 0.038987614 0.02554987 -0.013561652 0.012707636
0.02678621 -0.015809054 -0.0210002 0.0007740364 -0.0064110397 0.019917522 0.03702299 -0.008401559
-0.021771885 -0.08374257 -0.034159523 -0.045286495 -0.012287631 0.0037066054 -0.020490933 0.00884589
-0.0032421926 0.013199727 0.0006271278 -0.04254885 0.0402634 -0.020471465 0.009251163 -0.01755321
-0.018502742 -0.0061334036 -0.02593117 -0.06656529 0.01921456 0.011266953 -0.05025461 -0.0060326196
-0.035276562 0.020437386 -0.03455516 -0.014740153 -0.04680375 -0.013236669 -0.018778905 -0.05422785
-0.02505714 0.0034267022 -0.0073519223 -0.022830201 -0.030074965 -0.040529054 -0.07170653 -0.0005528286
-0.042767733 0.022016335 -0.0204982 0.023176579 0.01666264 -0.031700656 -0.035653453 0.019205607
-0.06159251 -0.029397586 -0.02815054 0.0044779163 -0.016070252 -0.020770503 0.013060812 -0.009795864
-0.04121029 -0.014513747 -0.00036737818 -0.012286766 0.03418944 0.024018044 -0.050842214 0.029799022
00000000: a5d1 733c 95e1 37bc e0e7 3d3c a301 19bd
00000010: 9f2f 4ebd 992b 6dbc ece4 f7bc 409d 9bbb
00000020: 471c 2b3c c858 963c a5d8 eabc 2ca6 f13c
00000030: 5fe7 55bb 5d25 50bc 6d4d 89bc 1079 28bd
00000040: 1d3e ba3c 2fd0 d8bc 29eb 8abc 5f3f 0fbc
00000050: b285 0abd ab28 85bc 19cb 28bd 8c12 75bd
00000060: 0b62 833b 9d32 7fbc 376b 85bb 18a5 3abd
00000070: bd9c 52bc e5fa 55ba 88f4 b4bc 12c7 0cbd
00000080: 80d0 6cbd f31b 87bc 0eb8 dcbc 67e1 0d3d
00000090: 5eb0 b3bc ecce acbd ef53 76bd 4af0 e83c
000000a0: 5d1b 07bd a1c5 53bd 5667 66bd 30b6 fd3b
000000b0: ad54 76bd 6589 493c b544 29ba ebf6 90bc
000000c0: c7a3 c3bb 6fbc 853a 8c86 9abb 46f6 e63c
000000d0: 7ab1 1f3d f64d d13c b131 5ebc b033 503c
000000e0: c16e db3c fd81 81bc 9d08 acbc b4e8 4a3a
000000f0: b313 d2bb 122a a33c 6ba5 173d b1a6 09bc
00000100: f45a b2bc 3981 abbd dbea 0bbd 557e 39bd
00000110: 0f52 49bc 85ea 723b 9adc a7bc 5aee 103c
00000120: f77a 54bb ab43 583c d665 243a b447 2ebd
00000130: 3ceb 243d c6b3 a7bc 3192 173c c0cb 8fbc
00000140: 1093 97bc b8fa c8bb 9b6d d4bc 6253 88bd
00000150: da67 9d3c 0799 383c c7d7 4dbd 48ad c5bb
00000160: 287e 10bd 4e6c a73c b689 0dbd af80 71bc
00000170: 4ab5 3fbd 9dde 58bc 38d6 99bc 061e 5ebd
00000180: a244 cdbc 8692 603b 65e8 f0bb 6706 bbbc
00000190: c65f f6bc cb01 26bd e0da 92bd b3eb 10ba
000001a0: 382d 2fbd 9a5b b43c d7eb a7bc cfdc bd3c
000001b0: 1780 883c 8cd8 01bd 5b09 12bd 1455 9d3c
000001c0: 6e48 7cbd 35d3 f0bc f69b e6bc 7cbb 923b
000001d0: c3a5 83bc e726 aabc 04fd 553c d57e 20bc
000001e0: 1fcc 28bd 11cb 6dbc aa9c c0b9 6f4e 49bc
000001f0: 3a0a 0c3d 7dc1 c43c ed3f 50bd 141d f43c

network_body.linear_encoder.seq_layers.0.weight f4 [128, 77]
-0.036371037 -0.03242367 0.032512072 0.27279583 0.16578983 0.011848293 0.062872276 0.13150749
0.04211854 -0.047226753 -0.027583314 0.2922422 0.016107442 0.051961485 -0.09127298 0.17417873
-0.0729107 -0.09678619 -0.048450157 0.15357697 -0.2113921 0.08762219 0.21884784 -0.015705053
-0.11381651 0.013279255 -0.24026553 -0.025554731 -0.08606716 -0.08010614 -0.111965805 -0.14921369
-0.050920658 0.022578934 0.13079464 0.034243863 -0.07294161 -0.2728993 -0.12183439 -0.30738938
0.0012948245 -0.08144693 -0.14242133 -0.008117287 -0.122287564 0.021824729 -0.024751207 -0.18405607
0.19376437 -0.008859205 -0.00492086 0.07514093 -0.07209233 0.13927415 0.0464402 -0.2648539
0.091377005 0.22452605 -0.035026196 0.13799341 -0.2010407 0.09643165 -0.1279679 -0.13300358
0.14226796 0.10212234 0.012113542 -0.08127363 -0.066273674 0.03903206 -0.14742102 -0.12112134
-0.00688993 0.020694558 -0.0045829047 0.03527324 0.15240018 -0.11139515 0.04377783 -0.074129134
0.13685787 -0.15039496 -0.0062653003 0.042744853 0.2799341 -0.021663608 -0.07894238 0.08724697
0.008752693 0.0458712 -0.1979099 0.079643846 -0.11441017 -0.07169355 0.008268485 0.06869114
-0.049871612 0.024234982 -0.19322158 0.0010304005 0.01347327 0.043861948 0.22802077 -0.03179703
-0.086074695 0.1714982 -0.056131493 0.19647744 0.061793245 0.37448454 -0.15235 0.012869871
0.08231258 0.10240486 0.009139058 0.010146973 -0.19959605 -0.0694642 -0.07623415 0.16742009
0.088387854 0.07425435 0.19468169 -0.041105535 -0.07343408 -0.054312598 0.012552973 0.08585697
-0.005610993 0.056001823 0.14040768 -0.16884466 -0.07767831 -0.0124235265 0.033258792 0.007066099
-0.10849211 0.012967704 -0.01596223 0.051997725 0.08051103 -0.054785945 -0.03826694 0.1756664
0.11524978 -0.021438226 0.022482641 0.010410663 -0.039563738 -0.011986637 -0.07419847 -0.009912859
-0.08789898 0.16859336 -0.2982694 0.22437082 -0.10958172 -0.0068078847 0.06911244 -0.15584455
0.08332355 -0.020962598 -0.046067446 -0.06815698 -0.014286061 0.005164375 0.12129965 -0.15348443
-0.029216653 -0.16974328 0.09179588 0.15145612 -0.101288095 -0.14823958 -0.093610294 0.044919107
0.14574926 -0.112959355 -0.12555243 -0.049076073 0.045282736 0.24522811 0.050370973 0.045955047
0.13769035 0.07582767 0.22735234 -0.20005384 0.09596503 0.12326954 -0.14229709 -0.1273143
0.08878135 -0.056651138 -0.06501461 -0.055849124 -0.2133296 0.23058523 -0.06748608 0.02060945
-0.22342335 -0.06953291 0.128321 -0.109377556 -0.09496864 0.36373982 0.042097002 0.017152065
-0.011963883 -0.018807422 0.11236764 -0.13117865 -0.047369696 -0.010940858 0.09984343 0.05170158
0.030544234 0.13211027 -0.05984857 -0.3540528 0.13366258 0.005007512 0.08867235 0.039197072
0.08859802 0.31635106 0.059895694 -0.052351214 0.042843133 0.021227488 -0.052225217 -0.055387076
0.116526276 -0.09595703 -0.34557644 -0.031921927 -0.09105206 -0.1290891 -0.3189433 -0.18215044
0.099264435 0.06402568 -0.1625453 0.11880276 0.10114013 0.25854623 0.03220531 0.23794812
-0.23132314 -0.18230519 0.075972006 0.07068413 -0.039752424 -0.14348033 0.0066517848 0.28335294
00000000: ccf9 14bd afce 04bd 612b 053d e5ab 8b3e
00000010: cfc4 293e 581f 423c 2ec3 803d e6a9 063e
00000020: 7d84 2c3d d770 41bd 67f6 e1bc c5a0 953e
00000030: c1f3 833c 91d5 543d 54ed babd e95b 323e
00000040: 3552 95bd d737 c6bd ac73 46bd 4843 1d3e
00000050: 2c77 58be 4373 b33d a619 603e e2a7 80bc
00000060: a118 e9bd 3b91 593c 2b08 76be 2858 d1bc
00000070: fb43 b0bd b00e a4bd 544e e5bd 79cb 18be
00000080: 2e92 50bd 75f7 b83c 08ef 053e 4b43 0c3d
00000090: 6962 95bd 75b9 8bbe 4f84 f9bd 2462 9dbe
000000a0: 1ab7 a93a a6cd a6bd e6d6 11be 5ffe 04bc
000000b0: e771 fabd c6c9 b23c 0bc3 cabc 3279 3cbe
000000c0: 2b6a 463e 3326 11bc 2a3f a1bb 7de3 993d
000000d0: 25a5 93bd e29d 0e3e 1438 3e3d ee9a 87be
000000e0: de23 bb3d 28ea 653e a177 0fbd 254e 0d3e
000000f0: 9ddd 4dbe f57d c53d 040a 03be 1732 08be
00000100: b1ae 113e 8425 d13d e177 463c ca72 a6bd
00000110: 7eba 87bd 15e0 1f3d 89f5 16be 770e f8bd
00000120: ecc4 e1bb a287 a93c 312c 96bb ac7a 103d
00000130: cb0e 1c3e 2423 e4bd 6250 333d 04d1 97bd
00000140: 7824 0c3e 2301 1abe 264d cdbb 3a15 2f3d
00000150: 8653 8f3e e177 b1bc 8bac a1bd 8aae b23d
00000160: 7567 0f3c 70e3 3b3d e5a8 4abe 501c a33d
00000170: e14f eabd 11d4 92bd 8a78 073c f1ad 8c3d
00000180: 2d46 4cbd 7188 c63c e1db 45be 810e 873a
00000190: febe 5c3c 96a8 333d 477e 693e 9a3d 02bd
000001a0: ee47 b0bd 399d 2f3e 23ea 65bd 6231 493e
000001b0: ea1a 7d3d 70bc bf3e a301 1cbe 27dc 523c
000001c0: 7f93 a83d a4b9 d13d fdbb 153c 7d3f 263c
000001d0: e862 4cbe 3f43 8ebd a620 9cbd 2c70 2b3e
000001e0: b104 b53d aa12 983d a35a 473e 475e 28bd
000001f0: 9b64 96bd e376 5ebd fcaa 4d3c c7d5 af3d
00000200: 6cdc b7bb 2b62 653d 08c7 0f3e 9de5 2cbe
00000210: ce15 9fbd 0c8c 4bbc 5f3a 083d bc8a e73b
00000220: 1d31 debd 7e76 543c 39c3 82bc 91fb 543d
00000230: f8e2 a43d 3a67 60bd cbbd 1cbd e5e1 333e
00000240: 1408 ec3d 389f afbc 842d b83c 7c91 2a3c
00000250: 960d 22bd 9963 44bc 5ef5 97bd 8b69 22bc
00000260: 6104 b4bd bda3 2c3e c4b6 98be 77c1 653e
00000270: 616c e0bd ad14 dfbb d38a 8d3d b795 1fbe
00000280: 8aa5 aa3d c1b9 abbc 38b1 3cbd e395 8bbd
00000290: 1510 6abc eb39 a93b f36b f83d 062b 1dbe
000002a0: c357 efbc 2fd1 2dbe 7aff bb3d 5017 1b3e
000002b0: 2270 cfbd 1ecc 17be c1b6 bfbd 19fd 373d
000002c0: 4b3f 153e 3c57 e7bd d190 00be fe03 49bd
000002d0: 647a 393d 141d 7b3e cb51 4e3d 5c3b 3c3d
000002e0: b3fe 0c3e 8a4b 9b3d 0dcf 683e eada 4cbe
000002f0: 5089 c43d be74 fc3d 54b6 11be ae5e 02be
00000300: ffd2 b53d 060b 68bd 6126 85bd 0dc2 64bd
00000310: 1373 5abe 891e 6c3e 2436 8abd 26d5 a83c
00000320: 17c9 64be 4567 8ebd 9566 033e 5701 e0bd
00000330: eb7e c2bd 1b3c ba3e e86d 2c3d 7d82 8c3c
00000340: 2a04 44bc 0612 9abc 0121 e63d b253 06be
00000350: ba06 42bd 4941 33bc b67a cc3d 09c5 533d
00000360: e737 fa3c ea47 073e c623 75bd 6946 b5be
00000370: d8de 083e 0e16 a43b d999 b53d 1c8d 203d
00000380: e172 b53d c4f8 a13e 3055 753d 3a6e 56bd
00000390: 487c 2f3d 45e5 ad3c 1cea 55bd 8fdd 62bd
000003a0: 54a5 ee3d 1f85 c4bd 65ef b0be 91c0 02bd
000003b0: 8179 babd ef2f 04be 894c a3be a585 3abe
000003c0: 274b cb3d e51f 833d 4672 26be dd4e f33d
000003d0: 8e22 cf3d 2c60 843e b7e9 033d aca8 733e
000003e0: f9df 6cbe 36ae 3abe 3697 9b3d d7c2 903d
000003f0: 70d3 22bd 82ec 12be 37f7 d93b a313 913e

network_body.linear_encoder.seq_layers.2.bias f4 [128]
-0.023582231 -0.06107954 -0.012768695 -0.034533873 -0.04534862 -0.0111869965 -0.017318206 -0.0066257687
-0.03657873 -0.0017710672 -0.05384112 -0.028959665 0.0038577402 -0.00089011336 0.022190088 -0.003755024
0.029666284 0.0058732675 -0.019745644 -0.03134235 -0.0060296278 -0.045484766 0.023507481 0.01914051
-0.033170067 -0.0429203 -0.010976846 -0.025293207 -0.064577006 -0.027620822 -0.029556163 -0.049748745
-0.042276926 -0.0766191 0.007916532 -0.023191793 -0.015712744 0.015023963 -0.0037257704 -0.016005864
-0.015152418 -0.02314262 -0.0047904565 -0.022800595 -0.016662022 -0.027493697 -0.037193507 -0.024222529
-0.02105514 -0.055448703 -0.007972303 0.019010223 -0.027393257 -0.08737473 -0.041106127 -0.014757553
-0.02322064 0.001246087 -0.028366467 -0.04286507 -0.074285805 -0.030129133 -0.009930304 -0.0016314201
-0.012013941 -0.009741162 0.010163954 -0.017569527 -0.010296655 -0.006546846 -0.038146738 -0.037914228
-0.0127009535 -0.028191375 0.00863973 -0.010900787 -0.011024201 -0.039137185 -0.027536692 -0.036196064
-0.077585 -0.025974369 -0.02095326 -0.056043763 0.005024549 -0.04513526 0.023389412 0.00561246
-0.03265267 -0.013541703 -0.011231989 -0.0808918 0.0070516923 -0.007470206 0.013917226 0.0021414713
-0.02343971 -0.008810578 -0.070819266 -0.030656192 0.014011265 0.0096832495 -0.057151612 0.0090715885
-0.0043141018 -0.011106216 0.027202548 -0.050907206 -0.020944249 -0.02758989 -0.044809002 -0.05006757
0.025085676 -0.016632339 0.017074062 -0.034421578 -0.02232751 0.019809073 -0.038878612 -0.026574185
-0.006238796 -0.009777965 0.021663163 0.010800604 0.006456972 0.016602796 -0.05169813 -0.037219614
00000000: 862f c1bc 8a2e 7abd ca33 51bc 6473 0dbd
00000010: 79bf 39bd aa49 37bc e9de 8dbc fa1c d9bb
00000020: 94d3 15bd 2723 e8ba 8288 5cbd d23c edbc
00000030: 24d2 7c3b 7f56 69ba fdc7 b53c d916 76bb
00000040: b506 f33c 8a74 c03b 9ec1 a1bc d660 00bd
00000050: 2f94 c5bb 3c4e 3abd c392 c03c 8fcc 9c3c
00000060: 56dd 07bd 32cd 2fbd 3bd8 33bc b333 cfbc
00000070: f340 84bd 1045 e2bc c41f f2bc 57c5 4bbd
00000080: 922a 2dbd 7aea 9cbd 58b4 013c b7fc bdbc
00000090: 03b8 80bc 1127 763c 0e2c 74bb bb1e 83bc
000000a0: d941 78bc 9895 bdbc 43f9 9cbb 50c8 babc
000000b0: cb7e 88bc 763a e1bc 3858 18bd 536e c6bc
000000c0: d47b acbc 2e1e 63bd 439e 02bc 54bb 9b3c
000000d0: d367 e0bc 86f1 b2bd e65e 28bd aac9 71bc
000000e0: 3639 bebc be53 a33a cb60 e8bc 4993 2fbd
000000f0: 2823 98bd 5fd1 f6bc b7b2 22bc 60d5 d5ba
00000100: 1fd6 44bc 6599 1fbc b786 263c f8ed 8fbc
00000110: 4db3 28bc ed86 d6bb c13f 1cbd f34b 1bbd
00000120: a917 50bc 99f1 e6bc a78d 0d3c 3799 32bc
00000130: da9e 34bc 504e 20bd a194 e1bc 5342 14bd
00000140: e2e4 9ebd 33c8 d4bc 2ca6 abbc 258e 65bd
00000150: f9a4 a43b c0df 38bd 279b bf3c bae8 b73b
00000160: cebe 05bd 05de 5dbc 6006 38bc 9aaa a5bd
00000170: e211 e73b a1c8 f4bb 1405 643c ed57 0c3b
00000180: a204 c0bc 3e5a 10bc b109 91bd b222 fbbc
00000190: 818f 653c 7ea6 1e3c cf17 6abd 00a1 143c
000001a0: 4f5d 8dbb d9f6 35bc e1d7 de3c 1384 50bd
000001b0: 4693 abbc 3104 e2bc a589 37bd a713 4dbd
000001c0: 7a80 cd3c 8b40 88bc e7de 8b3c a4fd 0cbd
000001d0: 2fe8 b6bc a346 a23c 2e3f 1fbd 1bb2 d9bc
000001e0: d06e ccbb c233 20bc f276 b13c 04f5 303c
000001f0: 0295 d33b 9602 883c 6bc1 53bd 9873 18bd

network_body.linear_encoder.seq_layers.2.weight f4 [128, 128]
0.048745647 0.015077346 -0.058789752 0.017010609 0.13598683 -0.12025829 -0.041666962 0.049532626
0.19142611 0.13396154 -0.0378283 -0.11709741 0.04583298 0.019667264 0.0042861504 -0.047132388
-0.043015644 0.05636516 -0.05446017 -0.20080455 -0.0045983605 0.0029135817 -0.047464054 0.06776747
-0.10762128 0.09202815 -0.034983214 -0.0155083975 -0.01502928 0.023087304 0.09225548 0.3281068
0.2617748 -0.12879626 0.11472078 -0.005191277 0.24162313 -0.18318838 -0.021697778 0.067610055
-0.0024300145 0.02842973 0.09624812 0.020943651 -0.039409265 -0.06891386 0.11755676 -0.008057257
-0.043612957 0.058361027 0.11956539 0.0332038 -0.20621778 -0.09016485 0.09426848 -0.06702545
0.08406964 -0.07245431 0.13513409 0.09410183 0.09411673 0.037586 -0.031247715 0.122981235
-0.06230044 0.0059302063 0.0018426296 -0.16438511 0.0744403 0.020911489 -0.1306663 -0.085229896
0.02239176 0.08536847 0.064300165 0.04067208 0.10499491 -0.027136873 -0.063291304 0.09393865
0.14153169 -0.17671175 -0.034464043 -0.08358169 -0.013931397 -0.08953925 -0.13412797 -0.053906232
-0.011082033 -0.08018381 0.0983076 0.08365783 0.008814535 0.01304001 0.026485251 0.10033584
0.05948648 0.08665686 0.10902093 0.009567865 0.07828219 0.13415971 -0.0030134686 -0.097512
0.019843986 -0.0037130762 0.11999985 -0.12360332 -0.10552061 -0.052824795 -0.12106004 -0.05295184
-0.0010645787 -0.07763026 0.099275574 0.07316621 -0.039839085 -0.11666551 0.09453372 -0.18338633
-0.08245588 0.104380175 -0.1547856 0.00026769502 -0.08974821 0.044090755 0.07155898 0.07571816
-0.0368269 -0.112672225 -0.0752213 -0.065910324 0.07924011 0.055253066 0.06380913 0.025919663
-0.13296989 -0.09450225 -0.033082947 0.14339267 -0.050125137 0.017478844 0.09279941 0.07643134
-0.03903504 -0.023818519 -0.055202622 0.13310915 0.08707773 -0.012461673 0.018770272 0.023217192
0.17799373 -0.03223062 -0.14765248 0.11193969 -0.11303305 0.033761285 -0.0018356342 0.0121995285
0.19561921 0.049372744 -0.035989016 0.10774321 -0.08056543 -0.06315569 0.07845301 -0.109871015
-0.03337596 -0.1730621 -0.16567421 -0.059740905 0.15944155 -0.018929154 -0.09622711 -0.04828724
0.06660755 0.036714613 -0.10871395 -0.05962409 -0.17465924 -0.06714549 0.1031816 0.08630737
-0.07725283 -0.090714976 -0.08856073 0.08819664 0.06849852 -0.09882989 -0.062166795 -0.065860465
0.08822874 0.003438372 0.0047364556 0.10297156 0.053655416 -0.005504982 0.046697687 0.17771344
-0.0074334503 -0.07357723 -0.15131848 0.030538926 0.02936233 -0.04373565 0.05324306 0.09636409
-0.13052183 -0.027027033 -0.023027692 0.016469559 0.0060037784 0.19785208 0.09258348 -0.10978785
-0.06519528 -0.06544537 0.1329618 -0.089179635 0.21519768 0.05505046 0.022507438 0.017724093
0.09389001 0.081438385 0.022320623 0.13791907 0.15201616 0.0352416 0.05225137 0.023547366
0.053835623 -0.13049524 -0.16719276 0.102238536 -0.0105264 0.1729864 0.07099424 -0.02791134
-0.019542212 0.045373812 0.2167302 0.046223696 -0.12714219 0.09012184 -0.054160353 -0.08894654
-0.056069635 0.10713387 0.033388857 -0.02560914 0.014604184 0.036309488 -0.005013874 -0.008732364
00000000: 84a9 473d f906 773c 86cd 70bd d559 8b3c
00000010: 2240 0b3e fa49 f6bd faaa 2abd b9e2 4a3d
00000020: 3505 443e 372d 093e d9f1 1abd c4d0 efbd
00000030: 5dbb 3b3d 3e1d a13c d672 8c3b e40d 41bd
00000040: 2c31 30bd 27df 663d a111 5fbd b59f 4dbe
00000050: d8ad 96bb caf1 3e3b ab69 42bd acc9 8a3d
00000060: 8c68 dcbd 4179 bc3d 8f4a 0fbd ef16 7ebc
00000070: 5f3d 76bc 9621 bd3c 71f0 bc3d 9dfd a73e
00000080: 5907 863e 2be3 03be baf2 ea3d 961b aabb
00000090: 0e6c 773e bc95 3bbe 8abf b1bc 2477 8a3d
000000a0: e140 1fbb 77e5 e83c bc1d c53d 0592 ab3c
000000b0: 9c6b 21bd b622 8dbd 99c1 f03d 9602 04bc
000000c0: 80a3 32bd f90b 6f3d b3de f43d b500 083d
000000d0: c12a 53be 59a8 b8bd d50f c13d a444 89bd
000000e0: b42c ac3d ed62 94bd 9760 0a3e 76b8 c03d
000000f0: 46c0 c03d c7f3 193d 35fb ffbc 96dd fb3d
00000100: bf2e 7fbd 2d52 c23b 6484 f13a 9254 28be
00000110: 2874 983d 924e ab3c 63cd 05be 038d aebd
00000120: ed6e b73c aad5 ae3d ceaf 833d c497 263d
00000130: 9207 d73d 264e debc df9e 81bd e862 c03d
00000140: afed 103e edf3 34be 2b2a 0dbd e12c abbd
00000150: 8440 64bc 5b60 b7bd d858 09be c8cc 5cbd
00000160: 6a91 35bc 6937 a4bd 7f55 c93d cc54 ab3d
00000170: d76a 103c c4a5 553c 99f7 d83c e07c cd3d
00000180: 18a8 733d 2779 b13d 5e46 df3d 89c2 1c3c
00000190: 6a52 a03d 2a61 093e 9d7d 45bb 5fb4 c7bd
000001a0: db8f a23c 1557 73bb 7bc2 f53d bd23 fdbd
000001b0: 311b d8bd d05e 58bd 54ee f7bd 07e4 58bd
000001c0: 5589 8bba 9dfc 9ebd fe50 cb3d 2ad8 953d
000001d0: 4f2e 23bd 54ee eebd e59a c13d a0c9 3bbe
000001e0: a1de a8bd 46c5 d53d 1e80 1ebe 6b59 8c39
000001f0: e9cd b7bd 8298 343d 848d 923d 1f12 9b3d
00000200: ced7 16bd b2c0 e6bd a00d 9abd fefb 86bd
00000210: a448 a23d 0a51 623d 5cae 823d 7955 d43c
00000220: 4229 08be 658a c1bd fc81 07bd 87d5 123e
00000230: 0450 4dbd cb2f 8f3c 9e0d be3d 0988 9c3d
00000240: 35e3 1fbd 0e1f c3bc 251c 62bd c44d 083e
00000250: cf55 b23d 0b2c 4cbc 1dc4 993c fb31 be3c
00000260: fd43 363e 4104 04bd 3632 17be a340 e53d
00000270: df7d e7bd 4649 0a3d aa99 f0ba 88e0 473c
00000280: 6750 483e 133b 4a3d 3869 13bd 79a8 dc3d
00000290: 7dff a4bd c557 81bd f9ab a03d 0e04 e1bd
000002a0: 3bb5 08bd 3137 31be 80a6 29be e1b2 74bd
000002b0: a544 233e 5011 9bbc b812 c5bd d7c8 45bd
000002c0: 8a69 883d 1062 163d 6ba5 debd 6438 74bd
000002d0: dfd9 32be 9383 89bd e050 d33d ebc1 b03d
000002e0: bb36 9ebd c6c8 b9bd 545f b5bd 71a0 b43d
000002f0: f448 8c3d 5367 cabd 9ca2 7ebd dae1 86bd
00000300: 45b1 b43d 4f56 613b 4534 9b3b c1e2 d23d
00000310: c8c5 5b3d 2363 b4bb 1346 3f3d 83fa 353e
00000320: 4d94 f3bb a9af 96bd 3bf3 1abe c52c fa3c
00000330: 4589 f03c 2724 33bd 6515 5a3d 895a c53d
00000340: 84a7 05be cc67 ddbc 92a4 bcbc 2beb 863c
00000350: 58bb c43b bc99 4a3e 689c bd3d 74d8 e0bd
00000360: 1a85 85bd 3908 86bd 2327 083e d0a3 b6bd
00000370: c85c 5c3e 977c 613d 8561 b83c 1e32 913c
00000380: 6849 c03d 2bc9 a63d bdd9 b63c a83a 0d3e
00000390: 20aa 1b3e 7f59 103d 8805 563d 68e6 c03c
000003a0: be82 5c3d 8ba0 05be 9434 2bbe 7062 d13d
000003b0: ec76 2cbc 5923 313e 6e65 913d 53a6 e4bc
000003c0: fd16 a0bc e4d9 393d 86ee 5d3e 0f55 3d3d
000003d0: 9031 02be cd91 b83d 3fd7 5dbd 9b29 b6bd
000003e0: 46a9 65bd 0169 db3d c1c2 083d 42ca d1bc
000003f0: 6346 6f3c 42b9 143d 6c4b a4bb 3012 0fbc
