Learning/results/test11/KartAgent/KartAgent-299992.onnx (onnx, 108737 bytes, 7 tensors)

41 f4 [1, 2]
000000 28 7f 81 bd a7 11 af bc
       -0.06323081 -0.021370722

distribution.mu.bias f4 [2]
000000 b6 90 4e bc b8 8f 94 3c
       -0.012607744 0.018134937

distribution.mu.weight f4 [2, 128]
000000 d2 ca 04 bd 2d 05 1f 3d 75 38 4e bb 1f fb 49 3b
       -0.032419987 0.038823295 -0.0031466756 0.0030819846
000010 07 5f b2 bc 63 db 8a 3c c3 4e 87 3c d8 29 d8 bc
       -0.021773828 0.016950315 0.016517049 -0.02638714
000020 b4 52 ae 3b a3 ab 1b 3c e7 c4 ab bc 30 65 6a 3c
       0.0053199176 0.009501371 -0.020967914 0.014306352
000030 2a 40 0d 3a c4 42 b4 bc cb 6d 0c bd 28 4e 44 bc
       0.00053882843 -0.022004493 -0.034284394 -0.0119815245
000040 04 e2 93 bb 38 57 ab 3c c4 74 84 bc d4 df b5 3c
       -0.004513027 0.020915613 -0.01616896 0.022201456
000050 18 39 8c 3c 31 39 87 bc 04 4a 62 bb 77 cc 7f bc
       0.017117068 -0.016506763 -0.003452898 -0.015612713
000060 95 d2 4d 3b 28 34 22 bb e2 1a 9e 3b 21 db 25 bc
       0.0031406034 -0.0024750326 0.004824982 -0.010123045
000070 5a 99 f8 bb 20 fe 91 3c 79 7f c2 3b f2 e4 5f 3c
       -0.0075866403 0.017821372 0.005935606 0.013665425
000080 38 77 68 bc 7c f1 be bb b0 e7 94 3c 1f 9d db 3b
       -0.01418858 -0.005827127 0.018176883 0.00670208
000090 d8 66 f6 bc fa 1e b6 bb 1a c5 d0 bc fb 23 ca 3c
       -0.030078337 -0.005557892 -0.02548461 0.02467536
0000a0 42 5c 1a 3d 3e 6c 88 3c 71 1a 14 bc d1 7d 44 3d
       0.03768564 0.016653176 -0.009039507 0.04797155
0000b0 f4 fe c5 bc 20 3a 9d 3b 0b 9a 0a ba 1d 1a ed 3b
       -0.024169423 0.004798189 -0.00052872364 0.007235779
0000c0 04 0e 20 bc b2 73 97 3a 34 f9 87 bc 0a dd 26 bc
       -0.009768967 0.0011554866 -0.016598321 -0.010184536
0000d0 a5 f5 e5 38 e6 d2 b7 3b 9d 46 bb 3c a8 8f 1f bb
       0.00010965326 0.005609858 0.02286082 -0.00243471
0000e0 42 c6 44 3b a1 82 cd bb 09 1a 01 3c f8 29 b3 3b
       0.0030025397 -0.0062716757 0.007879742 0.0054676495
0000f0 d0 32 bc 3c 20 66 80 bb ad bb fa bb 40 91 28 3d
       0.022973448 -0.0039184242 -0.007651767 0.041154146
000100 0f 41 95 3c 8c cf b5 bb 4f 79 a1 bc c9 8d d6 bc
       0.018219499 -0.005548423 -0.019711165 -0.026190655
000110 97 3a a0 bc de 9c f3 bc ef fe 7b bb 61 e3 d6 3a
       -0.019559188 -0.029737886 -0.0038451513 0.0016394668
000120 ce 64 bf 3c 90 6b cc 3b 86 d5 08 3c 0c 4e 1f 3a
       0.023363497 0.0062384084 0.008351689 0.00060769985
000130 3a 51 2d bc bf f1 2b 3c f3 f0 98 bb 47 9a bc bc
       -0.010578448 0.0104946485 -0.0046673953 -0.023022784
000140 21 df 18 3d 3f 6f b3 3c ec 7f c2 3a cf a6 42 3d
       0.037322167 0.021903632 0.0014839149 0.047522362
000150 06 d8 f9 ba fc 45 57 bc 97 ab 06 bc d1 e1 47 3b
       -0.0019061572 -0.013139244 -0.008219621 0.0030499587
000160 98 5d 0b bc e3 0b 21 3d 6a 67 ec 3a 1c 7b 22 3d
       -0.008506201 0.039317977 0.0018036191 0.039668187
000170 f8 13 ac bc 80 12 52 3c af d2 ba bc 10 86 d0 3c
       -0.021005616 0.012821794 -0.02280554 0.025454551
000180 50 8f d4 bb 0d 97 8e bc 80 9d a9 3c 55 cb ad 3c
       -0.0064868107 -0.017406011 0.020704985 0.02121512
000190 a3 43 ae 3b 18 b2 21 bc b9 90 af bb 8f 9b 11 3c
       0.0053181215 -0.009869121 -0.0053578285 0.008887186
0001a0 8e c6 1a bc 57 72 b5 3c ce b1 89 bb a6 6e 05 3d
       -0.009446753 0.022149248 -0.004202104 0.032576226
0001b0 eb c9 99 bc 44 04 69 3b 24 4d bf bc 1a 59 fc 3a
       -0.01877304 0.003555552 -0.023352213 0.0019252629
0001c0 5f a6 d7 3c 86 f5 06 bd 49 35 9d bc ba 90 22 3c
       0.02632445 -0.032948993 -0.019190447 0.009922201
0001d0 c3 64 f8 3c 1b 2e 18 ba 00 d3 58 bc 57 29 ba bc
       0.030321484 -0.000580521 -0.0132339 -0.02272479
0001e0 82 81 1f bb 25 bd 04 3d b4 87 15 3b 7e 5c 1a bc
       -0.0024338667 0.032406945 0.002281648 -0.009421466
0001f0 25 47 81 bc d2 15 07 bd 18 be ac bc 82 e5 33 3b
       -0.015780995 -0.032979794 -0.021086738 0.002745003
000200 1a 0a 82 bb 35 b0 58 bd 7b c5 9f 3c 51 05 03 3c
       -0.0039684894 -0.05290242 0.019503346 0.007996873
000210 32 a5 33 bc 0d c9 5b 3c f5 5a 1f 3c 96 c6 ac bc
       -0.010964679 0.013414633 0.009726276 -0.021090787
000220 d1 e5 a4 3c ab 12 63 3c a3 54 f4 bc 08 77 2d bb
       0.020129116 0.013859431 -0.029825514 -0.0026468653
000230 de b5 ea bc 67 81 e7 3c 1c ff 49 3d 2d 45 6f b9
       -0.028651174 0.028259946 0.049315557 -0.00022818586
000240 78 37 b7 3c 23 cf 74 3d aa 8d aa 3b 81 89 96 3b
       0.022365317 0.059767853 0.005204876 0.0045940285
000250 86 fd 6a 3d 33 68 39 3c 1d 0f 10 bc e8 9f ba 3c
       0.057370685 0.011316347 -0.008792666 0.022781327
000260 83 f1 0d ba 77 eb 1a 3c 20 30 7e bb dd 5a 1d 3c
       -0.0005414711 0.009455553 -0.003878601 0.009604183
000270 f0 73 6d bc 3d ac 48 3b 61 a6 45 3c 57 d4 10 bc
       -0.014492974 0.003062024 0.012063594 -0.008839688
000280 b1 13 68 3c ef 6a 25 bd 3a 63 93 3d 82 3c 84 ba
       0.014164851 -0.040385183 0.0719666 -0.0010088834
000290 e4 0d 58 bc f4 3b 2b bc 46 24 03 3d f6 b6 90 bc
       -0.0131869055 -0.010451306 0.032017015 -0.017665368
0002a0 87 1c 88 bc 04 0d ae 3a c0 34 d4 3b e5 37 18 bd
       -0.016615165 0.0013279025 0.006476015 -0.03716268
0002b0 e0 ad 70 3c 39 2f 95 3c c4 cf 92 3c b6 eb 16 3d
       0.0146898925 0.018210994 0.017921336 0.036845885
0002c0 d5 88 90 3c 75 71 00 3a 23 a9 3a bc 20 18 63 3d
       0.017643372 0.0004899719 -0.011392864 0.05544293
0002d0 9a bc be ba ab bb 20 bd 96 a5 91 3c 8a 79 25 3c
       -0.0014552057 -0.039241474 0.017779153 0.010099778
0002e0 3d 9c b7 3b 3f 89 59 bc 25 60 6c bb 00 f4 9b 3b
       0.005603342 -0.013277351 -0.0036068049 0.0047593117
0002f0 b8 60 61 bd d2 fc 0a 3d 53 8f 11 bc 39 44 52 3d
       -0.05502388 0.033932514 -0.008884269 0.051334593
000300 33 9b 34 3d 2e 28 f4 ba 3e fa 8b 3a 12 72 c6 3c
       0.044093322 -0.0018627697 0.0010679436 0.024224315
000310 3e 94 c4 3c b3 41 d8 3c f1 ed b5 3b 9b 97 45 bb
       0.023996469 0.026398515 0.0055520465 -0.0030150178
000320 7f 4f 05 bb 5c 63 37 bc 11 5d 4d 3b 0c d4 9b bb
       -0.0020341573 -0.011193123 0.003133599 -0.0047555026
000330 47 4b 90 3c 3e f8 8e bb aa 66 79 3c c8 ac c7 3a
       0.01761402 -0.004363089 0.015222231 0.0015233988
000340 4d f0 69 bd e9 a5 e3 bb 40 d5 bc 3b 24 15 f3 bc
       -0.057113934 -0.0069472683 0.005762726 -0.029673167
000350 15 eb 68 3d 7e 67 f8 bc e2 90 90 bc e5 9f 52 3d
       0.056864817 -0.030322786 -0.01764721 0.05142202
000360 b2 9f da bc 6b a0 50 bc 19 09 a1 3a f7 68 30 bd
       -0.026687477 -0.012733559 0.0012286037 -0.043068852
000370 1b 09 15 3d 04 5a bd 3c 06 f5 90 3a 8f df 54 bb
       0.036385637 0.023114212 0.0011059351 -0.0032481884
000380 7e 0a f8 3b cf b1 23 3d 37 e8 25 bd af 96 56 3c
       0.00756961 0.039964493 -0.04050466 0.013097449
000390 e0 40 ba bb 37 f3 01 3b 55 ae bb 3c d4 da 06 b8
       -0.0056840032 0.0019828805 0.022910276 -3.215189e-05
0003a0 02 1f 16 3d 94 09 9c 3b 11 db 3f bc cc 28 d5 bc
       0.036650665 0.004761884 -0.011709944 -0.02602043
0003b0 22 30 77 3c e3 a7 0b ba d5 90 1e 3c 9c 6c 62 bd
       0.015087159 -0.0005327446 0.009678085 -0.05527936
0003c0 f4 83 70 39 d5 6e ef 3b b8 c3 56 bb 02 2a 08 3d
       0.0002293734 0.0073069134 -0.0032770466 0.033243187
0003d0 d1 32 12 bc 3d 39 b3 bb ab 6b 23 bd a9 af 84 ba
       -0.008923248 -0.00546947 -0.039897602 -0.0010123152
0003e0 3a 4c 17 bc d3 c8 7a 3b e5 34 77 bc 6c 0d 7b bb
       -0.009234482 0.0038266673 -0.015088295 -0.003830756
0003f0 57 ee e3 3c 55 51 18 3d fe 55 29 3c 55 c2 42 3c
       0.02782361 0.03718694 0.010335444 0.011887153

network_body.linear_encoder.seq_layers.0.bias f4 [128]
000000 6a 2a 03 3d af f3 79 bc b9 c7 56 3c 60 44 25 bd
       0.03202287 -0.015255853 0.013109141 -0.04034841
000010 7a ea cc bc e9 39 1e bd 2f 41 af bc 58 a9 22 3c
       -0.02501415 -0.038629446 -0.021393387 0.00992807
000020 af d9 94 3b 4e 72 56 3c df 5e 83 bc 1b 65 98 3b
       0.0045425515 0.013088776 -0.016036449 0.0046507246
000030 54 b5 9a bc c2 1b 99 bc bb 96 9d bc 84 4a 61 bc
       -0.018885292 -0.018689994 -0.019236913 -0.013750676
000040 ca 76 7e 3d b1 9e 90 bc ed a1 56 bc 77 3f aa bb
       0.062125005 -0.017653795 -0.01310013 -0.005195554
000050 a7 a4 ea bc 6d 0c 29 bb 7e 8a 27 bd 31 74 3a bd
       -0.028642965 -0.002579476 -0.04090356 -0.045520965
000060 30 a4 ec 3b fe 06 95 bb 52 3e e5 3b 66 53 f5 bc
       0.007221721 -0.0045479527 0.0069959546 -0.029946994
000070 e9 73 1f bb 1c f3 3f 3c d1 c1 d4 bc 2f d9 89 bc
       -0.0024330562 0.011715677 -0.025971325 -0.016827194
000080 c8 ed 39 bd 33 d3 8d bc a6 05 1e bc 4c b0 c1 3c
       -0.04539278 -0.017312622 -0.009644901 0.023643635
000090 4e 59 88 bc c3 b5 87 bd 76 e3 19 bd 4d d9 07 3d
       -0.016644146 -0.06626465 -0.03757044 0.03316622
0000a0 be 80 17 bd 59 e3 6d bd 7c f3 5d bd 2d 2c 75 bc
       -0.036988012 -0.058078144 -0.054187283 -0.014964146
0000b0 de f4 30 bd f5 e9 08 3c 4d fe 8a bb bd c2 d1 bc
       -0.043202274 0.008356561 -0.004241741 -0.025605554
0000c0 02 ce 83 ba 71 fa 09 3b 27 dc 11 3b 69 e5 39 3c
       -0.0010055902 0.0021053816 0.0022256465 0.0113462
0000d0 8c 47 2f 3d 63 4c d4 3c 18 73 fe bb ed 79 54 3c
       0.04279284 0.02591533 -0.007765185 0.0129685225
0000e0 21 37 46 3c 9d be 17 bc eb e1 4e bc 34 6d 22 bc
       0.012098105 -0.009261754 -0.012627105 -0.009913731
0000f0 fb a6 d8 bb 58 88 b1 3c 2a b8 66 3c a6 18 9e bc
       -0.0066117025 0.02167146 0.014081994 -0.019298863
000100 c8 1b 0e bc 57 c5 a2 bd 0e 4f 35 bd 94 03 11 bd
       -0.008673616 -0.07947796 -0.044264846 -0.035403803
000110 22 fb 65 bc 01 6b 9f 3c b5 79 17 bc 8f 27 73 3c
       -0.0140369255 0.019460203 -0.009245326 0.0148409745
000120 23 d9 dc 3a 1c 53 83 3c 8f dd d9 3b 13 b7 0e bd
       0.001684938 0.01603084 0.0066487263 -0.034842562
000130 36 86 ad 3c b6 7d 7c bb 46 27 96 3c 27 e6 be ba
       0.02118216 -0.0038527078 0.018329274 -0.001456444
000140 f9 e8 ae bc ad 3f d5 3b 78 62 88 bc 86 ea 54 bd
       -0.021351324 0.006507835 -0.016648516 -0.05198147
000150 c9 11 45 3c 5c 17 87 3c 7f 31 0c bd 83 03 88 ba
       0.012028166 0.01649063 -0.03422689 -0.0010377023
000160 bb 99 e3 bc cd 02 0a 3d bc 14 a2 bc ba c1 b9 ba
       -0.027783265 0.033694077 -0.019785278 -0.0014172115
000170 67 68 22 bd dc 90 6f bb 3d 59 ae bb 84 f4 2b bd
       -0.039650347 -0.0036554849 -0.0053206966 -0.041981235
000180 39 37 c4 bc b7 a0 8d 3c 91 a4 81 3b dd 17 ad bc
       -0.023952113 0.017288549 0.0039563854 -0.021129543
000190 85 81 cd bc 10 26 1a bd 60 09 2a bd 58 f6 72 3c
       -0.025086174 -0.037633955 -0.041512847 0.014829241
0001a0 a9 ae 19 bd f5 ef 34 3c f9 3f 3f bc 7f 04 2e 3d
       -0.037520085 0.011043538 -0.011672967 0.042484757
0001b0 09 c2 44 3b f3 f5 97 bc 98 7e d2 bc 15 3a a8 3c
       0.003002288 -0.018549895 -0.02569513 0.020535508
0001c0 fa 05 6e bd b6 4b d1 bc 3d d9 4a bc ca c0 51 bc
       -0.05811117 -0.025548797 -0.012380895 -0.012802312
0001d0 87 73 d2 bc f8 72 8f bc 7a 97 96 3c eb fb 3f bb
       -0.025689853 -0.017510876 0.018382777 -0.0029294442
0001e0 8a 86 9e bc 97 a5 ed 39 aa 03 b8 bb 1d f3 28 bb
       -0.019351263 0.00045327537 -0.005615671 -0.0025779672
0001f0 dd 3e d4 3c 41 08 6e 3b de e5 40 bd 23 22 f8 3c
       0.025908882 0.0036320838 -0.04709422 0.030289715

network_body.linear_encoder.seq_layers.0.weight f4 [128, 77]
000000 37 e7 57 bc b7 80 26 bd 61 2b 05 3d dd b1 79 3e
       -0.0131776845 -0.040650096 0.032512072 0.24384256
000010 8c c5 41 3e ed ef f3 3a 2e c3 80 3d a5 c7 b0 3d
       0.18923014 0.0018610932 0.062872276 0.08631829
000020 56 b8 52 3d 7d 87 0a bc 67 f6 e1 bc 57 e5 8e 3e
       0.051445328 -0.0084551545 -0.027583314 0.27909347
000030 65 03 2c 3d 96 00 02 3d 54 ed ba bd 48 19 0d 3e
       0.041995425 0.03173884 -0.09127298 0.13779175
000040 27 af 82 bd ea da 8a bd ac 73 46 bd 38 3c 18 3e
       -0.06381064 -0.06780036 -0.048450157 0.14866722
000050 47 9d 2a be 61 5e 82 3d a6 19 60 3e 22 93 d2 bc
       -0.16661559 0.063656576 0.21884784 -0.025704924
000060 49 27 be bd 39 90 0b 3d 2b 08 76 be c4 f3 2c 3a
       -0.09284837 0.03407309 -0.24026553 0.0006597603
000070 c7 9d ae bd fb 1b 95 bd 54 4e e5 bd aa e2 10 be
       -0.085261874 -0.072807275 -0.111965805 -0.14148965
000080 d8 ff 4b bc e5 5c ce 3c 08 ef 05 3e 8e 0f 66 3d
       -0.012451135 0.02519078 0.13079464 0.056167178
000090 a5 cc 3f bd 5d 82 93 be 4f 84 f9 bd c7 dd 90 be
       -0.046826024 -0.28810397 -0.12183439 -0.28294203
0000a0 8f 97 cb 3c bf 4c 96 bd e6 d6 11 be 42 65 a7 bb
       0.024852542 -0.07338857 -0.14242133 -0.0051085064
0000b0 03 0d f6 bd 7a ff 8b 3d 0b c3 ca bc 50 55 1c be
       -0.120142005 0.06835838 -0.024751207 -0.15266919
0000c0 4c 38 4d 3e c1 a1 35 3c 2a 3f a1 bb d7 f7 a6 3d
       0.20041007 0.011085928 -0.00492086 0.081527404
0000d0 66 46 a1 bd 94 1e 2e 3e 14 38 3e 3d 10 6e 70 be
       -0.078747556 0.17003852 0.0464402 -0.23479486
0000e0 71 83 d3 3d 1b 4b 46 3e a1 77 0f bd bc 99 0d 3e
       0.10327805 0.19364588 -0.035026196 0.13828176
0000f0 91 97 46 be ed 2f da 3d 04 0a 03 be 95 58 93 bd
       -0.19393755 0.10653672 -0.1279679 -0.0719463
000100 68 43 11 3e 15 15 d4 3d e1 77 46 3c a0 fc 48 bd
       0.1418587 0.103555836 0.012113542 -0.049069047
000110 51 13 85 bd fd 7c 6a 3d 89 f5 16 be 27 af ad bd
       -0.06497825 0.057248104 -0.14742102 -0.08480673
000120 89 52 b7 bb d3 60 1f 3d 31 2c 96 bb ac 9c 92 3d
       -0.0055945558 0.0389107 -0.0045829047 0.07158789
000130 cb 0e 1c 3e 48 81 06 be 26 0b 7f 3d 04 d1 97 bd
       0.15240018 -0.13135254 0.06226649 -0.074129134
000140 05 fb f5 3d 96 a4 28 be 31 9d 61 3c 3a 15 2f 3d
       0.12010769 -0.16469035 0.0137703875 0.042744853
000150 e0 f6 87 3e 6f f2 5e bd d5 cb 43 bd 8a ae b2 3d
       0.26555538 -0.05443042 -0.04780181 0.08724697
000160 74 a9 26 bb 36 65 0c 3c c5 fa ad bd 50 1c a3 3d
       -0.0025430592 0.008569052 -0.08495096 0.079643846
000170 0b 68 df bd 9a b0 d7 bd 75 42 ca 3c f1 ad 8c 3d
       -0.109085165 -0.10531731 0.024689892 0.06869114
000180 d7 54 87 bd 84 1c 99 bb 14 a5 22 be 81 0e 87 3a
       -0.06607979 -0.004672589 -0.15883285 0.0010304005
000190 74 7d 44 3c 46 86 01 3d 2b 7a 69 3e 9a 3d 02 bd
       0.011992801 0.031622194 0.2280051 -0.03179703
0001a0 1b 3c c3 bd d6 ed 1e 3e 18 d4 f9 bc 62 31 49 3e
       -0.095329486 0.15520415 -0.030496642 0.19647744
0001b0 07 02 42 3d 56 fd 9d 3e 4c e6 ca bd 27 dc 52 3c
       0.047365215 0.30857342 -0.09907207 0.012869871
0001c0 ea f6 a2 3d 4e dd dd 3d 30 ac d3 3c 7d 3f 26 3c
       0.07957251 0.10833226 0.025838941 0.010146973
0001d0 2b 4f 60 be d6 57 16 bd d6 be c7 bd 2c 70 2b 3e
       -0.219052 -0.03670486 -0.09753196 0.16742009
0001e0 8b 95 98 3d 91 31 af 3d d1 ce 1d 3e 47 5e 28 bd
       0.07450398 0.08554376 0.15410925 -0.041105535
0001f0 14 a7 ad bd 86 94 8b bd ab 77 24 3c c7 d5 af 3d
       -0.08479133 -0.06815438 0.010038297 0.08585697
000200 c1 53 17 bd 99 73 90 3d 17 92 93 3d 9d e5 2c be
       -0.03694511 0.070532985 0.07205599 -0.16884466
000210 39 06 a6 bd 5c 18 f3 bc 64 91 93 3d bc 8a e7 3b
       -0.08106656 -0.029674701 0.072054654 0.007066099
000220 63 b3 e7 bd d4 c9 15 bc 6e 8b 62 3c 91 fb 54 3d
       -0.11313512 -0.009142358 0.013827188 0.051997725
000230 71 8a b5 3d 64 74 a1 bd 44 39 01 3c e5 e1 33 3e
       0.08864296 -0.07883528 0.007887188 0.1756664
000240 d5 03 fd 3d bb 7d 27 bd 80 3f 5b 3d 7c 91 2a 3c
       0.123542465 -0.04089139 0.053527355 0.010410663
000250 01 73 ca bc 1b c7 00 bd e8 c1 30 bd 8b 69 22 bc
       -0.024713041 -0.03143988 -0.043153673 -0.009912859
000260 20 9a 95 bd bd a3 2c 3e 12 9e a1 be 8d a8 81 3e
       -0.07304788 0.16859336 -0.3156591 0.25323907
000270 61 6c e0 bd 0d ef 8d 38 82 9b 4a 3d b6 db f6 bd
       -0.10958172 6.7679306e-05 0.04946471 -0.12053625
000280 8a a5 aa 3d 3e 98 29 bb 5e cc 91 bd 81 22 b5 bc
       0.08332355 -0.0025878097 -0.07119058 -0.02211118
000290 15 10 6a bc 0f 07 0c 3c be 8c 9d 3d db 3d 28 bd
       -0.014286061 0.008546605 0.0769286 -0.041074615
0002a0 c3 57 ef bc 04 bd 11 be c2 3d 9e 3d f9 a8 37 3e
       -0.029216653 -0.1423226 0.07726623 0.17935552
0002b0 22 70 cf bd 9f c4 16 be 74 a4 e5 bd a3 e1 68 3d
       -0.101288095 -0.14723442 -0.112130076 0.05685581
0002c0 4b 3f 15 3e 77 6f bb bd fc f8 e4 bd 75 25 6a bd
       0.14574926 -0.091521196 -0.111803025 -0.057164628
0002d0 64 7a 39 3d ab 7d 88 3e 8b 95 62 3d 89 13 78 3d
       0.045282736 0.26658377 0.055318397 0.060565505
0002e0 b3 fe 0c 3e 04 52 9e 3d 01 38 2c 3e 68 5a 08 be
       0.13769035 0.07730487 0.16818239 -0.13315737
0002f0 50 89 c4 3d 22 d2 14 3e a1 7c 1b be e0 1f a0 bd
       0.09596503 0.14533284 -0.15184261 -0.0781858
000300 ff d2 b5 3d 70 e9 70 bd ee 56 64 bc ef 3a c1 bd
       0.08878135 -0.058816373 -0.013936741 -0.09435069
000310 13 73 5a be 2c 7d 76 3e 11 b8 93 bd 51 11 71 3c
       -0.2133296 0.24071187 -0.07212842 0.014713601
000320 17 c9 64 be fe fc b0 bd b6 b8 f3 3d 5d bf d7 bd
       -0.22342335 -0.086420044 0.11900465 -0.105345465
000330 eb 7e c2 bd 45 7e b5 3e 88 a8 91 3d 0f 98 4c bd
       -0.09496864 0.35447899 0.07112223 -0.049949702
000340 2a 04 44 bc d8 c6 2f bd 19 c7 b2 3d 0a b6 6e bd
       -0.011963883 -0.04291424 0.08729381 -0.058279075
000350 ba 06 42 bd db 52 34 bb 02 1e d6 3d e0 9c 1a 3d
       -0.047369696 -0.0027515206 0.10454942 0.037747264
000360 e7 37 fa 3c 7e 88 f5 3d 61 ee 7f bd 9a 71 ac be
       0.030544234 0.119889244 -0.062483195 -0.3368042
000370 d8 de 08 3e 7f 9e 51 3c c5 6f 9e 3d 25 9c a2 3d
       0.13366258 0.012794136 0.07736162 0.079399385
000380 e1 72 b5 3d 54 7d 9a 3e 57 01 47 3d 8e 0c 47 bc
       0.08859802 0.30173743 0.048585262 -0.012148989
000390 48 7c 2f 3d 44 bd d8 3b 1c ea 55 bd f9 b5 4f bd
       0.042843133 0.006614359 -0.052225217 -0.050710652
0003a0 7f b4 b2 3d 1f 85 c4 bd b8 2c a4 be e3 cc 1e bd
       0.08725833 -0.09595703 -0.32065368 -0.038769614
0003b0 93 38 aa bd ef 2f 04 be 0f ca 8a be 9c 5b 35 be
       -0.08311572 -0.1290891 -0.27107283 -0.17710727
0003c0 54 a2 89 3d e5 1f 83 3d 93 cf 17 be aa 56 ec 3d
       0.06720415 0.06402568 -0.14825277 0.11539967
0003d0 9b 09 b9 3d 2c 60 84 3e a1 b1 a1 3d eb 30 77 3e
       0.09035035 0.25854623 0.07895208 0.24139754
0003e0 32 d0 84 be 36 ae 3a be ed 4a ae 3d 6c 46 6e 3d
       -0.2594009 -0.18230519 0.08510385 0.05817263
0003f0 37 0f e2 bc 82 ec 12 be 64 a2 e0 3c 98 18 8a 3e
       -0.027595146 -0.14348033 0.027421184 0.2697189

network_body.linear_encoder.seq_layers.2.bias f4 [128]
000000 4b e5 ce 3a cc e4 e8 bc 58 5e 0e 3c 63 d0 2a bc
       0.0015784887 -0.028429411 0.0086894855 -0.01042566
000010 ca a7 9c bb fc bd 04 bc a5 ef 87 3a 4e 5e 3f 3a
       -0.004780744 -0.008101936 0.0010371102 0.0007300124
000020 b8 03 80 bc f8 e8 ae 3b a2 e4 7c bc 05 43 7e bc
       -0.015626773 0.0053378306 -0.01543537 -0.015518908
000030 45 bd 1d bb f8 aa 0f 3b 75 94 3f 3c cd e9 c6 bb
       -0.0024069112 0.0021921974 0.01169311 -0.0060703517
000040 c6 5f 09 3d dc b7 32 bb ef b6 9b bb 47 b1 ff bc
       0.033538602 -0.0027270233 -0.004752032 -0.031212462
000050 64 66 40 bc dc a1 a0 bc 31 72 54 3c 6f 6e 94 3c
       -0.011743162 -0.01960843 0.0129666785 0.018119065
000060 6a 94 08 bd ef eb bd bc ec 7e f2 bc 11 87 62 3b
       -0.033344664 -0.023183791 -0.029601537 0.003456537
000070 0b 8b 91 bc e0 e4 4a bc 07 8e cb bb 91 f2 7b bd
       -0.017766496 -0.01238367 -0.0062119993 -0.061510626
000080 8d 07 8c bc ac 0b b0 bc c6 26 0a bb fd dd 74 bc
       -0.017093444 -0.02148994 -0.002108024 -0.014945504
000090 04 5d 89 3b ba bd 09 3b eb 6d fd bb d7 60 fc bc
       0.0041919965 0.0021017627 -0.0077340505 -0.030807896
0000a0 87 c2 b6 bc 0f c0 6f bc 99 dc bd 3b 60 9e a5 bc
       -0.022309555 -0.014633193 0.0057941196 -0.02021712
0000b0 8c e8 da 3b a3 49 6b bc 21 0e 7b bc d8 e2 90 bc
       0.006680554 -0.014360818 -0.015323193 -0.017686293
0000c0 93 98 91 3c 74 45 27 bd 19 27 ea bc 02 21 58 3c
       0.017772948 -0.04083772 -0.028583096 0.013191463
0000d0 1f 0e 2a bc 53 c0 31 bd a0 0d f0 bc 5a ec 0c 3c
       -0.010379343 -0.043396305 -0.029303372 0.0086012725
0000e0 6a 06 69 bc be e8 47 bc c0 05 2b bd 2f eb da bc
       -0.014222721 -0.012201486 -0.04175353 -0.026723472
0000f0 bf 33 a4 bc fd 12 84 bc a8 95 f2 bb 32 00 f0 bb
       -0.020044206 -0.016122336 -0.0074030943 -0.007324242
000100 f1 58 77 bc 1f 5e 95 bc 12 9c e1 3c 95 36 1f 3b
       -0.015096889 -0.018233357 0.02754024 0.0024294008
000110 3a 34 29 3c 6f 31 b2 3b 3a 45 a7 bc 14 87 7b bc
       0.010327393 0.005438022 -0.020418752 -0.015352029
000120 de f1 2c bb 67 eb 32 bd 13 28 59 bb 01 7b 05 b8
       -0.0026389281 -0.04368153 -0.0033135458 -3.1824227e-05
000130 16 81 cc 3c 32 4c 28 bc d5 29 4d bb e6 47 a6 bc
       0.024963897 -0.010272073 -0.0031305451 -0.020297956
000140 41 33 d0 bc 5f a6 10 bd 48 3e 5f bc 48 09 0c bd
       -0.025415065 -0.035314914 -0.013625689 -0.03418854
000150 83 fb 0d bb 14 94 8b bc 8c 25 43 3c ee 61 74 3b
       -0.0021664805 -0.017038383 0.011910807 0.0037289816
000160 c1 9b aa bc 58 1a d1 bc a4 f8 77 bc 6f 09 1a bd
       -0.020826222 -0.025525257 -0.015134964 -0.037606653
000170 3d c3 93 3c 6f 27 81 3c cc 62 95 3c 2f c9 4c bc
       0.018037433 0.015765874 0.018235587 -0.012499138
000180 be d2 14 b9 f2 35 da 3b e8 80 8d bc f1 cd b2 bc
       -0.00014192887 0.006659263 -0.017273381 -0.021826716
000190 3d 1d 8a 3b 7f ec 15 3c 4c be 16 bd b9 1d 82 3b
       0.0042149113 0.009150623 -0.036802575 0.0039708284
0001a0 db 9c f6 bb 8b 55 f7 bc f8 d8 74 bc c7 ed 2a bd
       -0.007526023 -0.030192157 -0.0149443075 -0.04173067
0001b0 67 ad 18 3b fa c3 96 bc 60 56 62 bc 9f 21 6d bc
       0.0023296715 -0.018403996 -0.013814539 -0.014473348
0001c0 93 4f fd 3b 72 4d bf 3b ae b4 49 3c 1b 04 cc bc
       0.0077304333 0.0058380896 0.012311144 -0.024904301
0001d0 91 1d a6 bc 3a ef 33 3c 9d 45 32 bc 6e 0c 92 bc
       -0.02027777 0.010982329 -0.010880855 -0.017828193
0001e0 e9 bb 7f bc 15 b3 88 bc 4b 59 01 bc 71 09 7b 3b
       -0.015608766 -0.016686955 -0.007894824 0.0038305188
0001f0 32 69 6f 3c 4d 5d 34 3c 64 63 7f bc 8d 2d 56 bb
       0.014612483 0.011008573 -0.015587661 -0.003268096

network_body.linear_encoder.seq_layers.2.weight f4 [128, 128]
000000 01 c0 0c 3d a4 9c bc 3c c3 51 96 bd 9d b8 b8 3c
       0.034362797 0.02302391 -0.073398136 0.022548968
000010 9d 90 e7 3d 1d cf 9f bd 49 67 16 bd 7c 9f 1c 3d
       0.1130688 -0.078031756 -0.036719594 0.038238034
000020 4d 16 3e 3e 47 72 1d 3e 6b 23 c9 bb b0 a3 b1 bd
       0.18563195 0.15375625 -0.0061382554 -0.08673799
000030 8b 48 5c 3d 9a 9b b2 3c 6c c5 b8 bc 25 30 f4 bc
       0.05378012 0.021802712 -0.022555076 -0.029808113
000040 80 38 ba bc e4 47 65 3d e0 c6 02 bd 62 33 5d be
       -0.02273202 0.055976763 -0.031927943 -0.21601632
000050 86 68 b4 3b e0 0d 20 3c a2 7b b6 bd d2 5d 8b 3d
       0.005505624 0.009768933 -0.089103 0.06805004
000060 57 1a 05 be 9f a4 91 3d 79 04 43 bd 7c 6a 90 bc
       -0.12998329 0.07111477 -0.047611687 -0.0176289
000070 e1 e4 20 bd 03 c5 a7 ba 42 e8 f7 3d 63 56 9b 3e
       -0.039280776 -0.0012799803 0.121048465 0.30339345
000080 b5 e6 5a 3e 34 11 17 be 18 8e d5 3d 12 bd 53 3c
       0.2137707 -0.14752656 0.10427493 0.012923496
000090 c2 2f 84 3e 7b 84 06 be b9 ff 76 bd 8c 88 69 3d
       0.25817686 -0.13136475 -0.06030247 0.057014987
0000a0 35 e7 59 3c 40 15 d5 3c bb 54 f7 3c a3 99 cb 3d
       0.013299753 0.02601111 0.03019177 0.09941413
0000b0 80 b6 70 bd bf 2c fa bc 0b 53 d5 3d a5 31 0a bd
       -0.058767796 -0.030538915 0.1041623 -0.03373875
0000c0 5a 03 66 bd 58 4d 80 3d 2e 93 b4 3d 1e c0 40 3d
       -0.05615554 0.06264752 0.08817135 0.047058217
0000d0 cd 96 37 be 74 aa be bd 45 ec 5d 3d 49 ff 83 bd
       -0.1792862 -0.09309855 0.054180402 -0.06445176
0000e0 5a 18 e8 3d 60 55 d2 bd 31 a9 13 3e 8c 9c 98 3d
       0.1133277 -0.1027019 0.1442001 0.07451734
0000f0 84 da b9 3d 31 65 1c 3d ad b2 7c bb 96 0b 00 3e
       0.09074882 0.03818244 -0.0038558648 0.1250442
000100 c3 5c a1 bd bd 0a 1b 3c a1 ba 54 bb b5 a9 71 be
       -0.07879021 0.009463009 -0.0032459872 -0.23599894
000110 49 20 8a 3d 4e 49 9b bc 59 08 0d be 44 c8 81 bd
       0.06744439 -0.018955853 -0.13772716 -0.06337026
000120 57 1a 51 bd 77 f9 b5 3d ed f8 a4 3d 44 32 58 3d
       -0.05105051 0.08885472 0.08055291 0.052782312
000130 d7 8a b4 3d 32 b1 57 bd 09 1e a9 bd e5 8e ce 3d
       0.08815544 -0.05265922 -0.08257682 0.10085849
000140 ff dd 00 3e 74 2e 4b be 7b 2d 32 bd cc 08 8b bd
       0.12584685 -0.19841939 -0.043500405 -0.06788787
000150 72 ca 65 bc 18 8e 86 bd 2e b8 2e be 63 5e 31 bd
       -0.0140253175 -0.06570071 -0.17062446 -0.043302905
000160 27 26 a5 bc 4a a8 b3 bd 7b 52 7f 3d 3e c1 c8 3d
       -0.020159794 -0.08772333 0.06233452 0.09802483
000170 0d 59 0d bd 3b 0c 11 3c 52 a1 cc 3b 70 ad 3b 3d
       -0.034508754 0.008853014 0.006244817 0.0458197
000180 6c 43 cd 3c 8c 5f 85 3d 2a 51 ba 3d f0 3d 2d bb
       0.025056563 0.06512365 0.09097512 -0.0026434623
000190 8f 1f 07 3d c6 18 0c 3e d1 8c d1 bb 6c 8e 06 be
       0.03298908 0.13681325 -0.0063949605 -0.13140267
0001a0 90 8f 03 3c 12 f3 5a 3b 38 d4 0f 3e 9d bf f7 bd
       0.008029833 0.0033409041 0.14045799 -0.12097094
0001b0 b4 f6 c3 bd c1 38 98 bd fc 48 03 be 5d 97 0e bd
       -0.09568539 -0.074327 -0.1282081 -0.03481232
0001c0 ae 92 13 bd e1 3e 97 bd 9b 51 51 3d 8a 71 bc 3d
       -0.036028557 -0.0738504 0.051103216 0.09201343
0001d0 e5 26 b6 bd 58 e7 ed bd a2 0e 9e 3d 39 59 39 be
       -0.08894137 -0.11616391 0.07717635 -0.18100442
0001e0 01 3b 40 bd 25 07 ea 3d 79 a9 18 be 70 91 0d 3c
       -0.04693127 0.11427144 -0.14908399 0.008640632
0001f0 1b a1 8e bd 6a b8 02 3d 8f ea a6 3d c6 b8 1f 3d
       -0.06964322 0.031914152 0.08150207 0.038994573
000200 51 09 90 bd bf 96 ea bd d2 7d c1 bd 0e fd 17 bd
       -0.07033027 -0.11454534 -0.094478264 -0.037106566
000210 d0 15 84 bc c2 68 7d 3d c8 89 7d 3d b7 1c 1c 3d
       -0.016123682 0.061867483 0.061898977 0.038113322
000220 6b 02 6a bd 20 b4 ba bd a7 16 2e bd 68 48 fa 3d
       -0.057131212 -0.09116387 -0.04250207 0.12220842
000230 96 4d 8f bd 63 a0 e9 bb d0 07 7a 3d 8d d2 ce 3b
       -0.0699722 -0.0071297153 0.061042607 0.0063117207
000240 b9 68 71 bd d8 9b 7d bd a3 0e 28 bd f4 8f 09 3e
       -0.058937762 -0.061916202 -0.041029584 0.1343382
000250 8f 7c b3 3d 93 86 84 3c b1 37 0d 3b 50 8b 27 bc
       0.08763992 0.016177451 0.0021548087 -0.010226086
000260 da 64 28 3e b1 bb 27 bd cf 89 04 be 0f c1 da 3d
       0.16444722 -0.04095048 -0.12943195 0.10681354
000270 0c 4b 06 be d1 71 24 3d 51 8d 6e 3c 0b 5d 00 3d
       -0.13114566 0.040147606 0.01456006 0.031338733
000280 d2 cd 58 3e c3 99 16 3d 0b ff 86 bd e5 ff de 3d
       0.21172264 0.036767732 -0.06591614 0.10888652
000290 0d cd aa bd ba f4 da bd 7b 58 b8 3d 4b 11 de bd
       -0.083398916 -0.10691209 0.09001251 -0.10843142
0002a0 ec a0 9d 3b 27 a6 e5 bd e8 58 27 be d3 e8 e0 bd
       0.004810443 -0.11213332 -0.16342509 -0.10981908
0002b0 8c f2 35 3e 4e 70 64 bd 45 91 88 bc 33 fe 27 bd
       0.17768306 -0.055771165 -0.016670832 -0.041013908
0002c0 f8 94 d9 3d c4 99 11 3d 47 0e 17 be 8b 1e 1e bb
       0.10624117 0.035547033 -0.1475154 -0.0024127092
0002d0 3f 4e 53 be 3e 3a c8 bd da 42 ac 3d 0a 95 84 3d
       -0.20635317 -0.09776734 0.084111884 0.064737394
0002e0 0a 4d b2 bc d1 35 79 bd e1 65 e2 bd 47 cc 8a 3d
       -0.02176525 -0.06084234 -0.11054588 0.06777244
0002f0 54 f2 a4 3d a8 10 b4 bd f4 19 56 bd 66 78 94 bd
       0.08054033 -0.087922394 -0.052270845 -0.07249527
000300 2a 89 8b 3d d6 b2 31 3c bc e5 79 3d 42 31 0c 3e
       0.06813271 0.0108458605 0.061010107 0.13690665
000310 4b 01 ba 3d 14 0f 2d bd a9 03 86 3b ce fc 39 3e
       0.09082278 -0.042250708 0.004089792 0.18162844
000320 f0 82 13 bc ad 5d e1 bc 61 6a f5 bd d5 73 cd 3c
       -0.009003386 -0.027510488 -0.11983181 0.025079647
000330 5a 1f cc 3d 9b b1 88 bd fe 6c fa 3c 94 92 5c 3d
       0.09966917 -0.066745006 0.03056955 0.053850725
000340 ad 3e 90 bd 4a 69 5b bd 1d 61 09 bd 66 ae 4b 3c
       -0.070432045 -0.05356721 -0.03353988 0.012431717
000350 33 cc 2f 3d d1 a6 69 3e c0 f6 ce 3d 37 b9 0a be
       0.04291935 0.22817542 0.101056576 -0.13547216
000360 07 36 9a bd 09 3f 91 bd 09 69 03 3e a9 98 02 be
       -0.07529836 -0.07092101 0.12833036 -0.12753548
000370 33 5e 6a 3e 0a 35 e3 3c 6f 32 29 b8 1e bc 02 3d
       0.22887497 0.027735252 -4.033971e-05 0.031917684
000380 59 54 c9 3d 48 41 a0 3b 04 bf 98 3b 99 cd fa 3d
       0.09830541 0.0048905946 0.0046614427 0.12246246
000390 b1 3d 3d 3e 51 6d 46 3d 5a 36 95 3c fd b1 1d ba
       0.18480565 0.048444096 0.018214393 -0.0006015597
0003a0 b2 20 b2 3c 7b d8 33 be ff 2d ee bd f2 75 b3 3d
       0.021744106 -0.1756305 -0.11629867 0.08762731
0003b0 fc 22 ea 3c 23 cd 1b 3e d9 d4 93 3d d5 94 27 bd
       0.028581135 0.15214972 0.07218332 -0.04091342
0003c0 e6 a9 74 3b 32 1c 11 3d 77 8d 56 3e f5 0b 30 3d
       0.0037332713 0.03542728 0.20952402 0.042980153
0003d0 2f 45 90 bd c9 b7 ce 3d b8 d4 6e bc 94 8a 93 bd
       -0.07044446 0.10093648 -0.014577083 -0.07204166
0003e0 a0 ed d9 bd 04 68 e4 3d 43 ab 1e 3d 0e 86 57 bd
       -0.106410265 0.11152652 0.038737547 -0.05261808
0003f0 ac 64 68 3d fd d6 61 3d 50 70 12 bd 22 d3 78 3c
       0.056736633 0.05513667 -0.03575164 0.015187057
