Learning/results/test11/KartAgent/KartAgent-349992.onnx (onnx, 108737 bytes, 7 tensors)

41 f4 [1, 2]
000000 a5 46 08 bd b5 a3 d9 bc
       -0.033270497 -0.02656732

distribution.mu.bias f4 [2]
000000 81 36 d3 bb b2 9a 6e 3c
       -0.0064457064 0.014563249

distribution.mu.weight f4 [2, 128]
000000 c4 4d e3 bc 2b 0d fc 3c 90 b9 c3 39 cd 9d 8a bc
       -0.027747042 0.030767998 0.00037331553 -0.016920948
000010 96 2d e6 bc f5 cd e1 bb 33 20 dc bc 2d eb 77 bb
       -0.028097909 -0.006891007 -0.026870823 -0.0037829385
000020 68 cd e1 bb 64 22 de bc 6e f9 93 bc 57 75 d0 3b
       -0.0068909414 -0.027116008 -0.018063273 0.0063616442
000030 11 00 bb 3c 35 46 ce bb bc fb 10 bd e1 a6 de bb
       0.02282718 -0.0062949904 -0.035396323 -0.006794796
000040 54 c7 0f bc e9 86 b9 3c 9c 30 80 bc 71 99 2b bc
       -0.008775551 0.022647338 -0.015648179 -0.010473595
000050 b9 cd 6e 3c 9a 5c a7 bb 46 a2 fb b9 6b 15 ab bb
       0.014575415 -0.0051074745 -0.00047995354 -0.005221059
000060 1d 2b 5d bc 20 b8 32 bc 2d ad c6 bb a5 10 31 bc
       -0.013499049 -0.010908157 -0.0060631246 -0.010807191
000070 67 56 81 bc e3 ec af bb aa 7a cf bc b8 31 62 3c
       -0.01578827 -0.0053688153 -0.025327045 0.013805799
000080 18 f2 e3 bb 8f 37 88 bc b4 c5 75 3c 49 de f6 3b
       -0.00695635 -0.016628055 0.015000749 0.0075338227
000090 68 51 60 bc 7c ca a5 3c d3 c9 b0 bc 21 ca b5 3c
       -0.013691284 0.020238154 -0.021580612 0.02219111
0000a0 57 d5 89 3c 05 7b 45 bc fd 60 a7 bc fc 1a 27 3d
       0.016825361 -0.012053256 -0.02043199 0.04079722
0000b0 4a c8 18 bc 0d 54 41 bc 32 52 4c bb af 57 5a bc
       -0.009325096 -0.011799824 -0.0031176922 -0.013326569
0000c0 d1 d3 ad bb 3b f6 1f 3b 38 aa ca 37 e8 2a fa bb
       -0.0053047915 0.002440824 2.415954e-05 -0.0076345094
0000d0 60 53 96 ba f2 02 92 3b 17 51 12 bc a0 b1 2b bc
       -0.001146894 0.0044559175 -0.008930466 -0.010479361
0000e0 52 01 89 bb 24 7a 86 3c 13 67 46 3b be 2e 06 3c
       -0.0041810656 0.016415663 0.003027384 0.008189855
0000f0 67 28 84 3c 4e 9d c9 bb 74 da a2 3c 41 f2 bc 3c
       0.016132547 -0.0061527854 0.019879557 0.023064734
000100 cf 7d f0 3b 31 43 6e 3b ee bc b0 bc 79 99 52 bc
       0.0073392163 0.0036355967 -0.021574464 -0.012853974
000110 8b 14 b4 bc 9b c5 ce bc 2c 56 49 ba 75 34 1a bc
       -0.021982452 -0.02524071 -0.0007680382 -0.009411921
000120 f3 e7 05 3b 9c 6a 01 bc 74 f6 36 bb b8 45 6d bc
       0.0020432442 -0.007898953 -0.0027917894 -0.014481954
000130 5b aa dd bc b1 86 40 bc 94 df 0c bc 92 ee a6 bc
       -0.02705877 -0.011750863 -0.008598227 -0.020377431
000140 1d d6 aa 3c 10 74 c4 3a ab c4 c1 39 8b 50 ea 3c
       0.02085405 0.0014988203 0.00036958358 0.028602859
000150 de 45 3c bb f7 a0 e8 3b 68 19 43 3c 8d cd 87 3b
       -0.0028728168 0.0070992666 0.011907913 0.0041443766
000160 f8 4f 24 3c 1e 5b bd 3b 61 c4 04 3b 36 7d 04 3d
       0.010028832 0.0057786843 0.0020258653 0.032345973
000170 18 1d 7f bc 25 53 4e bc 0f c7 f1 b9 a9 79 7f 3c
       -0.015570901 -0.012593065 -0.00046115412 0.015592971
000180 08 89 7b bb f6 5b 50 bc 62 cc 4a 3b 07 f3 54 bb
       -0.0038381238 -0.012717238 0.0030944576 -0.0032493488
000190 ec 00 88 39 e6 8c dc bb 55 7b 2a bc 34 fd 43 3c
       0.00025940628 -0.0067306636 -0.010405381 0.011962224
0001a0 64 b3 d8 bb 0d 65 72 bb ad ef 66 3c e7 ad 90 3c
       -0.006613182 -0.00369865 0.014095229 0.017661048
0001b0 6e 77 70 bc d6 07 35 bc 0b cd 38 bc fc ba 82 3c
       -0.014676912 -0.0110492315 -0.011279355 0.015958302
0001c0 1a 85 51 3c cb 19 12 bd be 92 8c 3b 13 6a 83 3b
       0.012788082 -0.03566913 0.004289954 0.0040104478
0001d0 dd 11 89 3c c0 85 3b 3c c0 6b 06 bd 1b 3a ae bc
       0.01673215 0.011445463 -0.032817602 -0.021267941
0001e0 d5 3e a3 3c 5f c6 d6 b9 2d 74 48 3c 74 81 5e 3b
       0.019927422 -0.0004096506 0.01223473 0.0033951672
0001f0 69 ee ac bc de 4f be bc dc 9d ea bb fc 92 f3 bb
       -0.021109777 -0.023231443 -0.0071599316 -0.0074332934
000200 bd a1 ff 3b 05 08 61 bd f1 69 76 3c 6f 25 7e 3c
       0.007801263 -0.05493929 0.015039907 0.015511855
000210 e0 c0 bb bc 69 1a 6b ba 49 43 3b bc 08 c2 9c bb
       -0.022919118 -0.0008968474 -0.011429616 -0.0047838725
000220 e1 18 ac 3b 79 81 30 3c c0 e5 e7 bc fc 62 02 bc
       0.0052519892 0.010773056 -0.028307796 -0.00795817
000230 60 9f 92 bc 59 d9 2e 3d f9 12 6f 3d f1 22 8e 3c
       -0.017898262 0.042687748 0.058367703 0.017350646
000240 4f 97 01 3c 5a 84 5c 3d 1d 14 ad 3a 68 18 1c 3c
       0.00790961 0.053837158 0.0013204847 0.009527303
000250 8f d9 57 3d c5 e5 72 3c 08 c2 bb bc 36 6a 1f 3d
       0.052697714 0.014825289 -0.02291967 0.03891965
000260 36 2d a4 3c ab dc 28 3c 25 67 49 3b 59 14 dd 3b
       0.02004109 0.010306518 0.0030731645 0.0067468104
000270 17 54 00 bd b0 e6 78 3b ce d0 f2 3b 9e 84 05 bc
       -0.031330194 0.0037979297 0.0074101454 -0.008149294
000280 98 e5 be 3b b6 c7 40 bd 8b 84 9d 3d 13 c4 7b 3c
       0.0058257096 -0.04706546 0.07691296 0.015366572
000290 93 86 9f bb 3f c8 c4 3c 66 a8 25 3d 9b a4 4f bb
       -0.0048683374 0.024021266 0.0404438 -0.0031683806
0002a0 2b 1f 46 bc 11 f5 05 bc 0d 26 07 bc 84 f2 ec bc
       -0.012092392 -0.008176104 -0.008248818 -0.028924234
0002b0 81 32 66 bb 7e ff b0 ba de e8 70 3c d2 84 fe 3c
       -0.0035125318 -0.0013503877 0.014703957 0.031069193
0002c0 0e 3a 02 3c 02 03 45 bc 83 5b f0 3a 35 9f 6a 3d
       0.007948412 -0.012024643 0.001833782 0.057280738
0002d0 36 a1 0c 3b 9b 13 56 bd e4 ed 16 3b 77 5f a1 3c
       0.0021458394 -0.05226479 0.0023029977 0.019698841
0002e0 71 7e 87 3c b6 de ac 3c b7 9d 53 bb 0c 56 b8 bc
       0.016539784 0.02110229 -0.003229005 -0.022501968
0002f0 6a 01 7d bd 56 16 d3 3c bc ec af bc 6e ae 54 3d
       -0.061768927 0.025767487 -0.021475188 0.05192416
000300 7e 49 17 3d cf 42 50 3c 49 7f e0 3b c7 c5 ed 3c
       0.036935322 0.012711241 0.006851111 0.029024972
000310 97 fd 77 3c 80 de f3 3c cd e1 37 3b d3 4c 3a 3b
       0.015136144 0.029769182 0.0028058172 0.0028427138
000320 93 47 0d bb f5 26 b5 bb 8a 29 2e 3c d2 de 56 3c
       -0.0021557554 -0.0055283257 0.010630021 0.013114648
000330 34 7d 5c 3b d4 7b 38 bc de a6 f4 ba ab 1f 91 3b
       0.0033643963 -0.011259992 -0.0018665453 0.004428824
000340 f1 77 80 bd 18 80 12 bc 9a cc 2b 3b 9f 75 07 bd
       -0.06272877 -0.008941673 0.0026214481 -0.033071157
000350 26 15 89 3d cb 8e e6 bc ff 68 a7 3b e5 f6 4a 3d
       0.06693487 -0.02814426 0.005108952 0.049551863
000360 74 92 0b bd b2 e2 10 bc d0 cb 63 bc 0d 44 4c bd
       -0.034075215 -0.008843111 -0.013903573 -0.049869586
000370 a0 1d 2b 3d 2b 2d 30 3b b2 18 7f 3b f8 6c a2 ba
       0.0417763 0.002688239 0.0038924632 -0.0012392094
000380 c6 c8 b2 3b 75 71 0e 3d 67 ae 38 bd b3 ea 1f 3b
       0.005456063 0.03477617 -0.045088198 0.0024401366
000390 0f a7 c7 38 ec 9a 71 ba 70 86 5f 3c ef 1c 92 bb
       9.5201765e-05 -0.00092165056 0.013642892 -0.0044590156
0003a0 9f 6f 33 3d 3a 59 8d 3b 09 b9 00 3c 24 0e c6 bc
       0.043807622 0.004313615 0.007856616 -0.024176665
0003b0 5a b5 b5 3c d6 13 62 bc b6 fe 8c 3c 3a 93 8b bd
       0.022181202 -0.013798675 0.0172113 -0.068151906
0003c0 25 b9 95 bb b7 97 3f 3c f4 52 0e 3b f5 63 10 3d
       -0.00456919 0.0116938865 0.0021716924 0.035251576
0003d0 3d 88 80 bc 77 d7 7e bc ca 9e 3f bd 04 ce fe 3b
       -0.015689963 -0.0155543005 -0.046782292 0.007776024
0003e0 c5 c0 bb 3c 92 9d ca 3b a5 b4 1d bc b3 5f d4 3b
       0.022919068 0.0061833346 -0.009625589 0.006481135
0003f0 60 9a ae 3c 2b f4 3a 3d e1 0a 8e 3b b4 94 40 b8
       0.021313846 0.045643013 0.004334793 -4.5914858e-05

network_body.linear_encoder.seq_layers.0.bias f4 [128]
000000 e9 97 d9 3c f7 42 3a bc eb 2c 6c 3c 0a f5 21 bd
       0.026561694 -0.011368505 0.014415006 -0.039540328
000010 ef 95 02 bd 56 32 0a bd ee a0 dc bc e5 de 48 3c
       -0.03188127 -0.03373941 -0.026932206 0.012260173
000020 5d c0 4f 3a 4d 48 4f 3c 87 62 b4 bc 1e 26 44 3c
       0.00079250877 0.012651515 -0.022019638 0.0119719785
000030 81 e1 8d bc f0 e7 a9 bc c1 43 b3 bc c1 86 b2 bc
       -0.017319443 -0.02074048 -0.021882894 -0.021792771
000040 80 f7 54 3d 66 0a e0 bc f9 7a 7c bc 1c 34 91 3b
       0.051993847 -0.027348708 -0.015410178 0.0044312607
000050 b2 ee d0 bc 15 46 6e b9 de 09 32 bd 6d 94 4a bd
       -0.025504444 -0.00022723556 -0.04346644 -0.049457956
000060 68 e5 17 3c ca cc ef bb da c0 cb 3a 5b 6a 0d bd
       0.009271003 -0.007318114 0.0015545145 -0.034525257
000070 2e 63 62 bb d4 35 fd 3b e1 ca a3 bc a3 65 79 bc
       -0.003454398 0.007727364 -0.019994201 -0.015221986
000080 f1 3e 3a bd 9e 16 30 bc 0e ef a6 bc 17 af af 3c
       -0.04547018 -0.01074758 -0.020377662 0.021445794
000090 cc d9 a4 bc 56 99 9d bd c7 f8 20 bd 95 24 fb 3c
       -0.020123385 -0.07695262 -0.039299753 0.030657092
0000a0 35 87 26 bd ec d6 5d bd a3 a6 87 bd c0 22 80 bc
       -0.040656287 -0.054160044 -0.0662358 -0.01564157
0000b0 f1 f3 19 bd 71 b0 87 3b 75 5d 01 bc bf 0b d5 bc
       -0.037586156 0.0041409065 -0.007895817 -0.026006578
0000c0 f2 7f 52 bb 05 02 a2 bb 67 eb 9b b8 4a 0a 4e 3c
       -0.0032119718 -0.0049440884 -7.434823e-05 0.012575695
0000d0 b3 6d 1b 3d 87 3a c6 3c df 83 97 bc 72 bd 02 3c
       0.037946414 0.02419783 -0.018495498 0.007979738
0000e0 5e 11 80 3c e2 52 05 bc e4 20 be bc e6 90 86 bc
       0.015633281 -0.008137437 -0.023209043 -0.016426515
0000f0 4c c1 3d bc 46 f5 96 3c 96 00 79 3c c7 8b 17 bc
       -0.01158173 0.018427502 0.015197894 -0.009249634
000100 3b a9 db bb ff d7 a1 bd f6 79 39 bd 6d 0c 18 bd
       -0.0067035235 -0.07902526 -0.045282327 -0.037121225
000110 c9 56 0b bb 4b d6 1c 3c 48 d0 f5 bb c6 16 4f 3c
       -0.0021261445 0.009572576 -0.0075016357 0.012639707
000120 29 1e 0b b9 dd 1f 49 3c 6e df 03 3b ad 57 25 bd
       -0.00013267309 0.012275663 0.0020122188 -0.040366817
000130 48 f0 bc 3c 6b e8 8b 3a d7 bc ff 3b 7b 12 16 bb
       0.023063794 0.0010674124 0.007804494 -0.0022899199
000140 8a fe 6d bc 37 22 a3 3a 35 74 a4 bc 3b d9 6f bd
       -0.014526019 0.001244611 -0.020074943 -0.058556776
000150 7f dd e4 3b 99 95 da 3c d4 e8 dc bc a5 1a 9b bb
       0.006984412 0.026682662 -0.02696649 -0.004733401
000160 89 71 bb bc e2 d3 04 3d 0d e1 3b bc 1d e3 c0 bb
       -0.022881286 0.03242863 -0.0114672305 -0.005886449
000170 7b 2c 20 bd 46 0b d6 ba 5b 10 86 bc 25 4e 1b bd
       -0.03910492 -0.0016330264 -0.01636522 -0.03791632
000180 26 85 c9 bc bd 94 43 3c 48 65 68 3b f4 08 9a bc
       -0.024599623 0.011937317 0.003546076 -0.018803097
000190 b6 25 b0 bc 6c 2a 14 bd d1 cd 57 bd 16 00 52 3c
       -0.021502357 -0.03617327 -0.052686516 0.012817403
0001a0 ec bd e8 bc 39 d1 23 3c 8c d9 9d bc 9c c0 1f 3d
       -0.028410874 0.009998613 -0.019268773 0.039002046
0001b0 9e c9 94 3b 20 1e 67 bc 08 2f ef bc d4 78 64 3c
       0.004540636 -0.014106303 -0.029197231 0.013944823
0001c0 73 2a 5e bd e7 c9 ae bc cb e9 03 bc be 24 3b bc
       -0.0542397 -0.021336509 -0.008051346 -0.011422334
0001d0 1e bf d1 bc 08 02 6c bc f7 c1 90 3c c6 be 1b bc
       -0.025603827 -0.014404781 0.017670615 -0.009505933
0001e0 7a 17 fc bc af de 4e 3a 9c 95 d1 bb d0 9e f5 bb
       -0.030772913 0.0007891459 -0.0063960087 -0.0074957386
0001f0 ba bc d0 3c 89 cc 18 3c 62 64 2d bd c7 df e6 3c
       0.025480617 0.009326109 -0.04233206 0.028182877

network_body.linear_encoder.seq_layers.0.weight f4 [128, 77]
000000 aa 5a c5 bc c2 b1 ff bc 61 2b 05 3d d0 94 8a 3e
       -0.024091084 -0.031212691 0.032512072 0.2706666
000010 c1 63 3a 3e 33 e7 0a 3c 2e c3 80 3d 88 78 e7 3d
       0.18202116 0.008477974 0.062872276 0.113022864
000020 57 14 3c 3d 98 4b 5d bc 67 f6 e1 bc 3d db 9c 3e
       0.045917835 -0.0135067925 -0.027583314 0.30636016
000030 d2 9e 1e 3d da 6c d8 3c 54 ed ba bd a9 87 26 3e
       0.03872568 0.026419092 -0.09127298 0.16262688
000040 7f e5 80 bd 7b 57 92 bd ac 73 46 bd 00 89 42 3e
       -0.06293773 -0.07145592 -0.048450157 0.18997574
000050 cf d3 45 be c1 dc 96 3d a6 19 60 3e a4 0c 00 bd
       -0.1931908 0.07366324 0.21884784 -0.031262055
000060 f3 64 f6 bd 51 66 2e 3d 2b 08 76 be 9c e5 32 bb
       -0.12030973 0.042578045 -0.24026553 -0.0027297502
000070 4c a4 93 bd 45 58 ae bd 54 4e e5 bd b1 9b 20 be
       -0.072090715 -0.0851293 -0.111965805 -0.15684392
000080 7c 0e 70 bc 66 f2 ab 3c 08 ef 05 3e 71 65 58 3d
       -0.014651891 0.020989608 0.13079464 0.052831117
000090 85 9c 77 bd 9a 79 8f be 4f 84 f9 bd ed 13 9e be
       -0.060452003 -0.28022462 -0.12183439 -0.30874577
0000a0 09 c1 ae 3c fd e7 9b bd e6 d6 11 be 36 58 03 3c
       0.02133228 -0.07612608 -0.14242133 0.008016637
0000b0 0e e5 f8 bd 1d c8 65 3d 0b c3 ca bc a9 eb 39 be
       -0.12153064 0.056099046 -0.024751207 -0.18156303
0000c0 ce 82 5d 3e f8 a3 db b9 2a 3f a1 bb 6a ec ca 3d
       0.2163193 -0.000418931 -0.00492086 0.09908374
0000d0 e1 85 a8 bd b8 d6 2c 3e 14 38 3e 3d be fe 86 be
       -0.082286604 0.16878784 0.0464402 -0.26366228
0000e0 fd 2b f9 3d 1f fc 37 3e a1 77 0f bd 11 96 12 3e
       0.12166593 0.1796727 -0.035026196 0.14315058
0000f0 d0 51 61 be 44 ee e7 3d 04 0a 03 be 43 6b d2 bd
       -0.22003865 0.113247424 -0.1279679 -0.10274365
000100 04 bd 24 3e ab 4c ae 3d e1 77 46 3c d5 f0 6b bd
       0.16087729 0.08510717 0.012113542 -0.057602722
000110 f6 c9 69 bd d2 da 41 3d 89 f5 16 be ec d1 c8 bd
       -0.05707737 0.047327824 -0.14742102 -0.098056644
000120 6f 25 17 3b 46 7d ed 3c 31 2c 96 bb f0 f3 6e 3d
       0.0023063084 0.0289904 -0.0045829047 0.058338106
000130 cb 0e 1c 3e 65 7a 05 be a9 7d 97 3d 04 d1 97 bd
       0.15240018 -0.13034971 0.07397015 -0.074129134
000140 52 67 23 3e ea a7 2b be fd eb fb 3c 3a 15 2f 3d
       0.15957382 -0.16763273 0.030752176 0.042744853
000150 ca be 99 3e b6 99 4c bd 6e 4c 31 bd 8a ae b2 3d
       0.30028373 -0.049951278 -0.04328578 0.08724697
000160 8a bd df 3c e2 03 bc 3c 7c 3f ce bd 50 1c a3 3d
       0.027312059 0.02295107 -0.100707024 0.079643846
000170 c3 78 bb bd 81 fe ce bd c0 2c e9 3c f1 ad 8c 3d
       -0.09153893 -0.101071365 0.028463721 0.06869114
000180 df ba 3b bd c6 f7 58 3c a6 6b 32 be 81 0e 87 3a
       -0.04583251 0.013242668 -0.17423877 0.0010304005
000190 ea 60 18 3c 8e 2b 32 3d b7 fb 61 3e 9a 3d 02 bd
       0.00930045 0.04349857 0.22068678 -0.03179703
0001a0 cf 84 a2 bd ff 97 2e 3e 74 9c 1c bd 62 31 49 3e
       -0.079354875 0.1705017 -0.038235143 0.19647744
0001b0 f3 eb 30 3d 20 50 9e 3e 40 8d c7 bd 27 dc 52 3c
       0.04319377 0.30920506 -0.09743738 0.012869871
0001c0 8e c3 a4 3d 9a 3f d3 3d b5 6c 19 3d 7d 3f 26 3c
       0.080451116 0.103148654 0.037457187 0.010146973
0001d0 2b 63 61 be ae 2a ec bc d4 43 c8 bd 2c 70 2b 3e
       -0.22010486 -0.028828945 -0.09778562 0.16742009
0001e0 89 58 9b 3d 06 fc 9c 3d 74 ca 35 3e 47 5e 28 bd
       0.07585246 0.07665257 0.17753011 -0.041105535
0001f0 21 20 ba bd 74 3b 84 bd c4 f8 93 3c c7 d5 af 3d
       -0.09088159 -0.06456652 0.018062957 0.08585697
000200 8f c8 a2 bc bf 43 81 3d d4 76 f2 3d 9d e5 2c be
       -0.019871024 0.0631175 0.11839071 -0.16884466
000210 9c 31 af bd 9d 68 d2 bc e0 54 a2 3d bc 8a e7 3b
       -0.08554384 -0.02568465 0.07926345 0.007066099
000220 00 74 d4 bd 5e 45 0d 3b 5d 0a 12 bb 91 fb 54 3d
       -0.10373688 0.0021556239 -0.002228401 0.051997725
000230 9d 1f 9b 3d 11 18 8f bd 58 5e 42 3b e5 e1 33 3e
       0.07574389 -0.06987012 0.0029658284 0.1756664
000240 d9 fe f8 3d 07 51 f8 bc 3d de 36 3d 7c 91 2a 3c
       0.12157983 -0.030312074 0.044645537 0.010410663
000250 47 6a 18 bd aa e3 aa bc 2b 23 55 bd 8b 69 22 bc
       -0.03721073 -0.020860512 -0.052035492 -0.009912859
000260 9c 32 af bd bd a3 2c 3e 9c 0a 9f be ca 81 7a 3e
       -0.08554575 0.16859336 -0.31062782 0.24463573
000270 61 6c e0 bd 5d 12 ec 3c 1f 2b 5d 3d 4b 95 03 be
       -0.10958172 0.02881735 0.0539962 -0.1284992
000280 8a a5 aa 3d be f8 b2 3c 57 4d 7f bd e3 fc 15 bd
       0.08332355 0.021847125 -0.062329616 -0.036618125
000290 15 10 6a bc 21 c3 e9 3c c1 86 c6 3d 88 58 97 bd
       -0.014286061 0.028535428 0.09693671 -0.07389933
0002a0 c3 57 ef bc 7d 5c fe bd b3 82 b4 3d 68 32 24 3e
       -0.029216653 -0.124199845 0.088139914 0.16034853
0002b0 22 70 cf bd 2b db 0a be a7 e4 ca bd 62 ea 4f 3d
       -0.101288095 -0.13560168 -0.09906893 0.050760634
0002c0 4b 3f 15 3e 99 98 ae bd f4 fc c6 bd a2 fb af bd
       0.14574926 -0.085251994 -0.09716216 -0.08592917
0002d0 64 7a 39 3d de 7b 8b 3e 3c 3f 42 3d b7 a8 8b 3d
       0.045282736 0.2724294 0.047423586 0.06819289
0002e0 b3 fe 0c 3e 44 07 ab 3d 2f 1b 33 3e b6 2c 1c be
       0.13769035 0.08350995 0.17490838 -0.15251431
0002f0 50 89 c4 3d 0f 0f 0f 3e a4 65 1a be ae 90 a1 bd
       0.09596503 0.13970588 -0.15077835 -0.078889236
000300 ff d2 b5 3d fa c5 5a bd de 09 98 bb bc ab d5 bd
       0.08878135 -0.05341146 -0.004639848 -0.10433146
000310 13 73 5a be 2c 4b 76 3e 77 c9 90 bd 6e fa 78 3c
       -0.2133296 0.24052113 -0.07069676 0.015196426
000320 17 c9 64 be ab d6 b7 bd 93 90 02 3e dc b2 e9 bd
       -0.22342335 -0.089764915 0.12750463 -0.11411068
000330 eb 7e c2 bd cf 48 ba 3e 33 a8 86 3d fa 2a 20 bd
       -0.09496864 0.36383674 0.0657505 -0.039103486
000340 2a 04 44 bc 8e 21 43 bd e4 36 b3 3d b9 4e 32 bd
       -0.011963883 -0.047639422 0.08750704 -0.043532107
000350 ba 06 42 bd cc 3e 24 3b d4 6d d8 3d 88 1f 1d 3d
       -0.047369696 0.0025061844 0.10567823 0.03836015
000360 e7 37 fa 3c 79 77 f4 3d 38 59 83 bd a3 3c a5 be
       0.030544234 0.1193685 -0.064135015 -0.32272825
000370 d8 de 08 3e db ec d3 3b 77 0d a4 3d fb bc 9d 3d
       0.13366258 0.0064674444 0.08010381 0.07702061
000380 e1 72 b5 3d ea 0d 9c 3e 9d 3c 52 3d 85 05 6e bc
       0.08859802 0.30479366 0.051327337 -0.014527683
000390 48 7c 2f 3d 0c 74 1e 3c 1c ea 55 bd d2 15 4b bd
       0.042843133 0.009671222 -0.052225217 -0.049581356
0003a0 a1 d7 b1 3d 1f 85 c4 bd d5 4d b4 be 85 22 12 bd
       0.08683706 -0.09595703 -0.3521563 -0.03567745
0003b0 9b 6a c7 bd ef 2f 04 be c1 5b 9d be b7 dc 33 be
       -0.0973713 -0.1290891 -0.30734065 -0.17564665
0003c0 42 5b 8a 3d e5 1f 83 3d b8 bd 34 be 90 8d ed 3d
       0.06755687 0.06402568 -0.17650497 0.115992665
0003d0 40 1f b5 3d 2c 60 84 3e 0a 18 29 3d 05 d5 75 3e
       0.08843851 0.25854623 0.04128269 0.24007042
0003e0 c9 51 83 be 36 ae 3a be cc 22 6d 3d 0e 72 8b 3d
       -0.25648335 -0.18230519 0.057894513 0.068088636
0003f0 94 2c 09 bd 82 ec 12 be f3 44 b5 3c d5 a0 91 3e
       -0.03348978 -0.14348033 0.022127604 0.28443018

network_body.linear_encoder.seq_layers.2.bias f4 [128]
000000 27 6a ff bb b5 24 da bc 4c fc a5 bb d0 5c b6 bc
       -0.007794637 -0.026628831 -0.0050654765 -0.022261053
000010 7c 14 1c bc 69 dc a4 bb d1 56 be 3b d2 b5 b2 bb
       -0.009526368 -0.0050311578 0.005808689 -0.0054538036
000020 bd 5f d4 bc 81 d5 18 3c 45 a7 99 bc 24 81 9d bc
       -0.025924558 0.009328247 -0.018756518 -0.019226618
000030 85 9b b3 3a e5 98 e5 bb 07 47 c3 3b 0a ea 14 bb
       0.0013702965 -0.007006752 0.005959395 -0.0022722506
000040 1a c3 d0 3c 45 6c b3 bb 0b ec 21 bc 0e 3e c2 bc
       0.025483657 -0.005475553 -0.009882937 -0.02371123
000050 83 82 8a bc 0a 02 e4 bc 0d 8d 0a 3c 54 51 2b 3c
       -0.016907936 -0.027833004 0.008456481 0.010456402
000060 01 2d f2 bc fe 21 e5 bc c7 c8 c6 bc 40 33 ac bb
       -0.029562475 -0.02797031 -0.02426566 -0.005255133
000070 d7 78 39 bc 04 ce 36 bc 53 5d f3 bb c0 83 83 bd
       -0.011320314 -0.011157516 -0.0074268966 -0.06421614
000080 38 12 d7 bc 92 ac 9d bc 41 e8 80 bb 11 4b c4 bc
       -0.026253805 -0.019247327 -0.003933937 -0.023961576
000090 81 a0 b9 b9 c5 41 98 3b cc c1 90 bc 6f 06 f1 bc
       -0.00035405534 0.004646512 -0.017670535 -0.029422013
0000a0 1d 40 ab bc 4f 26 36 bc ba 09 97 3a 5d 30 8d bc
       -0.020904595 -0.011117532 0.0011523284 -0.017234975
0000b0 96 eb ac ba 70 fb 91 bc 3e 9b c6 bc df 75 d5 bc
       -0.0013192769 -0.01782009 -0.024243947 -0.026057182
0000c0 4e af 95 3a cd fa 3c bd 0f 0a ed bc a6 f3 c9 3b
       0.0011420043 -0.04613762 -0.02893546 0.0061630784
0000d0 90 31 0c bc 6e 58 25 bd 6e 11 f7 bc 8c db 41 3b
       -0.0085567385 -0.040367536 -0.030159678 0.0029580323
0000e0 c0 94 6a bc 37 ce 09 bc 75 72 f8 bc 39 96 e5 bc
       -0.014317691 -0.008410982 -0.030328015 -0.028025733
0000f0 0e 77 81 bc b0 ec d8 bc ce f4 09 bc 1d ab 6e bc
       -0.01580384 -0.026480049 -0.008420182 -0.014567164
000100 59 f7 af bc ca ff 4a bc c2 ef a3 3c 7e 3e 11 bc
       -0.02148025 -0.012390086 0.020011786 -0.008864997
000110 44 af 86 bb b2 ac b8 bb 12 2a e5 bc 7c 9c 69 bc
       -0.0041102488 -0.0056358213 -0.027974162 -0.0142585
000120 7a 0e 44 ba cc ce 17 bd e3 eb 27 3c 86 8e b0 3b
       -0.0007478964 -0.03706245 0.010249111 0.005388084
000130 a9 34 9e 3c 23 eb 0e bc 0e be 4f bc a8 a4 92 bc
       0.01931222 -0.008723053 -0.01267959 -0.01790078
000140 a6 29 b9 bc 91 aa 20 bd 2a 1c 28 bc 42 c3 09 bd
       -0.022602867 -0.039225165 -0.010260621 -0.033633478
000150 db 90 c0 bb 5a d6 a3 bc 85 69 45 3c c7 83 3a bb
       -0.005876643 -0.019999672 0.012049084 -0.0028459893
000160 93 e0 aa bc 50 c5 cc bc f6 82 63 bc 12 b8 11 bd
       -0.020859038 -0.02499643 -0.013886204 -0.035575934
000170 62 a8 c1 3b 1c 51 2f 3c 33 22 f6 3b 8d 5c 59 bc
       0.0059099654 0.01070049 0.007511401 -0.013266695
000180 7f 4f 81 bc f3 3a 8e bb 81 75 78 bc 49 87 c5 bc
       -0.015784977 -0.0043405234 -0.015164734 -0.02411236
000190 da 69 74 38 a4 67 40 ba dc 48 3b bd 40 1e 20 3c
       5.8272715e-05 -0.00073396624 -0.04572378 0.009772837
0001a0 ee 28 5c bc 2c 1d cf bc 61 9a 38 3b 29 77 28 bd
       -0.013437493 -0.025282465 0.002816819 -0.041129265
0001b0 df 0b cd bb 89 83 9d bb f5 45 cc bc a8 64 2a bc
       -0.0062575187 -0.00480694 -0.024935702 -0.010399975
0001c0 4e 41 ca 3b 2d 39 38 bb f5 43 c7 3b 51 ee f6 bc
       0.0061723357 -0.0028110251 0.006081099 -0.030142935
0001d0 7b ea ab bc 52 c1 1a 3c 6e f2 88 bb 43 bf c7 bc
       -0.020985832 0.009445505 -0.0041792905 -0.024383193
0001e0 c7 43 b3 bb 85 22 58 bc b1 bf de bb 78 01 ae 3b
       -0.005470726 -0.013191824 -0.0067977537 0.0053102337
0001f0 65 1a ac 3b 56 f2 23 3b 6f 62 e5 bc 15 9e a6 bc
       0.00525217 0.002501627 -0.028001038 -0.020339051

network_body.linear_encoder.seq_layers.2.weight f4 [128, 128]
000000 d4 52 ea 3c e5 95 6d 3c 00 4b 8d bd 49 ad 14 3d
       0.028603949 0.01450107 -0.06899071 0.03629807
000010 da f3 0e 3e 34 33 96 bd 45 2b 11 bd 54 6c 65 3d
       0.1396021 -0.07333985 -0.035441656 0.056011513
000020 ef f0 3c 3e 25 15 ff 3d 03 32 98 bb d1 c8 bb bd
       0.18451284 0.12455205 -0.0046446337 -0.09169162
000030 c2 cb 8d 3d 05 3a de 3c 42 b6 16 bc 67 a3 21 bd
       0.06923629 0.027127275 -0.009198727 -0.039462473
000040 e5 4b ef bc a1 b0 01 3d 6e 91 6b bd 1e 9c 49 be
       -0.029210994 0.031662587 -0.05751174 -0.1968846
000050 ec ea 0f 3c a4 2f ab 3c a4 ad 80 bd f4 ae 8e 3d
       0.008784037 0.02089674 -0.06283119 0.069669634
000060 dc 99 e9 bd 8e 7c b7 3d 98 f0 6b bd 86 d5 5d bc
       -0.114062995 0.08959304 -0.057602495 -0.0135396775
000070 a3 48 d2 bc 03 b3 8c 3c bb ff f5 3d 5b d7 a3 3e
       -0.025669402 0.017175203 0.12011667 0.3200024
000080 e5 de 6f 3e 78 a7 ea bd bf 00 ef 3d c7 3d 1e 3c
       0.23424871 -0.114577234 0.11670064 0.009658284
000090 b3 f0 76 3e ef 8a 26 be 9b 4a 3c bd 6e f2 8d 3d
       0.24115257 -0.16263936 -0.045969587 0.069310054
0000a0 b9 74 aa bb e4 ba 04 3d a8 48 33 3d a1 5e c8 3d
       -0.0052019027 0.032404795 0.043770462 0.09783674
0000b0 fe d2 21 bd 35 34 82 bd b1 6f e6 3d 0c 79 ea bc
       -0.03950786 -0.06357614 0.11251772 -0.028622173
0000c0 8b 73 85 bd 4e 7e 2d 3d 8c 23 e8 3d f0 7d 1c 3d
       -0.06516179 0.04235678 0.11334905 0.03820604
0000d0 22 c5 45 be 81 d1 c1 bd 7b dc b3 3d 75 32 78 bd
       -0.19313481 -0.09463788 0.08782288 -0.060594995
0000e0 33 22 cd 3d 55 f0 a9 bd 29 d7 15 3e eb 02 ce 3d
       0.100162886 -0.08297793 0.14632858 0.1005915
0000f0 44 2f b3 3d 79 93 e4 3c 62 3c c0 39 2b ea e8 3d
       0.087492496 0.027902352 0.00036666082 0.11372789
000100 ad 67 8d bd 96 6c f5 bb df fd 9b 3b c7 fb 65 be
       -0.0690454 -0.007489751 0.0047604884 -0.22459327
000110 3b 70 b4 3d 54 3f af 3c 41 63 06 be d7 d7 56 bd
       0.08810469 0.021392502 -0.131238 -0.052451935
000120 39 66 de bc 42 10 ad 3d cf 93 81 3d c1 31 74 3d
       -0.027148353 0.084503666 0.063270204 0.05961776
000130 ce ad bf 3d 76 1b 2b bd 32 7e 5b bd 8a f4 d8 3d
       0.093593225 -0.041774236 -0.053587146 0.10593517
000140 29 8c 10 3e a3 4c 37 be 74 83 1f bd 3c 87 8b bd
       0.14115967 -0.17900328 -0.038943723 -0.06812903
000150 4c 35 9d bc 94 a5 8f bd bc 09 25 be 50 2a 5a bd
       -0.019190453 -0.070140034 -0.16116995 -0.05326301
000160 0d 4f 53 39 54 8d 95 bd 73 ef 9d 3d f1 85 ae 3d
       0.00020151977 -0.07302347 0.07711687 0.08521641
000170 05 1d cc bc 2b 8a 44 3c e5 9b 82 3c 86 4b 9c 3d
       -0.024916181 0.011995832 0.015943477 0.076315925
000180 11 8a 55 3d cc c9 87 3d 45 07 ea 3d 14 b1 9e 3c
       0.052133624 0.066302866 0.11427168 0.019371547
000190 b1 77 94 3d cd 56 0b 3e f1 3a 5b bc 2a 67 ef bd
       0.07249392 0.1360733 -0.013380752 -0.11689599
0001a0 e2 50 c8 3c 9b a9 01 3b 2b 7f 00 3e c6 d7 db bd
       0.02445263 0.001978493 0.1254851 -0.10734515
0001b0 28 6b c9 bd 49 0d 90 bd 86 8a de bd 5e f1 54 bd
       -0.098348916 -0.07033784 -0.10866265 -0.051988
0001c0 9d a1 a9 bc 1e 3f 95 bd 67 0b 90 3d 26 23 91 3d
       -0.020706946 -0.07287429 0.07033425 0.07086782
0001d0 51 dc 94 bd ea ed f9 bd d9 b3 94 3d ae db 3b be
       -0.072685845 -0.12203582 0.07260866 -0.1834552
0001e0 c6 2b 7b bd 40 30 f6 3d 05 cc f4 bd 66 fb 3e ba
       -0.061321042 0.12020922 -0.11952976 -0.0007285386
0001f0 45 e1 ac bd 14 50 32 3d 28 be 74 3d 0b eb 39 3d
       -0.08441404 0.0435334 0.05975166 0.04539017
000200 79 97 8b bd e6 bb ff bd 3a 40 d0 bd bc 66 20 bd
       -0.068160005 -0.12487011 -0.101685 -0.039160475
000210 61 ee 4f ba 14 4b 1d 3d 92 fa 4f 3d 1f ca 56 3d
       -0.00079319446 0.03840168 0.05077607 0.05243885
000220 ab 90 93 bd 47 b6 ad bd 45 85 0d bd c1 1d 01 3e
       -0.072053276 -0.08482032 -0.034550924 0.12609006
000230 79 40 92 bd 45 2a 9a bc a2 bc 88 3d 57 c9 aa 3c
       -0.071412034 -0.018818984 0.06676604 0.02084796
000240 19 c2 69 bd c7 b3 37 bd 49 17 3b bd f1 6e fd 3d
       -0.05706987 -0.044849183 -0.045676503 0.12374676
000250 a0 76 88 3d 7f 6c a5 3b 3b 5c 8f ba 60 8a 86 3c
       0.06663251 0.005048334 -0.0010937521 0.016423404
000260 3a 41 1e 3e 0e 36 34 bd 13 cd 13 be ce 7e 08 3e
       0.1545457 -0.043996863 -0.14433698 0.13329622
000270 6a 26 f5 bd 00 0d 9d 3c 6c 7d 7f 3c bc 55 b6 3c
       -0.119702175 0.019171238 0.015593868 0.022257678
000280 71 cf 4e 3e 88 26 db 3c f6 53 93 bd d0 b2 f5 3d
       0.2019632 0.026751772 -0.07193749 0.119969964
000290 b1 87 8e bd be 75 c6 bd b3 a7 a8 3d e3 36 c6 bd
       -0.06959475 -0.09690426 0.08235111 -0.096784376
0002a0 00 d1 28 bb 3c 06 d8 bd 5d 47 2d be 5e 3a c6 bd
       -0.002575934 -0.10548064 -0.16921754 -0.096791014
0002b0 70 df 35 3e db b4 6c bd 61 e0 14 bd 36 8d 2e bd
       0.17761016 -0.057789665 -0.036346797 -0.042615138
0002c0 e4 5f dd 3d a3 e5 f3 3c c3 f4 1f be 65 d4 33 bc
       0.10809305 0.029772585 -0.15620713 -0.010975932
0002d0 07 ed 57 be fd 74 d3 bd 51 f1 98 3d 04 29 7e 3d
       -0.21086513 -0.10325048 0.074679025 0.062050834
0002e0 43 e6 04 bd 42 7e 58 bd 65 00 ef bd 15 77 88 3d
       -0.032446157 -0.052854784 -0.11669997 0.06663338
0002f0 f4 87 a6 3d 92 87 cd bd e6 9e 4f bd 7a c5 95 bd
       0.081314 -0.100356236 -0.050688647 -0.07313056
000300 f6 db 92 3d 6f 70 81 3c 63 1a 41 3d 1b d9 07 3e
       0.071708605 0.015800683 0.047144305 0.13266413
000310 51 36 a8 3d 53 58 0c bd 08 90 22 3c c1 ad 2d 3e
       0.08213485 -0.03426392 0.009922035 0.16960813
000320 92 1f 1b bc 52 ca 34 bd 4c f0 02 be 07 50 96 3c
       -0.009467976 -0.04413826 -0.12786978 0.018348707
000330 24 3e 96 3d 37 fd a0 bd 66 9a 31 3c 64 a2 83 3d
       0.07336071 -0.07860797 0.010840034 0.06427458
000340 8e d1 94 bd cf 67 82 bd 38 fb 44 bd 1e b5 04 3d
       -0.07266532 -0.06367456 -0.048091143 0.03239929
000350 f1 26 e8 3c c5 71 40 3e 93 e1 bd 3d 87 87 17 be
       0.028338881 0.187934 0.092715405 -0.14797793
000360 34 b2 82 bd 4c 57 97 bd a0 cd 05 3e fa fe 02 be
       -0.06381646 -0.073896974 0.13066721 -0.12792578
000370 62 b2 77 3e 78 63 13 3d ce 14 72 bb d8 f2 f4 3c
       0.24189141 0.035983533 -0.003693867 0.029900953
000380 48 74 af 3d bb 96 0a 3d f0 f5 e6 ba c4 47 fd 3d
       0.08567101 0.033835154 -0.0017620903 0.12367204
000390 e2 8a 2c 3e fe a4 42 3d b5 4e b3 3c 94 92 df bb
       0.16849855 0.04752063 0.021888116 -0.0068228934
0003a0 2a cf 0c 3d 55 89 30 be 21 7d fb bd e4 69 d9 3d
       0.034377255 -0.17239888 -0.12279726 0.106159
0003b0 37 9b 6f 3c 9d a5 1f 3e ef 33 62 3d d9 41 22 bd
       0.014624408 0.1559052 0.05522531 -0.03961358
0003c0 1a 78 9a bc ec 77 09 3d 3e 7f 57 3e 00 fd 0e 3d
       -0.018856097 0.033561632 0.21044633 0.03490925
0003d0 89 94 a1 bd 4e 76 cf 3d e5 77 64 bc d4 fa 52 bd
       -0.07889659 0.10129987 -0.013944601 -0.05150874
0003e0 e7 67 d8 bd af b7 fb 3d 5f 5d ea 3b 98 5f 6d bd
       -0.10566693 0.12290894 0.007152244 -0.057952493
0003f0 5e be 2a 3d 9d 31 0f 3d 13 65 13 bd d3 ee b6 3c
       0.041685455 0.034959424 -0.035985064 0.022330677
