Learning/results/test11/KartAgent/KartAgent-399992.onnx (onnx, 108737 bytes, 7 tensors)

41 f4 [1, 2]
0	0xbd1ef14f	-0.03880435
1	0xbd657eef	-0.056029256

distribution.mu.bias f4 [2]
0	0x3b699dfe	0.003564715
1	0x3cf46fd2	0.029838476

distribution.mu.weight f4 [2, 128]
0	0xbd21039f	-0.039310094
1	0x3ce05c28	0.027387694
2	0x3c2f4c69	0.01069937
3	0xbd094225	-0.033510346
4	0xbd1ad603	-0.037801754
5	0x3bd5d545	0.006525668
6	0xbcb914a9	-0.02259286
7	0xbc804cad	-0.015661562
8	0xbbea3efa	-0.0071486207
9	0xbd20e5f9	-0.03928182
10	0xbcd7d06a	-0.026344497
11	0xbc15471b	-0.009111191
12	0x3d1973eb	0.037464064
13	0xbcc10823	-0.02356345
14	0xbd4df3ba	-0.050281264
15	0xbcc07efa	-0.023498047
16	0xbb97e65f	-0.0046356167
17	0x3ca8ff35	0.020629505
18	0xbc773aae	-0.015089674
19	0xbc819459	-0.015817808
20	0x3c27d0b7	0.010242633
21	0xbc938719	-0.018008756
22	0x3bdaf351	0.0066818376
23	0xbc883bd6	-0.016630094
24	0xbc03bef4	-0.008041132
25	0xbc918297	-0.017762465
26	0xbbe313e1	-0.00692986
27	0xbcf7d618	-0.030253455
28	0xbcbcabec	-0.023031197
29	0xbce9cf6f	-0.028541295
30	0xbd320062	-0.043457396
31	0x3d44ad1a	0.048016645
32	0xbbb1d755	-0.005427281
33	0xbcfb8610	-0.030703574
34	0x3c7ff37a	0.015622014
35	0x3a9d5823	0.0012004416
36	0xbd02e32c	-0.03195493
37	0x3cb4358f	0.021998195
38	0xbd150413	-0.03638084
39	0x3d162c54	0.03666337
40	0x3ce6bac2	0.028165225
41	0xbca8a1aa	-0.0205849
42	0xbc17bf29	-0.009261885
43	0x3d313531	0.043263618
44	0xbce038ae	-0.027370777
45	0xbc2430d1	-0.010021404
46	0xbbf8762c	-0.0075824466
47	0xbc308070	-0.010772809
48	0xbc3b8930	-0.011446282
49	0x3b9b8f91	0.004747339
50	0x3d06ad9e	0.032880418
51	0xbb457759	-0.0030130951
52	0xbca8030a	-0.020509262
53	0xb78effec	-1.7046892e-05
54	0xbc1eed8b	-0.009700189
55	0xbd1550ac	-0.036453888
56	0xbc61f261	-0.013790698
57	0x3c6b1a6c	0.014349561
58	0x3c5da367	0.013527728
59	0x3c86aa38	0.016438589
60	0x3c186649	0.00930173
61	0xbc1943e5	-0.009354566
62	0x3d1a2513	0.037633013
63	0x3cb9d9c7	0.022686852
64	0x3c54eb80	0.012995601
65	0x3c5b1b86	0.013373261
66	0xbcf316be	-0.02967393
67	0xbcb68eaf	-0.022284834
68	0xbcb5b98d	-0.022183204
69	0xbd087f65	-0.033324618
70	0xbc4838fc	-0.012220617
71	0xbc4d0d4e	-0.012515379
72	0xbc43f19b	-0.011959459
73	0x3a937a85	0.0011251724
74	0x3bdb8e3f	0.0067003067
75	0xbc41fbd4	-0.011839826
76	0xbcdd7ac1	-0.027036073
77	0xbc4208ac	-0.011842888
78	0xbc5c9d38	-0.013465218
79	0xbcfe8a42	-0.031071786
80	0x3c0aca77	0.008471123
81	0x3a88de40	0.0010442212
82	0xba97835e	-0.0011559536
83	0x3cc296e7	0.023753596
84	0x39ca798d	0.00038619005
85	0x3c0bb4d2	0.008526998
86	0x3c719caf	0.014746829
87	0x3ab1c189	0.0013561706
88	0x3d0a48fe	0.033761017
89	0xbb8d3984	-0.004309835
90	0x3c0f5cfe	0.008750198
91	0x3cbce12f	0.023056595
92	0xbca0c9e5	-0.01962752
93	0xbc94ec4d	-0.018179083
94	0x3b55a635	0.0032600288
95	0x3d1d98a9	0.038475666
96	0xbc3bb322	-0.011456283
97	0xbc8db182	-0.017296556
98	0xbb6c6c7c	-0.0036075404
99	0x3b9cfadf	0.0047906484
100	0x3d062e31	0.032758895
101	0x3beed433	0.0072884797
102	0xbce4a4ee	-0.027910676
103	0x3c26744a	0.010159561
104	0xbbf931f9	-0.007604834
105	0xbc05eb6c	-0.008173805
106	0x3d403309	0.04692367
107	0x3cceb4f0	0.025232762
108	0xbc6e4e47	-0.01454503
109	0xbcadaf3e	-0.021201726
110	0xbc454354	-0.012039978
111	0x3c8013f6	0.015634518
112	0x3d0b2137	0.033967223
113	0xbd54f311	-0.05198962
114	0xbab647ed	-0.0013906934
115	0xbb8b3507	-0.0042482647
116	0x3caf8102	0.02142382
117	0x3b1d3cb2	0.0023992476
118	0xbd539394	-0.051654413
119	0xbc5a29ca	-0.013315627
120	0x3b6bd825	0.0035986986
121	0xbc778cfe	-0.015109299
122	0x3b592c6d	0.0033138052
123	0x3cdabd17	0.026701493
124	0xbcf02bed	-0.02931782
125	0xbcf5cb6a	-0.030004222
126	0xbaf4e485	-0.0018683827
127	0xbc9d40e8	-0.019195989
128	0x3ae37378	0.0017353138
129	0xbd4e126c	-0.050310537
130	0xbb896b8a	-0.004193728
131	0x3baec1d4	0.0053331647
132	0xbcd30b8f	-0.025762348
133	0x3b83dfa6	0.0040244637
134	0xbc8749aa	-0.016514618
135	0x3af22a79	0.0018475793
136	0xbc019c51	-0.007910804
137	0x3b67ff62	0.0035400023
138	0xbd01a93f	-0.031655546
139	0xbadc2e7c	-0.0016798521
140	0xbc5e286c	-0.013559442
141	0x3ce6d809	0.028179185
142	0x3d4e19bd	0.050317515
143	0x3b343e1e	0.0027502845
144	0x3a4539bf	0.00075235585
145	0x3d469f37	0.048491683
146	0xbb9184cc	-0.0044408794
147	0xbb163ae0	-0.0022923276
148	0x3d49fb35	0.049311835
149	0xbc5b508d	-0.013385904
150	0xbb62b603	-0.003459335
151	0x3ce5936c	0.028024398
152	0x3b6cf121	0.0036154466
153	0xbaedba70	-0.0018137228
154	0xbb8f1ebb	-0.004367677
155	0xbc8c4b56	-0.017125767
156	0xbd260dfe	-0.040540688
157	0xbba46d37	-0.0050179022
158	0xbc32d184	-0.01091421
159	0xbc27d7e1	-0.010244341
160	0xbb207c27	-0.0024488063
161	0xbd5c4036	-0.053772174
162	0x3d98d261	0.074620016
163	0x3b8e3715	0.0043400624
164	0xbc33da2e	-0.010977311
165	0x3c8302a7	0.015992476
166	0x3d10c6a3	0.035345685
167	0xba89d9af	-0.0010517145
168	0xbbdbe60b	-0.006710773
169	0xbad54ae4	-0.001627293
170	0xba499aa1	-0.0007690583
171	0xbc070b91	-0.008242504
172	0xbb5bdffd	-0.0033550255
173	0xbbf60114	-0.0075074527
174	0x3c239f2b	0.009986679
175	0x3c9291fa	0.017891873
176	0xbc264559	-0.01014837
177	0xbc26fa1a	-0.010191465
178	0x3c617e86	0.013763076
179	0x3d6d4a02	0.057931907
180	0xbc3063b1	-0.010765956
181	0xbd6aa924	-0.05729021
182	0xba7ff866	-0.0009764492
183	0xbc072180	-0.008247733
184	0xbb8d89f8	-0.0043194257
185	0x3cb96cd8	0.022634909
186	0x3bdc3e5d	0.0067213015
187	0xbc838953	-0.016056692
188	0xbd796b63	-0.060893428
189	0x3c700d6e	0.014651639
190	0xbc655a3f	-0.013998567
191	0x3d240f63	0.040053736
192	0x3c9ea601	0.019366266
193	0x3c2fa8f2	0.010721432
194	0x3b21987f	0.0024657545
195	0x3c4072fc	0.011746164
196	0x3c32a67d	0.010903952
197	0x3c96bd86	0.018400919
198	0xbc18dc9a	-0.009329939
199	0xbc1070e4	-0.008815978
200	0xbbd41ae7	-0.0064729336
201	0xbbfe5880	-0.007762015
202	0x3c0b2b69	0.0084942365
203	0x3b922b05	0.0044606947
204	0xbc8e0dc7	-0.017340554
205	0xbcad223d	-0.02113449
206	0xbb988067	-0.0046539786
207	0xbc723f0b	-0.014785538
208	0xbd753740	-0.059867144
209	0xbc2817ed	-0.010259611
210	0xbb5082e8	-0.0031816307
211	0xbd14a63d	-0.03629135
212	0x3d7fe6e2	0.062476046
213	0xbcc5eeac	-0.02416166
214	0xbb285d2b	-0.0025690298
215	0x3d3b229b	0.0456873
216	0xbcd4cbdd	-0.025976116
217	0xbbe00833	-0.006836915
218	0x3b85592f	0.0040694694
219	0xbd5456d3	-0.051840615
220	0x3d1165d7	0.035497513
221	0xbbbd3db4	-0.005775178
222	0xbb080f75	-0.0020761166
223	0x3c0a852a	0.0084546
224	0xbbeea6dc	-0.007283075
225	0x3cb61142	0.022225026
226	0xbd3c2d3a	-0.04594157
227	0x3b0233a9	0.0019867218
228	0x3bf82bd1	0.0075735827
229	0x3c181de7	0.009284473
230	0xbaba096e	-0.0014193484
231	0xbb4655c1	-0.0030263516
232	0x3d1be324	0.038058415
233	0xba67b2b4	-0.00088385795
234	0x3c82906a	0.015938003
235	0xbc614667	-0.013749695
236	0x3bec7cdf	0.007217034
237	0xbc5feb14	-0.013666887
238	0x3bc62fb1	0.0060481657
239	0xbd96f77b	-0.07371422
240	0x3b2b92ec	0.0026180102
241	0x3ae785b0	0.0017663743
242	0x3aed0f0e	0.0018086152
243	0x3cd53ac2	0.026028994
244	0xbc852ace	-0.016255762
245	0x3aee5084	0.0018181955
246	0xbd79e05a	-0.061004974
247	0x3a38168e	0.0007022404
248	0x3c1ce64d	0.009576392
249	0x3b5f3e49	0.0034064224
250	0x3b25425a	0.002521655
251	0x3bd6cd45	0.0065552318
252	0x3c91015e	0.017700847
253	0x3d28a38e	0.041171603
254	0xbb0ed9dc	-0.0021797335
255	0xbb8d4aba	-0.0043118866

network_body.linear_encoder.seq_layers.0.bias f4 [128]
0	0x3ccfa7d1	0.025348576
1	0xbc061d92	-0.008185761
2	0x3c711a20	0.014715701
3	0xbd46a833	-0.04850025
4	0xbd2e86c2	-0.042608984
5	0xbc3d99c6	-0.011572307
6	0xbd0afe03	-0.03393365
7	0x3b42f8f6	0.0029750443
8	0x3ae71039	0.0017628736
9	0x3cb1b1c3	0.021691209
10	0xbcf8a365	-0.03035135
11	0x3d0e423f	0.034731146
12	0xbb8f4656	-0.0043723984
13	0xbc76182a	-0.01502041
14	0xbccd4fdf	-0.0250625
15	0xbd29fdf0	-0.04150194
16	0x3d289650	0.041158974
17	0xbcce55db	-0.025187423
18	0xbc149501	-0.009068728
19	0xba97988f	-0.0011565852
20	0xbcdc6897	-0.026905341
21	0xbc93a06c	-0.018020831
22	0xbd2b241a	-0.041782476
23	0xbd5ffe29	-0.054685745
24	0x3c21c5d9	0.009873831
25	0xbc89599c	-0.016766362
26	0x3b7a5588	0.0038197953
27	0xbd3280a6	-0.04357972
28	0xbbdf38d1	-0.006812193
29	0xba7d4a50	-0.00096622575
30	0xbc1db35b	-0.009625281
31	0xbcd0325e	-0.025414642
32	0xbd5ccd02	-0.05390645
33	0xbc1240a5	-0.008926545
34	0xbce69045	-0.028144965
35	0x3cbf5635	0.023356536
36	0xbca09601	-0.019602777
37	0xbd99e2c4	-0.07513955
38	0xbd3a32e5	-0.045458693
39	0x3cd46fd5	0.025932232
40	0xbd2d44bd	-0.042301882
41	0xbd6b6e6e	-0.05747836
42	0xbd7a41b9	-0.061097834
43	0x3c17ad7e	0.009257672
44	0xbd3ae9b4	-0.045633033
45	0x3ba27951	0.0049583097
46	0xbbcfbfc1	-0.0063399975
47	0xbc984a53	-0.018590128
48	0xbbc95c75	-0.006145055
49	0xbc19200a	-0.009346018
50	0x3b9b5b6b	0.0047411225
51	0x3ca0a955	0.019611994
52	0x3d0b9e18	0.034086317
53	0x3d0806b2	0.03320951
54	0xbca1cea5	-0.019751856
55	0x3b838dc4	0.0040147025
56	0x3cdab3bb	0.02669703
57	0xbc30827c	-0.010773297
58	0xbce34056	-0.027740639
59	0xbca38c85	-0.019964466
60	0xbbd7e70a	-0.0065888213
61	0x3c6f6b27	0.014612949
62	0x3d2e139e	0.042499177
63	0xbc979fdc	-0.018508844
64	0xbcdae96c	-0.026722632
65	0xbda58f9d	-0.08084033
66	0xbcdbf296	-0.026849072
67	0xbd39dcd7	-0.045376625
68	0x39bcf315	0.00036039265
69	0x39d46af8	0.0004051549
70	0xbbc6500b	-0.0060520223
71	0x3b010c50	0.0019691177
72	0xbaf34462	-0.0018559808
73	0x3c0115f3	0.007878768
74	0xbc084943	-0.008318248
75	0xbd16ecbd	-0.036846865
76	0x3d06fe05	0.032957096
77	0xbc787c8f	-0.015166416
78	0x3bbb67e1	0.0057191704
79	0xbc844071	-0.01614401
80	0xbcb4d8cb	-0.022076031
81	0xbba60f6c	-0.0050677564
82	0xbce11546	-0.027475964
83	0xbd964fa2	-0.073394075
84	0x3b8e1234	0.004335666
85	0x3cb16bfa	0.021657933
86	0xbd1d2068	-0.038360983
87	0xbba79f41	-0.00511542
88	0xbcce9407	-0.02521707
89	0x3cb47288	0.022027269
90	0xbcbb6412	-0.022874866
91	0xbc23d832	-0.010000275
92	0xbd3d3ed6	-0.046202503
93	0xbc4dddbb	-0.012565072
94	0xbcf3e7eb	-0.029773673
95	0xbd45c88a	-0.048286952
96	0xbce7dddd	-0.028304035
97	0x3bfbfa61	0.0076897596
98	0x3ba548f3	0.0050440966
99	0xbc44a284	-0.012001637
100	0xbcefdcd6	-0.029280107
101	0xbcf161a2	-0.0294655
102	0xbd886521	-0.06659914
103	0x3ba2628a	0.0049555944
104	0xbd03fad8	-0.032221645
105	0x3c7a946d	0.0152941765
106	0xbcbc3221	-0.022973122
107	0x3d03e52b	0.032200973
108	0x3c072fa8	0.008251108
109	0xbcac4be4	-0.021032281
110	0xbd2b034d	-0.041751195
111	0x3c35aec7	0.011089033
112	0xbd744233	-0.059633445
113	0xbcaaa088	-0.0208285
114	0xbc9bdf1f	-0.01902729
115	0x3aa0d61c	0.0012270841
116	0xbcc4542c	-0.023965918
117	0xbc8ddf8f	-0.017318515
118	0x3c46d7c4	0.0121364035
119	0xbc0c7de9	-0.008574941
120	0xbd0c50d3	-0.034256767
121	0xbc073203	-0.00825167
122	0x3bb6a1a7	0.0055734697
123	0xbc5cf02a	-0.013484994
124	0x3d00ad11	0.03141505
125	0x3c455a71	0.012045489
126	0xbd5318f9	-0.051537488
127	0x3d018f2c	0.03163068

network_body.linear_encoder.seq_layers.0.weight f4 [128, 77]
0	0xbcd32159	-0.025772737
1	0xbcf0d8e9	-0.029400306
2	0x3d052b61	0.032512072
3	0x3e923375	0.28554884
4	0x3e335078	0.17511165
5	0x3cb613cd	0.022226239
6	0x3d80c32e	0.062872276
7	0x3e0c9961	0.13730384
8	0x3d2c3947	0.04204681
9	0xbc2e9bd6	-0.010657271
10	0xbce1f667	-0.027583314
11	0x3e9d3e91	0.30711797
12	0x3cda863b	0.026675334
13	0x3d4eb90a	0.050469436
14	0xbdbaed54	-0.09127298
15	0x3e39050f	0.18068336
16	0xbd952918	-0.07283229
17	0xbd8accde	-0.067773566
18	0xbd4673ac	-0.048450157
19	0x3e3023b6	0.17201123
20	0xbe4da8eb	-0.20083968
21	0x3db38ed3	0.08767476
22	0x3e6019a6	0.21884784
23	0xbc24cd2e	-0.010058684
24	0xbde548f9	-0.11195559
25	0x3d21b3ee	0.039478235
26	0xbe76082b	-0.24026553
27	0xbc8cc73e	-0.01718485
28	0xbd9adb31	-0.07561339
29	0xbda1f096	-0.07907216
30	0xbde54e54	-0.111965805
31	0xbe1305e3	-0.14357714
32	0xbd093aeb	-0.033503454
33	0x3ce094a9	0.027414637
34	0x3e05ef08	0.13079464
35	0x3d17e79c	0.037086114
36	0xbd7ecd65	-0.0622076
37	0xbe8d8c4c	-0.276461
38	0xbdf9844f	-0.12183439
39	0xbe9acca2	-0.30234247
40	0x3ca7a5e5	0.020464847
41	0xbd9f40a8	-0.07776004
42	0xbe11d6e6	-0.14242133
43	0xbc0bb0cb	-0.008526037
44	0xbde9c902	-0.11415292
45	0x3d0c22bd	0.034212817
46	0xbccac30b	-0.024751207
47	0xbe39fbb4	-0.18162423
48	0x3e494011	0.19653346
49	0x3c923e3f	0.017851947
50	0xbba13f2a	-0.00492086
51	0x3db4467a	0.08802505
52	0xbd89112b	-0.06692728
53	0x3e1bd395	0.15217431
54	0x3d3e3814	0.0464402
55	0xbe82b2df	-0.25527093
56	0x3dd3dd34	0.103449255
57	0x3e538267	0.20655213
58	0xbd0f77a1	-0.035026196
59	0x3e17f17d	0.14838214
60	0xbe5e6f1f	-0.21722077
61	0x3de3bae2	0.111196294
62	0xbe030a04	-0.1279679
63	0xbdeefdd6	-0.11669509
64	0x3e1d8b9b	0.15385287
65	0x3dc1e37b	0.094672166
66	0x3c4677e1	0.012113542
67	0xbd80cdf4	-0.062892824
68	0xbd550373	-0.052005243
69	0x3d1f86bb	0.03894685
70	0xbe16f589	-0.14742102
71	0xbde26ef9	-0.110563226
72	0x3bf1c636	0.007378365
73	0x3ca8d4cb	0.02060928
74	0xbb962c31	-0.0045829047
75	0x3d3bb987	0.04583123
76	0x3e1c0ecb	0.15240018
77	0xbde9a9d1	-0.11409343
78	0x3d5711ea	0.05250732
79	0xbd97d104	-0.074129134
80	0x3e18ff1a	0.14941064
81	0xbe1c72f5	-0.15278228
82	0x3bcec100	0.0063096285
83	0x3d2f153a	0.042744853
84	0x3e9302c3	0.28713045
85	0xbcc8d3c1	-0.024515035
86	0xbd8eb0c3	-0.06967308
87	0x3db2ae8a	0.08724697
88	0x3cc78b5e	0.024358448
89	0x3d3c77f3	0.04601283
90	0xbe0e53e2	-0.13899186
91	0x3da31c50	0.079643846
92	0xbdceb889	-0.10093791
93	0xbd940a38	-0.072285116
94	0x3c1616dd	0.0091607245
95	0x3d8cadf1	0.06869114
96	0xbcf02c62	-0.029318038
97	0x3ce05288	0.027383104
98	0xbe49c04d	-0.19702263
99	0x3a870e81	0.0010304005
100	0x3cb2f983	0.021847492
101	0x3d47ae62	0.04875029
102	0x3e5ef9b5	0.21774943
103	0xbd023d9a	-0.03179703
104	0xbd8a1377	-0.06741994
105	0x3e323001	0.17401125
106	0xbd06ed25	-0.032941002
107	0x3e493162	0.19647744
108	0x3d86a37a	0.065741494
109	0x3eb29cb3	0.34885177
110	0xbdfd811a	-0.1237814
111	0x3c52dc27	0.012869871
112	0x3db648d6	0.08900611
113	0x3dd514c6	0.10404353
114	0x3d600c24	0.05469908
115	0x3c263f7d	0.010146973
116	0xbe4ba150	-0.19885755
117	0xbd14eccb	-0.036358636
118	0xbdafae15	-0.085781254
119	0x3e2b702c	0.16742009
120	0x3db5e79e	0.08882068
121	0x3d9e91b6	0.07742636
122	0x3e40ac91	0.18815829
123	0xbd285e47	-0.041105535
124	0xbda0c032	-0.07849158
125	0xbd57a383	-0.05264617
126	0x3c340f31	0.01098995
127	0x3dafd5c7	0.08585697
128	0xbb512201	-0.0031911137
129	0x3d93ac54	0.07210603
130	0x3dea4137	0.1143822
131	0xbe2ce59d	-0.16884466
132	0xbda4c1ce	-0.08044778
133	0xbc283f3f	-0.010268985
134	0x3d631d13	0.05544765
135	0x3be78abc	0.007066099
136	0xbdd24058	-0.10266179
137	0x3c2447ca	0.0100268815
138	0xbc58eb37	-0.013239673
139	0x3d54fb91	0.051997725
140	0x3da82cdf	0.082116835
141	0xbd614d39	-0.055005286
142	0xbca7f4f0	-0.020502537
143	0x3e33e1e5	0.1756664
144	0x3e02e270	0.12781692
145	0xbc9dd68a	-0.01926734
146	0x3cce7d65	0.025206277
147	0x3c2a917c	0.010410663
148	0xbd102fbf	-0.035201784
149	0xbc20d246	-0.009815758
150	0xbd926174	-0.07147494
151	0xbc22698b	-0.009912859
152	0xbdab1557	-0.083536796
153	0x3e2ca3bd	0.16859336
154	0xbe9a017f	-0.30079266
155	0x3e715758	0.23568475
156	0xbde06c61	-0.10958172
157	0x3bae5e83	0.0053213253
158	0x3d87811f	0.06616425
159	0xbe1105aa	-0.14162317
160	0x3daaa58a	0.08332355
161	0xbc874bf1	-0.016515704
162	0xbd45abba	-0.048259474
163	0xbd69e981	-0.057107452
164	0xbc6a1015	-0.014286061
165	0x3caf970d	0.021434331
166	0x3dfb81d2	0.12280621
167	0xbdd3cdba	-0.103419736
168	0xbcef57c3	-0.029216653
169	0xbe228377	-0.15870462
170	0x3dbbf782	0.09178068
171	0x3e1acce6	0.15117225
172	0xbdcf7022	-0.101288095
173	0xbe057063	-0.13031153
174	0xbdb91156	-0.0903651
175	0x3d1d5672	0.03841252
176	0x3e153f4b	0.14574926
177	0xbddabd85	-0.10680679
178	0xbdf60d7f	-0.12014293
179	0xbd7a3555	-0.061086018
180	0x3d397a64	0.045282736
181	0x3e84edee	0.25962776
182	0x3d5a0c8a	0.053234614
183	0x3d75913d	0.059952963
184	0x3e0cfeb3	0.13769035
185	0x3da0f7ee	0.07859789
186	0x3e518fee	0.20465061
187	0xbe30fb82	-0.17283443
188	0x3dc48950	0.09596503
189	0x3e0560e4	0.13025242
190	0xbe0f487e	-0.13992497
191	0xbdbfff25	-0.09374837
192	0x3db5d2ff	0.08878135
193	0xbd655be6	-0.055995844
194	0xbd20689d	-0.039162267
195	0xbd80c02f	-0.06286656
196	0xbe5a7313	-0.2133296
197	0x3e6d50e3	0.23175387
198	0xbd839743	-0.06425335
199	0x3c346e41	0.011012615
200	0xbe64c917	-0.22342335
201	0xbd965489	-0.073403426
202	0x3e06a00f	0.13146995
203	0xbdf08611	-0.11744321
204	0xbdc27eeb	-0.09496864
205	0x3ebb93b6	0.36636132
206	0x3d7302d8	0.059328884
207	0xbc8e8a6e	-0.017399993
208	0xbc44042a	-0.011963883
209	0xbcb7d49f	-0.022440253
210	0x3deb254d	0.11481724
211	0xbddcd851	-0.107834466
212	0xbd4206ba	-0.047369696
213	0xbb820dc9	-0.0039689285
214	0x3dc57532	0.09641494
215	0x3d601aac	0.054712936
216	0x3cfa37e7	0.030544234
217	0x3e0a8bff	0.13529967
218	0xbd741abe	-0.059595816
219	0xbeaa1832	-0.33221585
220	0x3e08ded8	0.13366258
221	0x3caa08e2	0.020756189
222	0x3dbd4281	0.092412
223	0x3d22a0c2	0.03970409
224	0x3db572e1	0.08859802
225	0x3ea37389	0.31924084
226	0x3d825332	0.063635245
227	0xbd545a9a	-0.051844217
228	0x3d2f7c48	0.042843133
229	0x3cc593b4	0.024118282
230	0xbd55ea1c	-0.052225217
231	0xbd7866e8	-0.060645014
232	0x3db78511	0.08960927
233	0xbdc4851f	-0.09595703
234	0xbebdf911	-0.37104085
235	0xbd2c60a8	-0.042084366
236	0xbdce8923	-0.100847505
237	0xbe042fef	-0.1290891
238	0xbeaa8ef8	-0.33312201
239	0xbe3db888	-0.18527424
240	0x3d8a55de	0.06754659
241	0x3d831fe5	0.06402568
242	0xbe3d1034	-0.18463212
243	0x3de2339f	0.11045002
244	0x3da9306b	0.08261188
245	0x3e84602c	0.25854623
246	0x3cab5428	0.020914152
247	0x3e6e3026	0.23260555
248	0xbe8487d4	-0.2588488
249	0xbe3aae36	-0.18230519
250	0x3d4c54e4	0.049885646
251	0x3d731f16	0.059355818
252	0xbd1946fe	-0.03742122
253	0xbe12ec82	-0.14348033
254	0xbb6c205d	-0.0036030032
255	0x3e8d9527	0.27652857

network_body.linear_encoder.seq_layers.2.bias f4 [128]
0	0xbcb29065	-0.021797368
1	0xbd352efb	-0.044234257
2	0xbba04a50	-0.0048916712
3	0xbd0710a3	-0.03297485
4	0xbcdd29f8	-0.026997551
5	0xbc529aef	-0.012854322
6	0xbba08d63	-0.004899667
7	0xbb89f551	-0.004210152
8	0xbd19e7f8	-0.03757474
9	0x3a669627	0.0008796178
10	0xbd123899	-0.035698507
11	0xbd04cf23	-0.032424103
12	0x3c7839f5	0.015150537
13	0xbc0a5f7f	-0.00844562
14	0x3be5599b	0.006999207
15	0xbbc403a8	-0.005981881
16	0x3ca7291f	0.02040535
17	0xba8e476f	-0.0010855029
18	0xbc933c7a	-0.017973173
19	0xbd08e1e8	-0.033418566
20	0xbc65a158	-0.014015518
21	0xbd02f89e	-0.03197538
22	0x3bc798eb	0.0060912273
23	0x3c314475	0.010819544
24	0xbcfac7be	-0.030612823
25	0xbd270821	-0.040779237
26	0xbc881461	-0.01661128
27	0xbc648121	-0.013946802
28	0xbd11a89c	-0.03556119
29	0xbcaa88e2	-0.020817224
30	0xbca13d2c	-0.01968249
31	0xbd354af9	-0.044260953
32	0xbd22f294	-0.03978212
33	0xbd34d53d	-0.044148672
34	0xba414b10	-0.0007373551
35	0xbcb1d21f	-0.021706639
36	0xbbd21b60	-0.0064119548
37	0x3c69547c	0.014241334
38	0xbc8fb3f7	-0.017541869
39	0xbc1f5228	-0.009724177
40	0xbbea871c	-0.0071572196
41	0xbc937753	-0.018001234
42	0xbc418f99	-0.0118140215
43	0xbc72f0ed	-0.014827949
44	0xbc078e66	-0.0082736965
45	0xbcbb3e03	-0.022856718
46	0xbd0a3beb	-0.03374855
47	0xbd057bab	-0.032588642
48	0xbc20db50	-0.009817913
49	0xbd330cb5	-0.04371329
50	0xbb979807	-0.0046262774
51	0x3bf9910d	0.0076161684
52	0xbc88a64c	-0.016680859
53	0xbd80022e	-0.06250416
54	0xbd2c6f35	-0.042098243
55	0xbbdbed45	-0.0067116343
56	0xbcbee259	-0.02330129
57	0xbb89c089	-0.00420386
58	0xbcaf952b	-0.021433434
59	0xbcffa980	-0.031208754
60	0xbd29afb5	-0.041427333
61	0xbd092851	-0.033485714
62	0x3a1844bd	0.00058085826
63	0xbc819769	-0.015819268
64	0xbc9b509a	-0.018959332
65	0xbbb7fc93	-0.005614826
66	0x3c17e932	0.009271907
67	0xbc88716d	-0.016655648
68	0xbc433c84	-0.0119162835
69	0xbc2a3557	-0.010388694
70	0xbd1007d4	-0.035163715
71	0xbce28a2a	-0.027653772
72	0xbb7ef628	-0.0038904045
73	0xbd211d9d	-0.039334882
74	0x3c40acb3	0.011759925
75	0xbc1fb98b	-0.009748827
76	0x3bad86a3	0.005295591
77	0xbc8fce69	-0.017554479
78	0xbcb6cfda	-0.022315908
79	0xbcc9f084	-0.02465082
80	0xbd41b41c	-0.047290906
81	0xbd1a2545	-0.0376332
82	0xbc1de3cc	-0.009636831
83	0xbd2e154b	-0.042500775
84	0xbb9c67c6	-0.004773113
85	0xbcf20e5b	-0.02954786
86	0x3cd91e0d	0.026503587
87	0xbb773cbb	-0.0037725407
88	0xbca174bf	-0.01970899
89	0xbc8f7180	-0.017510176
90	0xbc9075a3	-0.017634219
91	0xbd63111a	-0.05543623
92	0x38608cc5	5.3536864e-05
93	0xba9e5303	-0.0012079183
94	0x3c562ac7	0.013071722
95	0x3bb11d40	0.005405098
96	0xbce39aeb	-0.027783832
97	0xbc20a09c	-0.009803917
98	0xbd25592e	-0.04036825
99	0xbd0d09f1	-0.03443331
100	0x3c924447	0.017854823
101	0x3aea146c	0.0017858869
102	0xbd5f61b0	-0.05453652
103	0x3c55809a	0.013031149
104	0xbc5a0c87	-0.013308651
105	0xbccd62bc	-0.025071494
106	0x3cdc4eef	0.026893107
107	0xbd244c88	-0.04011205
108	0xbc73a314	-0.014870424
109	0xbc684b7f	-0.014178156
110	0xbd10dd1e	-0.035367124
111	0xbcef1062	-0.029182617
112	0x3cf80025	0.030273506
113	0xbc58f271	-0.013241396
114	0x3c62db9a	0.013846302
115	0xbd0ad275	-0.033892114
116	0xbc4bd88d	-0.012441766
117	0x3c4c753f	0.0124791255
118	0xbcb1a541	-0.021685245
119	0xbced49c2	-0.028965835
120	0xbb69dd55	-0.0035684903
121	0xbc9025c7	-0.017596139
122	0x3c21fccb	0.009886931
123	0x3c963b4d	0.018338824
124	0x3b56a357	0.0032751167
125	0x3b358586	0.0027697994
126	0xbd113f9c	-0.035461053
127	0xbd0986d3	-0.033575844

network_body.linear_encoder.seq_layers.2.weight f4 [128, 128]
0	0x3cad3d7a	0.021147478
1	0x3caf9a6e	0.021435943
2	0xbd62e010	-0.055389464
3	0x3c6c6e1e	0.014430551
4	0x3e15beb6	0.14623532
5	0xbdf18b51	-0.117941506
6	0xbcf9957b	-0.030466786
7	0x3d9e78c5	0.07737879
8	0x3e4093dc	0.18806404
9	0x3e0b10bc	0.13580602
10	0xbcbb4cd3	-0.022863781
11	0xbddb0133	-0.10693588
12	0x3d4c4d01	0.049878124
13	0x3cb9d5c7	0.022684945
14	0x3b2ebef9	0.0026664122
15	0xbd1bdab3	-0.038050365
16	0xbd102831	-0.03519458
17	0x3d6981c8	0.057008535
18	0xbd89939f	-0.067176096
19	0xbe5370a9	-0.20648445
20	0x3be3d353	0.006952682
21	0x3b5d7592	0.0033792001
22	0xbd2e0389	-0.04248384
23	0x3d932d0e	0.07186328
24	0xbddaa5cf	-0.10676157
25	0x3dcc1ad5	0.09966055
26	0xbd6fe68b	-0.058569472
27	0xbc585150	-0.01320298
28	0xbb5b40b8	-0.0033455323
29	0x3d2dcb1e	0.042430036
30	0x3db7fca7	0.089837365
31	0x3eac6ead	0.3367819
32	0x3e87a9a8	0.26496625
33	0xbe0130be	-0.1261625
34	0x3dfc7c73	0.12328424
35	0xbb65c027	-0.0035057159
36	0x3e7e6a33	0.248452
37	0xbe290aad	-0.16507979
38	0xbcd5a0a4	-0.026077576
39	0x3d99ea71	0.07515419
40	0xbb35cae2	-0.0027739336
41	0x3cdaf1f5	0.026726702
42	0x3d9dead8	0.077108085
43	0x3d0b3886	0.03398945
44	0xbd23f438	-0.040027827
45	0xbd8412ce	-0.06448899
46	0x3de71ceb	0.112848125
47	0xbc83c1e9	-0.016083675
48	0xbd642e7b	-0.05570839
49	0x3d89ef64	0.06735113
50	0x3df251ae	0.118319854
51	0x3d0a4471	0.033756677
52	0xbe46b04e	-0.19403192
53	0xbde3cb63	-0.11122777
54	0x3dbcd344	0.09219983
55	0xbd6b872f	-0.057501968
56	0x3d9fe808	0.07807928
57	0xbd83e0cc	-0.06439361
58	0x3e19da5a	0.15024701
59	0x3dd056d0	0.10172808
60	0x3db6efa6	0.08932428
61	0x3d3088b3	0.043099117
62	0xbd30f3de	-0.04320132
63	0x3dff1b59	0.12456388
64	0xbd76be62	-0.060240157
65	0x3b0851c4	0.002080069
66	0xbc817ae9	-0.015805678
67	0xbe5406bd	-0.20705695
68	0x3d91b39f	0.07114338
69	0x3ca81937	0.020519836
70	0xbe03ed7e	-0.12883565
71	0xbd69b61a	-0.05705843
72	0x3c9e3e80	0.019316912
73	0x3db71f8d	0.08941565
74	0x3d9be9ab	0.07612928
75	0x3d328245	0.043581266
76	0x3db271f6	0.087131426
77	0xbcf241ab	-0.029572329
78	0xbd7126ac	-0.05887477
79	0x3dc6ced7	0.0970742
80	0x3e182b5a	0.14860287
81	0xbe34501a	-0.17608681
82	0xbd145e90	-0.036222994
83	0xbd797b9f	-0.06090891
84	0xbc5915ac	-0.013249796
85	0xbdb960ea	-0.09051688
86	0xbe0f9c3e	-0.14024445
87	0xbd7bf47a	-0.061512448
88	0x3b65d805	0.0035071385
89	0xbd82c128	-0.06384498
90	0x3dc6042e	0.09668766
91	0x3dc9acb8	0.098473966
92	0x3bf8bfce	0.0075912243
93	0x3d01f669	0.031729136
94	0x3cecbd33	0.028898811
95	0x3dc2f79c	0.09519884
96	0x3d75a9b5	0.0599763
97	0x3db583f5	0.088630594
98	0x3de5bea0	0.112179995
99	0x3c123abb	0.008925135
100	0x3daaa4c5	0.083322085
101	0x3dfcc624	0.1234248
102	0x3b624396	0.0034525148
103	0xbdd06288	-0.10175043
104	0x3c976302	0.018479828
105	0xbc063d16	-0.008193275
106	0x3df5b46c	0.11997303
107	0xbde44d9c	-0.11147615
108	0xbdc8a89a	-0.09797783
109	0xbd654f87	-0.055984046
110	0xbdc12972	-0.09431733
111	0xbd336206	-0.043794654
112	0xbbb35114	-0.0054723118
113	0xbd9861eb	-0.07440551
114	0x3dc50a6e	0.0962113
115	0x3d805f48	0.062681735
116	0xbd3eab37	-0.046550002
117	0xbe020f41	-0.12701131
118	0x3db52453	0.08844819
119	0xbe3456ca	-0.17611232
120	0xbd938afe	-0.07204245
121	0x3ddd0309	0.107915945
122	0xbe1c89e4	-0.15286976
123	0x3cc80b99	0.024419593
124	0xbdcead58	-0.100916564
125	0x3d3c7e96	0.04601916
126	0x3d99e386	0.075141
127	0x3d9ec7e2	0.07752968
128	0xbd17102a	-0.03688065
129	0xbe06b109	-0.13153471
130	0xbdadf772	-0.08494462
131	0xbd532b97	-0.051555242
132	0x3d12fa10	0.03588301
133	0x3d2564d6	0.040379368
134	0x3d810a12	0.06300749
135	0x3d01163b	0.03151534
136	0xbdd53fbc	-0.10412547
137	0xbdd1d7cb	-0.10246237
138	0xbca204b6	-0.019777637
139	0x3e11eb18	0.14249837
140	0xbd657b1e	-0.056025617
141	0x3c6bc403	0.014389995
142	0x3dae8a64	0.0852249
143	0x3d7ae3ee	0.061252527
144	0xbcf3704f	-0.029716639
145	0xbd2733a2	-0.040820725
146	0xbd70015c	-0.058595046
147	0x3dfe4ddd	0.12417195
148	0x3d95a11b	0.07306119
149	0x3bc92de4	0.006139504
150	0xbbde21c0	-0.0067789257
151	0x3c537de5	0.012908434
152	0x3e25ccb4	0.1619137
153	0xbd3bdc8e	-0.045864634
154	0xbe122705	-0.14272697
155	0x3e03a6e1	0.12856628
156	0xbdf1d60a	-0.11808403
157	0x3ccd7ccf	0.025083927
158	0x3ba93620	0.005163923
159	0x3c4d5d59	0.012534463
160	0x3e3f38a6	0.18673953
161	0x3cf93124	0.03041894
162	0xbd7368aa	-0.059425987
163	0x3e01fd4f	0.12694286
164	0xbdbb5051	-0.091461785
165	0xbda5c376	-0.08093922
166	0x3d8cbe40	0.06872225
167	0xbdc90f6f	-0.09817397
168	0xbc7ddbc0	-0.015494287
169	0xbe0e76c1	-0.13912489
170	0xbe308272	-0.17237261
171	0xbd63177c	-0.05544232
172	0x3e27cef4	0.1638754
173	0xbd55eaaa	-0.052225746
174	0xbd8864ee	-0.06659876
175	0xbd7e6861	-0.062111262
176	0x3db8e70c	0.09028444
177	0x3cdd1fea	0.026992757
178	0xbdfaad12	-0.12240042
179	0xbcadb99f	-0.021206675
180	0xbe3d546e	-0.18489239
181	0xbd8f081a	-0.06983967
182	0x3dbae40c	0.09125528
183	0x3d9fa2f3	0.07794752
184	0xbd669d9e	-0.05630266
185	0xbd936ac5	-0.07198099
186	0xbdd4e473	-0.10395136
187	0x3da6fc53	0.08153596
188	0x3dc5be5b	0.09655448
189	0xbdd67f1b	-0.10473462
190	0xbd4982f6	-0.04919716
191	0xbda11daf	-0.0786699
192	0x3d99b889	0.075059004
193	0x3bcfe0fd	0.0063439594
194	0x3c839318	0.01606135
195	0x3dd429a1	0.103595026
196	0x3d90470f	0.07044803
197	0xbc216a15	-0.009851952
198	0x3d1275c1	0.03575683
199	0x3e350353	0.1767705
200	0xbc9b3490	-0.018945962
201	0xbd76c168	-0.06024304
202	0xbe119e03	-0.14220433
203	0x3d0e1bef	0.03469461
204	0x3d6dc4d3	0.058049034
205	0xbd679381	-0.056537155
206	0x3d47fb24	0.04882349
207	0x3d9df465	0.0771263
208	0xbdd40b56	-0.10353725
209	0xbd2b5f88	-0.041839153
210	0xbd3e5fa9	-0.046477947
211	0x3cb6dae1	0.022321166
212	0x3cb806d8	0.0224642
213	0x3e494e34	0.19658738
214	0x3d9da063	0.07696607
215	0xbdfbe8ca	-0.1230026
216	0xbd97048f	-0.07373916
217	0xbd90b6be	-0.07066105
218	0x3df50023	0.11962917
219	0xbde71456	-0.11283176
220	0x3e58ea51	0.21183135
221	0x3d4718ed	0.048607755
222	0x3caa142f	0.020761577
223	0x3c30fe7a	0.010802859
224	0x3db90ad0	0.090352654
225	0x3d523019	0.0513154
226	0x3a86a577	0.0010272701
227	0x3e160114	0.14648849
228	0x3e19cb08	0.15018857
229	0x3d37721d	0.04478656
230	0x3d0a8fb1	0.03382844
231	0x3c25c00d	0.010116589
232	0x3d2d409f	0.042297956
233	0xbe22c1a1	-0.15894176
234	0xbe13ba7f	-0.14426611
235	0x3ddf7bec	0.10912308
236	0xbbfd51c0	-0.0077306926
237	0x3e202c75	0.15641959
238	0x3d7c0636	0.06152936
239	0xbcddb57a	-0.027064074
240	0xbd0bcc05	-0.034130115
241	0x3cdd2bf1	0.026998492
242	0x3e554697	0.20827709
243	0x3d170652	0.036871262
244	0xbdc7c5c2	-0.09754516
245	0x3db941d2	0.09045757
246	0xbd34bc37	-0.04412481
247	0xbda19017	-0.07888811
248	0xbd9376b6	-0.07200377
249	0x3df3c832	0.119034186
250	0x3cd48d47	0.025946273
251	0xbd5204ea	-0.051274218
252	0x3cf4093d	0.029789561
253	0x3c57bdb9	0.013167792
254	0xbce5ad65	-0.028036783
255	0xbc4576ff	-0.012052297
