Learning/results/trainSession1/KartAgent/KartAgent-49992.onnx (onnx, 108737 bytes, 7 tensors)

41 f4 [1, 2]
000000 f8 2c 72 3b f3 2a 82 3d
       0.0036953073 0.06355848

distribution.mu.bias f4 [2]
000000 a0 0f 8d bb 5e 86 bf bb
       -0.004304841 -0.0058448752

distribution.mu.weight f4 [2, 128]
000000 e7 3a 87 3c d0 ce a9 bc 6d 1e 9c 3c 13 59 ba 3c
       0.016507579 -0.020728499 0.019057477 0.022747552
000010 22 f1 8e bc 5c f7 13 bd 8a 1a 53 bc 99 16 bd bc
       -0.017448965 -0.036124572 -0.012884745 -0.023082064
000020 cd 17 78 bb d7 a6 b5 3b 39 c7 98 bb e3 b7 d7 bc
       -0.0037855983 0.0055435705 -0.004662421 -0.026332801
000030 8d de 17 3b b6 a9 36 bc 6f d2 28 3d 19 7d d5 3a
       0.0023173422 -0.011148861 0.04121631 0.0016287892
000040 ae d4 25 bc f6 1f b9 bb f7 d4 07 bd 39 74 de 3c
       -0.010121508 -0.005649562 -0.033162083 0.027155029
000050 05 50 01 3c 2a e6 17 bb fd 43 f1 3a 99 7a d9 bc
       0.007892613 -0.002317796 0.0018407103 -0.026547717
000060 44 50 57 3c 61 42 83 3b 43 72 49 3c 28 ae 78 3b
       0.013141695 0.0040057157 0.0122953085 0.0037945602
000070 aa d2 24 3d 68 e9 2b 3c d6 6f 9a bb 28 54 01 3c
       0.040239967 0.01049266 -0.004713039 0.0078936
000080 00 4d 6a 3c 73 f7 01 bc 30 4e ef bb 45 ce 16 3c
       0.014300585 -0.007932532 -0.007303022 0.009204452
000090 98 c0 9d bc 1d 1e 96 bc 2b 60 90 bc 76 0b 80 3c
       -0.019256875 -0.018324906 -0.017623981 0.015630465
0000a0 f2 f1 08 bd 99 d9 1f 3c 3b 21 67 3c f0 f1 7c ba
       -0.033433862 0.009756469 0.014107044 -0.00096490886
0000b0 cd a2 fc 3b 82 6d e1 bc ad da d4 3b 2e fe 84 3a
       0.007709837 -0.027518038 0.0064957947 0.0010146552
0000c0 3c ec 14 bc 1b f3 86 bb a8 a6 e9 3b 75 bc e6 3c
       -0.009089526 -0.004118336 0.0071304627 0.028166035
0000d0 ff 86 10 3c 1a 48 73 bc 0d 53 ae bb be ba 9f 3c
       0.008821248 -0.014848733 -0.005319959 0.019498225
0000e0 bf c8 86 bd ab 3a 0c bd 8c 8f 0a 3c d9 c6 a6 bb
       -0.06581258 -0.034235638 0.008457076 -0.0050896225
0000f0 7a 5c 00 bc d5 bb e1 3b 9d df 60 bc 8d 99 de 3b
       -0.007834548 0.0068888464 -0.013725189 0.006793207
000100 67 c9 1b 3c 93 3c 50 3c ce c7 2a 3a 15 cb 7f bc
       0.009508467 0.0127097545 0.00065147586 -0.015612383
000110 f4 c5 14 bb 6c 4c fa bb 75 b0 f0 bb 87 83 99 bc
       -0.0022700997 -0.0076385047 -0.007345254 -0.018739475
000120 76 15 02 bc d3 19 80 bc 39 8e 59 bc f5 05 8e bc
       -0.007939687 -0.015637314 -0.013278537 -0.017336825
000130 e4 aa bc bb ae 87 94 bb 88 84 86 bb da f4 fd 3c
       -0.0057576764 -0.004532776 -0.0041051544 0.031000543
000140 22 5f 21 bc cd 9c c2 3c 0f d9 38 ba ca a7 ea 3c
       -0.009849342 0.023756409 -0.0007051387 0.028644461
000150 80 99 78 3c e3 45 f0 3c 8c 0f aa bc 2d 8d 15 bb
       0.015173316 0.0293302 -0.020759366 -0.0022819743
000160 fa 5f 29 bb a5 ee f3 bc fc 26 c4 bc 17 be f0 bc
       -0.002584456 -0.02977688 -0.02394437 -0.029387517
000170 6c 1f 17 3b 38 b6 2b 3c 13 b4 21 bc 87 da 1c 3b
       0.00230595 0.010480456 -0.009869593 0.0023933963
000180 96 28 7e 3c 04 bd 42 bb e4 4a 84 bc e3 6f 28 bc
       0.015512606 -0.0029714713 -0.016148992 -0.010280582
000190 86 39 cf 3c bf 6e 55 bd 0a 02 25 bc 95 2f 97 3c
       0.025295984 -0.05210757 -0.010071287 0.018455306
0001a0 97 a4 cc 3c 5a 8b 36 ba 87 49 78 bc d9 d5 5b 3c
       0.024980826 -0.0006963514 -0.015154249 0.0134176845
0001b0 8a c7 2c bd d6 9f 39 3c 12 cf 41 bc ac b0 3b 3b
       -0.042182483 0.011329612 -0.011829155 0.002863924
0001c0 2b c0 3f bc 96 7d 95 3c 62 b7 87 3c 7a 80 be 3c
       -0.011703531 0.01824836 0.016566936 0.023254622
0001d0 c2 eb 37 bc e6 8c 51 bc 43 b7 9c bc 54 56 6e 3c
       -0.011225643 -0.01278994 -0.019130355 0.014546949
0001e0 3a f3 a4 3b fe 49 04 bb f6 14 bd bc 15 ca d9 ba
       0.0050338777 -0.0020185704 -0.023081284 -0.0016616011
0001f0 5e ed 05 3d fb e3 74 3b 24 79 f0 ba 8d 7e 29 3c
       0.032697074 0.0037367332 -0.001834665 0.010345113
000200 06 f2 14 3d 98 e7 e8 bc 9d b4 8a bc c9 24 1d 3c
       0.036363624 -0.028430745 -0.016931826 0.00959129
000210 4c df 73 bc 13 60 13 3d e8 35 ec 3c be 53 f5 3c
       -0.014884781 0.035980295 0.028834298 0.029947158
000220 66 79 37 3b e7 bf 52 3c 17 d0 80 3b 6d ee 45 bc
       0.0027995943 0.012863136 0.0039310562 -0.012080771
000230 f4 f9 00 bc f9 b5 a5 bc 42 3e 8b 3c f9 2f 07 3c
       -0.0078720935 -0.020228373 0.01699746 0.008251184
000240 08 55 e9 3c 09 e6 88 bb 42 5f 57 bc d9 b7 d5 bc
       0.028482929 -0.004177813 -0.01314527 -0.026088642
000250 50 6b 32 3d a4 dc 31 3d fa 33 02 3c 86 e8 96 bc
       0.043559372 0.04342331 0.0079469625 -0.018421423
000260 3b d5 5b 3c 38 6f 8a 3b ae 63 74 ba a1 e2 73 bc
       0.013417537 0.004224684 -0.0009322715 -0.0148855755
000270 de d5 d0 bc e5 31 a7 bb 31 ce 56 bc cf ce 26 3c
       -0.025492605 -0.0051023834 -0.013110683 0.010181143
000280 0a 64 59 3c 8d 2f 23 3b f5 ec 6c bc 92 bc 97 bc
       0.01326848 0.0024900169 -0.014460792 -0.018522535
000290 b7 ca 16 bb 8b cf 9a ba 20 aa ae bb f2 67 d6 3c
       -0.002300901 -0.001181112 -0.005330339 0.026172612
0002a0 08 53 2f bc 29 43 9a b9 37 63 41 3c b3 c9 06 3c
       -0.010700949 -0.00029423207 0.01180344 0.0082268
0002b0 fe 2f 99 3a 56 36 6e bc 75 98 67 3c 6c 96 9c 3b
       0.0011687276 -0.014539322 0.01413547 0.004778674
0002c0 54 f2 84 3a 0c 26 04 3c b3 72 23 3d ef a2 d7 3b
       0.001014302 0.008065712 0.039904308 0.0065807025
0002d0 2d 14 01 bc ef ea e4 bc fe 9c 16 bc cf 80 39 3c
       -0.007878345 -0.027944056 -0.009192703 0.011322214
0002e0 2c 7b 1a bd db 6d ec bc 40 f0 df 3a b3 fc 3e 3d
       -0.037715122 -0.028860977 0.001708515 0.04662771
0002f0 a4 bb 93 3b dd a0 8b bb 01 d0 94 3c 8d c8 0d 3b
       0.0045084525 -0.0042611198 0.01816559 0.002163443
000300 f8 dd a7 bc 27 aa a5 3a 1d 60 1a 3c f2 e3 1e 3d
       -0.020491585 0.001263921 0.009422329 0.038791604
000310 1f 6d 34 3c 96 1b d5 bc 95 71 19 bc 59 48 a3 3c
       0.011012345 -0.02601413 -0.009365459 0.019931959
000320 b2 3b d2 bb a9 a5 90 bc ce f4 08 bc 9f d4 d9 3c
       -0.0064158076 -0.017657118 -0.008359147 0.026590643
000330 4b 50 b9 bc d8 53 11 3d 6f 91 27 3c e8 56 08 bb
       -0.022621294 0.03548035 0.010227545 -0.0020803753
000340 1b 80 94 3a c6 dd f8 bb 7a 39 e3 bb 3c bd 6f 3c
       0.0011329682 -0.007594797 -0.006934342 0.014632519
000350 11 1e 11 3d 8c 68 74 3c bf 17 ac bc bf 77 0a bc
       0.035429064 0.014917504 -0.021007417 -0.008451401
000360 09 ca 05 3d 35 2c 01 bd 7e 33 e7 3c 71 8f 00 bd
       0.03266338 -0.0315363 0.028222796 -0.031386796
000370 fc 9e a5 bb d8 b9 96 3b c0 5f 3c bb 2c 3c 37 3c
       -0.005054353 0.004599791 -0.0028743595 0.01118378
000380 13 b1 91 3b 10 6b 53 3c 45 2a 9d 3c cd 89 95 3c
       0.0044461577 0.012903944 0.019185195 0.018254185
000390 d3 d7 c3 ba 87 2e c3 bc 1d 3e bf bb 6c a8 da 3c
       -0.001494164 -0.023825897 -0.005836262 0.026691638
0003a0 67 f5 b7 3c 72 33 97 3b 11 65 20 bc 0c bb 07 3d
       0.022455884 0.004614287 -0.009789721 0.033137366
0003b0 fc 2e ac bc cd 76 10 3c 0b a0 f1 3b ab ac 38 3c
       -0.021018498 0.008817387 0.007373815 0.011271636
0003c0 00 a5 9f bc 8c 6d cc 3b 48 56 64 ba ef 44 81 3b
       -0.019487858 0.006238645 -0.00087103667 0.003944985
0003d0 9c b6 65 bc f1 88 0e bc f1 b1 cb 3c d4 59 4c 3c
       -0.014020588 -0.008699642 0.024865123 0.012472589
0003e0 8f ac 50 3c 88 b2 b1 3c a6 63 86 bc 1c 9a 5f 3b
       0.012736454 0.021691576 -0.016404938 0.0034118956
0003f0 76 26 0d bd 17 35 2d bc e7 20 1d bd 0b 54 e2 3a
       -0.034460507 -0.01057174 -0.038361456 0.0017267478

network_body.linear_encoder.seq_layers.0.bias f4 [128]
000000 d4 b0 9c bc 07 fb a5 bc c7 09 1a 3d 89 cc 90 bb
       -0.019127287 -0.0202613 0.03760698 -0.0044189137
000010 26 c4 21 3c 94 77 45 bc 43 a3 8f bc 2d b4 3e bc
       0.009873426 -0.012052435 -0.017533904 -0.011639637
000020 ea 72 4a 3c ab 9f 12 bb 70 e3 7a bb 4a df c0 3b
       0.012356499 -0.0022373002 -0.0038282536 0.005885993
000030 4d c1 f7 3b 86 a3 0a 3c 04 e5 ec bb f6 34 53 bc
       0.007560885 0.008461839 -0.007229449 -0.012891045
000040 0c 9d e5 3b 51 e3 8b b9 41 22 f5 bb 66 3f 20 bc
       0.007007247 -0.0002668151 -0.00748089 -0.00978074
000050 e4 db 06 ba 71 40 72 bc d4 bc e4 3c 56 ed 3a 3c
       -0.00051444606 -0.014785872 0.027922072 0.011409124
000060 f4 60 66 bc 0d f9 a9 3c ff 71 f4 3b 5d a1 aa bb
       -0.014061201 0.02074864 0.0074598785 -0.0052072243
000070 a3 3e bb bc 85 4b 07 3c 0c 01 fe 3b eb b6 37 3c
       -0.022857016 0.008257751 0.0077515896 0.011213045
000080 45 53 06 3c 0e 60 01 bc 27 0f 00 bd a0 4d fd 3b
       0.008198564 -0.007896436 -0.03126445 0.007730201
000090 ed ac 1a 3c d1 4f 92 3c e2 2b 02 bb 70 be a7 bb
       0.009440643 0.017860325 -0.0019862582 -0.0051191375
0000a0 84 e5 78 bc 58 53 b4 3c 54 d4 97 3c 4d f7 6d bb
       -0.01519144 0.022012398 0.018533863 -0.0036310733
0000b0 99 d3 c1 bc fe 77 8e bc e4 0b f4 3b ba ea 63 bc
       -0.023660468 -0.017391201 0.0074477065 -0.013910944
0000c0 b9 12 9a bb d2 ab c0 bc c5 e6 8c bc 86 27 45 3c
       -0.004701939 -0.02351943 -0.017199883 0.012033349
0000d0 82 e6 a3 bb 34 1c 04 bc 11 17 70 3c fa 72 98 3a
       -0.005001844 -0.008063365 0.014653937 0.0011630945
0000e0 d2 f9 1a 3c df 67 4e 39 29 40 ec 3a ae 0e 4e bb
       0.009458976 0.00019684386 0.0018024492 -0.0031441855
0000f0 be 8c a8 bb 9c 7d 4d 3c e5 df be bc e2 e6 9d bb
       -0.005143731 0.012542155 -0.02330012 -0.004818783
000100 93 c3 9d bb 8f a2 52 3c e9 7e 10 3c 8c 1f f6 bc
       -0.004814574 0.01285614 0.00881932 -0.03004434
000110 c4 a4 84 bc 96 06 b9 bc ef fc 89 bc e5 32 1c bd
       -0.016191848 -0.022586148 -0.016844241 -0.038134474
000120 ea 0f 8f bc 1c 52 6a ba ca e0 0f 3c b5 3f 5a bc
       -0.017463643 -0.0008938627 0.008781621 -0.013320853
000130 61 3f 06 ba 4f 8d d6 bb ae 4e bd 3c 4f 84 41 39
       -0.00051211385 -0.006547607 0.023108806 0.00018455203
000140 5b 5b 2a 3c 40 02 e1 bb 69 ed 5e 3b f2 91 39 bb
       0.010397757 -0.0068667233 0.003401602 -0.002831575
000150 00 59 c2 bc b2 7f 1a ba 8a 34 e4 bb c3 26 15 3c
       -0.02372408 -0.0005893662 -0.006964271 0.00910348
000160 2b 81 ca bc d4 92 7c bc 1f a7 b0 bb 01 50 03 bd
       -0.024719795 -0.015415866 -0.005391016 -0.03205872
000170 61 c0 79 3b cd eb c4 bc ac 35 6c bc fe f0 f4 3b
       0.0038109052 -0.02403822 -0.014417093 0.0074750176
000180 cf de aa 3b 0d 78 d5 3c b9 3d c4 3b 09 19 62 3c
       0.005214549 0.026058221 0.005988803 0.013799914
000190 54 7b 08 bc 81 8d c3 3c 95 c3 9d 3c 4b c4 22 3c
       -0.008330185 0.023871185 0.0192583 0.009934495
0001a0 e2 8a 91 bb d6 91 86 bb ae cc ee 3b 4b 8e f2 ba
       -0.004441605 -0.0041067405 0.0072875833 -0.0018505541
0001b0 bd ed e1 3b 96 dc 22 3c 0c 5d 39 3c b2 0c e5 bb
       0.0068947957 0.009940287 0.011313688 -0.006990039
0001c0 f9 b5 b4 bb e8 13 8a 3c bb 36 ed 3a c0 90 c3 b9
       -0.005514857 0.016855195 0.0018097976 -0.00037301145
0001d0 20 43 5d 3b 63 c9 8b b9 7c 1d 62 b9 47 41 aa bb
       0.0033761933 -0.0002666219 -0.00021564023 -0.00519577
0001e0 2f 57 06 3c 3d db da 3b 14 49 25 bc 24 f7 81 bc
       0.008199497 0.0066789673 -0.010088224 -0.015864916
0001f0 8a 52 9d 3b 92 34 25 bb 31 0e d4 bc 40 27 1b bc
       0.004801099 -0.0025208336 -0.025885673 -0.009469807

network_body.linear_encoder.seq_layers.0.weight f4 [128, 77]
000000 27 1b 26 3d ec 0e 10 be ce 70 60 3d bb 80 1e be
       0.04055324 -0.14068192 0.05479508 -0.15478794
000010 33 dc 21 bd 7b 06 25 3e 86 c4 86 bd 41 00 6c be
       -0.03951664 0.16115753 -0.065804526 -0.23046972
000020 7f e8 07 be 18 49 97 3d 92 52 7d bd ec d2 bb bd
       -0.13272284 0.073869884 -0.061846323 -0.091710895
000030 66 df c8 3d 86 21 bf 3d d6 cc c3 3d 93 a0 62 be
       0.09808235 0.09332566 0.09560554 -0.22131567
000040 7d 36 32 be aa d3 64 3b 99 b8 73 3d 67 c3 62 3d
       -0.17403598 0.00349162 0.059502218 0.05536213
000050 cd 0d 26 be 38 9b 9b 3b ef 24 47 3e a3 23 8f 3d
       -0.16216202 0.004748728 0.19447683 0.06989219
000060 ff 6f a0 bc 4b d1 21 be d1 1f 11 3e ca d7 26 bd
       -0.019584654 -0.15802495 0.14172293 -0.040733136
000070 bf 25 30 3e 20 57 3b bd 81 ef 13 3d 2c 5f 04 bd
       0.17201899 -0.045737386 0.03611708 -0.032317325
000080 c1 8b cb 3b 46 c5 0b 3e 0a 2a 40 be 51 be d6 bc
       0.0062117283 0.13649473 -0.18766037 -0.026213797
000090 b0 6b bf 3d fa ae 0a 3e f2 e2 ac bd 0c aa 63 3e
       0.09346712 0.13543311 -0.08441724 0.22232836
0000a0 2d 85 81 3d 01 06 25 3d c1 6d bd bb e6 a5 15 be
       0.063242294 0.04028893 -0.005780906 -0.14614066
0000b0 4b ba 5a 3d 9b 15 5c 3d 66 35 ed bd d6 12 c6 bd
       0.05340032 0.053731542 -0.115824506 -0.096715614
0000c0 55 5f 19 be 15 36 ca bd 48 b4 0d 3d 2d 8b 2f 3d
       -0.14977773 -0.098735966 0.034595758 0.042857338
0000d0 53 ca fb 3d 23 26 7a 3d a9 39 fa bd 2f 34 37 bd
       0.1229445 0.061071526 -0.12218029 -0.0447275
0000e0 d3 6b 54 3d 5f 04 2b be 5f ab d0 bc 70 bb 82 3d
       0.05186064 -0.16700886 -0.025472341 0.06383407
0000f0 c1 37 b4 bd a6 cc b2 bd 7b 1d 12 3d 1b cd f5 3d
       -0.08799697 -0.0873044 0.035672646 0.120020114
000100 00 ac a8 bd d2 69 8d 3e 26 eb ad 3d e9 1a 58 bd
       -0.082359314 0.27619797 0.08492117 -0.05276004
000110 dd e9 bd 3b 2b 13 9e bd f8 01 e6 3c de 83 6a 3d
       0.005795701 -0.077185 0.02807711 0.057254665
000120 d8 a7 e1 3b b9 a1 08 3e 4d 30 19 bd e2 e5 e9 3d
       0.0068864636 0.13342942 -0.03739958 0.114208
000130 54 ae ab 3d 67 37 06 be 70 6d d9 3d 6c 87 41 bd
       0.0838286 -0.13107072 0.10616577 -0.04724829
000140 d3 57 9a bd 4d e7 89 be 14 c5 1d be 93 be 80 3d
       -0.075362824 -0.2693428 -0.1540721 0.06286349
000150 51 48 0a bd b5 35 fc bd 7b 0b 8e bd bb 8c 5d 3b
       -0.033760373 -0.12314931 -0.069357835 0.0033805806
000160 b9 35 49 bd 09 2d f0 3d 3c 63 70 bc 9e 18 09 3e
       -0.0491235 0.1172734 -0.014672097 0.13388297
000170 dc b7 98 be b9 2d 86 bc 73 97 42 be ca 69 34 3e
       -0.29827774 -0.016379224 -0.19003086 0.1761848
000180 8c 50 6a 3e 62 dd 97 3d 62 af 0c bd 6f 08 85 bd
       0.22882289 0.07415272 -0.034346946 -0.06495749
000190 d4 bf 4d bd 6d 4c 36 3d 10 2a 99 3d 8a 73 13 be
       -0.05023177 0.04450648 0.07478726 -0.14399543
0001a0 e2 f3 95 3c 8d e5 be 3c 8e 5d 93 3c 5f 42 5a be
       0.018304769 0.023302818 0.017988946 -0.21314381
0001b0 b9 a9 cd bd 16 27 84 be 9f 51 e2 3b 2d 9b 72 3e
       -0.10042138 -0.2581107 0.0069067026 0.23692007
0001c0 31 9b 2f bc ff 92 37 3e ff 98 ff bd c6 07 cd 3d
       -0.010718153 0.17927168 -0.124803536 0.10011248
0001d0 c2 a1 d3 bd ed 66 95 bd 2d 61 d2 bc 15 12 ee bd
       -0.10333587 -0.07295022 -0.025681103 -0.116245426
0001e0 a1 54 31 be 47 83 0a bd 35 e1 30 3c c1 42 0e 3e
       -0.1731744 -0.033816602 0.010795881 0.13892652
0001f0 f5 62 3c bc 63 3b 48 3e dc e4 e2 bb 99 4a 30 3e
       -0.011498203 0.19553904 -0.006924255 0.17215957
000200 9b d6 d8 bd d8 47 8b bd 20 f2 3c bc d0 7e 6b be
       -0.10587808 -0.068008125 -0.0115323365 -0.22997594
000210 e1 95 a9 3b be a7 bf 3d 56 7d 02 3e b8 07 a7 bd
       0.0051753377 0.09358166 0.12743124 -0.08155769
000220 1f b4 51 bc e5 05 fa 3d 50 54 54 3e 06 43 df 3b
       -0.012799292 0.122081555 0.20735288 0.0068134097
000230 10 f6 88 3d 64 0a 61 3c f5 0d 56 3e ea d9 97 3e
       0.06687558 0.0137353875 0.20903762 0.29658443
000240 0a 62 2a 3e 97 8d b6 3d 4e fe 23 be b2 2c 1f be
       0.16638961 0.08913725 -0.16014978 -0.15544394
000250 3d 84 43 be 99 e2 c0 bb 62 db 74 3d 2a df 51 3e
       -0.19093414 -0.0058863875 0.059779532 0.20495287
000260 26 36 49 3c 58 a6 5f bd f2 c3 d8 3d 92 e1 41 be
       0.012280976 -0.054601997 0.105842486 -0.18933704
000270 8c 65 f5 bc 96 12 de 3c bb 73 43 3d 93 a7 c3 bd
       -0.029955648 0.027108472 0.04771779 -0.095534466
000280 b3 34 7d bd 76 92 27 be 11 84 75 bd a7 6e 0e bd
       -0.061817836 -0.16364464 -0.0599404 -0.034773495
000290 2c 38 89 3d 8e 32 78 bd d5 e4 a1 3c ee 70 a9 3d
       0.06700167 -0.060595088 0.019762436 0.08273493
0002a0 43 85 b2 3c 38 e0 4e 3e 9b 05 0a be aa 2e 07 3e
       0.02179206 0.2020272 -0.13478701 0.13201395
0002b0 aa 0b cb 3d e8 36 e0 3c 9d 92 cf 3d 40 4d 82 3d
       0.09914334 0.027369931 0.10135386 0.063623905
0002c0 2b e1 4c 3d d9 87 ad 3c aa 78 09 3d 7f ec 07 be
       0.050019424 0.021182941 0.03356234 -0.1327381
0002d0 c7 57 47 3e 7c 8d 3f be ca a1 29 3e 6d 99 dd 3c
       0.19467078 -0.18706316 0.16565624 0.027050698
0002e0 96 dd e8 bd ff 69 1a 3e c5 24 a1 bd 3b f6 89 bd
       -0.11370389 0.15079497 -0.07868341 -0.06736418
0002f0 72 3d 7e bd 42 26 2d 3d ba 4e 8e 3d cb b8 da 3d
       -0.062070318 0.042272814 0.0694861 0.10679778
000300 3a 41 6e 3d 3d 6f 2c bd 76 02 e2 bd 68 32 42 bd
       0.058167674 -0.042098273 -0.11035626 -0.047411352
000310 89 87 e5 bc 64 83 44 3d d9 4e 4a be 94 c4 15 be
       -0.02801873 0.047976866 -0.1975664 -0.1462577
000320 0c 71 31 3c ea fc 4f 3e c8 cf 6b 3d 7c e5 77 bc
       0.010830175 0.20311323 0.057571203 -0.015130397
000330 11 fd 87 bc 7d a0 80 3d 94 41 a5 bd 1d 56 4c 3e
       -0.016600164 0.06280611 -0.08069149 0.19954725
000340 5c c8 a5 3b 76 02 09 3e af fa ee 3d 05 4c bb 3d
       0.005059285 0.13379845 0.11668908 0.09145359
000350 98 e1 54 be 9e d9 1a bc e7 40 29 3c 5a ca de bd
       -0.20789182 -0.009451298 0.010330415 -0.10878439
000360 8f 52 75 3c 07 f1 88 bd d2 ca d8 3b 2d d6 e4 3c
       0.014973297 -0.06686597 0.006615975 0.027934158
000370 19 5c 28 3e 7e a6 52 3e eb 48 e5 38 a7 c1 80 3e
       0.16441382 0.20571324 0.00010933153 0.25147745
000380 42 68 a1 bd 5c b3 1f 3e ba 7d dc 3d 74 87 0b be
       -0.07881214 0.15595764 0.10766168 -0.1362589
000390 fd 80 bd bd 65 e9 24 3e fb 31 e6 bd d9 12 74 3c
       -0.09253118 0.16104658 -0.11240002 0.014897072
0003a0 db 5d 53 bd 27 94 8b bd bc d4 fe bd 1b 6e f9 3d
       -0.05160318 -0.06815367 -0.124429196 0.12179204
0003b0 8f 0d 6f 3d a6 94 6c 3c c4 f1 b8 bd 7c 0e f1 3c
       0.05836254 0.014439737 -0.09030488 0.029425852
0003c0 d7 5d 1c 3c 68 51 0d 3e 4a 78 c4 3d 2d ca 96 3d
       0.009543858 0.13800585 0.09593256 0.07362781
0003d0 a1 1b e1 3d 45 55 16 be af cd e2 bb 24 97 20 be
       0.10991598 -0.14680965 -0.006921492 -0.15682656
0003e0 47 b2 99 bd cc 66 94 bd 27 8e cc 3a d1 c1 9c bd
       -0.07504707 -0.072461694 0.001560633 -0.07654155
0003f0 f9 74 21 3e ff 67 64 3d cd ff dc bd c0 7b af bb
       0.15767278 0.05576324 -0.107909776 -0.0053553283

network_body.linear_encoder.seq_layers.2.bias f4 [128]
000000 8c b6 92 ba 1e 8e 1d 3c 4c 42 bb b8 d8 3e 1e bc
       -0.0011193319 0.009616403 -8.9292036e-05 -0.009658538
000010 c4 22 0e 3c 53 c7 e1 38 e7 62 dc ba 55 34 a0 39
       0.008675281 0.00010765963 -0.0016814143 0.00030556569
000020 36 1f 11 3c 7b ad 20 bc da 3d 9f bb 3c 45 39 3c
       0.008857539 -0.009806986 -0.004859668 0.011308011
000030 a0 18 2c bc 48 20 18 3b 41 4f 70 3b bb 8b 48 3b
       -0.010503918 0.00232126 0.0036668333 0.0030600864
000040 33 c2 67 3b b8 3d 24 bc c6 1f af 3b 91 e3 84 bb
       0.0035363554 -0.0100244805 0.005344364 -0.0040554483
000050 73 6b 83 bb db da f7 3b 60 6a 90 3c 2e 3c c8 ba
       -0.0040106117 0.0075639314 0.017628849 -0.0015276724
000060 e3 c2 0d bc 1a 0c 33 3c 98 4f 83 3c b2 79 38 bb
       -0.008652422 0.010928178 0.016029164 -0.0028148708
000070 d0 a4 92 bb a4 df 25 bb 9f 4e 92 bc f7 6f 59 3a
       -0.0044752136 -0.0025310302 -0.017859755 0.0008294577
000080 cf 32 4d bc 44 55 2f bc 92 06 97 3c 34 31 46 bb
       -0.012524321 -0.010701481 0.01843575 -0.003024173
000090 ed a7 e1 ba 9f 90 8a 3c 6e 34 b6 bb 08 d1 b2 bb
       -0.0017216183 0.016914664 -0.0055604493 -0.0054570474
0000a0 41 97 78 bb b4 34 a8 3b aa 12 83 bb 70 9f 83 bb
       -0.0037931951 0.005133236 -0.0040000277 -0.004016809
0000b0 48 27 ed bb 09 76 8b 3b 5f 4a 38 3c f3 6d a9 bb
       -0.0072373487 0.0042560142 0.0112482 -0.0051705777
0000c0 7b 44 38 3c 3c 91 2e bc 79 31 f6 39 68 c8 84 bb
       0.011246796 -0.010654744 0.00046957636 -0.0040522106
0000d0 84 13 1c b7 96 00 9e ba 08 92 7a bb 11 a9 38 3b
       -9.302868e-06 -0.0012054618 -0.0038234014 0.0028176943
0000e0 38 09 ea 3b d3 1d 16 3b c1 05 5c 3a f7 e0 2a ba
       0.0071422122 0.002290596 0.00083931914 -0.0006518508
0000f0 a4 46 4e bb 1d 43 ad 3b 16 a6 42 bb a8 ac 4f bc
       -0.003147521 0.0052875415 -0.0029701046 -0.012675442
000100 c3 4e 65 3b fe 8c 1c bc 80 c2 6b bb ba 33 98 ba
       0.0034989573 -0.0095550995 -0.0035974085 -0.0011612095
000110 3d 09 17 bb 8e aa e7 3b 9d 6e 53 bc 66 5e 9a bb
       -0.0023046278 0.0070698923 -0.01290479 -0.00471096
000120 51 28 2f bb 7d 71 dd 3a 74 00 d8 b7 ed d2 2f 3b
       -0.0026726911 0.0016894784 -2.5749418e-05 0.0026828602
000130 43 e3 20 3a 29 51 4f ba 08 21 8b bc 06 ce 3a bb
       0.000613738 -0.0007908517 -0.016983524 -0.0028504147
000140 2f ff 74 bb 86 31 05 bc 2b 52 e7 38 67 b4 03 bc
       -0.0037383547 -0.008129483 0.00011030243 -0.008038617
000150 77 81 bd 3a d9 4f 61 bb 48 03 66 bb 01 c7 4d 3b
       0.0014458139 -0.0034379868 -0.003509717 0.0031399133
000160 1b c9 ea ba 50 3a 5d bb 43 e5 e1 bb 05 f5 e9 3b
       -0.0017912717 -0.003375668 -0.006893785 0.0071398043
000170 85 8e 1a bc fc f2 3c b9 67 d8 db bb a4 14 b0 bb
       -0.009433393 -0.00018019596 -0.006709147 -0.0053735543
000180 44 17 62 bc d5 e1 a3 38 79 02 72 bb a2 8b 4c ba
       -0.013799492 7.81451e-05 -0.0036927743 -0.00078027893
000190 1b c1 09 3c 1e c0 b9 3a 8e 16 ec bb d1 7b 9f bb
       0.008407856 0.0014171635 -0.007204837 -0.004867055
0001a0 55 c7 8d 3b f9 fc f7 bb f7 c7 69 bc 48 a9 83 ba
       0.0043267407 -0.0075679985 -0.014268867 -0.0010044957
0001b0 00 f6 b1 3c 10 2a cb bb 14 5b fa bb 2e f5 bd bb
       0.021723747 -0.0062000826 -0.007640252 -0.00579705
0001c0 79 30 f1 bb 0d e0 1c bc 1b 0a a7 bb 2e 9a 22 b8
       -0.0073605147 -0.009574902 -0.00509764 -3.87674e-05
0001d0 bc ee a5 3a d4 ee 8b bb 19 80 8d bb 12 1b 02 bc
       0.0012659649 -0.004270414 -0.004318249 -0.007941024
0001e0 0c 37 e3 bb cd 4b 4e 3a ef e2 9a ba 1b f3 c2 bb
       -0.0069340523 0.00078695716 -0.0011816899 -0.0059493906
0001f0 2f b9 29 bb 65 08 90 3b 78 81 94 3a d6 9e ab bb
       -0.0025897732 0.004395532 0.0011330089 -0.0052374406

network_body.linear_encoder.seq_layers.2.weight f4 [128, 128]
000000 42 72 c2 bd 81 9f d6 3c ec 36 ac 3d 91 3c 08 bd
       -0.09494449 0.026199104 0.08408913 -0.033260886
000010 1d c7 f6 3d e2 2a 50 be 61 6b ed bb 87 64 a2 bd
       0.120496966 -0.20328858 -0.0072454666 -0.0792933
000020 fc ec 4c 3c f0 2a ff 3d 07 f5 50 3d bd 3e 18 3d
       0.012507673 0.124593616 0.051014926 0.037169207
000030 11 aa 0b be a8 09 62 bd c1 14 83 3d f6 93 9d 3d
       -0.13639094 -0.05518499 0.06400443 0.07694237
000040 cb 8f 27 3c 68 71 4d 3d 54 bb f6 3c 34 37 f2 3d
       0.010227154 0.05015698 0.030118622 0.118269354
000050 60 e4 11 be dc 8c 43 bd 0f e0 b7 bd 48 e2 28 3d
       -0.14247274 -0.047741756 -0.08978283 0.041231424
000060 cc d3 78 3c 8d 6b 0f bd 52 7a d1 3c 38 e3 13 be
       0.015187215 -0.035014678 0.025571022 -0.14442146
000070 d4 4d 55 3c 44 9c c2 3d 84 53 d4 bc 4e 65 9f 3d
       0.013019044 0.095024616 -0.02591873 0.07782994
000080 f3 81 0a bc fa de f8 3d c7 15 b6 3c d0 4f 09 be
       -0.008453834 0.121519044 0.022227181 -0.13409352
000090 ee d4 39 3d 38 a3 f6 3d 54 7d d7 3c df 03 78 3e
       0.04536908 0.1204285 0.026304878 0.24220227
0000a0 34 f1 a7 bd c8 60 b8 bd 24 81 84 3d cd 92 be bd
       -0.08200303 -0.090028346 0.06469944 -0.09305344
0000b0 8f 65 84 3a 4f 8e 6c 3d f4 9c a1 3d 45 61 05 be
       0.0010101068 0.057752904 0.078912646 -0.13025387
0000c0 c3 2e 0a be ae da 25 3d cf 50 fc bc 98 ce 8e bd
       -0.134944 0.040491752 -0.030800251 -0.069729984
0000d0 7a a8 2b 3d 94 38 59 bb f4 26 97 bc 56 e1 06 3e
       0.04190872 -0.0033145295 -0.018451191 0.13171896
0000e0 f3 23 77 3d 1c cb 04 bd bf ee 95 3b 4f f6 42 bd
       0.06033702 -0.032420263 0.00457558 -0.04759818
0000f0 10 e2 11 3d db 26 f6 3d 9f 3c 0c be e4 8c 1e bd
       0.03561598 0.1201913 -0.13695 -0.038708583
000100 79 cb 00 3e 11 e6 c3 bc fa 43 0c 3e 30 7c 34 bd
       0.12577619 -0.023913415 0.13697806 -0.044063747
000110 84 cc 0a be d1 d6 bc bc e8 2d 51 bd d2 36 8d 3d
       -0.13554579 -0.023051651 -0.05106917 0.06895222
000120 7c 6d 05 3d c4 dd 71 bb b5 a8 83 3d 8c f9 33 3e
       0.032575116 -0.0036905864 0.06428663 0.17575663
000130 8a 3f 2e be 86 d5 e8 bd 3c 19 9c bd de 7e a6 3d
       -0.17016426 -0.11368851 -0.076220006 0.08129667
000140 72 0f 23 bc 47 cf eb bd 33 73 0c bb 62 8b b3 3c
       -0.009952413 -0.115141444 -0.0021430969 0.021917049
000150 eb c8 86 3c b6 b9 a7 3c 18 e5 50 3d 98 3c ae bd
       0.016453227 0.020474296 0.05099973 -0.08507651
000160 d3 f1 43 be d9 28 83 3d 70 44 d0 3d ff 66 74 3d
       -0.19135217 0.064042754 0.101693034 0.059668537
000170 1a b7 c2 bc af dc 22 3d 65 78 17 bd 31 9b 63 bd
       -0.02376895 0.03976124 -0.03698005 -0.055567924
000180 06 79 dc 3c 1d ce 20 3e 3a 00 26 bd 15 3b 41 3e
       0.026913177 0.15703626 -0.04052756 0.18870194
000190 91 b4 0c 3c 03 a4 08 3e ee 50 5e bd 49 c9 b0 3b
       0.008587972 0.13343816 -0.0542764 0.005395089
0001a0 b7 97 46 be 62 a5 8c bc c7 d1 f2 bb cd 88 99 bd
       -0.19393812 -0.017168704 -0.0074102613 -0.07496796
0001b0 aa 15 d5 3c 14 62 48 bd c0 f4 13 3d 4e ac 00 3d
       0.026011307 -0.04892166 0.036122084 0.031414323
0001c0 0e fc 8e 3b 04 2b c9 3b da 1d 81 bd e1 bc 23 be
       0.0043635434 0.006139161 -0.06304522 -0.1599002
0001d0 ff cb e4 bd fd 54 db bd 3b cd e6 bd f8 ae 4f bd
       -0.11171722 -0.107095696 -0.11269613 -0.050703973
0001e0 cd 3b 85 3d 24 17 1d 3d d6 f8 76 bb 96 1c 2a bd
       0.06505547 0.038352147 -0.003768494 -0.041531168
0001f0 7a bd c0 bd 29 b0 f5 3c af 76 f5 bc a4 e1 1a bd
       -0.0941114 0.029991226 -0.02996382 -0.037812844
000200 81 c7 8a bd bd dc 4c bd 17 4d e2 3d c7 b9 0e 3e
       -0.067763336 -0.0500152 0.1104986 0.13938056
000210 d7 3a dd bd 1f e2 e4 bc d0 d1 c5 3c 99 94 47 bc
       -0.108022384 -0.027939854 0.024147898 -0.012181425
000220 cf b1 70 bd 26 77 81 3d 47 3a 19 bd 3c f2 6a 3d
       -0.05876332 0.06321554 -0.037409093 0.05735992
000230 16 70 1d bc e9 e3 18 be 5b a9 b7 bc a9 34 42 3b
       -0.009609243 -0.14930691 -0.022419622 0.0029633439
000240 4e bd af 3d 45 b2 70 3c b9 81 ec 3d 2c f8 b9 bc
       0.08581029 0.01469094 0.1154818 -0.022701345
000250 19 57 16 be 50 93 ba bd 73 8a f2 3d f8 61 06 3e
       -0.14681663 -0.09110129 0.11842813 0.1312331
000260 2b fb 02 bd b3 3a f6 3d 77 3d af bd 4b 81 cd bd
       -0.031977814 0.12022915 -0.08556645 -0.10034426
000270 22 5b 2c bd d0 38 c5 bd 61 41 20 bc ce b4 28 3d
       -0.0420791 -0.09629977 -0.009781213 0.041188054
000280 9f d2 9a bd c9 fd f9 bd 58 69 a2 bd 96 2e c6 bd
       -0.07559704 -0.12206609 -0.07930249 -0.09676854
000290 68 13 23 bd 4b a1 1f 3d 59 0d f2 bc de db 50 3c
       -0.03981343 0.03897218 -0.02954738 0.012747733
0002a0 9c 63 5f 3e 6f f4 d0 3b f0 55 0f 3e c3 21 b6 3d
       0.21815342 0.006376795 0.13997626 0.08893158
0002b0 43 c4 0b bd 9e 0a be 3d 6a 1e 80 bd 5e 30 cc bd
       -0.034122717 0.09279369 -0.06255801 -0.09970163
0002c0 55 05 a8 3d 0e d9 99 3c 28 da 70 3d 68 bf 25 bd
       0.08204142 0.018780258 0.0588018 -0.040465742
0002d0 a3 8b 63 bd ff be fd bb 7e 60 26 3d 0e 04 8b bd
       -0.05555309 -0.007743716 0.040619366 -0.06787883
0002e0 89 72 e8 ba 17 e1 59 3e b1 3f b1 bb c9 a5 2e 3e
       -0.001773433 0.21277271 -0.005409204 0.1705543
0002f0 34 52 f5 3d ff b6 7f 3d a8 1d 71 be b8 38 ed bd
       0.119785696 0.062430378 -0.23546469 -0.11583084
000300 a7 4d bb bc 57 0a 16 3d 48 81 1d bd d7 3f 14 bd
       -0.022864176 0.036630955 -0.03845337 -0.036193695
000310 b3 1e 6b 3d 9a da 3c bd 75 09 88 bd e1 c2 c0 bc
       0.057402324 -0.046106912 -0.06642429 -0.023530426
000320 94 dd 3d bd e6 bf 11 be a4 77 59 bd 4e 64 3e bd
       -0.04635389 -0.1423336 -0.053092614 -0.046482377
000330 28 d9 f7 bc 22 b6 3e 3c 5c 26 fa 3c 4f 32 b3 3d
       -0.030254915 0.0116401035 0.03053587 0.0874983
000340 ac ec 02 3e 2b a6 a6 3d 73 a8 fe bd 62 24 01 3d
       0.12785596 0.08137163 -0.12434473 0.031528838
000350 0a 9e 04 be 88 63 5e bd 04 d9 b9 3c 8c bc e3 bd
       -0.12950912 -0.05429414 0.022686489 -0.11119947
000360 72 25 96 bd c4 7b 23 3e 76 8d d7 3d 02 bb 4e be
       -0.07331361 0.15965182 0.105250284 -0.20188525
000370 e3 47 16 3e 09 91 be bd 54 8f ca bd 56 dd 09 bd
       0.1467586 -0.09305007 -0.09890619 -0.033658348
000380 34 d6 2b 3d 5b fc 1e bd 29 57 0f 3d f9 91 d7 bd
       0.041952327 -0.038814884 0.03499523 -0.10525889
000390 47 3c 03 bd a1 a4 08 bd 95 cf 03 be ae e3 f9 3d
       -0.032039907 -0.033360127 -0.12872155 0.122016296
0003a0 e6 c7 f4 3c 7b 3c 66 bd e4 97 e9 bc 1e 01 06 bd
       0.029880475 -0.056210022 -0.02851481 -0.03271591
0003b0 23 e1 b2 3c 5c 5d 93 3c 55 75 0e 3e 2c a9 a4 bb
       0.02183587 0.017988853 0.13911946 -0.0050250497
0003c0 57 2e d7 bc 32 e2 88 3e 1b d2 bc 3c 6c 45 f2 bd
       -0.026267214 0.26735073 0.023049405 -0.118296474
0003d0 5e 26 67 bd ea cd e1 bd 7f 53 29 3e 8d 8d 6a 3d
       -0.056433074 -0.11025603 0.16535757 0.0572639
0003e0 2a ed 8e 3d 14 6e 2c 3d 82 6a 90 3d e6 c5 b4 3d
       0.06978829 0.042097166 0.07051565 0.08826809
0003f0 85 b9 a6 3c 23 39 b4 bd f6 d9 38 3d 61 49 1a 3d
       0.020352134 -0.087999605 0.04512974 0.037667636
