Learning/results/trainSession1/KartAgent/KartAgent-76920.onnx (onnx, 108737 bytes, 7 tensors)

41 f4 [1, 2]
000000 23 43 44 39 48 20 85 3d
       0.00018717027 0.06500298

distribution.mu.bias f4 [2]
000000 c1 4f b9 bb 0e 98 75 bc
       -0.0056552594 -0.014989866

distribution.mu.weight f4 [2, 128]
000000 35 cf 91 3c 9d 5d e4 bc 44 c0 24 3c 84 81 0c 3d
       0.017799 -0.02787667 0.010055605 0.034303203
000010 98 b6 50 bc d5 cb ae bc 77 54 07 bc fa ca 8b bc
       -0.012738846 -0.021337429 -0.008259884 -0.01706456
000020 d4 42 5b 3a a7 f9 00 3c 45 ff 45 3c 92 6c bd bc
       0.0008364145 0.007872022 0.012084787 -0.02312306
000030 55 bd 69 bc 87 b9 4e bc 87 c3 18 3d 0f 17 a8 3b
       -0.014266332 -0.012617475 0.037295844 0.005129702
000040 75 6e 22 bb 82 0d 6c bb 56 2d b8 bc 25 6c 8b 3b
       -0.0024785076 -0.0036018793 -0.022482555 0.004254835
000050 3c 12 a8 3c b1 26 8c 3b ea 93 cf 3b d0 27 b0 bc
       0.020516507 0.0042770733 0.0063347714 -0.02150336
000060 4f 8c 82 38 21 3d fd 3a 17 90 fd 3b 0f ee 6d 3b
       6.2250176e-05 0.0019320586 0.007738124 0.0036305224
000070 70 16 00 3d 64 cf 5f bc 18 09 15 bc 7f 4c 1d 3c
       0.031271398 -0.013660286 -0.009096406 0.009600758
000080 44 a0 b3 3c 7d 4f 36 3c 89 ad 82 bc 5b f9 12 bb
       0.021927007 0.01112735 -0.015951889 -0.002242646
000090 3f 32 43 bc ea 90 3b bc 9e cc 40 bb eb 4a ca 3c
       -0.011913835 -0.011448124 -0.0029418836 0.024693927
0000a0 46 1c 0f bd 34 13 f5 3b a9 36 3d 3c 97 9d 15 3b
       -0.034939073 0.007479096 0.0115486765 0.0022829527
0000b0 df a0 7b 3b 47 01 e2 bc fb 91 22 3c 63 56 c9 3b
       0.0038395447 -0.0275885 0.0099225 0.0061443313
0000c0 af e4 27 bb 03 91 8a bb 95 22 41 3c 1a ef 09 3c
       -0.0025618484 -0.0042287125 0.01178803 0.008418823
0000d0 28 48 49 bc db 66 86 bc 9d 19 c5 bb 13 cd a9 3c
       -0.01228527 -0.016406467 -0.006015016 0.02072767
0000e0 db 18 81 bd ee e3 f9 bc 8d da ca ba 5f 4a 16 3a
       -0.06303569 -0.030504193 -0.001547651 0.0005733128
0000f0 1b c2 31 3b f7 f0 d5 3b 6b cf 41 bc 0a 3c 50 3b
       0.0027123753 0.0065289694 -0.011829237 0.0031774067
000100 3c 1a 21 3c 80 92 4b 3c 59 5f 9a ba 73 b4 80 bb
       0.009832915 0.012425065 -0.0011777683 -0.003927761
000110 13 d0 dc 3a a1 b7 a1 bb 31 84 e3 bb 6e 5f 5e bc
       0.0016846679 -0.0049352203 -0.0069432487 -0.013572557
000120 2b 0e 3c bc 02 28 51 bc 0b c7 65 bb e4 92 1b ba
       -0.011477987 -0.012765886 -0.0035061266 -0.0005934669
000130 7d 81 1d bc 4e 89 78 bb 4c 6f 10 3c c5 89 14 3d
       -0.009613392 -0.0037923637 0.008815598 0.0362642
000140 ed 80 3c bc 53 d0 de 3c 96 50 38 bb 60 ca 00 3d
       -0.011505348 0.027198946 -0.0028124205 0.031443
000150 5e b0 6b 3c 38 3e 83 3c ad eb 7e bc 6e d6 1d b9
       0.014385311 0.01602088 -0.015559119 -0.00015052568
000160 2e b6 e0 3b 36 45 fb bc 64 17 a8 bc c7 34 a8 bc
       0.006857655 -0.03067265 -0.020518966 -0.020532979
000170 1b c6 d1 ba ad c7 ad 39 85 5b 4e bc 68 ea 2c 3c
       -0.0016004475 0.000331459 -0.012595062 0.010553934
000180 1b 48 43 bb 22 ab 14 3c cc 59 17 bc 14 02 28 bc
       -0.0029797617 0.009074004 -0.009237718 -0.010254402
000190 c4 b6 ea 3c 9c 57 36 bd a4 25 83 bc c4 f2 aa 3c
       0.028651603 -0.044517145 -0.01600916 0.020867713
0001a0 8e 9e dd 3c 0e 2d ac 3b a4 dd a8 bc 86 35 8b 3c
       0.027053144 0.0052543944 -0.020613499 0.016993295
0001b0 17 8f 13 bd 88 c1 a1 3b e5 aa 1b bc 11 7b 3d 3c
       -0.036025133 0.004936401 -0.009501194 0.011564986
0001c0 bb 63 1c bc 58 4e 3c 3c 58 11 58 ba c5 22 80 3c
       -0.009545262 0.011493288 -0.00082423305 0.01564158
0001d0 23 8f 9f bc 7b c5 a2 bb ab 9a 92 bb 7f 74 6b 3c
       -0.019477433 -0.004967389 -0.0044740043 0.014371037
0001e0 b3 cd c0 3c 95 fc dc bb 16 e5 eb bc 65 e8 79 bb
       0.023535585 -0.0067439773 -0.02879576 -0.0038132903
0001f0 4a cf 0a 3d 60 16 6c bb 9f af 5f bb 14 0b 9f bb
       0.033889093 -0.0036024079 -0.0034131778 -0.0048536155
000200 04 74 45 3d d4 68 6b bc 29 b2 a9 bc e1 d9 67 3a
       0.048206344 -0.014368255 -0.020714836 0.0008844417
000210 1d 06 44 bc 1f 78 09 3d 67 df 2b 3d 9f 7a 33 3d
       -0.011964348 0.033561822 0.0419611 0.043818112
000220 be be 02 bc e5 d4 cc 3c 53 c9 21 3c 74 54 0c bc
       -0.007980047 0.02500386 0.00987466 -0.008565057
000230 f7 76 14 3b 36 0c 26 3b fb 02 df 3c 0b aa 16 3c
       0.0022653916 0.0025336868 0.0272231 0.009195815
000240 5c d2 1d 3d cf e2 a7 3b 30 2a ab bc ec 32 cc bc
       0.038530692 0.0051234732 -0.02089414 -0.024926625
000250 40 4a 5e 3d dd a6 69 3d 1d 0c 98 3c 12 68 07 bd
       0.05427003 0.0570439 0.018560464 -0.033058234
000260 68 4b 86 3c 27 69 ac 3c b3 84 c2 3b b2 b8 19 bb
       0.016393378 0.021046234 0.005936229 -0.0023456034
000270 89 a7 d9 bc 73 5d 69 bb 30 a3 a9 3b 53 53 01 3d
       -0.026569145 -0.0035608679 0.005176924 0.031573605
000280 ea 82 8c 3c 40 cd 5b 3b a2 21 8b 3c 88 fc e9 ba
       0.017152268 0.0033539087 0.01698381 -0.001785175
000290 a7 52 a4 bc 09 95 c3 3c 10 48 85 3b 50 fa 11 3d
       -0.020058943 0.023874776 0.0040674284 0.035639107
0002a0 a2 e6 e3 39 c9 8e 23 bc fb b4 60 3c ea e6 27 3b
       0.0004346865 -0.009982773 0.013715024 0.0025619813
0002b0 7d a0 84 bc 53 f0 9a bc ed 5b 63 3c e3 4b 4e 3c
       -0.016189808 -0.018913424 0.013876897 0.012591335
0002c0 62 a8 aa 3b 64 34 9b 3c 2d 5c 3f 3d e0 9a 5b 3c
       0.005208061 0.01894588 0.046718765 0.013403624
0002d0 bc 17 6c 3b af 6d 10 bd 5a 44 95 3b da 58 cb 3c
       0.003602489 -0.035260852 0.0045552673 0.024822641
0002e0 25 f3 33 bd e6 cf db bc 48 e8 db b9 3a f6 7e 3d
       -0.043933053 -0.026832532 -0.00041943998 0.06224654
0002f0 0f 2a 07 3c 43 9c 0f 3b 59 9a a6 3c e8 2c 50 bb
       0.008249774 0.0021913208 0.02033727 -0.0031765047
000300 45 9d 1b bc d0 87 f7 3a 53 a8 20 3c 6b 10 5f 3d
       -0.009497945 0.001888508 0.009805757 0.054459017
000310 0b e3 d4 3b 90 29 7e bc fd db e6 bb 30 98 7b 3c
       0.006496792 -0.015512839 -0.0070452676 0.015356109
000320 1c ba 4d ba 9e 68 ae bc e4 2d 0c bc 16 b0 b4 3c
       -0.0007847862 -0.02129012 -0.008555863 0.02205662
000330 fa 6b 1f bc a6 ba 42 3d c2 d2 69 3c d0 50 70 bb
       -0.009730333 0.047541283 0.01427144 -0.0036669262
000340 57 ca 58 bb ea ba a4 bc 8e c7 36 bb ec ba c1 3a
       -0.0033079588 -0.020108659 -0.002788994 0.0014780439
000350 7e 43 45 3d 3d a0 af 3c 22 14 c4 bc 34 de 3c bb
       0.04816007 0.021438712 -0.023935381 -0.0028818967
000360 a8 21 2c 3d 59 f0 e8 bc f8 52 f4 3c df e1 24 bd
       0.042024285 -0.02843492 0.029824719 -0.04025447
000370 a1 e9 99 ba 80 45 1e bb 49 d0 35 bb b8 b4 5b 3c
       -0.00117426 -0.0024150312 -0.0027742556 0.013409786
000380 c0 35 e0 bb e1 ff 0f 3c 0b 49 0c 3d 6d 0e 1a 3d
       -0.006842345 0.008789034 0.034249347 0.037611414
000390 a7 3a 42 3c 58 e7 95 bc d0 fe a9 3b 13 ee 02 3d
       0.011854804 -0.01829879 0.0051878467 0.031965327
0003a0 65 8a a9 3c af 6c 38 bc 44 71 17 bc 3c 1a 33 3d
       0.020695874 -0.011256381 -0.009243313 0.04372619
0003b0 1a 45 89 bc 1b 6b 7d 3c 9e b1 f7 3a ae 52 e1 3a
       -0.016756583 0.01546743 0.0018897539 0.0017190778
0003c0 1c 31 b4 bc 94 9d 17 3c 3a 67 d7 3b f0 db ad 3c
       -0.021996073 0.009253878 0.006573585 0.021223038
0003d0 70 c7 8e ba 08 16 66 bc c0 2d 00 3d 79 f0 84 3c
       -0.0010893177 -0.014043339 0.03129363 0.016227948
0003e0 5d 07 f7 3b a7 f2 fb 3c 0b 25 9d bc 2e 5e a3 bb
       0.0075387196 0.030755354 -0.019182703 -0.0049855923
0003f0 62 54 19 bd 91 ed 47 bc 9c aa 0f bd ba 7b ae 3b
       -0.03743399 -0.012202636 -0.035074815 0.005324808

network_body.linear_encoder.seq_layers.0.bias f4 [128]
000000 86 e5 8a bc d1 33 e3 bc 58 23 1e 3d b7 cc e7 bb
       -0.016955148 -0.027734669 0.038607925 -0.0070739645
000010 81 cd 1d 3c 27 15 13 bc f4 f2 51 bc cc dc 60 bc
       0.0096315155 -0.008977211 -0.012814272 -0.013724517
000020 7a df 25 3c eb 4d 0d bc a4 fc 15 bc 9b 39 fa 3b
       0.010124082 -0.008624534 -0.0091544725 0.0076362616
000030 bf d6 30 3c 2e c6 8a 3b 3d 45 a5 bb 0a b3 aa bc
       0.010793387 0.0042350506 -0.0050436542 -0.020837326
000040 29 de fb 39 10 0f cc 3b 9b f0 0a bc 1e a3 1f bc
       0.00048039973 0.0062273815 -0.008480216 -0.00974348
000050 38 32 aa bb 91 5b 9e bc 0b e7 e2 3c 40 1e 19 3b
       -0.005193975 -0.019330772 0.02769806 0.0023363978
000060 6c 91 46 bc a8 ef e9 3c 16 de 88 3c a3 13 40 bc
       -0.012119632 0.02855666 0.016707461 -0.011723432
000070 3b 15 c4 bc 29 13 86 3b d8 52 89 3b b5 53 4e 3c
       -0.023935905 0.0040916395 0.004190784 0.0125931995
000080 c4 d2 c7 3b 7b 4c 5a bc cb 2e 11 bd a3 cc 8e 3c
       0.0060981233 -0.013323898 -0.035445016 0.017431563
000090 fd 28 d7 3b ef b4 5d 3c ad 33 01 b6 20 69 5c bc
       0.0065661655 0.013531907 -1.9252577e-06 -0.013452798
0000a0 f9 69 a1 bc d9 4c bf 3c 6b 71 a5 3c 44 91 4b bb
       -0.019703852 0.023352074 0.020195683 -0.0031061927
0000b0 ec 1d b2 bc fc a0 91 bc 86 50 c1 3b 9e 35 54 bc
       -0.021742783 -0.017776959 0.0058994917 -0.012952236
0000c0 b2 7f 2e bb fd c3 99 bc fe 59 c0 bc 86 97 fd 3b
       -0.0026626405 -0.018770212 -0.023480412 0.0077390103
0000d0 1a ff c8 bb 9d 0c 7a bb 0d 31 6c 3c ed d6 b5 3a
       -0.006133926 -0.003815449 0.0144159915 0.0013873257
0000e0 6a 28 4b 3b 2f cd 28 3b 53 69 03 3c 3f ab 8c 39
       0.003099943 0.0025757065 0.008020717 0.0002683047
0000f0 ce d2 1a bc 97 9a 8a 3c 9c e1 b6 bc 46 f1 b3 bb
       -0.009449674 0.016919417 -0.022324376 -0.0054914085
000100 ff 61 98 bb e4 c6 76 3c 78 49 3a 3c 93 b1 01 bd
       -0.004650354 0.015062068 0.011370055 -0.03166349
000110 83 23 4f bc 9a 8c df bc aa 5d a2 bc bb 76 2c bd
       -0.012642744 -0.027288724 -0.019820053 -0.042105418
000120 c9 76 a9 bc 01 bf ce b9 c7 da 40 3c 4e c0 93 bc
       -0.020686524 -0.0003943369 0.011770911 -0.018036034
000130 05 5a 76 3b 68 9f 26 bc 1e 8b cb 3c d0 8a ac b9
       0.0037590277 -0.010169841 0.02484661 -0.0003290982
000140 7a 6c 40 3c cf 03 ea bb 0a d4 64 3c 8e 1b b6 bb
       0.011744613 -0.0071415673 0.01396657 -0.005557484
000150 39 ac ee bc a3 38 37 38 3b 4b 8a 3a ad 4d 83 3b
       -0.029134857 4.3683347e-05 0.0010550985 0.0040070624
000160 87 b8 db bc a5 d8 86 bc 21 5f 1a bc 97 dd 02 bd
       -0.026821388 -0.016460726 -0.009422095 -0.031949606
000170 c0 b9 52 bb a7 d0 d4 bc 69 79 92 bc 24 22 58 3c
       -0.0032154173 -0.0259784 -0.017880158 0.0131917335
000180 f6 64 8e 3b 7d c2 d7 3c 6a ac 24 3b fe f4 5e 3c
       0.0043455316 0.026337856 0.002512718 0.013608215
000190 68 e9 9a bb b6 47 e1 3c f6 30 74 3c 8f 38 c3 3b
       -0.004727531 0.027500015 0.014904251 0.00595767
0001a0 00 c4 87 bb 31 36 2d bb 27 8c b1 3b 70 5b b4 3a
       -0.004143238 -0.0026430006 0.005418319 0.0013760161
0001b0 52 27 1d 3c 91 23 59 3c 77 8a 64 3c b6 f3 9d ba
       0.009591894 0.013253109 0.013949028 -0.0012050781
0001c0 60 16 2e bc 61 a5 a9 3c d9 67 f2 3b 08 24 f5 3a
       -0.010625452 0.020708742 0.0073976335 0.0018702755
0001d0 d0 3f fc 3a b6 9f bf b9 38 72 85 39 dd 5d 32 bc
       0.0019245092 -0.00036549353 0.00025452836 -0.010886637
0001e0 76 ff 14 3c 65 52 02 3c 92 ee 3b bc b3 8c 89 bc
       0.00909411 0.007954215 -0.011470454 -0.016790723
0001f0 8b f7 11 3c fb 2b 9a bb 0c 2a c7 bc d7 61 52 bc
       0.0089091165 -0.00470495 -0.024312042 -0.01284071

network_body.linear_encoder.seq_layers.0.weight f4 [128, 77]
000000 a1 a5 fc 3c 81 5d 0b be ce 70 60 3d 86 6d 29 be
       0.030840697 -0.13609888 0.05479508 -0.16545686
000010 f5 ed 0d bd 9a e3 25 3e 86 c4 86 bd fd a0 76 be
       -0.03465076 0.16200104 -0.065804526 -0.2408485
000020 87 e6 20 be ce 6a b3 3d 92 52 7d bd cb ac dc bd
       -0.15712939 0.08760606 -0.061846323 -0.10775145
000030 93 df a1 3d 8b 34 df 3d d6 cc c3 3d 1e 2d 64 be
       0.079039715 0.10898694 0.09560554 -0.22282836
000040 82 39 43 be 60 41 a0 3c 99 b8 73 3d 13 8a 48 3d
       -0.19064906 0.019562423 0.059502218 0.048959803
000050 c6 70 27 be 45 07 11 3c ef 24 47 3e 05 c5 8e 3d
       -0.16351613 0.008851831 0.19447683 0.06971172
000060 0d 91 f6 bc 73 b8 0f be d1 1f 11 3e ae b7 27 bd
       -0.030098462 -0.14035206 0.14172293 -0.040946655
000070 3c 87 3b 3e 9d f6 70 bd 81 ef 13 3d e5 31 13 bd
       0.18313307 -0.05882894 0.03611708 -0.035936255
000080 1a c0 6c 3b 65 b5 25 3e 0a 2a 40 be 49 43 c5 bc
       0.0036125244 0.16182478 -0.18766037 -0.024079936
000090 84 a1 c6 3d de d5 03 3e f2 e2 ac bd 04 79 5d 3e
       0.096987754 0.12874553 -0.08441724 0.21628195
0000a0 c9 0d 86 3d 76 d5 27 3d c1 6d bd bb 7e d0 16 be
       0.06545598 0.040975057 -0.005780906 -0.14727971
0000b0 e6 35 64 3d 56 ec 54 3d 66 35 ed bd d9 78 d0 bd
       0.055715464 0.0519832 -0.115824506 -0.101793
0000c0 0d b0 33 be 59 89 99 bd 48 b4 0d 3d 3e 67 46 3d
       -0.17547627 -0.074969 0.034595758 0.048438303
0000d0 a9 ef fd 3d 73 23 8b 3d a9 39 fa bd 39 19 4d bd
       0.12399227 0.06793871 -0.12218029 -0.050072882
0000e0 8c 92 47 3d 60 ec 26 be 5f ab d0 bc 85 b8 86 3d
       0.048723742 -0.16301107 -0.025472341 0.06578163
0000f0 a9 3f a3 bd 35 ba c2 bd 7b 1d 12 3d 2a e7 f0 3d
       -0.079711266 -0.095081724 0.035672646 0.11762841
000100 ac 83 94 bd f7 79 8c 3e 26 eb ad 3d 72 17 55 bd
       -0.07251677 0.27436802 0.08492117 -0.052024312
000110 cc ae 42 3c fe 39 a5 bd f8 01 e6 3c a3 7d 64 3d
       0.011882495 -0.08067702 0.02807711 0.05578388
000120 c9 8d 54 3c 45 0e 05 3e 4d 30 19 bd b7 e2 e6 3d
       0.012973257 0.12993725 -0.03739958 0.11273711
000130 54 ae ab 3d 2a 14 f4 bd 4c 24 c4 3d 6c 87 41 bd
       0.0838286 -0.119179085 0.095772356 -0.04724829
000140 cb 03 a8 bd 2b 8b 8d be 6d ed 22 be 93 be 80 3d
       -0.082038485 -0.2764524 -0.15910883 0.06286349
000150 8e ba 18 bd 8d 82 e2 bd 28 72 ab bd bb 8c 5d 3b
       -0.037287287 -0.11060057 -0.08371383 0.0033805806
000160 6d e2 58 bd 47 26 05 3e 52 3b 0d bd 9e 18 09 3e
       -0.05295031 0.13002883 -0.0344804 0.13388297
000170 71 40 99 be 9d 4e 1c bc dd 6f 54 be ca 69 34 3e
       -0.29931977 -0.009540227 -0.20745797 0.1761848
000180 87 19 5e 3e 79 3c 95 3d c8 fe 35 bd 6f 08 85 bd
       0.21689425 0.07286925 -0.04443243 -0.06495749
000190 ae 19 41 bd 62 9c 22 3d 9c 8f 94 3d 8a 73 13 be
       -0.04714363 0.03969992 0.07253954 -0.14399543
0001a0 55 e0 8f ba 38 f3 1d 3c ea 11 f9 3c 5f 42 5a be
       -0.001097689 0.009640507 0.03040405 -0.21314381
0001b0 28 9a c2 bd 92 8b 83 be 7b bd b8 bc 2d 9b 72 3e
       -0.09502059 -0.2569242 -0.022551289 0.23692007
0001c0 a4 6b de bc 81 70 2c 3e c4 20 e7 bd c6 07 cd 3d
       -0.027150936 0.16839792 -0.112855464 0.10011248
0001d0 b6 9d c0 bd 9e 72 97 bd 5e 12 37 bd 15 12 ee bd
       -0.09405081 -0.07394908 -0.04469525 -0.116245426
0001e0 6b b8 3c be 90 50 24 bd d9 4f dc 3b c1 42 0e 3e
       -0.18429725 -0.040115893 0.006723386 0.13892652
0001f0 6a dd 75 ba d3 ba 61 3e 53 b6 34 bd 99 4a 30 3e
       -0.00093790016 0.22043924 -0.04411919 0.17215957
000200 ce 7a e9 bd 8e 7a 91 bd ff 52 f6 bc d0 7e 6b be
       -0.11400376 -0.071034536 -0.030068872 -0.22997594
000210 b1 18 83 3c 38 9a ba 3d 2c 0b f6 3d b8 07 a7 bd
       0.016002985 0.09111446 0.120138496 -0.08155769
000220 22 85 a4 bc a0 bd dc 3d dd 17 5c 3e 06 43 df 3b
       -0.020083014 0.107783556 0.21493478 0.0068134097
000230 e5 20 96 3d 0f b1 ff 3b ab 92 50 3e ea d9 97 3e
       0.07330493 0.0078030895 0.2036845 0.29658443
000240 46 0a 23 3e 85 26 9c 3d 6b ed 20 be b2 2c 1f be
       0.15921888 0.076245345 -0.15715568 -0.15544394
000250 eb 46 41 be 2e d5 99 bc 6c 8f 80 3d 2a df 51 3e
       -0.1887471 -0.01877841 0.062773556 0.20495287
000260 48 0b 6d 3c 58 a6 5f bd 47 5d cc 3d 0d 66 3e be
       0.014468022 -0.054601997 0.09978729 -0.18593617
000270 8c 65 f5 bc 21 bd 13 3d a7 08 40 3d e6 76 c1 bd
       -0.029955648 0.03606904 0.04688325 -0.09446506
000280 b3 34 7d bd b5 41 20 be 44 cb 93 bd 1a a0 d4 bc
       -0.061817836 -0.15650065 -0.07216504 -0.025955249
000290 2c 38 89 3d 8c d2 54 bd 1a 70 99 3b 5a 11 be 3d
       0.06700167 -0.051958606 0.004682553 0.09280653
0002a0 43 85 b2 3c ff dd 51 3e 73 28 04 be c7 b7 04 3e
       0.02179206 0.20494841 -0.12906055 0.1296073
0002b0 aa 0b cb 3d 04 f3 19 3d 28 eb c9 3d 5d d6 87 3d
       0.09914334 0.037585273 0.098593056 0.066326834
0002c0 2b e1 4c 3d aa 4f e5 3c a2 1f f0 3c 50 20 00 be
       0.050019424 0.027992088 0.029311959 -0.12512326
0002d0 c7 57 47 3e 2f 7e 34 be 30 ce 28 3e 26 7d f1 3c
       0.19467078 -0.1762626 0.16484904 0.02947862
0002e0 96 dd e8 bd 90 fe 1b 3e 72 09 ac bd 99 fb 4d bd
       -0.11370389 0.15233827 -0.08400239 -0.05028877
0002f0 72 3d 7e bd b7 00 33 3d 01 f0 90 3d 9e 5d d6 3d
       -0.062070318 0.043701854 0.07077027 0.10467075
000300 3a 41 6e 3d ea bf 2d bd b2 0f de bd 36 03 47 bd
       0.058167674 -0.04241935 -0.108428374 -0.048587047
000310 89 87 e5 bc 3d 61 3a 3d 21 4b 45 be df f9 20 be
       -0.02801873 0.04550289 -0.1926694 -0.15720318
000320 0c 71 31 3c 36 17 52 3e 99 63 25 3d 8b 25 58 bb
       0.010830175 0.20516667 0.040378187 -0.0032981362
000330 11 fd 87 bc c3 e2 88 3d 52 c0 9c bd e9 57 44 3e
       -0.016600164 0.06683876 -0.0765387 0.1917416
000340 5c c8 a5 3b fc bf 09 3e 85 43 09 3e 6b b8 ad 3d
       0.005059285 0.13452142 0.13404663 0.084824406
000350 98 e1 54 be 89 5a d9 bb 7a af 6f 3c 75 55 eb bd
       -0.20789182 -0.006633107 0.014629239 -0.11490909
000360 8f 52 75 3c 8f ff 88 bd 87 a9 9e 3c eb 1b a5 3c
       0.014973297 -0.06689369 0.019367946 0.020154914
000370 19 5c 28 3e 3a 8f 52 3e 53 31 b3 3b 2f 87 7b 3e
       0.16441382 0.20562449 0.0054685264 0.24563287
000380 42 68 a1 bd 93 f7 1d 3e 85 77 e7 3d 98 83 11 be
       -0.07881214 0.15426473 0.113020934 -0.14210355
000390 fd 80 bd bd 9c 2d 23 3e fb 31 e6 bd 5a f7 c5 3c
       -0.09253118 0.15935367 -0.11240002 0.024165798
0003a0 32 e1 71 bd 27 94 8b bd 6e 66 08 be 3f b2 ff 3d
       -0.059052654 -0.06815367 -0.13320324 0.124851696
0003b0 74 f5 5a 3d a6 94 6c 3c 99 01 c6 bd ff 89 33 3d
       0.05345674 0.014439737 -0.096682735 0.043832775
0003c0 3c 66 23 bb 68 51 0d 3e 1e 39 b1 3d c9 a3 95 3d
       -0.0024932763 0.13800585 0.08653472 0.0730663
0003d0 da e4 d9 3d 45 55 16 be 07 6f 33 bc 35 f3 19 be
       0.10639353 -0.14680965 -0.010951764 -0.15034182
0003e0 6e c7 aa bd cc 66 94 bd df a7 44 bc 19 8b ab bd
       -0.083388194 -0.072461694 -0.012002914 -0.0837614
0003f0 7b af 25 3e ff 67 64 3d 5e 9f e4 bd c3 2e 6c bc
       0.16180222 0.05576324 -0.111632094 -0.014415446

network_body.linear_encoder.seq_layers.2.bias f4 [128]
000000 8d f2 11 bc d8 a6 46 3c d9 77 9e 3b 68 3b 03 bc
       -0.008907926 0.01212474 0.0048360643 -0.008009769
000010 49 11 32 3c 26 e2 dd bb 3e 01 c1 bb 27 ac 83 bb
       0.010868379 -0.0067713438 -0.0058900407 -0.004018325
000020 fd a4 e1 3a f1 de 60 bc 3a 19 8d bb 12 4a 42 3c
       0.0017215308 -0.013725028 -0.0043059858 0.01185848
000030 36 8c 18 bc 17 79 94 3b 22 dc 77 ba d4 bd a3 3b
       -0.009310773 0.0045310366 -0.00094551046 0.0049969945
000040 17 5a 88 bb 18 3f 4c bc d8 74 c1 3b 9f 51 b5 ba
       -0.00416113 -0.012466215 0.0059038214 -0.0013833529
000050 b3 13 37 bc 03 e8 3e 3b 2b e6 55 3c b4 21 97 3a
       -0.01117413 0.002912999 0.013055365 0.001153043
000060 f2 53 3b bc cc 2f 44 3c 26 d8 7c 3c df 16 05 bc
       -0.011433588 0.011974286 0.015432393 -0.008123129
000070 08 65 91 bb 87 23 66 ba dc 83 c4 bc d3 26 b4 3a
       -0.0044370927 -0.00087790977 -0.023988657 0.0013744481
000080 58 54 6f bc 5b b3 88 bc 4b bb 99 3c 80 02 16 bb
       -0.014607511 -0.016687086 0.018766066 -0.0022889674
000090 82 46 ff ba d3 73 3a 3c 99 b1 21 bc 02 ce 2f bc
       -0.0019475969 0.011380154 -0.009869003 -0.010730268
0000a0 b0 08 b6 bb 34 8d 50 3b 31 d7 ad bb f3 0b b7 bb
       -0.005555235 0.0031822445 -0.005305194 -0.0055861413
0000b0 13 b1 49 bb bf 36 65 3b be 57 f1 3b 20 ce 94 bb
       -0.003077571 0.0034975258 0.007365196 -0.0045411736
0000c0 37 9e 57 3c 00 5e 5c bc e8 01 fe bb b5 66 ad bb
       0.01316028 -0.013450146 -0.007751692 -0.0052917846
0000d0 cc cc a1 3b 27 dc 01 3b c9 17 c0 bb 37 87 d0 3a
       0.004937744 0.001981506 -0.0058622104 0.0015909438
0000e0 14 b4 25 3c 90 e0 60 3b b4 29 31 3c d0 ae 0c bc
       0.010113735 0.0034313537 0.010813165 -0.0085866
0000f0 c0 b9 5d bb 85 8f 2a 3b af a6 d2 bb 1a 56 5c bc
       -0.003383264 0.0026025486 -0.0064285616 -0.013448263
000100 b5 32 dc 3b 5f 0d a7 bb 56 70 74 bb ca 73 02 bc
       0.006719912 -0.0050980295 -0.0037298403 -0.007962177
000110 10 c7 8c bb 60 70 ec 3b 03 89 80 bc 4d b7 ef bb
       -0.004296191 0.0072155446 -0.015690332 -0.0073155523
000120 0d 8f f7 bb 3d 54 b3 3a 87 05 50 bb 09 0b 25 bb
       -0.007554895 0.0013681721 -0.0031741576 -0.002518358
000130 29 0a 7e 3b 00 9a fd bb 26 eb a6 bc bd 4e 68 ba
       0.003876338 -0.0077393055 -0.0203758 -0.00088618306
000140 bb 64 03 bc 14 d5 9f bb 00 89 29 3b 89 fa 33 bc
       -0.0080196215 -0.004877696 0.0025869012 -0.010985025
000150 77 cb b7 bb c1 a9 1f bc f4 c6 a8 ba 43 a7 ce 3b
       -0.0056089717 -0.009745062 -0.0012876675 0.0063065602
000160 de 22 0c bc e6 7a 86 ba c2 9b 43 bc c4 93 32 3c
       -0.008553235 -0.0010260015 -0.011938991 0.010899488
000170 cf b8 44 bc 0a d0 5d bb fa 1f 23 bc 18 d7 1d bc
       -0.012006952 -0.0033845925 -0.009956354 -0.009633802
000180 d0 d6 66 bc e0 0b 35 bb 20 94 eb bb 25 73 48 bb
       -0.014089301 -0.0027625486 -0.0071892887 -0.003058621
000190 78 f1 14 3c 15 14 81 3a 48 ca 00 bc f3 d5 3d bc
       0.009090774 0.0009847904 -0.007860728 -0.011586654
0001a0 ee e9 e3 ba 34 db ce bb 0f d9 7e bc 59 44 df bb
       -0.0017388442 -0.006312752 -0.0155546805 -0.0068135676
0001b0 fa b4 af 3c 7e 30 f1 bb 42 7f 39 bc 87 6b 1b bc
       0.021448601 -0.007360517 -0.0113218445 -0.009486086
0001c0 69 74 c3 bb 99 56 59 bc 9e fb 72 b9 52 00 16 bb
       -0.005964805 -0.013265275 -0.00023172653 -0.0022888375
0001d0 a8 cc 1d 3b 56 a0 0a bc 87 74 2a bc 35 cb 30 bc
       0.0024078283 -0.008461079 -0.010403759 -0.010790636
0001e0 47 6b 04 bc 50 8a 3f bb e0 32 4a 3a 38 9b 4c bb
       -0.008082218 -0.0029226728 0.00077132694 -0.0031220447
0001f0 13 91 02 3a ee 67 fe 3b 72 10 88 3b b0 99 d1 bb
       0.0004980724 0.007763854 0.004152351 -0.006396495

network_body.linear_encoder.seq_layers.2.weight f4 [128, 128]
000000 3d 35 e7 bd d7 a3 1e 3d 12 76 b2 3d 44 2e 38 bd
       -0.11289451 0.03873047 0.087139264 -0.044965997
000010 57 78 0f 3e 3e 06 53 be d4 a0 fe bc b7 d0 b6 bd
       0.1401075 -0.2060785 -0.031082548 -0.08926528
000020 c1 c5 98 3c fd ce f6 3d f7 b1 2f 3d 7b 16 f5 3c
       0.018648984 0.12051199 0.04289433 0.029917946
000030 74 73 ef bd 9d f9 39 bd 32 43 b2 3d a3 64 85 3d
       -0.11691943 -0.045404065 0.08704223 0.065133356
000040 55 e9 2b 3c 08 fe 58 3d 5a 2a aa 3c 11 71 d2 3d
       0.010492642 0.052976638 0.020772148 0.10275472
000050 c5 84 13 be fa e6 68 bd b9 8c bd bd 79 aa 04 3d
       -0.14406116 -0.0568609 -0.09255356 0.032389138
000060 35 cb d9 3c 8d c2 9c bc 47 34 12 3d da 0b 14 be
       0.026586154 -0.019135738 0.035694387 -0.14457646
000070 6d f7 cf 3c a5 46 d8 3d c9 6a b7 bc ef 8c 97 3d
       0.025386536 0.105603494 -0.022389786 0.07399928
000080 a6 e8 82 bc 8d 72 f5 3d b7 b2 4d 3c bf 12 08 be
       -0.015980076 0.119847395 0.012554816 -0.13288401
000090 61 6a 45 3d e0 1f 03 3e c3 ba 0c 3d 70 46 7f 3e
       0.048197154 0.12805128 0.034357797 0.24929214
0000a0 f0 0d a2 bd 9b bc bc bd 0c 79 37 3d c5 9c c2 bd
       -0.079128146 -0.09215661 0.044793174 -0.09502558
0000b0 a9 74 ad bc 6d b9 5d 3d c7 83 b2 3d 64 17 07 be
       -0.021173792 0.054131914 0.08716541 -0.13192517
0000c0 22 0c e2 bd bc 9c eb 3c 53 42 a3 bb d8 7e 93 bd
       -0.110374704 0.02876126 -0.0049822717 -0.07201928
0000d0 64 1c 02 3d 22 89 38 3c 68 af b6 bc 52 3b 0f 3e
       0.031765357 0.011263164 -0.022300437 0.13987473
0000e0 ad 87 70 3d c7 99 ff bc ea 01 04 3c db 2d 67 bd
       0.05872314 -0.031201256 0.008057097 -0.056440216
0000f0 f1 cd 45 3d fd e5 05 3e 39 9c 02 be 25 31 5d bd
       0.048292104 0.13076015 -0.12754907 -0.054001946
000100 79 5b 1c 3e 1b 1c 00 bc 25 a6 29 3e 03 0a 6f bd
       0.15269269 -0.007819201 0.16567285 -0.058359157
000110 f2 20 19 be 75 9d 88 bc 58 e8 82 bd 2e c7 6d 3d
       -0.14953974 -0.016676644 -0.06391972 0.05805128
000120 2b fa 28 3d c8 42 29 bc 19 fd 70 3d 1f 51 3b 3e
       0.041254204 -0.010330863 0.058835123 0.18292664
000130 55 fa 30 be 6b 6c de bd 6c 25 79 bd 13 f4 ac 3d
       -0.17282994 -0.10860523 -0.060826704 0.08444991
000140 2f 84 75 3c 80 c3 cd bd 3f 48 29 3b 04 86 e7 3c
       0.014985128 -0.10047054 0.0025830416 0.028262146
000150 38 77 9a 3c 77 5e 92 3c 00 42 45 3d 01 8f c8 bd
       0.018855676 0.01786731 0.048158646 -0.09792901
000160 2a b8 41 be ac e3 aa 3d 5b 41 e0 3d e0 4c 1e 3d
       -0.1891791 0.08344206 0.109499656 0.038647532
000170 1d 26 8d bc a5 d2 46 3d 26 21 00 bd 92 61 80 bd
       -0.017230088 0.04854073 -0.031281613 -0.0626861
000180 cd fb ee 3c 1a bc 27 3e 3d a9 3c bd 6f ce 4d 3e
       0.029172802 0.16380349 -0.046059836 0.2009828
000190 dd 6b 6f bc b4 a7 20 3e fc 2d 2d bd 22 d8 14 3c
       -0.014613119 0.15688974 -0.042280182 0.009084733
0001a0 97 79 4e be 5b 9c 8b bc c9 d7 53 3b 5c 93 86 bd
       -0.2016357 -0.01704233 0.0032324663 -0.06571075
0001b0 9a ce 1d 3c 85 6a a5 bc 54 95 94 3c d7 1d 5a 3c
       0.009631777 -0.020192394 0.018137611 0.013312778
0001c0 01 15 50 bc 39 11 3a bc 39 a0 9d bd 9c b6 2c be
       -0.01270032 -0.011356645 -0.07696576 -0.16866535
0001d0 6c 6f ca bd 17 9e de bd 80 dd ee bd ff 81 0a bd
       -0.09884533 -0.10869997 -0.116633415 -0.03381538
0001e0 7b c6 8a 3d cc 80 e3 3c f9 08 58 bb 16 d7 b4 bc
       0.067761384 0.027771376 -0.0032964332 -0.022075217
0001f0 1d 3c e3 bd e6 51 aa 3c 69 79 e9 bc 43 e3 16 bd
       -0.1109545 0.020791005 -0.028500276 -0.036837827
000200 8e 1a 98 bd ab 09 82 bd 49 d2 d7 3d 51 9b 13 3e
       -0.0742694 -0.063495 0.105381556 0.14414717
000210 6c f1 fe bd be f6 cb bc e4 60 27 3d 4f 50 92 ba
       -0.12448391 -0.02489793 0.040863886 -0.001116285
000220 cd cf 96 bd c4 63 7a 3d f0 fc f2 bc 48 21 37 3d
       -0.073638536 0.0611303 -0.029661626 0.044709474
000230 3c 8b d2 bc ec 00 22 be 44 1a eb bc cf 15 71 3c
       -0.025701158 -0.15820664 -0.028699048 0.014714672
000240 70 b7 b4 3d 6c 44 26 3c 58 1f f0 3d d8 9e 7d bc
       0.088240504 0.010148149 0.11724728 -0.015479766
000250 a0 27 1b be 41 33 a6 bd f3 53 e4 3d a3 38 05 3e
       -0.15151834 -0.08115245 0.111488245 0.13009886
000260 2b fc 02 bd 8f 98 e3 3d d4 65 b3 bd c5 f2 c7 bd
       -0.031978767 0.111130826 -0.087596565 -0.097631015
000270 61 26 4a bd fe e8 ca bd f9 76 e2 bb 57 1c 64 3d
       -0.049353007 -0.09907721 -0.0069111553 0.05569109
000280 51 37 60 bd 49 e7 eb bd f6 a1 66 bd f2 e1 cd bd
       -0.054740254 -0.115187235 -0.0563068 -0.10052861
000290 e7 bf 4a bd 94 bb d3 3c 19 56 07 bd 76 b9 ac 3b
       -0.04949942 0.02584628 -0.033041093 0.005271132
0002a0 69 45 5e 3e 47 aa ee 3b fb fe 10 3e 52 15 a5 3d
       0.21706165 0.0072834822 0.14159767 0.08060707
0002b0 21 2e c1 bc e1 32 da 3d fc 3e 76 bd 60 86 c5 bd
       -0.023581566 0.10654236 -0.06011866 -0.096447706
0002c0 82 f6 83 3d 52 11 d4 3c 74 41 ca 3c 26 75 3b bd
       0.06443502 0.025887165 0.024689414 -0.04576602
0002d0 c2 b8 4f bd 8c 69 76 bc c5 4c 5b 3d ba c9 89 bd
       -0.05071331 -0.015039813 0.05354001 -0.067279294
0002e0 7e 80 49 bb 97 a7 5b 3e e3 ee b1 bb aa e1 28 3e
       -0.0030746753 0.21450649 -0.005430089 0.16492334
0002f0 67 01 e0 3d a1 a9 8d 3d f1 23 78 be 91 a5 e4 bd
       0.109377675 0.0691712 -0.2423246 -0.11164392
000300 90 31 f1 bc 8b 37 06 3d a9 d0 42 bd 28 10 07 bd
       -0.029442579 0.032767814 -0.047562275 -0.032974392
000310 8f 64 8d 3d 6e 73 43 bd 52 8d 83 bd 4f 25 9f bc
       0.06903946 -0.047717504 -0.06423439 -0.01942697
000320 8c d9 1e bd 27 a3 18 be 10 09 74 bd 9c a6 46 bd
       -0.038781688 -0.14905988 -0.059578955 -0.048498735
000330 4b 46 16 bd 85 eb fc bb 14 33 4c 3c 0a 7d a2 3d
       -0.03668813 -0.007718506 0.01246335 0.079340056
000340 0f 11 db 3d 33 3f a9 3d d3 25 0b be b3 92 d8 3c
       0.10696613 0.082640074 -0.13588648 0.02643714
000350 69 6c 04 be f8 fa 41 bd cf ff c5 3c 01 7c e4 bd
       -0.1293198 -0.047358483 0.02416983 -0.11156464
000360 12 e0 9a bd 05 92 17 3e 2c 3c cd 3d f2 87 3d be
       -0.07562269 0.14801796 0.100212425 -0.1850889
000370 f4 2e 0d 3e 87 8b b1 bd 05 77 c3 bd 88 08 ab bc
       0.13787442 -0.08669191 -0.095441855 -0.020878091
000380 39 52 21 3d 33 60 34 bd 02 6f 16 3d 02 2e db bd
       0.039385054 -0.044037055 0.03672696 -0.10702135
000390 bd e8 d4 bc cb e1 2e bd c2 9d 07 be 01 df fb 3d
       -0.025989885 -0.0426958 -0.13243774 0.12298394
0003a0 54 bb e2 3c d0 67 62 bd ca 89 0d bd 35 2e 1d bd
       0.027677216 -0.055274785 -0.034555234 -0.038374145
0003b0 c2 a2 a1 3c 34 13 c0 3b 03 a5 10 3e b7 f2 8a 3b
       0.01973093 0.005861664 0.14125447 0.0042403596
0003c0 ec fb 7f bc 56 c9 87 3e a8 5f eb 3c 37 a9 04 be
       -0.015624028 0.26520795 0.028732136 -0.12955175
0003d0 64 59 8c bd 4e 83 e4 bd 99 98 27 3e da 3a 49 3d
       -0.068529874 -0.11157857 0.16366805 0.04912839
0003e0 14 be 95 3d db 0c 51 3d 26 4c 9f 3d 99 5e 99 3d
       0.07311645 0.05103765 0.07778196 0.07488746
0003f0 22 0f ce 3c b3 26 b2 bd d0 79 30 3d bf ba 08 3d
       0.0251537 -0.086987875 0.04308492 0.03338122
