Learning/results/mx11/KartAgent/KartAgent-4999977.onnx (onnx, 104129 bytes, 7 tensors)

41 f4 [1, 2]
0	0xbe4c40e7	-0.19946633
1	0xbfacedd7	-1.3510083

distribution.mu.bias f4 [2]
0	0x3d8a01af	0.06738602
1	0x3e8a48b7	0.27008602

distribution.mu.weight f4 [2, 128]
0	0x3ae6ad81	0.0017599316
1	0xbc08a069	-0.008339026
2	0x3bcd9d9c	0.006274892
3	0x3e9550f4	0.29163325
4	0xba6f2307	-0.0009122346
5	0xbcfc9f6e	-0.03083774
6	0x3bece4d8	0.0072294287
7	0xbd309d1f	-0.043118592
8	0xbb90fbaf	-0.0044245343
9	0x3d9c646a	0.0763634
10	0xbb4f9039	-0.0031671657
11	0xbd875f00	-0.06609917
12	0x3b8e10c6	0.0043354956
13	0xbc96dcca	-0.018415827
14	0x3d93ca81	0.07216359
15	0x3e1c05d3	0.15236597
16	0xbc7a6924	-0.015283857
17	0x3da515f0	0.08060825
18	0x3e72601e	0.23669478
19	0xbd4abdc2	-0.049497373
20	0x3bab279c	0.0052232277
21	0xbe2299bf	-0.15878962
22	0xbc14d32e	-0.009083552
23	0x3d5b3cc4	0.053524747
24	0x3ad00031	0.0015869198
25	0xbbae7b6f	-0.005324773
26	0xbc28f45d	-0.010312167
27	0xbb37a41b	-0.0028021398
28	0xbc15bf59	-0.009139859
29	0x3bafa357	0.005360048
30	0x3e2a6656	0.166406
31	0xbb8cb523	-0.004294054
32	0x3c52228b	0.0128256185
33	0xbb56502d	-0.0032701597
34	0xbd19038f	-0.03735691
35	0xbe571fb1	-0.21008183
36	0x3b53f069	0.003233934
37	0xba871dca	-0.001030856
38	0xbb8bc486	-0.004265371
39	0x3bbd9732	0.005785846
40	0x3c7e497a	0.015520448
41	0xbdfefd78	-0.12450689
42	0x3d60602a	0.05477921
43	0x3e329ad1	0.1744187
44	0x3909b98e	0.00013134463
45	0xbc3e5e3e	-0.011619149
46	0xbcbb6fab	-0.022880396
47	0x3cbbe2dc	0.022935323
48	0xbd1d04dc	-0.038334712
49	0xbb631405	-0.0034649384
50	0xbd99bab5	-0.07506315
51	0x3e5e1991	0.2168944
52	0xbc98101e	-0.018562373
53	0x3bcce59a	0.0062529566
54	0xbd31ccea	-0.043408312
55	0xbd798139	-0.060914252
56	0xbd3cb21d	-0.0460683
57	0xbb014299	-0.0019723533
58	0xbd8cd59d	-0.06876681
59	0xbd118e37	-0.035536017
60	0xbbb295c4	-0.0054499824
61	0xbb1ee5e1	-0.0024245905
62	0x3bc04c2d	0.005868456
63	0xbbd0b540	-0.006369263
64	0xbc717799	-0.014737987
65	0xbc47e285	-0.012200003
66	0x3bd0cd52	0.0063721323
67	0xbc29bb95	-0.010359664
68	0xbd6d1c42	-0.057888277
69	0x3cb3ada7	0.02193339
70	0xbd60e59e	-0.05490648
71	0x3c28fa84	0.010313634
72	0xbc5e80dd	-0.013580528
73	0xbc9d54d2	-0.019205485
74	0xbcd8a09d	-0.026443774
75	0x3c01aef1	0.007915244
76	0x3c5e1590	0.013554946
77	0xbd886ab2	-0.066609755
78	0xbb8f2bc7	-0.0043692323
79	0xbca0268f	-0.019549636
80	0xbc3a655b	-0.011376704
81	0xbbcf2078	-0.0063210092
82	0x3c733aab	0.0148455305
83	0x3bbb6698	0.0057190172
84	0xbb93f625	-0.0045154267
85	0x3e21c3d8	0.15797365
86	0x3c2d4d08	0.010577448
87	0xb9140927	-0.0001411779
88	0xbb46b9d2	-0.003032316
89	0xbc3d6a2e	-0.01156096
90	0x3bdf0c06	0.006806853
91	0xbd679f3c	-0.056548342
92	0xbbbc164a	-0.0057399618
93	0xba0f38a5	-0.0005463458
94	0x3af02662	0.0018321986
95	0xbc02a732	-0.007974433
96	0xbc83cd9a	-0.01608925
97	0x3c0bb4a7	0.008526958
98	0xbd1685fd	-0.036748875
99	0xbc4b1614	-0.012395401
100	0xbd94b442	-0.07260944
101	0xbbd62363	-0.00653498
102	0x3afe0c0c	0.0019382252
103	0x3b393805	0.002826215
104	0xbd7018ea	-0.05861751
105	0xbd016769	-0.03159276
106	0xbd95399e	-0.0728638
107	0x3a6be4d8	0.0008998639
108	0xbd9709cf	-0.07374918
109	0x3baaf4b1	0.005217158
110	0x3950d74b	0.00019916629
111	0xbe5cc096	-0.2155784
112	0xbb2da4c4	-0.0026495913
113	0xbcda02cf	-0.026612667
114	0x3b75638e	0.0037443372
115	0xbc4e326b	-0.012585263
116	0xbd620513	-0.05518062
117	0x3c85248e	0.016252782
118	0x3c306934	0.01076727
119	0x3af7c30e	0.0018902735
120	0xbc833a66	-0.016019057
121	0xbb96df0b	-0.0046042255
122	0xbd497cb5	-0.049191196
123	0xbb98088e	-0.0046396917
124	0x39ece48c	0.00045183708
125	0x3ea06c0d	0.31332436
126	0x3b2a356b	0.002597178
127	0x3a2ccd3f	0.00065918633
128	0xba390868	-0.00070584426
129	0xba8e6142	-0.0010862725
130	0xbb9fa4d5	-0.0048719444
131	0xbcdc85d5	-0.026919285
132	0xba89e180	-0.0010519475
133	0xbdf71590	-0.120646596
134	0x3b6803d7	0.003540268
135	0xbd9a856b	-0.07544979
136	0x3acf00d1	0.001579309
137	0xbc3acfbc	-0.011402067
138	0x3a2bf6d9	0.00065599155
139	0xbe248560	-0.16066504
140	0xbb4bce36	-0.0031098253
141	0xbde643af	-0.11243378
142	0xbcae33bd	-0.021264905
143	0xbce36958	-0.027760193
144	0xbb2562ff	-0.0025236008
145	0xbcb8aacb	-0.022542378
146	0xbd0b9e05	-0.034086246
147	0xbdb41338	-0.08792728
148	0xba00ebee	-0.0004917969
149	0xbd0980f9	-0.033570264
150	0x3b5eed62	0.0034016003
151	0xbd1a1e5b	-0.037626605
152	0xbaaa6e4a	-0.0013002839
153	0x39743cfd	0.00023292373
154	0xba738450	-0.00092894305
155	0xbbcb57d3	-0.006205538
156	0xbae3da51	-0.0017383789
157	0x3b26dfc9	0.0025462976
158	0xbcd1ffb4	-0.025634624
159	0xbb22d5ab	-0.0024846594
160	0x3b177dd1	0.0023115764
161	0xbb439ff8	-0.0029849987
162	0xbe0dc046	-0.13842878
163	0x3cd25051	0.025673063
164	0x39e353e7	0.00043359326
165	0xba8d085a	-0.0010759935
166	0x397f3a5a	0.00024340433
167	0x3ba6265a	0.00507049
168	0xbb28882e	-0.0025715935
169	0xbd3228f3	-0.043496083
170	0xbc802832	-0.015644167
171	0x3cf325a4	0.029681034
172	0x3b2ddd39	0.0026529564
173	0xba67e4df	-0.0008846055
174	0xbe33dbe2	-0.17564347
175	0x371699ce	8.976507e-06
176	0xbde3351f	-0.110941164
177	0x37a390f3	1.9498611e-05
178	0xbe0b9944	-0.13632685
179	0xbd16cf3f	-0.03681874
180	0xbe228fbc	-0.15875143
181	0xbb6781cf	-0.0035325175
182	0xbe20f346	-0.15717801
183	0xbe0e1b58	-0.13877618
184	0xbe046e65	-0.12932737
185	0xbb04a1d0	-0.002023805
186	0xbe0d6f58	-0.13812006
187	0xbe0238d4	-0.1271699
188	0xb650a8ca	-3.1092663e-06
189	0xbaa5f2d9	-0.0012660875
190	0xbaa8611d	-0.0012846325
191	0xbb10fb6c	-0.0022122515
192	0xbdd6a8d4	-0.1048142
193	0x3b69ef7b	0.003569572
194	0x3aed0788	0.001808391
195	0x39e46f87	0.00043570643
196	0xbdae1b7b	-0.08501335
197	0x3bbbe88c	0.005734509
198	0xbd883f9b	-0.06652757
199	0xbb463407	-0.0030243413
200	0xbabf1162	-0.0014577324
201	0xbb971135	-0.0046102055
202	0xbe38bb2d	-0.18040152
203	0xbe020291	-0.12696292
204	0x3b8d29bb	0.004307953
205	0xbe040f54	-0.12896472
206	0xbb721e33	-0.003694427
207	0xba994f41	-0.0011696593
208	0xbb8b1809	-0.0042448086
209	0xbb8d09a8	-0.0043041296
210	0x3b8e38e3	0.0043402775
211	0xbc91915f	-0.017769514
212	0xbb66e82f	-0.0035233607
213	0xbd03c511	-0.03217036
214	0x3be60174	0.007019216
215	0xba83cf0d	-0.0010056213
216	0x3b8e00f7	0.004333611
217	0xbbb8b9ff	-0.005637407
218	0xbc46d157	-0.012134871
219	0xbe177fe8	-0.14794886
220	0xb73478dd	-1.0756977e-05
221	0xbabaa2b8	-0.0014239168
222	0x3ac935f9	0.0015351168
223	0xb99b0c73	-0.0002957318
224	0xbb98a6fc	-0.004658578
225	0x3bc3accc	0.0059715267
226	0xbe06b09b	-0.13153307
227	0xbe1ed826	-0.15512142
228	0xbdcd89e7	-0.100360684
229	0xb9d5e899	-0.00040799825
230	0xbc9a8d05	-0.018866071
231	0xba8ffd0f	-0.0010985452
232	0xbe122bf7	-0.14274584
233	0xbe195312	-0.14973095
234	0xbda9d10b	-0.08291825
235	0x3b207d09	0.002448859
236	0xbe3360dd	-0.17517419
237	0x3b3e262d	0.0029014454
238	0x3b2338a6	0.0024905591
239	0xbcf78bb3	-0.030217981
240	0x3b238d94	0.0024956213
241	0xbe135375	-0.14387305
242	0xbb23d0e2	-0.002499633
243	0xbb1e2192	-0.0024128896
244	0xbdb94f86	-0.09048371
245	0x3ae55bb2	0.0017498641
246	0xbbb186c0	-0.005417675
247	0x3ba89706	0.0051449565
248	0xbb81d595	-0.0039622285
249	0xb9f9b5e0	-0.00047628488
250	0xbe457ebd	-0.19286628
251	0xbb379174	-0.002801028
252	0xbaa1c438	-0.0012341803
253	0xbca29129	-0.019844608
254	0xbaef398d	-0.0018251404
255	0xb798853b	-1.8181852e-05

network_body.linear_encoder.seq_layers.0.bias f4 [128]
0	0xbc8ad7c3	-0.016948586
1	0xbdadfb78	-0.084952295
2	0xbc11e654	-0.008905012
3	0xbd31dca2	-0.043423302
4	0xbd4a71ae	-0.04942482
5	0xbc074eec	-0.008258563
6	0xbba4ad8f	-0.0050255726
7	0x3d811ebb	0.063046895
8	0xbd907c41	-0.070549496
9	0xbdcf6e1b	-0.10128423
10	0xbe184d84	-0.1487332
11	0x3cfbae22	0.030722681
12	0x3d8d89fd	0.06911085
13	0xbd43a09b	-0.047760587
14	0xbd2dd1fc	-0.042436585
15	0xbe04740d	-0.12934895
16	0x3d3f7c5a	0.04674945
17	0xb95e03cc	-0.00021172984
18	0x3ce51df7	0.02796839
19	0xb895832c	-7.129306e-05
20	0xbda81d46	-0.082087085
21	0x3e15d87c	0.14633363
22	0xbd3a2367	-0.04544392
23	0xbc875a5f	-0.016522584
24	0xbd949a67	-0.072560124
25	0x3d4066fc	0.046973214
26	0xbd29504f	-0.041336354
27	0xbb7b09d9	-0.003830543
28	0x3d3b650f	0.045750674
29	0xbd0cabd0	-0.03434354
30	0xbdb407b1	-0.087905295
31	0xbce99116	-0.028511565
32	0xbd15c07f	-0.03656053
33	0xbc93cbaa	-0.01804145
34	0xbdef7051	-0.116913445
35	0xbd8fccdc	-0.07021496
36	0xbc3c1a47	-0.011480874
37	0xbd09d36c	-0.033648893
38	0xbdd6a036	-0.104797766
39	0xbd8abdf8	-0.06774515
40	0xbcbabc38	-0.022794828
41	0xbdd82f7a	-0.105559304
42	0x3d79fcf6	0.061032258
43	0xbd1e7155	-0.0386823
44	0x3d4d5fe6	0.050140284
45	0x3a64937d	0.0008719487
46	0x3d907bfe	0.070549
47	0xbe898a5b	-0.2686337
48	0x3e06202b	0.13098209
49	0x3d1dbba6	0.038509034
50	0xbce6e78d	-0.028186584
51	0x3d291272	0.041277356
52	0x3d88ad51	0.066736825
53	0x3cb457cb	0.02201452
54	0xbdb2418d	-0.08703909
55	0x3d917dfc	0.07104108
56	0x3dc394f3	0.09549894
57	0xbd9c0752	-0.07618584
58	0x3cafc522	0.021456305
59	0xbd31ce7e	-0.043409817
60	0xbdffeee9	-0.1249674
61	0x3d5e7b10	0.05431658
62	0x3d746e0f	0.059675273
63	0xbdde3c60	-0.10851359
64	0x3d3d2433	0.0461771
65	0xbd1bc0f8	-0.038025826
66	0xbdd05484	-0.1017237
67	0xbd3574a7	-0.0443007
68	0xbddf45da	-0.10901995
69	0xbd9440a8	-0.07238895
70	0xbc8092d1	-0.015695008
71	0xbd40fb83	-0.04711486
72	0x3d9382ca	0.072026804
73	0xbdb33b28	-0.087515175
74	0x3d009ba8	0.031398445
75	0x3db24f8e	0.0870658
76	0x3e3b359b	0.18282168
77	0x3e1c41a5	0.15259416
78	0x3c29747d	0.010342714
79	0x3c734813	0.014848727
80	0x3b910b8b	0.004426425
81	0xba6046d7	-0.0008555478
82	0xbd9d6e80	-0.07687092
83	0x3c928038	0.017883405
84	0x3ccc51eb	0.024941405
85	0xbe04c0c6	-0.12964162
86	0x3d4ca71b	0.04996405
87	0x3c041f36	0.008064082
88	0xbd8083e4	-0.06275156
89	0xbd208e23	-0.039198052
90	0xbb574253	-0.0032845929
91	0x3d4f9653	0.05068047
92	0xbd01ffcb	-0.031738084
93	0xbdacf607	-0.084453635
94	0x3cc36862	0.023853485
95	0x3c82dd04	0.01597453
96	0xbcf288ba	-0.029606212
97	0x3dd442bf	0.10364293
98	0x3dd8435d	0.105597235
99	0x3d5dfb16	0.054194532
100	0x3db47db9	0.08813042
101	0xbce5258f	-0.02797201
102	0xbe0033f2	-0.12519816
103	0xbd3c7cd8	-0.046017498
104	0xbdbfe1ad	-0.09369216
105	0xbdf0a076	-0.117493555
106	0xbc5dbf56	-0.013534388
107	0x3d8c532a	0.068518
108	0xbd2b124c	-0.041765496
109	0xbc6e1a16	-0.014532587
110	0xbdd9b49e	-0.10630153
111	0xbd0ddc9e	-0.034634225
112	0x3ccb091a	0.024784613
113	0x3d225da2	0.039640076
114	0xbd26a87c	-0.040688023
115	0xbe208d14	-0.15678817
116	0xbd88b7d4	-0.066756874
117	0x3b17965a	0.0023130388
118	0xbe16450c	-0.14674777
119	0xbdf14593	-0.11780848
120	0xbd85fc30	-0.065422416
121	0xbdaddb45	-0.08489088
122	0xbad2ee2a	-0.0016092707
123	0xbd9fa445	-0.07795004
124	0xbd23561d	-0.039877046
125	0x3da511d8	0.08060044
126	0xbd8dc597	-0.06922453
127	0xbe240b14	-0.16019851

network_body.linear_encoder.seq_layers.0.weight f4 [128, 68]
0	0xbdb60fc0	-0.08889723
1	0x3e2762b6	0.16346249
2	0xbbcad757	-0.0061902213
3	0x3f5f9b5e	0.87346447
4	0xbe75aac1	-0.23990919
5	0xbe1baf13	-0.15203504
6	0x3d8be632	0.06831016
7	0x3d9bd9af	0.07609879
8	0x3e2924b6	0.1651791
9	0x3e22ae61	0.15886833
10	0xbd8fbba6	-0.07018213
11	0x3f346517	0.7046675
12	0x3d137733	0.03600235
13	0x3d7eac48	0.06217602
14	0x3e158d47	0.14604674
15	0xbec0094e	-0.375071
16	0xbd7bbd91	-0.06146008
17	0xbdc4bed0	-0.09606707
18	0xbd87e074	-0.06634608
19	0xbdcf4bee	-0.10121904
20	0x3d9b1e99	0.075741954
21	0x3d7ffe30	0.06249827
22	0x3e0c1229	0.13678803
23	0xbf364296	-0.7119535
24	0xbe1e38a4	-0.15451294
25	0xbe2d1b7d	-0.16905017
26	0x3dcdc2b1	0.100469
27	0xbdc28a05	-0.094989814
28	0x3e1d53c7	0.1536399
29	0xbe28a4a7	-0.1646906
30	0x3e3efdf5	0.18651564
31	0xbe95b1d8	-0.29237247
32	0xbd9e4aaa	-0.07729085
33	0x3d89342b	0.066994034
34	0xbe410471	-0.1884935
35	0xbc9160da	-0.017746378
36	0xbbc8b48d	-0.006125039
37	0xbc872259	-0.01649587
38	0xbe1878ca	-0.14889827
39	0xbce79b7e	-0.028272387
40	0x3dbf64ec	0.09345421
41	0x3dd3a54a	0.10334261
42	0x3d87e09d	0.066346385
43	0xbdf59462	-0.119911924
44	0xbe9b2770	-0.30303526
45	0xbdf19ada	-0.11797114
46	0xbeb80cf6	-0.35947388
47	0xbd33ec23	-0.04392637
48	0x3dca83c0	0.098884106
49	0x3d644797	0.055732336
50	0xbda99911	-0.08281148
51	0x3ee89215	0.45423952
52	0x3e9bd606	0.30436724
53	0xbd570108	-0.052491218
54	0xbce817ec	-0.02833172
55	0x3e07b54f	0.13252757
56	0xbe1672ea	-0.14692274
57	0x3db3e607	0.087841086
58	0xbc75fff6	-0.015014639
59	0x3e2d887c	0.16946596
60	0x3c4f3112	0.012645977
61	0x3d4322d4	0.047640637
62	0xbe1a71a6	-0.15082416
63	0x3ceb9437	0.028757198
64	0x3abf6dbb	0.0014604846
65	0xbe6633e9	-0.2248074
66	0x3dd40790	0.10353005
67	0xbdfc3e4b	-0.12316569
68	0x3d1d84d3	0.03845675
69	0xbca14423	-0.01968581
70	0xbc1b2353	-0.009468871
71	0xbfb504ae	-1.4142053
72	0x3df4e3c7	0.119575076
73	0xbe663fe7	-0.22485314
74	0xbd01ac56	-0.031658493
75	0x3e6c5fb0	0.23083377
76	0x3def6d89	0.11690814
77	0xbd5b451b	-0.0535327
78	0x3d88aa57	0.06673115
79	0xbe6b2595	-0.22963555
80	0xbc11ff4b	-0.008910964
81	0xbdb387c0	-0.08766127
82	0xbdbdb808	-0.09263617
83	0x3ef8f04f	0.4862084
84	0x3d89e227	0.06732588
85	0x3d9c4323	0.07629993
86	0xbd1e747e	-0.038685314
87	0x3e5adf09	0.21374144
88	0x3b990790	0.004670091
89	0x3d9faf5e	0.077971205
90	0xbe45bffd	-0.19311519
91	0x3f04f5cd	0.5193756
92	0x3db7be5d	0.08971856
93	0xbe123e8b	-0.14281671
94	0x3d1e2912	0.038613386
95	0xbd3e76b1	-0.04649991
96	0x3dfc47bf	0.12318372
97	0xbb678800	-0.0035328865
98	0xbe182547	-0.1485797
99	0x3cab8ae9	0.020940261
100	0xbe3dde09	-0.18541731
101	0xbd9642d7	-0.073369674
102	0x3dfb89f0	0.12282169
103	0xbdebcf8b	-0.11514195
104	0xbd9d8b3a	-0.07692571
105	0xbda3ea40	-0.08003664
106	0xbeb0f04b	-0.3455833
107	0x3e0219dc	0.12705177
108	0xbaae3ae9	-0.0013292703
109	0xba98ed1b	-0.0011667343
110	0x3cedb2c4	0.029015906
111	0xbd56c759	-0.052436206
112	0xbe6a41d6	-0.22876677
113	0xbdc129d0	-0.09431803
114	0xbe631304	-0.22175223
115	0x3dfa477c	0.12220666
116	0xbd3a61cc	-0.045503423
117	0x3dee573f	0.116377346
118	0x3da8d10f	0.08243
119	0x3d85954b	0.06522616
120	0x3df40bfb	0.119163476
121	0xbd8df410	-0.06931317
122	0xbd469285	-0.048479576
123	0x3e8647c8	0.2622664
124	0xbe0a4dd0	-0.13506246
125	0x3cbc5736	0.022990804
126	0x3df4ce43	0.11953404
127	0xbe4cc9d2	-0.19998863
128	0x3e308aeb	0.17240493
129	0xbe23b613	-0.15987425
130	0x3db35e82	0.0875826
131	0x3e1d1b0a	0.15342346
132	0xbe41f774	-0.18942052
133	0x3c6ba9c6	0.014383739
134	0x3d12fdf7	0.03588673
135	0x3e64a112	0.22327068
136	0xbe8be0fe	-0.27320093
137	0x3c0ff489	0.008786329
138	0x3e8117e7	0.2521355
139	0x3f9db785	1.2321631
140	0x3e82a218	0.25514293
141	0x3eb00aba	0.34383184
142	0xbdc38d21	-0.095484026
143	0xbf11408b	-0.5673911
144	0xbe8fa390	-0.28054476
145	0xbe254d1a	-0.16142693
146	0x3e09ccf5	0.13457091
147	0x3fb7ae09	1.4349986
148	0x3dabcc90	0.083886266
149	0xbd48243f	-0.048862692
150	0x3d4e1340	0.050311327
151	0xbf64b254	-0.8933461
152	0xbd32bd56	-0.043637596
153	0xbdded858	-0.10881108
154	0x3d0f8856	0.03504213
155	0x3eb97dc5	0.36228767
156	0x3db182f7	0.08667558
157	0x3dd441d3	0.103641175
158	0x3e3540b2	0.1770046
159	0xbe959bec	-0.2922052
160	0xbe853a52	-0.26021057
161	0x3e1f529b	0.15558855
162	0x3dd713f4	0.10501853
163	0x3eeda936	0.4641816
164	0x3e3d57fe	0.18490598
165	0x3c998ac0	0.018742919
166	0x3de697f1	0.11259449
167	0xbe01dba5	-0.12681444
168	0xbc5f89bd	-0.013643679
169	0x3c7a46cf	0.015275671
170	0x3c9b228f	0.018937377
171	0x3e9d5a66	0.3073303
172	0x3d60da13	0.05489547
173	0xbd3d6c91	-0.046246115
174	0x3caeef22	0.021354262
175	0x3e047392	0.12934712
176	0x3db52990	0.08845818
177	0xbe771fd6	-0.24133238
178	0xbd7e39ae	-0.062066726
179	0x3e7e25ae	0.24819061
180	0xbde74368	-0.112921536
181	0x3cbbd9b0	0.02293095
182	0x3d21f938	0.039544314
183	0xbe8d8f8f	-0.2764859
184	0xbe8dacc8	-0.27670884
185	0xbe6f6424	-0.23378044
186	0xbe49f75d	-0.19723268
187	0x3f088724	0.5333121
188	0x3d9613ef	0.07328021
189	0x3e0a94eb	0.1353337
190	0xbd432eb3	-0.047651958
191	0xbe8f6845	-0.2800924
192	0xbdca0101	-0.09863473
193	0x3c89c39b	0.016816905
194	0x3e1e32c3	0.15449052
195	0x3f0eb484	0.55744195
196	0xbe0bcf62	-0.13653329
197	0x3e4307b1	0.19045903
198	0xbe3d1c25	-0.18467768
199	0x3dd500ba	0.10400529
200	0xbe212256	-0.15735754
201	0x3d5690fc	0.05238436
202	0xbd902fbc	-0.070403546
203	0xbe125780	-0.14291191
204	0xbea6f300	-0.3260727
205	0x3de96aa7	0.113972954
206	0x3c6dab15	0.014506121
207	0x3fb16f98	1.3862181
208	0xbd91b51b	-0.07114621
209	0x3df64bb3	0.12026157
210	0xbd5a17d4	-0.05324538
211	0xbeade713	-0.33965358
212	0xbe953cfe	-0.29148096
213	0x3e364003	0.17797856
214	0xbd0258f9	-0.031823132
215	0x3f9c7c97	1.2225522
216	0x3e699ea5	0.22814424
217	0x3d5219ed	0.051294256
218	0xbe08d3ce	-0.13362047
219	0xbf0d68d4	-0.5523808
220	0xbdc9c8a6	-0.09852724
221	0xbd5da8c2	-0.054116018
222	0x3e16ec64	0.14738613
223	0x3e63753d	0.22212692
224	0xbda6acfc	-0.08138463
225	0x3afe5ba3	0.0019405972
226	0x3e5eca6a	0.21756902
227	0xbeff4f46	-0.49865168
228	0x3d9ac9e9	0.075580426
229	0xbe797cd1	-0.2436402
230	0x3e18d18c	0.14923686
231	0x3efdf82b	0.496034
232	0xbc4319dc	-0.011908021
233	0x3dc6212d	0.096742965
234	0x3dc6eb59	0.09712858
235	0xbefab53c	-0.48966396
236	0xbe0035ce	-0.12520525
237	0xbdeb3de2	-0.114864126
238	0xbdd66ddd	-0.104701735
239	0xbed37a1f	-0.41304109
240	0x3c5391d1	0.012913183
241	0x3e1054c6	0.14094839
242	0xbd159e98	-0.0365282
243	0xbf026596	-0.5093626
244	0x3db6f1bd	0.08932827
245	0x3bbc1f1d	0.0057410137
246	0xbd9c7a63	-0.07640531
247	0x3e21198d	0.15732403
248	0x3eaccf1c	0.33751762
249	0xbced4b8c	-0.028966688
250	0xbdfa3657	-0.12217396
251	0xbe05b782	-0.13058284
252	0x3d93b5a7	0.07212382
253	0xbd8380d1	-0.06421054
254	0xbd851392	-0.06497873
255	0x3e8d2e9a	0.27574617

network_body.linear_encoder.seq_layers.2.bias f4 [128]
0	0x3c07af4e	0.008281542
1	0x3ca66c9b	0.020315459
2	0x3c21eb10	0.009882703
3	0x3dfada84	0.1224871
4	0xbd9d1206	-0.07669453
5	0xbed60f4f	-0.41808555
6	0x3c8d7622	0.017268244
7	0xbeb032fd	-0.344139
8	0xb9f119d6	-0.0004598635
9	0xbcb2eb85	-0.02184082
10	0x3d95422e	0.072880134
11	0xbebff8a6	-0.3749439
12	0x3b6ded2e	0.00363047
13	0xbe662315	-0.2247432
14	0xbddd7fe8	-0.10815412
15	0x3dafd7f5	0.085861124
16	0xbd7b331a	-0.06132803
17	0xbe03cb44	-0.12870508
18	0x3d4922a5	0.049105305
19	0xbec8ba19	-0.3920448
20	0x3d28237f	0.041049477
21	0xbd9035af	-0.07041489
22	0xbda33d6d	-0.079707004
23	0xbe41aa04	-0.18912512
24	0xbc50df98	-0.012748621
25	0x3cc0e95c	0.023548774
26	0x3c96aed6	0.018393915
27	0xbd1707cd	-0.036872674
28	0xbca72938	-0.020405397
29	0x3b951cef	0.0045505683
30	0xbc2b6c99	-0.010462903
31	0x3d7e3789	0.06206468
32	0xbbad0ce6	-0.0052810786
33	0xbc515ee3	-0.01277897
34	0xbeb1832c	-0.3467039
35	0x3c1a7fa5	0.009429847
36	0x3bbc259c	0.005741788
37	0xbcdcd384	-0.026956327
38	0x3d8926c2	0.066968456
39	0xbd0589ca	-0.03260211
40	0xbc5d8042	-0.013519349
41	0xbdc4a0ce	-0.096009836
42	0xb9aa227e	-0.00032450625
43	0xbeaf7ba7	-0.34274027
44	0xbc4f57db	-0.012655224
45	0x3b3ac69b	0.0028499726
46	0xbead654b	-0.33866343
47	0x3c9a79e0	0.018856943
48	0xbea6a2e2	-0.32546145
49	0xbcf7a81b	-0.030231526
50	0xbea66a00	-0.32502747
51	0x3ca7c2c6	0.020478617
52	0xbe9545a5	-0.29154697
53	0x3c257485	0.010098581
54	0xbe98fff5	-0.2988278
55	0xbeb07ed6	-0.34471768
56	0xbec57ef9	-0.38573435
57	0xbd29d198	-0.04145965
58	0xbe946907	-0.2898638
59	0xbeaad4da	-0.33365518
60	0x3c94fb3d	0.018186206
61	0xbd7da9c6	-0.061929487
62	0x3b2f3908	0.0026736874
63	0xbc57321a	-0.013134504
64	0xbe8b4ef1	-0.27208665
65	0x3ba801db	0.0051271743
66	0xbcfc3388	-0.03078629
67	0xbcbab7f0	-0.022792786
68	0xbe95e9d5	-0.29279962
69	0xbd220aae	-0.039560966
70	0xbe9652bf	-0.29360005
71	0x3d2b60bf	0.04184031
72	0x3c4153d8	0.011799775
73	0xbd9af645	-0.075665034
74	0xbea9f604	-0.33195508
75	0xbea65aa9	-0.32491043
76	0x39407c89	0.0001835694
77	0xbea075e6	-0.3133995
78	0x3d98db42	0.07463695
79	0xbce6c80e	-0.028171565
80	0x3c054e68	0.008136369
81	0xbb8bc4c4	-0.0042653996
82	0xbb5f0e78	-0.0034035724
83	0x3d3313e1	0.04372013
84	0xbce91bb4	-0.028455593
85	0xbd256a25	-0.04038443
86	0xbbb8fbb4	-0.0056452397
87	0xbd37ea42	-0.04490114
88	0xbd252dba	-0.04032681
89	0x3cf39478	0.029733881
90	0xbc530857	-0.012880406
91	0xbeb2af30	-0.34899282
92	0x3d765c8e	0.06014686
93	0xbcf4cb63	-0.029882139
94	0x3cfa4835	0.03055201
95	0xbd966aaf	-0.07344567
96	0x3b85947d	0.004076539
97	0x3cce5ac4	0.025189765
98	0xbebed288	-0.37269998
99	0xbea45b36	-0.32100838
100	0xbe99a050	-0.3000512
101	0x3cca5f6c	0.024703704
102	0x3d18ceaf	0.037306484
103	0x3d3f1712	0.04665286
104	0xbeb3a1c4	-0.35084355
105	0xbec75f09	-0.38939694
106	0xbe87b745	-0.2650701
107	0x3a15c55a	0.00057133066
108	0xbeb18f28	-0.34679532
109	0x3cc50812	0.0240517
110	0xbcec11e7	-0.02881713
111	0x3c0b3702	0.008497002
112	0xbc668035	-0.014068653
113	0xbe890692	-0.26762825
114	0xbd507cfd	-0.050900448
115	0xbccbeded	-0.024893725
116	0xbec0328e	-0.3753857
117	0xbd3860d0	-0.045014203
118	0xbbc9b6c0	-0.0061558187
119	0xbc34f86f	-0.011045559
120	0x3d3b7390	0.045764506
121	0xba83d623	-0.0010058325
122	0xbeae3003	-0.34021005
123	0x3c5d625e	0.013512222
124	0x3adb7920	0.0016744472
125	0x3df3affd	0.118988015
126	0xbce603a1	-0.028077902
127	0x3c90e691	0.017688068

network_body.linear_encoder.seq_layers.2.weight f4 [128, 128]
0	0xbdf806a3	-0.12110641
1	0x3d50ecde	0.051007144
2	0x3d82b9a2	0.06383063
3	0x3d8fda5d	0.07024071
4	0xbda5edb4	-0.08101979
5	0x3d4e3953	0.050347637
6	0xbc8044ab	-0.015657743
7	0x3d7d3608	0.061819106
8	0xbd936e82	-0.07198812
9	0x3dfcf7a0	0.12351918
10	0xbb66e0f6	-0.0035229302
11	0xbaa8a0ea	-0.0012865339
12	0xbdb3f061	-0.08786083
13	0x3df0e07f	0.11761569
14	0xbe7c96f6	-0.24666962
15	0x3d20eaf8	0.039286584
16	0x3da1d51a	0.07901974
17	0x3e83dac9	0.25752857
18	0x3db1f08a	0.08688457
19	0x3cce3715	0.02517275
20	0xbe76c41a	-0.24098244
21	0xbc218588	-0.0098584965
22	0x3d89b429	0.06723816
23	0xbd9d2574	-0.07673159
24	0xbd883c6d	-0.0665215
25	0x3c2c2da4	0.010508928
26	0x3da4a797	0.08039778
27	0xbe744b54	-0.2385686
28	0xbe3d120e	-0.18463919
29	0x3daf1fdd	0.08550999
30	0x3a98ee36	0.0011667672
31	0x3d0da686	0.034582637
32	0x3de1ebb1	0.11031283
33	0xbc768ae5	-0.0150477635
34	0xbc9f64a6	-0.019457173
35	0xbe041240	-0.12897587
36	0xbd926e61	-0.07149959
37	0xbd0a9365	-0.033831973
38	0x3e07196f	0.13193296
39	0x3e140193	0.14453726
40	0x3d2619be	0.040551893
41	0xbe3fcdaf	-0.18730806
42	0x3dedb803	0.11607363
43	0x3de5a359	0.11212797
44	0xbd114ba1	-0.035472516
45	0xbded33ca	-0.115821436
46	0xbdc48c18	-0.09597033
47	0xbc689b6e	-0.014197214
48	0xbd9d13a7	-0.07669764
49	0x3dd958f4	0.106126696
50	0xbc59491c	-0.01326206
51	0xbdb99222	-0.09061076
52	0xbc26b102	-0.010174038
53	0x3d408714	0.04700382
54	0xbb6d203f	-0.003618255
55	0x3db894c2	0.09012748
56	0x3e229c7d	0.15880008
57	0x3d1b5647	0.037924077
58	0xbd12d01d	-0.035843004
59	0xbd7329e6	-0.05936613
60	0xbe27a22a	-0.16370454
61	0xbd9b642e	-0.07587467
62	0xbddea214	-0.10870758
63	0xbd8be107	-0.0683003
64	0x3dbb32cb	0.09140547
65	0x3e887077	0.26648304
66	0x3c322582	0.0108732
67	0x3d6f7e22	0.0584699
68	0x3c7c31e3	0.015392753
69	0xbc23f3a2	-0.010006817
70	0xbcf39dfe	-0.029738422
71	0x3dc53ac2	0.09630348
72	0xbd430997	-0.047616567
73	0xbe09b3ee	-0.13447544
74	0xbe3beb6c	-0.18351525
75	0x3ce4241d	0.027849251
76	0x3db198da	0.08671732
77	0xbd071879	-0.032982323
78	0x3e20ab34	0.15690309
79	0xbcce66dd	-0.025195533
80	0x3d8b8855	0.06813113
81	0xbd53e854	-0.051735237
82	0x3e25d7bd	0.16195579
83	0x3e124175	0.14282782
84	0xbc9e3bc0	-0.0193156
85	0x3e020f72	0.12701204
86	0x3de2d99f	0.11076664
87	0xbcd28bf4	-0.0257015
88	0x3d1ba192	0.037995882
89	0xbd3a5188	-0.04548791
90	0xbd1835d4	-0.03716071
91	0xbe9028f6	-0.2815625
92	0xbd7fc241	-0.062441114
93	0x3bcdb2ec	0.0062774327
94	0xbdd39f80	-0.103331566
95	0xbd22b059	-0.03971896
96	0x3da33cbd	0.07970569
97	0x3d788cad	0.060681034
98	0x3e1a94ff	0.150959
99	0x3dae6d6b	0.085169636
100	0xbcd066f3	-0.025439715
101	0xbe60f9ed	-0.21970339
102	0xbe1e562f	-0.15462564
103	0xbbc7b4f7	-0.0060945707
104	0x3dcbd409	0.09952552
105	0xbcb273ee	-0.021783795
106	0xbdcbb5e5	-0.09946803
107	0xbd07395a	-0.03301368
108	0x3d8d2977	0.068926744
109	0x3df03206	0.11728291
110	0xbd38871a	-0.045050718
111	0x3da960fa	0.0827045
112	0xbe0e61b7	-0.13904463
113	0x3d51a1c0	0.051179647
114	0xbd68a9b6	-0.056802474
115	0xbe0bc2ad	-0.13648482
116	0x3dbe013f	0.092775814
117	0x3e3a21e9	0.18176998
118	0x3c887b1b	0.016660264
119	0xbd327cfc	-0.043576226
120	0x3cb8ef00	0.022574902
121	0x3ea8c3f0	0.32961988
122	0xbdb33706	-0.08750729
123	0xbc09e618	-0.008416675
124	0x3e5f6779	0.21816815
125	0xbd79da5c	-0.06099926
126	0x3d1506e8	0.03638354
127	0x3e16e2b2	0.14734915
128	0x3e5b688c	0.214266
129	0x3d7a911e	0.06117355
130	0xbdcb2b66	-0.09920387
131	0x3e2a8f07	0.16656123
132	0xbdb79bec	-0.089652866
133	0xbe06523b	-0.13117306
134	0x3d881037	0.06643718
135	0xbda5b82e	-0.0809177
136	0x3dc44fcd	0.09585533
137	0xbd3ff986	-0.046868823
138	0xbe70f721	-0.23531772
139	0xbd1c01fd	-0.038087834
140	0x3de48646	0.11158423
141	0x3db014ac	0.08597693
142	0xbe1f3107	-0.15546046
143	0xbbb0729a	-0.0053847553
144	0x3e624128	0.22095168
145	0xbe0a0031	-0.13476636
146	0xbd6a20c5	-0.057160158
147	0x3d63a693	0.05557878
148	0xbd8a8d86	-0.06765275
149	0x3dac8637	0.08424037
150	0xbd944cf4	-0.0724124
151	0x3dbca6ff	0.092115395
152	0x3d791a33	0.060816
153	0xbde21c5b	-0.110405646
154	0x3d91f5ca	0.07126959
155	0xbcb9adb0	-0.022665828
156	0x3e148bc1	0.14506437
157	0x3d85e300	0.065374374
158	0x3c806b8c	0.015676282
159	0x3c7f0ce4	0.015567038
160	0x3e328939	0.17435159
161	0xbd100f74	-0.035170987
162	0xbbc2c09c	-0.005943371
163	0xbcf2daa1	-0.029645266
164	0x3d3ec6ae	0.046576194
165	0xbe706346	-0.2347537
166	0x3d9c5c78	0.076348245
167	0x3d384a88	0.044992954
168	0x3cccbdd1	0.024992855
169	0x3ba4965b	0.0050228066
170	0xbe3c05e6	-0.18361625
171	0x3e01be2b	0.126702
172	0xbd22430d	-0.039614726
173	0xbc786221	-0.0151601145
174	0xbc39653a	-0.011315638
175	0x3df8d999	0.121508785
176	0xbe80b91e	-0.25141233
177	0xbe817c79	-0.25290278
178	0x3cd83be1	0.02639574
179	0x3d6c6f34	0.05772324
180	0x3c21fe6a	0.009887317
181	0xbbe29582	-0.0069147954
182	0xbc40164d	-0.011724067
183	0xbe2b11e7	-0.16706048
184	0xbe1465e5	-0.14491995
185	0x3e2c87d6	0.16848692
186	0xbdceda95	-0.10100285
187	0xbe124325	-0.14283426
188	0x3dc71c2d	0.09722171
189	0x3881cd95	6.189492e-05
190	0x3e171eda	0.14757863
191	0x3d609432	0.05482883
192	0xbe050b03	-0.12992482
193	0xbc62009f	-0.013794093
194	0x3dd2fe3c	0.103023976
195	0x3cb88914	0.022526301
196	0x3ce19ac6	0.027539622
197	0x3d8351f9	0.064121194
198	0x3db5189b	0.08842584
199	0x3e097c65	0.13426359
200	0xbda98b42	-0.082785144
201	0x3e36e0ad	0.17859145
202	0x3d4ed26d	0.050493646
203	0xbe866831	-0.26251367
204	0xbd1d84f1	-0.03845686
205	0x3d9542e6	0.072881505
206	0xbdb1623d	-0.086613156
207	0x3e64cde2	0.22344163
208	0xbe0123b5	-0.12611277
209	0xbe604d55	-0.219045
210	0x3db58a51	0.088642724
211	0x3dc0732f	0.093969695
212	0x3d440705	0.047858257
213	0x3d2d4661	0.042303447
214	0xbcf960b1	-0.030441614
215	0xbe38b6ed	-0.1803853
216	0x3c854331	0.01626739
217	0x3b306a7d	0.002691894
218	0x3c6774a1	0.014126928
219	0xbdd9dadb	-0.106374465
220	0xbea737b9	-0.326597
221	0xbd72c298	-0.05926761
222	0xbd11d76e	-0.03560584
223	0x3ad1ac64	0.0015996811
224	0xbcf867fd	-0.030323023
225	0x3c8f7645	0.01751245
226	0x3e81a4b7	0.2532098
227	0xbe2f5f00	-0.17126083
228	0x3db62fdd	0.08895848
229	0x3ddd81e9	0.10815794
230	0xbda13ff6	-0.07873528
231	0x3c58f365	0.0132416235
232	0x3d98fe71	0.07470406
233	0xbde7e5e8	-0.11323148
234	0x3ddd6e20	0.1081202
235	0x3ce97f23	0.028503006
236	0xbb2f3767	-0.0026735903
237	0x3e310dd9	0.17290439
238	0xbdaaee0a	-0.083461836
239	0x3be5e272	0.00701552
240	0xbd430885	-0.047615547
241	0xbdc984d6	-0.098397896
242	0xbc315c1a	-0.010825181
243	0xbd8458f0	-0.06462276
244	0xbeab4786	-0.33453006
245	0x3c8d7e42	0.017272118
246	0xbb95af5c	-0.0045680236
247	0xbdeb6c37	-0.1149525
248	0xbe133fc2	-0.1437979
249	0xbde9ff7e	-0.114256844
250	0xbb3b8026	-0.0028610318
251	0xbe03776c	-0.12838525
252	0x3e406056	0.18786749
253	0x3d8195c1	0.063273914
254	0xbe457ae9	-0.19285168
255	0x3df24a35	0.1183056
