Learning/results/mx11/KartAgent/KartAgent-15199945.onnx (onnx, 104129 bytes, 7 tensors)

41 f4 [1, 2]
0	0x3ec3416e	0.38135856
1	0xbe721c14	-0.23643523

distribution.mu.bias f4 [2]
0	0x3e36cdcb	0.17851941
1	0x3f1f807e	0.6230544

distribution.mu.weight f4 [2, 128]
0	0xbdc46941	-0.09590388
1	0xba132d58	-0.0005614362
2	0xbb79d8d9	-0.0038123636
3	0x3eb57ba0	0.3544588
4	0xbc3d0f41	-0.011539281
5	0xbda7669d	-0.08173869
6	0x3bdf55f2	0.0068156654
7	0xbe201d33	-0.15636139
8	0xbb9d504e	-0.004800833
9	0x3e28b2ab	0.16474406
10	0xbc53aeb0	-0.012920067
11	0xbd69d3df	-0.05708682
12	0x3a90032c	0.0010987273
13	0xbd68f68a	-0.056875743
14	0xbcb8cfb0	-0.02255997
15	0xbdfb1966	-0.12260704
16	0xbb816f42	-0.0039500305
17	0xbca00ceb	-0.01953741
18	0xbd0f1483	-0.03493167
19	0xbe7cb31d	-0.24677701
20	0x394ad1c5	0.00019342366
21	0xbe897b38	-0.2685182
22	0xbbb733dd	-0.0055908994
23	0x3e10165d	0.14071031
24	0xbacdeac0	-0.001571022
25	0x3bf164fd	0.007366775
26	0xba9fa511	-0.0012179931
27	0x3bc80e96	0.0061052544
28	0xbe066c18	-0.13127172
29	0x3a346c6e	0.00068826124
30	0x3b9012a5	0.004396754
31	0x3bd6280a	0.0065355347
32	0xbcf78eae	-0.030219402
33	0x3b9c5b2d	0.004771611
34	0xbd1e7acd	-0.03869133
35	0xbe8d92a6	-0.27650946
36	0x3b5a1e4a	0.0033282214
37	0xbab0db48	-0.0013493085
38	0x39b503db	0.00034525883
39	0xbc8d5589	-0.0172527
40	0x3c362d8f	0.01111926
41	0xbdc60098	-0.09668082
42	0xbd746924	-0.059670582
43	0x3ebe70a6	0.3719532
44	0x3bbacf54	0.005700985
45	0x3b22fa07	0.0024868266
46	0xbd8b18a6	-0.06791811
47	0x38d4c731	0.0001014605
48	0xbcd41049	-0.025886672
49	0x3ba0b2e6	0.004904139
50	0xbe95d73d	-0.29265776
51	0x3bff6ffa	0.007795331
52	0xbd6335fb	-0.0554714
53	0x3a1ea84f	0.00060523016
54	0xbda37d02	-0.07982828
55	0xbe0dd32b	-0.13850085
56	0xbdf3c36f	-0.119025104
57	0xbc027531	-0.007962511
58	0xbe22c860	-0.1589675
59	0xbe220102	-0.15820697
60	0xbaed7e2c	-0.0018119267
61	0x3bef4d10	0.0073028877
62	0xbc871eae	-0.016494121
63	0xbaaae6c3	-0.0013038743
64	0xbd060eb4	-0.032728866
65	0x3b901c80	0.0043979287
66	0x3c1865da	0.009301627
67	0xbcf78255	-0.030213514
68	0xbd98a299	-0.07452888
69	0xbc926680	-0.017871141
70	0xbeaa485e	-0.33258337
71	0xbd0bba94	-0.03411348
72	0x3c17f5da	0.009274924
73	0x3bfefcb5	0.00778159
74	0x3c885796	0.016643327
75	0xbd95a8b5	-0.07307569
76	0xbc9b93f1	-0.018991442
77	0xbe710a13	-0.23539
78	0x3c5987d1	0.01327701
79	0xb99dfcc4	-0.000301337
80	0x3a9fa5d0	0.0012180153
81	0x3b37fcd0	0.0028074272
82	0xbac4376c	-0.001497013
83	0xbdc05780	-0.09391689
84	0xbbb05e92	-0.0053823674
85	0x3e40913c	0.18805403
86	0xbd10dd83	-0.0353675
87	0xb9d7d2dd	-0.000411651
88	0x3c2c1e81	0.01050532
89	0x3b2f4391	0.0026743154
90	0x3cb377c8	0.021907702
91	0x3caefdb0	0.021361202
92	0xbc6acf2b	-0.014331619
93	0xba8fc861	-0.0010969752
94	0x3bcb5da5	0.0062062317
95	0x3c34dfa8	0.011039652
96	0x3c4e78fb	0.012602086
97	0xbd0cd50d	-0.03438287
98	0xbe2fb3ce	-0.17158434
99	0xbde28b0f	-0.110616796
100	0xbd34a8c6	-0.044106267
101	0xb67ac73c	-3.7368873e-06
102	0x3bc62185	0.0060464763
103	0xbc298478	-0.010346524
104	0xbc737d7b	-0.01486146
105	0xbd335916	-0.04378613
106	0xbd81d5dd	-0.06339619
107	0xbc0c974b	-0.008580993
108	0xbd027fce	-0.031860165
109	0x39c2fff1	0.00037193255
110	0xb888b56f	-6.51878e-05
111	0xbf0ce7fc	-0.5504148
112	0x3a2d476e	0.000661007
113	0xbdb036b1	-0.086041816
114	0xbadefa26	-0.0017011806
115	0xbc0e0243	-0.008667531
116	0xbedcee80	-0.4315071
117	0x3deecf83	0.116606735
118	0x3b51a19b	0.0031987194
119	0xbb416928	-0.002951214
120	0x3cc650ab	0.024208387
121	0x3b6297ef	0.0034575423
122	0xbe80720a	-0.25087005
123	0x3a0d6b60	0.0005394723
124	0xbb6a309d	-0.0035734542
125	0x3f1a5b07	0.60295147
126	0xbc377931	-0.011198328
127	0x3b17c346	0.0023157164
128	0xbc8b0d05	-0.016973982
129	0x3bee3e17	0.0072705853
130	0xbbd6a961	-0.0065509533
131	0xbd859d1b	-0.06524106
132	0xbbdf73f7	-0.006819244
133	0x3bb50e34	0.005525375
134	0xbc887788	-0.01665856
135	0x3d322b2e	0.04349821
136	0x3b5e1d8e	0.0033892128
137	0x3d8aec49	0.06783349
138	0xbb93180c	-0.0044889506
139	0xbdcd6a2d	-0.10030017
140	0x3ba67c78	0.005080756
141	0xbe1ac595	-0.15114434
142	0xbdaf81bf	-0.08569669
143	0xbc3b3cd7	-0.01142808
144	0xbb15dbbf	-0.0022866575
145	0xbe49fe7f	-0.19725989
146	0xbdb6d16a	-0.08926661
147	0xbcffd599	-0.031229781
148	0x3acd4ffd	0.0015664097
149	0xbda6e3de	-0.08148931
150	0xbb1009f3	-0.0021978586
151	0x3dcf44b8	0.10120529
152	0xb97f59c7	-0.0002435214
153	0x3bb82d72	0.005620652
154	0xba2c5abc	-0.00065748
155	0x3adf6ee4	0.0017046598
156	0xbd18f1a6	-0.03733983
157	0x3c080c61	0.008303733
158	0xbd9ae805	-0.075637855
159	0xbba813af	-0.0051292996
160	0xbb569e18	-0.003274804
161	0xbb403e4f	-0.0029334014
162	0xbba0c36c	-0.0049061086
163	0x3e449d5d	0.19200654
164	0xbd1d5d5b	-0.03841911
165	0xba7ea971	-0.000971458
166	0x3bbbe343	0.005733879
167	0x3b0842c7	0.0020791756
168	0x3cc26a63	0.02373237
169	0xbd26b0e3	-0.040696036
170	0x3c5458c2	0.012960615
171	0x3caa9e9c	0.020827584
172	0x3bb62ec9	0.0055597764
173	0x3b2c87d0	0.0026326068
174	0xbd9e56a8	-0.07731372
175	0x3aae536c	0.0013300008
176	0xbdc0cb45	-0.094137706
177	0x3ac9cbfd	0.0015395876
178	0xbe2a46a2	-0.16628507
179	0xbdf3532d	-0.11881099
180	0xbe554dcf	-0.20830463
181	0xbbbba466	-0.005726385
182	0xbe245d15	-0.16051133
183	0xbe486f7e	-0.19573781
184	0xbb1a2c4f	-0.0023524945
185	0x3b87a81a	0.0041399123
186	0xbe721869	-0.23642124
187	0xbe89c72b	-0.26909766
188	0xbab8d166	-0.0014100492
189	0xbb760dd0	-0.0037544854
190	0xbbbb574d	-0.005717194
191	0xbb35164f	-0.0027631705
192	0x3cfbccf1	0.030737372
193	0x3aa44316	0.00125322
194	0x3b750e54	0.0037392573
195	0xbbf80f17	-0.007570158
196	0xbd26b382	-0.040698536
197	0xbb33376e	-0.002734627
198	0xbd0d3d2e	-0.034482174
199	0x3bd7a67f	0.006581127
200	0x3c0da31f	0.008644848
201	0xbc5be3c8	-0.0134210065
202	0xbe67c41f	-0.22633408
203	0xbe2fe9a0	-0.17178965
204	0xbc44c5a3	-0.012010011
205	0xbd63cc83	-0.05561496
206	0x3c8a6240	0.016892552
207	0x3b2e8ab7	0.0026632973
208	0x3c728c45	0.014803951
209	0xbbe7eee3	-0.007078038
210	0x3b0273cb	0.0019905444
211	0xbbeca1da	-0.0072214426
212	0x3b53d127	0.003232071
213	0xbd01e9fd	-0.03171729
214	0xbb5c968c	-0.003365907
215	0xbbabd225	-0.005243557
216	0xbbc461ec	-0.0059931185
217	0x3a4f1311	0.00078992645
218	0x3c109685	0.008824949
219	0xbe1f2a9e	-0.15543601
220	0xbba42478	-0.00500923
221	0xbbff9aaa	-0.00780042
222	0xbad30e8b	-0.0016102357
223	0x3b0f58a3	0.00218729
224	0x3a067688	0.0005129357
225	0x3c28c70d	0.010301364
226	0xbe2f6f0c	-0.17132205
227	0xbe754efe	-0.23955914
228	0xbda59ff3	-0.080871485
229	0x3a6195e3	0.0008605404
230	0xbbb2b7d6	-0.005454044
231	0xbca7e4d4	-0.020494856
232	0xbe032bcd	-0.12809677
233	0xbe83d377	-0.25747272
234	0x3c4081f1	0.01174973
235	0x3b01314d	0.0019713223
236	0xbe366de0	-0.17815351
237	0xbb8fd6f4	-0.004389638
238	0xbb8201f8	-0.00396752
239	0xbcc2fe92	-0.02380303
240	0xbc5c44e4	-0.013444159
241	0xbe330714	-0.17483169
242	0xbb5e23a5	-0.0033895758
243	0xbb8fd797	-0.004389714
244	0xbb8a301d	-0.0042171613
245	0x3d769417	0.060199823
246	0x3b36ee69	0.00279131
247	0x3b20d32e	0.0024539935
248	0xbc83b210	-0.016076118
249	0x3a3ba423	0.0007157942
250	0xbe1f01d1	-0.15528037
251	0x3b957369	0.004560877
252	0xb9e62d59	-0.00043902805
253	0xbd9866ff	-0.0744152
254	0x3ba80ad6	0.005128245
255	0x3a3bdc99	0.00071663555

network_body.linear_encoder.seq_layers.0.bias f4 [128]
0	0x3c54a15c	0.012977924
1	0xbd85207c	-0.065003365
2	0x3c55c14d	0.013046575
3	0xbe2d9a54	-0.16953403
4	0xbe7d2d43	-0.24724297
5	0xbc98a7e7	-0.01863475
6	0x3e14a310	0.14515328
7	0x3c8a745c	0.016901188
8	0xbd5aa9e6	-0.053384684
9	0xbe19aaf8	-0.15006626
10	0xbe43d52e	-0.1912429
11	0xbd8fa9d9	-0.07014818
12	0x3dde2bc8	0.10848194
13	0xbd481a54	-0.048853233
14	0xbda67745	-0.081282176
15	0xbe42d173	-0.19025211
16	0x3db4a3e2	0.08820321
17	0x3c873a76	0.016507369
18	0x3ca76b4d	0.020436907
19	0x3dab24fd	0.08356664
20	0xbe82045d	-0.25393954
21	0x3d76721a	0.06016741
22	0xbcf864ca	-0.030321497
23	0xbda1e74d	-0.07905445
24	0xbed7a099	-0.42114714
25	0xbd10302f	-0.0352022
26	0xbcb28ea5	-0.021796534
27	0x3c511b44	0.012762848
28	0x3dafc517	0.08582514
29	0xbb4609b9	-0.0030218197
30	0xbd9d93a3	-0.07694175
31	0xbd918e6e	-0.071072444
32	0xbd844ad7	-0.06459587
33	0x3c5da6d4	0.013528544
34	0xbe1d3bda	-0.15354863
35	0xbe0f5e5d	-0.1400084
36	0xbd073dc8	-0.033017904
37	0xbc933347	-0.017968787
38	0xbe1c1c39	-0.15245141
39	0xbb491480	-0.0030682385
40	0xbea806f1	-0.32817796
41	0xbda0d05b	-0.07852241
42	0x3d5b6e39	0.053571913
43	0xbd72bc8c	-0.059261844
44	0x3d043856	0.03228029
45	0xbd6b2f75	-0.057418305
46	0x3cc3e83a	0.023914445
47	0xbe1a6581	-0.15077783
48	0x3e1c2a0a	0.15250412
49	0x3d7fa7db	0.06241594
50	0x3d6eac4c	0.058269784
51	0x3d6225b2	0.05521173
52	0x3ddf5412	0.10904707
53	0xbc3a7575	-0.011380543
54	0xbe6c5851	-0.23080565
55	0x3c4905d8	0.01226946
56	0x3d8b5a28	0.06804305
57	0xbde7f9eb	-0.11326965
58	0xbd1e1d91	-0.038602415
59	0xbe3a1a1e	-0.18174025
60	0xbe4e9d81	-0.2017727
61	0xbdab3be8	-0.083610356
62	0x3db5cd56	0.08877055
63	0xbe8bac2a	-0.27279788
64	0x3d9cc2c8	0.07654339
65	0xbe8a066e	-0.2695803
66	0xbddae66e	-0.10688482
67	0xbdf09e16	-0.117489025
68	0xbe489010	-0.19586205
69	0xbd5ab93b	-0.053399306
70	0xbef20abd	-0.47273818
71	0xbd590848	-0.052986413
72	0x3d9104a2	0.07080962
73	0xbe2ad142	-0.16681388
74	0x3de421be	0.11139248
75	0x3db8d19e	0.09024356
76	0x3dcbce64	0.09951475
77	0x3e69d8e9	0.22836651
78	0xbd64df3c	-0.055876955
79	0x3d8c623a	0.06854673
80	0xbc3c3b88	-0.011488803
81	0x3c6a309b	0.014293815
82	0xbe1e86c8	-0.15481102
83	0x3dd82c96	0.10555379
84	0x3ca67aee	0.02032229
85	0xbd8a1443	-0.06742146
86	0x3d26ef34	0.040755466
87	0x3cd5505e	0.026039299
88	0xbe1064c5	-0.1410094
89	0xbdeafad0	-0.1147362
90	0x3c41bf60	0.0118254125
91	0x3cc2ec7c	0.023794405
92	0xbd1d2c68	-0.038372427
93	0xbdd54250	-0.10413039
94	0x3d941d47	0.07232147
95	0xbcccfc7c	-0.025022738
96	0xbdda8545	-0.106699504
97	0x3d6eae5d	0.058271755
98	0x3e098e8a	0.1343328
99	0x3db01015	0.085968174
100	0x3ddfff65	0.109373845
101	0xbd2376c1	-0.039908174
102	0xbe876f06	-0.26451892
103	0x3ca4add5	0.02010242
104	0xbdf25661	-0.11832882
105	0xbe28efea	-0.1649777
106	0x3c2b810c	0.010467779
107	0xbd5e7932	-0.0543148
108	0xbd5b1622	-0.053487904
109	0xbec8fb8e	-0.3925442
110	0xbe3cc9ec	-0.18436402
111	0xbd9ad2ef	-0.07559764
112	0x3bc4c5c7	0.006005022
113	0x3da4feb4	0.08056393
114	0x3bf84d7b	0.0075775958
115	0xbe57e7b5	-0.21084483
116	0xbe08a50f	-0.13344215
117	0x3d13c3d7	0.03607544
118	0xbe67d291	-0.22638918
119	0xbe9a7e78	-0.30174613
120	0xbe3d5f2b	-0.18493335
121	0xbe65b24e	-0.22431299
122	0xbcbd1926	-0.02308328
123	0xbe6321da	-0.22180882
124	0xbd5066f7	-0.050879445
125	0x3d3289d6	0.04358848
126	0xbe3948b6	-0.18094143
127	0xbe8d4f2c	-0.27599466

network_body.linear_encoder.seq_layers.0.weight f4 [128, 68]
0	0xbdcdbd1a	-0.10045834
1	0x3e2762b6	0.16346249
2	0xbc968554	-0.018374123
3	0x3e377489	0.17915548
4	0xbe1fa61f	-0.15590714
5	0xbe1baf13	-0.15203504
6	0x3e1dd58d	0.15413494
7	0xbdace1b9	-0.08441491
8	0x3e89ec62	0.26938158
9	0x3e22ae61	0.15886833
10	0xbd8fbba6	-0.07018213
11	0x3f493471	0.78595644
12	0xbe543538	-0.20723426
13	0x3d7eac48	0.06217602
14	0xbb0e4017	-0.002170568
15	0xbf0ce101	-0.5503083
16	0xbe3f90a6	-0.18707523
17	0xbdc4bed0	-0.09606707
18	0xbdd37813	-0.10325637
19	0xbecb553b	-0.39713463
20	0x3db41d27	0.08794623
21	0x3d7ffe30	0.06249827
22	0x3d97b64f	0.074078195
23	0xbfba2f30	-1.454565
24	0xbe31d960	-0.17368078
25	0xbe2d1b7d	-0.16905017
26	0x3dd2364a	0.10264261
27	0xbed37b14	-0.4130484
28	0x3e83bf42	0.25731856
29	0xbe28a4a7	-0.1646906
30	0x3dcef9d2	0.10106243
31	0xbecf8519	-0.40531233
32	0xbe5fbefc	-0.21850199
33	0x3d89342b	0.066994034
34	0xbe1ef735	-0.1552399
35	0xbe5538b0	-0.20822406
36	0x3caaef7b	0.020866146
37	0xbc872259	-0.01649587
38	0xbeb4dc32	-0.35324246
39	0x3e41cc40	0.18925571
40	0x3d88e3c4	0.06684068
41	0x3dd3a54a	0.10334261
42	0x3cc0421b	0.023469022
43	0xbdcc1049	-0.09964044
44	0xbebbf4c9	-0.36710194
45	0xbdf19ada	-0.11797114
46	0xbf03b579	-0.5144878
47	0x3efb45ec	0.49076784
48	0x3e3d90dc	0.1851229
49	0x3d644797	0.055732336
50	0xbdccfea5	-0.10009507
51	0x3e82e834	0.25567782
52	0x3ee422c0	0.44557762
53	0xbd570108	-0.052491218
54	0xbb2862dc	-0.002569369
55	0x3e1b8541	0.15187551
56	0xbe523e76	-0.2053164
57	0x3db3e607	0.087841086
58	0xbc8d7c2a	-0.01727112
59	0xbe06bc73	-0.13157825
60	0x3dfcacea	0.12337668
61	0x3d4322d4	0.047640637
62	0xbe16d966	-0.14731368
63	0x3e662b0c	0.22477359
64	0x3de610ad	0.112336494
65	0xbe6633e9	-0.2248074
66	0x3ddb3835	0.1070408
67	0x3d952f49	0.072844096
68	0x3e5b47a2	0.21414044
69	0xbca14423	-0.01968581
70	0xbc11d5dd	-0.008901087
71	0xc0326157	-2.7871912
72	0x3d2338b6	0.039849006
73	0xbe663fe7	-0.22485314
74	0xbd9a3832	-0.0753025
75	0xbf496d2f	-0.78682226
76	0x3e86a639	0.26298693
77	0xbd5b451b	-0.0535327
78	0x3d88aa57	0.06673115
79	0xbeade5e6	-0.3396446
80	0xbd29114a	-0.041276254
81	0xbdb387c0	-0.08766127
82	0xbd4b6d2c	-0.04966466
83	0x3f101e16	0.5629591
84	0xbdb8da78	-0.090260446
85	0x3d9c4323	0.07629993
86	0xbd0d0735	-0.0344307
87	0x3f7cb6b9	0.9871631
88	0xbd70b222	-0.05876363
89	0x3d9faf5e	0.077971205
90	0xbb87cf3e	-0.0041445782
91	0x3fa4ed06	1.2884834
92	0x3decf5b1	0.115702994
93	0xbe123e8b	-0.14281671
94	0x3d7046ee	0.058661394
95	0x3f320401	0.6953736
96	0x3e235237	0.15949331
97	0xbb678800	-0.0035328865
98	0xbf3f3cc5	-0.747021
99	0x3d6ad641	0.057333235
100	0xbe13b0d4	-0.14422923
101	0xbd9642d7	-0.073369674
102	0x3e6c3698	0.23067701
103	0x3ec85860	0.39129925
104	0xbd567dbc	-0.052366003
105	0xbda3ea40	-0.08003664
106	0xbf96986d	-1.1765267
107	0xbece97dd	-0.40350237
108	0x3ddb8cb3	0.107201956
109	0xba98ed1b	-0.0011667343
110	0x3d070d91	0.032971922
111	0xbee1eacd	-0.4412445
112	0xbc14ed14	-0.009089727
113	0xbdc129d0	-0.09431803
114	0xbf04db2f	-0.5189695
115	0x3e5c0e8f	0.21489929
116	0x3dfc63eb	0.12323745
117	0x3dee573f	0.116377346
118	0x3dd59628	0.10429031
119	0x3e84399c	0.25825202
120	0x3e216e37	0.157647
121	0xbd8df410	-0.06931317
122	0xbd23ed02	-0.04002095
123	0x3f5ff8b5	0.8748887
124	0xbe89ffee	-0.2695307
125	0x3cbc5736	0.022990804
126	0x3dcee942	0.10103084
127	0xbeff0d62	-0.49814898
128	0x3d524aee	0.05134099
129	0xbe23b613	-0.15987425
130	0x3d6a7f8b	0.05725054
131	0x3e44f1fd	0.19232936
132	0xbe9f0220	-0.3105631
133	0x3c6ba9c6	0.014383739
134	0x3bb602b3	0.005554521
135	0x3e8623da	0.26199228
136	0xbe9ffa99	-0.31245878
137	0x3c0ff489	0.008786329
138	0x3e82065d	0.2539548
139	0x3ff96124	1.948277
140	0x3f08ad4f	0.5338945
141	0x3eb00aba	0.34383184
142	0x3d221601	0.039571766
143	0xbd4bbf71	-0.04974312
144	0xbe59599e	-0.21225592
145	0xbe254d1a	-0.16142693
146	0x3e09ccf5	0.13457091
147	0x3ffd8764	1.9806943
148	0x3e02a775	0.12759192
149	0xbd48243f	-0.048862692
150	0xbdf68054	-0.120361954
151	0xbf8b9821	-1.0905801
152	0x3d7219a4	0.059106484
153	0xbdded858	-0.10881108
154	0x3d2595f3	0.040426206
155	0x3ecf8fcc	0.40539396
156	0x3e8dad31	0.27671197
157	0x3dd441d3	0.103641175
158	0x3e5c85a0	0.21535349
159	0xbf81846c	-1.0118537
160	0xbe8bdd2e	-0.27317184
161	0x3e1f529b	0.15558855
162	0x3dcc7ec2	0.09985115
163	0x3f698372	0.91216195
164	0x3e7030e8	0.23456156
165	0x3c998ac0	0.018742919
166	0x3f452fd6	0.77026117
167	0x3e2a01bb	0.16602223
168	0xbc6ed78f	-0.01457776
169	0x3c7a46cf	0.015275671
170	0x3d89adea	0.067226246
171	0x3d5a5029	0.053299103
172	0x3dc9dee2	0.09856965
173	0xbd3d6c91	-0.046246115
174	0xbdc50b07	-0.09621244
175	0xbe720eb6	-0.23638424
176	0xbd972018	-0.07379168
177	0xbe771fd6	-0.24133238
178	0xbe07ebb4	-0.13273507
179	0x3e8cdaa6	0.27510566
180	0x3cf059f1	0.029339762
181	0x3cbbd9b0	0.02293095
182	0xbca3463e	-0.019930955
183	0xbdd46221	-0.10370279
184	0xbf03a6d4	-0.51426435
185	0xbe6f6424	-0.23378044
186	0xbe7ff8a5	-0.24997194
187	0xbece60dc	-0.40308273
188	0x3e48fa3e	0.1962671
189	0x3e0a94eb	0.1353337
190	0xbc3d5fe3	-0.011558506
191	0xbec27a1d	-0.3798379
192	0xbe5c662d	-0.21523352
193	0x3c89c39b	0.016816905
194	0x3dcf07d8	0.10108918
195	0x3f4da954	0.803365
196	0xbdd7fa21	-0.10545755
197	0x3e4307b1	0.19045903
198	0xbe768d2e	-0.24077293
199	0x3e505ebe	0.20348641
200	0xbe011931	-0.12607266
201	0x3d5690fc	0.05238436
202	0xbe018903	-0.12649922
203	0xbd317c87	-0.04333165
204	0xbe895974	-0.2682606
205	0x3de96aa7	0.113972954
206	0x3c771de9	0.015082815
207	0x4000f70b	2.0150783
208	0x3d75ec53	0.06003983
209	0x3df64bb3	0.12026157
210	0x3bd17d0a	0.0063930796
211	0x3e98bb72	0.2983051
212	0xbf244de0	-0.6418133
213	0x3e364003	0.17797856
214	0xbd0258f9	-0.031823132
215	0x3fd8514f	1.6899813
216	0x3d94145b	0.07230445
217	0x3d5219ed	0.051294256
218	0x3d3b7876	0.045769177
219	0xbf5b9101	-0.85768133
220	0xbdc8301e	-0.097748026
221	0xbd5da8c2	-0.054116018
222	0x3e0480a2	0.12939695
223	0xbe26476f	-0.16238187
224	0xbd924ca2	-0.07143523
225	0x3afe5ba3	0.0019405972
226	0x3e76304b	0.2404186
227	0xbf9e2bfc	-1.2357173
228	0x3c4970a6	0.012294924
229	0xbe797cd1	-0.2436402
230	0x3e0576b3	0.13033561
231	0x3f064905	0.5245517
232	0xbe0f10f6	-0.13971314
233	0x3dc6212d	0.096742965
234	0x3f12cf95	0.57347995
235	0xbf2965b8	-0.66170835
236	0xbe37f063	-0.17962794
237	0xbdeb3de2	-0.114864126
238	0xbd81370e	-0.06309329
239	0xbf3abd23	-0.7294485
240	0xbcd09bf2	-0.025464986
241	0x3e1054c6	0.14094839
242	0x3e8cab75	0.2747456
243	0xbeafa224	-0.3430339
244	0x3dcf2b71	0.10115708
245	0x3bbc1f1d	0.0057410137
246	0xbe0b520e	-0.1360552
247	0x3f2faefe	0.6862639
248	0x3e9b2a53	0.30305728
249	0xbced4b8c	-0.028966688
250	0xbee97ecd	-0.45604554
251	0x3d259c84	0.040432468
252	0x3dfb3aa6	0.12267046
253	0xbd8380d1	-0.06421054
254	0xbe073fe7	-0.1320797
255	0xbe66184c	-0.22470206

network_body.linear_encoder.seq_layers.2.bias f4 [128]
0	0xbe5c4eae	-0.21514389
1	0xbd491c21	-0.04909909
2	0xbc0d4a33	-0.0086236475
3	0x3e1a6b42	0.15079978
4	0xbe0d874f	-0.13821147
5	0xbf6dd716	-0.9290632
6	0xbc9a8d37	-0.018866165
7	0xbee22c99	-0.4417465
8	0xbda1389d	-0.07872126
9	0xbab5d2a9	-0.0013871986
10	0x3d8691f9	0.06570811
11	0xbf12e90d	-0.5738686
12	0xbcb27144	-0.021782525
13	0xbe92336a	-0.2855485
14	0xbea712b6	-0.32631463
15	0xbea3d2f6	-0.31996888
16	0xbe1824e9	-0.1485783
17	0xbe945692	-0.28972298
18	0xbdb7b52d	-0.089701034
19	0xbf43cab3	-0.7648117
20	0x3abf5a7e	0.0014599112
21	0xbe683713	-0.22677259
22	0xbe0fb022	-0.14032033
23	0xbe94353a	-0.2894686
24	0xbb3efdc4	-0.0029142955
25	0xbc80df2c	-0.015731417
26	0x3ba4c5d8	0.0050284676
27	0xbde90d25	-0.1137946
28	0xbe88ce6e	-0.26719993
29	0x3c748fb0	0.014926836
30	0xbe1dbd55	-0.15404256
31	0x3d16773c	0.036734805
32	0xbcd7f072	-0.02635977
33	0xbb76e596	-0.0037673465
34	0xbf1ff81f	-0.6248798
35	0x3e066a9a	0.13126603
36	0xbdb3f8d2	-0.08787693
37	0xbdd48854	-0.10377565
38	0x3d30ddbe	0.04318022
39	0xbd5bc9d6	-0.053659283
40	0xbd101352	-0.035174675
41	0xbf0b908e	-0.5451745
42	0xbed5cdd3	-0.41758594
43	0xbece2b80	-0.40267563
44	0x3c1aa228	0.009438075
45	0xbc15959d	-0.009129909
46	0xbf2bb5e4	-0.6707442
47	0xbd2ebafb	-0.042658787
48	0xbf097f6b	-0.5371005
49	0xbd7caee0	-0.06169021
50	0xbeb641f2	-0.35597187
51	0xbe78825e	-0.24268481
52	0xbec71067	-0.38879701
53	0xbd1097ff	-0.035301205
54	0xbeddaf98	-0.4329803
55	0xbee50553	-0.44730625
56	0xbf7702de	-0.9648875
57	0xbde286f9	-0.110609
58	0xbe82b2d5	-0.25527063
59	0xbf0132d6	-0.50468194
60	0xbcf9daf4	-0.030499913
61	0xbe286ef5	-0.16448577
62	0xbd2d58a0	-0.042320848
63	0xbd1b7451	-0.037952725
64	0xbf4957da	-0.78649676
65	0xbcc73226	-0.024315905
66	0xbdceb7a7	-0.10093623
67	0xbda439ab	-0.08018812
68	0xbef309b7	-0.4746835
69	0xbd801ccf	-0.06255495
70	0xbf1e2baf	-0.61785406
71	0xbea32521	-0.31864265
72	0xbd85de96	-0.065365955
73	0xbddf6077	-0.10907071
74	0xbf05cf01	-0.5226899
75	0xbea3b653	-0.3197504
76	0xbd68cf23	-0.056838166
77	0xbf38c863	-0.72180766
78	0x3d8846e3	0.066541456
79	0xbe00ddfb	-0.12584679
80	0x3d045108	0.03230384
81	0xbd5e771f	-0.05431282
82	0xbc3b4299	-0.011429452
83	0xbe382b7e	-0.17985341
84	0xbd186fd8	-0.037216038
85	0xbea3c691	-0.31987432
86	0xbd9a2939	-0.07527394
87	0xbd67df2b	-0.056609314
88	0xbd0cc4c5	-0.03436734
89	0xbd03622b	-0.032076042
90	0xbe09703a	-0.13421717
91	0xbf10827c	-0.56449103
92	0x3d22d5e5	0.039754767
93	0xbdfb0a9f	-0.12257885
94	0x3bdc3462	0.0067201117
95	0xbdae5251	-0.08511794
96	0xbcbc9bba	-0.023023475
97	0xbdbcdc78	-0.092217386
98	0xbeb4a17e	-0.3527946
99	0xbeba849d	-0.364293
100	0xbf305531	-0.6887999
101	0xbd058711	-0.032599512
102	0xbb8860bc	-0.0041619223
103	0x3ca2797a	0.019833315
104	0xbef1124e	-0.47084278
105	0xbefdaa98	-0.49544215
106	0xbf4055eb	-0.751311
107	0xbd3e33a8	-0.046435982
108	0xbf112038	-0.56689787
109	0x3db4a438	0.08820385
110	0xbe036195	-0.12830193
111	0x3c1a4c16	0.009417554
112	0xbdb922e2	-0.090398565
113	0xbed833ca	-0.42227012
114	0xbcf34f92	-0.029701028
115	0xbcf45516	-0.029825728
116	0xbf7bc6a4	-0.98349977
117	0xbdc4e240	-0.09613466
118	0xbd4971e1	-0.04918087
119	0xbd610da2	-0.054944642
120	0xbcd36929	-0.02580698
121	0xbd2fd7f1	-0.042930547
122	0xbf03c449	-0.5147138
123	0xbd028784	-0.03186752
124	0xbce0823b	-0.027405849
125	0x3ed8fc1b	0.4237984
126	0xbd930ebc	-0.07180545
127	0xbc86034d	-0.016358996

network_body.linear_encoder.seq_layers.2.weight f4 [128, 128]
0	0xbed4eddb	-0.4158772
1	0x3dd7d88a	0.105393484
2	0xbe6cc7c0	-0.23123074
3	0x3daba335	0.08380739
4	0x3cf58e0b	0.029974958
5	0xbe3c8170	-0.18408751
6	0xbe896d16	-0.26841038
7	0x3e641605	0.22274025
8	0x3cf04dd9	0.029333996
9	0xbdb6fb2f	-0.08934628
10	0x3e160d12	0.14653423
11	0x3d3a7127	0.045518067
12	0x3e071331	0.13190915
13	0x3c4627e6	0.0120944735
14	0xbedaa703	-0.42705545
15	0xbed3d8df	-0.41376397
16	0xbde32327	-0.11090689
17	0x3e85fcbb	0.2616938
18	0x3e52a973	0.20572452
19	0xbcbf2d0a	-0.023336906
20	0xbeb3fc89	-0.35153607
21	0x3e3f41bf	0.18677424
22	0x3e26bca5	0.162829
23	0x3cda3c50	0.026640087
24	0x3daa0e41	0.083035
25	0xbde306c0	-0.11085272
26	0xbe987c74	-0.2978245
27	0xbe91b9e8	-0.28462148
28	0xbc9001a0	-0.0175789
29	0xbdc39a3d	-0.09550903
30	0xbe3086d7	-0.17238937
31	0xbe9693f4	-0.29409754
32	0x3e89f230	0.26942587
33	0x3cb98690	0.022647172
34	0xbe1ec285	-0.15503891
35	0xbe4e2a41	-0.20133306
36	0xbdd92778	-0.10603231
37	0xbeabe185	-0.33570495
38	0xbdae1470	-0.08499992
39	0x3eb5e101	0.35523227
40	0x3dde9f82	0.108702675
41	0xbe3b0a79	-0.18265714
42	0x3eaa81aa	0.3330205
43	0xbd5b4812	-0.05353553
44	0x3dce5880	0.10075474
45	0xbf0f1ceb	-0.559035
46	0xbd03d5fd	-0.032186497
47	0x3e0151dd	0.12628885
48	0xbdc7059e	-0.09717868
49	0x3ebcef0e	0.36901134
50	0xbe2165bd	-0.15761466
51	0xbe94b349	-0.29043034
52	0xbe165caf	-0.14683793
53	0xbbb0b016	-0.005392085
54	0x3e43d516	0.19124255
55	0x3ecfc166	0.4057724
56	0x3ed6132a	0.41811496
57	0x3ca6d68f	0.020365981
58	0x3baff8a0	0.0053702146
59	0x3da9de75	0.082943834
60	0xbd24a01b	-0.04019175
61	0x3e08d5b6	0.13362774
62	0x3e2693c9	0.16267313
63	0xbe382b50	-0.17985272
64	0x3eb73d23	0.3578883
65	0x3e9e91d4	0.30970633
66	0xbd7b8631	-0.06140727
67	0xbe9e442f	-0.30911395
68	0xbddfe706	-0.10932736
69	0xbe422dfb	-0.18962853
70	0xbcf43490	-0.02981022
71	0xbe1ccf99	-0.15313567
72	0xbecea113	-0.40357265
73	0xbe71dd48	-0.23619568
74	0xbe7c01f1	-0.24610116
75	0xbce042f6	-0.02737568
76	0x3cf0adfd	0.02937984
77	0x3e75c48a	0.24000755
78	0x3eb3ade6	0.3509361
79	0x3e6320ee	0.2218053
80	0x3e884189	0.266125
81	0xbe18a807	-0.14907847
82	0xbed33170	-0.41248655
83	0x3f15e0bd	0.5854605
84	0x3d3c6cb2	0.046002097
85	0x3ee77e94	0.4521376
86	0x3e03c612	0.12868527
87	0xbda93d43	-0.08263638
88	0xbdc42a8d	-0.095784284
89	0x3eaca629	0.3372052
90	0xbd56c0a5	-0.052429814
91	0xbedf938d	-0.4366726
92	0xbe9f940a	-0.31167632
93	0x3c508197	0.012726209
94	0xbe0d5788	-0.13802922
95	0x3df9be58	0.12194508
96	0xbe27a713	-0.16372328
97	0xbe19fd55	-0.15038045
98	0x3eb2fd05	0.34958664
99	0x3ec6bdd0	0.3881669
100	0x3dbdc3ad	0.09265838
101	0x3cef80b1	0.02923617
102	0xbe879cac	-0.2648672
103	0x3e74e07a	0.23913756
104	0x3ecf64bb	0.4050654
105	0xbe3cb23b	-0.18427365
106	0x3e726c0a	0.23674026
107	0x3da17ba8	0.07884914
108	0xbea13a19	-0.31489637
109	0x3e340316	0.17579302
110	0xbd76d94c	-0.060265824
111	0xbe677119	-0.22601737
112	0x3e30a2a6	0.17249545
113	0x3e6641ba	0.2248601
114	0xbe4e3262	-0.20136407
115	0x3e6039c3	0.21897034
116	0x3d7d345c	0.061817512
117	0x3e5dd250	0.21662259
118	0xbe845cd9	-0.25852087
119	0x3e288d1c	0.16460079
120	0x3daca7d4	0.08430448
121	0x3ee3894e	0.44440693
122	0xbeabb22f	-0.3353438
123	0x3d38dc92	0.045132227
124	0x3e378547	0.17921935
125	0x3e0326b7	0.12807737
126	0xbdc22548	-0.09479767
127	0x3e8698bd	0.26288405
128	0x3dab3e1b	0.08361455
129	0x3db992ec	0.09061226
130	0x3e10f215	0.14154847
131	0x3d6fb451	0.058521573
132	0xbd876d68	-0.066126645
133	0x3d5a2cef	0.05326551
134	0x3d17c830	0.037056148
135	0xbd72afd9	-0.059249733
136	0x3ce71f14	0.028213061
137	0x3c1f6d66	0.009730672
138	0xbe746c26	-0.2386938
139	0x3d99e885	0.07515053
140	0x3e620845	0.22073467
141	0x3e164a7e	0.14676854
142	0x3caef498	0.021356866
143	0xbdefebbb	-0.11714884
144	0x3dd2f7c0	0.10301161
145	0x3ae0db3a	0.0017155178
146	0xbcfc7e21	-0.030821862
147	0x3d6e12d1	0.058123413
148	0x3e898948	0.2686255
149	0x3e15ea2d	0.14640112
150	0xbc9c6980	-0.019093275
151	0xbc89456c	-0.016756736
152	0x3cb6098d	0.022221351
153	0xbdf40602	-0.119152084
154	0x3e796850	0.24356198
155	0xbdf0c7d0	-0.11756861
156	0x3d25b318	0.040454
157	0xbe7903b7	-0.24317823
158	0xba1c3f76	-0.0005960384
159	0xbd35c4cf	-0.044377144
160	0xbd34f4ad	-0.044178654
161	0xbdb0b45c	-0.08628151
162	0xbe215ba5	-0.15757616
163	0xbd2cf6e1	-0.04222763
164	0xbccbab23	-0.024861878
165	0xbe015c61	-0.12632896
166	0xbd307c3e	-0.043087237
167	0x3d89d203	0.0672951
168	0xbdf89055	-0.12136904
169	0xbc23a9d6	-0.0099892225
170	0x3c1cf1f1	0.009579168
171	0x3d166de6	0.0367259
172	0x3e2082ff	0.15674971
173	0xbe150aee	-0.1455495
174	0x3c6a7e44	0.014312331
175	0x3d25141d	0.040302385
176	0xbe6c13fd	-0.230545
177	0xbe28af8c	-0.16473216
178	0x3e06634d	0.13123818
179	0x3bcfb90d	0.0063391984
180	0x3c4ea373	0.0126122115
181	0x3ca1882f	0.019718258
182	0x3dddf1d8	0.10837144
183	0xbe089c70	-0.13340926
184	0xbe0fa658	-0.14028299
185	0x3e05af44	0.1305514
186	0xbc69b5cb	-0.014264534
187	0xbe144c2d	-0.14482184
188	0x3e59a474	0.2125414
189	0x3d15d561	0.036580447
190	0x3df62de5	0.120204724
191	0x3e754ba9	0.23954643
192	0xbd8b86db	-0.06812831
193	0x3e0dae7d	0.13836093
194	0x3e493596	0.19649348
195	0xbddc52d3	-0.10757985
196	0xbaf2a8ed	-0.0018513479
197	0x3e0401dd	0.12891336
198	0xbe287ba7	-0.1645342
199	0x3e5dbc35	0.21653827
200	0xbd8da84f	-0.06916868
201	0xbdf50394	-0.11963573
202	0xbe345de3	-0.1761394
203	0xbe3d27a6	-0.18472156
204	0x3d7b1f1e	0.061308973
205	0xbd7e3ce9	-0.062069807
206	0xbd95eacf	-0.07320177
207	0x3d73d8fe	0.05953311
208	0xbd67e9ee	-0.056619577
209	0xbde4292f	-0.11140668
210	0x3d74003f	0.059570547
211	0xbc9df6fc	-0.01928281
212	0xbcb5c30b	-0.02218773
213	0x3d56a16d	0.05240004
214	0xba96701e	-0.0011477505
215	0xbda50343	-0.08057263
216	0xbd3d1a55	-0.04616769
217	0xbd3c67bc	-0.045997366
218	0xbe1821a8	-0.14856589
219	0x3d805d69	0.062678166
220	0xbeb417a9	-0.351743
221	0xbdaf93a0	-0.08573079
222	0x3d74d8bd	0.05977701
223	0x3bb75de2	0.0055959085
224	0xbe0a8e1d	-0.13530774
225	0x3e02780b	0.12741105
226	0x3ebb0414	0.3652655
227	0x3d4cd4ee	0.050007753
228	0x3e16fc81	0.1474476
229	0xbc6b654c	-0.014367413
230	0x3e1dcaa1	0.15409328
231	0x3d1e2df9	0.03861806
232	0x3d96cd2f	0.073633544
233	0xbd9d45ef	-0.076793544
234	0xbbd76c46	-0.0065741865
235	0x3d9fd403	0.0780411
236	0x3d751dbf	0.05984282
237	0x3cc32ddd	0.02382558
238	0x3d18561c	0.037191495
239	0xbd9942c0	-0.07483435
240	0xbd4a178f	-0.049338873
241	0x3cd44647	0.025912417
242	0xbc5282d2	-0.012848573
243	0xbdf2b537	-0.1185097
244	0xbe7834c0	-0.24238873
245	0xbde54645	-0.111950435
246	0x3def3833	0.11680641
247	0xbe193f5f	-0.1496558
248	0xbde7893e	-0.11305474
249	0xbded6341	-0.11591197
250	0xbda8a080	-0.08233738
251	0x3e4de2b2	0.20106009
252	0x3e65261a	0.22377816
253	0x3daa5907	0.08317762
254	0xbec0569b	-0.37566075
255	0x3e49c83b	0.19705288
