Learning/results/mx11/KartAgent/KartAgent-4899978.onnx (onnx, 104129 bytes, 7 tensors)

41 f4 [1, 2]
00000000: dbb9 94be 8f9f aabf
-0.29048046 -1.3329943

distribution.mu.bias f4 [2]
00000000: 05bd 8d3d 523e 843e
0.06920818 0.25828797

distribution.mu.weight f4 [2, 128]
00000000: db51 e4bb e443 553b 70ac c6bb 46ba 953e
00000010: b76f 6c3c a4e7 f0bc 5975 483b 3147 30bd
00000020: 6a68 663a f9ce b43d 1fff c3ba 62e9 87bd
00000030: dae4 eebb 4d34 b0bc cd52 ad3d eafa 1f3e
00000040: d317 173b 9e60 ae3d 8d05 7a3e c4be 53bd
00000050: 9780 bd3a 529b 24be 0f6b b33b 6f55 473d
00000060: 2953 813b 1889 86b9 008d c3ba 6ca2 423c
00000070: d1f6 d73b d6cd b93c 5672 2d3e 2612 25bc
00000080: b337 bcbb b8ba 973b d76b 17bd cb9d 47be
00000090: be7a 6dbb 8afe 393c d4dd dcbb 9861 e239
000000a0: aec5 9bbb 1be6 05be ebc4 913d 1ba6 4c3e
000000b0: 486b 903b a365 80ba 15b3 d4bc 55ef 7a3b
000000c0: c6af 21bd 2135 93b8 c25d 98bd 2eb5 653e
000000d0: cdc3 a3bc a306 04bb c726 39bd 9a7c 7cbd
000000e0: 6272 3fbd f031 d7bb f62d 92bd b2e6 0bbd
000000f0: d631 c93a 5e2e 853b 4b64 74bb aa31 483b
00000100: f34b 90bc a19f c83b 1e9d eb3b 307b 56bb
00000110: 1529 85bd 5011 0dbb 824e 60bd 6bc6 81bb
00000120: 8beb 373b 9ed9 823b c51a eebc 1fca 023c
00000130: ed06 7b3a 0d27 8abd 53b6 083c bc9b da3b
00000140: edfd 9abb f522 2f3c 1908 68bb 27cd ba3c
00000150: 60f7 6d3b bd1f 263e 734b a83b 614d 953b
00000160: 79ce acba 2af7 6dbb fdba 863b d4ad 70bd
00000170: 4bbb 243c e2a0 1a3c bf27 9cbb 5bf8 da3a
00000180: 5bd6 b7b9 d986 903b d0eb 14bd b0ac 32bc
00000190: 7951 93bd 7229 4cbb 9848 40bc 0df0 333b
000001a0: 4593 80bd bcd6 04bd b4a8 94bd 3c49 423a
000001b0: c996 9bbd 3a99 53bb 8cf5 443c 37e6 5cbe
000001c0: 4a6b 89bb a960 bbbc dd91 d5bb 009c 353c
000001d0: 3d9d 69bd 9587 793c 7fb7 cc3b 65b3 fb3b
000001e0: 8c18 da3a 256d 653c 8c8e 49bd e45b f9bb
000001f0: 9cda 3dbc aabf 9f3e e132 c1ba 805b 32bc
00000200: ed22 45ba 2395 c5ba bbef 043b 388b aabc
00000210: 0f48 e63a 3b3d e4bd e4cf a33b 1bd2 84bd
00000220: 8d12 ae3a a233 85bc 11cb 743b c5fb 1abe
00000230: 5424 be39 3f6b d1bd 49de cdbc eea2 c2bb
00000240: 90ea c5ba 237a e9bc e527 ffbc c921 a0bd
00000250: 7a11 5d3b 4f40 d1bc e0c3 11ba d691 1abd
00000260: 5922 3b3b 2390 fbba 6f58 b23a e7ae 26bb
00000270: 11fd e0ba 81d7 c638 c50b 9cbc dc5c 4cb7
00000280: cac7 673a fd73 873b 261a 04be 2cb7 9e3c
00000290: 1fa5 5fbb e972 173a e012 faba 1329 5fba
000002a0: dba8 9f3b e602 05bd c62e 32bc f1f1 0b3d
000002b0: fb83 99bb 7c21 ad3a 2362 28be 2c3a a13a
000002c0: 0cc5 cebd 1af9 1abb 4772 febd 2c0d 16bd
000002d0: 705a 17be dd6c 0d3b 9fbc 16be 1771 02be
000002e0: f020 f3bd d095 08bb e763 04be 3624 efbd
000002f0: 6f13 e6b9 26b5 bfba 1591 993a baea 59ba
00000300: a791 bebd 20d8 65ba 3179 7d3b f2bf 8e3b
00000310: 8ebe 92bd 6bed 2d3b 7218 63bd dbd1 083b
00000320: 11f9 c9ba 6f57 e6ba a568 2dbe 113c efbd
00000330: 6171 a23a 7df6 f0bd dd93 88b9 3d07 09ba
00000340: 1c14 b13b e85e 88bb 0199 f9b9 60dc 8bba
00000350: a19b 7e3b e209 76bc 9506 1f3a f2e4 5d3b
00000360: 37bd d9ba 13d5 30b9 d33f 15bb 465f 0dbe
00000370: ef73 cbb9 7afc 2cbb b166 c13a 1254 93bb
00000380: d18d 0f39 b0c4 d13a 1a55 fbbd 343e 14be
00000390: 0440 babd d0e1 15bb c3b5 baba 112e d33a
000003a0: fddc 05be b129 0fbe 05a4 97bd bf4b 7eb9
000003b0: 024b 27be 1d81 453b 670c 973a 88e3 cfbc
000003c0: 4a49 2b3b 6119 06be a0f1 9fba 66c8 0abb
000003d0: c87b 9dbd 485d 23bb e061 bd3a 0c81 4a39
000003e0: 265d 303b c410 2c3a 82da 3abe ceb5 22b8
000003f0: 0954 23bb 1d53 57bc 1566 373a bc30 66bb
-0.0069677657 0.0032541687 -0.0060630366 0.29243678 0.014430932 -0.02940733 0.0030587523 -0.043036643
0.00087893626 0.088285394 -0.0014953351 -0.06636311 -0.007290465 -0.021509314 0.084630586 0.1562306
0.0023054972 0.08514522 0.2441618 -0.0516956 0.0014457878 -0.16074875 0.005475409 0.04866546
0.003946681 -0.00025660614 -0.0014919341 0.011879545 0.006590702 0.022681158 0.16938147 -0.010075128
-0.0057439446 0.004630413 -0.03696808 -0.19493787 -0.003623649 0.011352191 -0.006740311 0.00043178792
-0.00475379 -0.1307606 0.07117637 0.19985239 0.00440732 -0.0009795915 -0.0259643 0.0038289626
-0.03947427 -7.019402e-05 -0.07439758 0.22432396 -0.019990826 -0.0020145557 -0.045202997 -0.061642267
-0.046739943 -0.0065672323 -0.071376726 -0.034155555 0.0015349935 0.0040643653 -0.0037291225 0.003054718
-0.01761434 0.006122545 0.0071903607 -0.0032727234 -0.065019764 -0.0021525212 -0.05476237 -0.003960421
0.0028063979 0.003993227 -0.0290655 0.00798276 0.0009575922 -0.067457296 0.008344251 0.006671397
-0.0047299773 0.010689487 -0.0035405217 0.022802902 0.0036310777 0.16223045 0.0051359474 0.0045563434
-0.0013184092 -0.0036310651 0.004111646 -0.058759525 0.01005442 0.0094377715 -0.0047654803 0.0016706096
-0.00035064187 0.0044106063 -0.0363577 -0.01090543 -0.07193274 -0.0031152633 -0.011736058 0.0027456314
-0.062780894 -0.03243135 -0.0725874 0.00074114255 -0.07597119 -0.0032287375 0.012021434 -0.21572195
-0.004193698 -0.02287324 -0.0065176324 0.011084557 -0.05703472 0.015230079 0.0062474604 0.0076812976
0.0016639396 0.014003073 -0.04920821 -0.007609831 -0.011587765 0.31200916 -0.0014739895 -0.010886073
-0.0007520158 -0.0015074353 0.0020284492 -0.020818338 0.0017569083 -0.11144491 0.0049991477 -0.06485387
0.0013280675 -0.016259972 0.0037352482 -0.15135105 0.0003626669 -0.10225534 -0.025130408 -0.005939833
-0.0015099812 -0.028500622 -0.031146953 -0.07818944 0.003373234 -0.02554336 -0.00055604987 -0.037736736
0.0028554408 -0.0019192736 0.0013606678 -0.002543384 -0.0017165263 9.4815165e-05 -0.01904858 -1.2180968e-05
0.00088417216 0.0041337 -0.129006 0.019374453 -0.003412552 0.0005777316 -0.0019079112 -0.00085128954
0.004872424 -0.032473467 -0.0108754095 0.03416628 -0.0046849228 0.0013208832 -0.16443686 0.0012300662
-0.100961775 -0.0023647011 -0.124241404 -0.036633655 -0.14780593 0.002157978 -0.1472039 -0.12738453
-0.11871517 -0.0020841248 -0.12928735 -0.116768286 -0.00043883498 -0.001462613 0.0011716211 -0.000831287
-0.09305125 -0.0008767862 0.0038676972 0.0043563778 -0.07165252 0.0026539217 -0.055443235 0.0020877037
-0.001540931 -0.0017573665 -0.1693445 -0.11681379 0.0012393409 -0.11765764 -0.00026050108 -0.0005227214
0.0054040086 -0.0041617043 -0.00047606978 -0.0010670535 0.0038850086 -0.015017005 0.00060663495 0.0033858386
-0.0016612177 -0.00016864044 -0.0022773638 -0.13805875 -0.00038805555 -0.0026395605 0.0014755336 -0.004496106
0.00013690373 0.0016004052 -0.12272091 -0.14476854 -0.09094241 -0.002287019 -0.0014244843 0.0016111751
-0.13072582 -0.13980748 -0.07404331 -0.00024251545 -0.16337207 0.0030136772 0.0011524082 -0.02537705
0.0026136213 -0.13095619 -0.0012202747 -0.0021176576 -0.07689625 -0.0024927426 0.0014448725 0.00019312295
0.002691099 0.00065637776 -0.18247417 -3.879313e-05 -0.0024921915 -0.013142374 0.00069961074 -0.0035124263

network_body.linear_encoder.seq_layers.0.bias f4 [128]
00000000: 6298 32bc f395 9dbd 9bb7 073c b445 43bd
00000010: 79e8 51bd 87fc 11bc fa65 273a 9555 8f3d
00000020: 40d1 45bd 3180 debd 898b 0ebe 03be 0b3d
00000030: 9895 933d 7621 48bd fe67 3ebd 7b19 01be
00000040: 20d3 893d 6f0d ddbb c5b4 053d 2ced c1bb
00000050: d0f3 afbd b1f8 0c3e cfa6 10bd 80b8 7fbc
00000060: ec00 a1bd b49f 323d 5209 12bd e7b2 3b3b
00000070: 02ba 363d 0781 15bd f594 aabd d669 06bd
00000080: b44c 1dbd c560 9dbc c0bd febd 1110 94bd
00000090: d108 c9bc d9df dbbc 9da3 debd 6294 8bbd
000000a0: a0b4 91bc 316e 9cbd ba24 6c3d c103 12bd
000000b0: 0a51 533d 0d64 c03a 1477 943d e49c 87be
000000c0: 4eb1 0b3e a96b 093d a567 e8bc 8fa7 113d
000000d0: c1c3 983d ff0e c33c 4d98 b8bd 3feb 923d
000000e0: 8757 bc3d 3bea b9bd 8ad4 a33c a210 46bd
000000f0: 64e5 04be a800 393d 4273 853d e0be f2bd
00000100: bb6d 2b3d 18c3 4dbd 65e8 cebd bbf8 31bd
00000110: 1b22 dbbd c73b 8cbd f3b6 cc3a 52a0 3abd
00000120: dab4 853d b34a b6bd 0175 f93c 9e1f b23d
00000130: d698 443e 452f 213e 81ad 1a3c 82d6 4f3c
00000140: 438b 893b 9f18 12bc 47dd 8fbd c819 f63c
00000150: 078a 9a3c 904c fabd a8bc 4b3d 9bbc 273c
00000160: ccd5 8bbd 5fe2 23bd d99c 8f3b e80b 333d
00000170: 474b f5bc 4906 a9bd d353 ef3c 1ada 453c
00000180: a0a7 10bd 1446 d93d 0ffd e03d ed8d 483d
00000190: 0d7c fc3d 5d4e 92bc 43bd 06be f6ec d5bc
000001a0: 146e c0bd 4722 dabd 316a 63bc 01a9 803d
000001b0: 10fb 30bd 94aa 22bc d0ba d9bd 74b3 b2bc
000001c0: 9adf eb3c a66a 3c3d b5ec 21bd 0f7c 17be
000001d0: 7925 88bd dea2 033c 4aa8 16be a45c 03be
000001e0: ef8d 87bd f0b3 bebd 781b 0cbb a434 afbd
000001f0: ee30 01bd 7b5b 843d 2585 9abd 0f48 21be
-0.010900589 -0.07694616 0.008283521 -0.047673896 -0.051247094 -0.008910305 0.000638574 0.06998745
-0.04829526 -0.10864294 -0.13920416 0.034116756 0.07206267 -0.048860036 -0.046485893 -0.12607376
0.06729722 -0.006745986 0.0326431 -0.0059181657 -0.085914254 0.13766743 -0.03531533 -0.015607953
-0.07861504 0.043609336 -0.03565342 0.002864057 0.044610985 -0.036500003 -0.083291925 -0.032815777
-0.038403228 -0.019211182 -0.12438536 -0.07229627 -0.024540337 -0.026840137 -0.108710505 -0.06815411
-0.017786324 -0.07638205 0.057652213 -0.03564811 0.051590957 0.0014678255 0.07249275 -0.26486886
0.13641855 0.03354994 -0.028369734 0.035560187 0.07459212 0.023810862 -0.09013424 0.07173776
0.09196382 -0.09077879 0.019998807 -0.048355706 -0.1297813 0.04516664 0.06516124 -0.11852813
0.041852694 -0.050234884 -0.101029195 -0.0434501 -0.106998645 -0.06847339 0.0015618488 -0.04556305
0.06528635 -0.089009665 0.0304513 0.08697437 0.19198927 0.15740688 0.009440781 0.01268542
0.0041975095 -0.008917003 -0.07024627 0.03004159 0.018864645 -0.122216344 0.049740463 0.010237838
-0.06827888 -0.040010806 0.0043827114 0.043712527 -0.029943122 -0.08253152 0.029214775 0.012075925
-0.03531611 0.106090695 0.10985767 0.048963476 0.12328348 -0.017859632 -0.13158135 -0.026113968
-0.09395996 -0.10651069 -0.0138802985 0.06282235 -0.04320818 -0.009928364 -0.10631335 -0.021814086
0.028793145 0.046000145 -0.039532382 -0.14793418 -0.06647772 0.008034436 -0.14712635 -0.12828308
-0.066188686 -0.09311664 -0.0021378677 -0.08554962 -0.031540804 0.06462761 -0.075449266 -0.15750144

network_body.linear_encoder.seq_layers.0.weight f4 [128, 68]
00000000: 053e 03be b662 273e 57d7 cabb 72f3 633f
00000010: c5d4 7abe 13af 1bbe 32e6 8b3d 60d9 993d
00000020: 214d 343e 61ae 223e a6bb 8fbd b0c5 2f3f
00000030: 0f95 133d 48ac 7e3d 478d 153e 5220 bfbe
00000040: 4e1d 68bd d0be c4bd 74e0 87bd 1e14 c3bd
00000050: 8a74 a13d 30fe 7f3d 5e37 2f3e 42b6 3bbf
00000060: 36cc 18be 7d1b 2dbe b1c2 cd3d 8daf 89bd
00000070: 8aec 213e a7a4 28be 9967 483e ba83 92be
00000080: f025 93bd 2b34 893d 7104 41be ba6d 693c
00000090: 772a 253c 5922 87bc ca78 18be 0e6b 69bd
000000a0: 84ca c83d 4aa5 d33d 9de0 873d 03aa 87bd
000000b0: 79f3 92be da9a f1bd 7f95 b5be 9316 0cbd
000000c0: b070 d43d 9747 643d 1199 a9bd e291 db3e
000000d0: 87ad 9d3e 0801 57bd ec17 e8bc df9f 063e
000000e0: 846d 1cbe 07e6 b33d f6ff 75bc f5e7 373e
000000f0: d0f3 86bc d422 433d a671 1abe a999 253c
00000100: 6a95 e2bc e933 66be 9007 d43d 4e3c 11be
00000110: ef35 863d 2344 a1bc 5323 1bbc 0b26 b0bf
00000120: c478 e53d e73f 66be 56ac 01bd cf18 823e
00000130: 95ef fe3d 1b45 5bbd 57aa 883d 0c4f 62be
00000140: 2ae9 8abb c087 b3bd 08b8 bdbd 3b46 e83e
00000150: fd66 993d 2343 9c3d 7e74 1ebd 6c75 5f3e
00000160: 7e32 da3b 5eaf 9f3d e4c8 42be f144 093f
00000170: 5b9d c73d 8b3e 12be 1229 1e3d 2897 9cbd
00000180: a0f1 063e 0088 67bb ec82 25be 7d70 473c
00000190: dc5b 35be d742 96bd f089 fb3d 5364 27be
000001a0: fa9e 94bd 40ea a3bd 4bf0 b0be 6cd6 283e
000001b0: be65 d73b 1bed 98ba c4b2 ed3c 8274 cabd
000001c0: da5f 64be d029 c1bd 4e7f 72be 46e5 ba3d
000001d0: b879 19bd 3f57 ee3d 0fd1 a83d 096c 473d
000001e0: 63af d63d 10f4 8dbd 8592 46bd cbd9 6a3e
000001f0: 87e6 fabd 3657 bc3c 43ce f43d cfb1 37be
00000200: bbfe 353e 13b6 23be 825e b33d 1c0b 0e3e
00000210: a483 3cbe c6a9 6b3c f7fd 123d ea97 553e
00000220: abbc 87be 89f4 0f3c e717 813e 14c2 9a3f
00000230: a21c 8e3e ba0a b03e 218d c3bd c001 11bf
00000240: 2066 8abe 1a4d 25be f5cc 093e 7e54 b73f
00000250: 7dc8 ca3d 3f24 48bd 4013 4e3d cb2d 5abf
00000260: 9c55 d9bc 58d8 debd 5688 0f3d 36af c83e
00000270: d76a d53d d341 d43d ec28 4f3e 8f91 90be
00000280: 59e9 78be 9b52 1f3e f413 d73d 50a5 063f
00000290: 88be 4e3e c08a 993c 2246 f63d e18d e8bd
000002a0: 4b7a 4c3b cf46 7a3c 8f22 9b3c 695b b43e
000002b0: 0182 933d 916c 3dbd 22ef ae3c f014 103e
000002c0: 5182 d93d d61f 77be ae39 7ebd 3b37 8b3e
000002d0: 5d3b eebd b0d9 bb3c 2534 533d 6368 7ebe
000002e0: 08a1 84be 2464 6fbe 5df7 49be 40fa 063f
000002f0: 7067 a43d eb94 0a3e b32e 43bd 5b52 7dbe
00000300: 5a28 c0bd 9bc3 893c c332 1e3e ed75 fb3e
00000310: 4e31 19be b107 433e 251c 3dbe a1bc 013e
00000320: 4284 2ebe fc90 563d bc2f 90bd e63a f6bd
00000330: d33a adbe a76a e93d 15ab 6d3c ecc0 b43f
00000340: b84e 8ebd b34b f63d d417 5abd cecb a2be
00000350: 2001 9dbe 0340 363e f958 02bd d532 993f
00000360: fe89 5e3e ed19 523d ced3 08be ddc9 06bf
00000370: 46a8 d1bd c2a8 5dbd 64ec 163e 8c51 6e3e
00000380: 6332 a4bd a35b fe3a 407e 7d3e a562 03bf
00000390: cc9c 903d d17c 79be 8cd1 183e 6f2d fe3e
000003a0: c35e 73bc 2d21 c63d 4421 b93d 350d f1be
000003b0: 39da 05be e23d ebbd dd6d d6bd 4cc4 b7be
000003c0: 157e 4f3c c654 103e 989e 15bd d67a 00bf
000003d0: 238c ae3d 1d1f bc3b 637a 9cbd ed80 393e
000003e0: 6f4f a83e 8c4b edbc 00bd f6bd 0ad4 f8bd
000003f0: 2502 8c3d d180 83bd 9213 85bd 96a3 9a3e
-0.12816627 0.16346249 -0.0061902213 0.89043343 -0.24495228 -0.15203504 0.06831016 0.07512164
0.17607547 0.15886833 -0.07018213 0.6866102 0.036030825 0.06217602 0.14604674 -0.37329346
-0.056668572 -0.09606707 -0.06634608 -0.095253214 0.07883556 0.06249827 0.17110965 -0.7332498
-0.1492165 -0.16905017 0.100469 -0.06722937 0.15812889 -0.1646906 0.1957077 -0.28616124
-0.071849704 0.066994034 -0.1884935 0.014247352 0.010080925 -0.01649587 -0.14889827 -0.05698686
0.09804252 0.10334261 0.066346385 -0.06624224 -0.2870138 -0.11797114 -0.3546562 -0.034201216
0.10373056 0.055732336 -0.08281148 0.42884737 0.30796453 -0.052491218 -0.02833172 0.13146923
-0.15276152 0.087841086 -0.015014639 0.17959578 -0.01647368 0.047640637 -0.15082416 0.010107436
-0.027659137 -0.2248074 0.10353005 -0.1418316 0.06553256 -0.01968581 -0.009468871 -1.376161
0.11204675 -0.22485314 -0.031658493 0.25409552 0.124480404 -0.0535327 0.06673115 -0.22100466
-0.004239221 -0.08766127 -0.09263617 0.45366082 0.074903466 0.07629993 -0.038685314 0.21822137
0.006658851 0.077971205 -0.19021946 0.5362082 0.0974681 -0.14281671 0.038613386 -0.07646018
0.1317811 -0.0035328865 -0.16163224 0.012172815 -0.17710823 -0.073369674 0.12282169 -0.16346864
-0.07256885 -0.08003664 -0.3455833 0.16488045 0.006573408 -0.0011667343 0.029015906 -0.09885503
-0.2230219 -0.09431803 -0.23681375 0.09125762 -0.037469596 0.116377346 0.08243 0.048687015
0.10482671 -0.06931317 -0.048479576 0.22934644 -0.12251001 0.022990804 0.11953404 -0.17938922
0.17772953 -0.15987425 0.0875826 0.13871425 -0.18409592 0.014383739 0.03588673 0.20858732
-0.2651113 0.008786329 0.2521355 1.2090478 0.2775622 0.34383184 -0.095484026 -0.56643295
-0.2703104 -0.16142693 0.13457091 1.432266 0.09901521 -0.048862692 0.050311327 -0.85226125
-0.02653008 -0.10881108 0.03504213 0.39196175 0.10420769 0.103641175 0.20230454 -0.28236052
-0.24307765 0.15558855 0.10501853 0.52595997 0.2018987 0.018742919 0.120250955 -0.11355186
0.0031200822 0.015275671 0.018937377 0.3522599 0.07202531 -0.046246115 0.021354262 0.14070487
0.10620559 -0.24133238 -0.062066726 0.27190575 -0.116324164 0.02293095 0.0515634 -0.24844508
-0.25904107 -0.23378044 -0.19723268 0.527256 0.08027542 0.1353337 -0.047651958 -0.24738447
-0.093826964 0.016816905 0.15449052 0.49113408 -0.14960214 0.19045903 -0.18467768 0.12669612
-0.1704264 0.05238436 -0.070403546 -0.12022953 -0.33833942 0.113972954 0.014506121 1.4121375
-0.06948608 0.12026157 -0.05324538 -0.31796116 -0.3066492 0.17797856 -0.031823132 1.1968638
0.21732327 0.051294256 -0.13362047 -0.5265177 -0.10237174 -0.054116018 0.14738613 0.23273295
-0.08017423 0.0019405972 0.24755192 -0.51322395 0.07061157 -0.2436402 0.14923686 0.49644038
-0.014854136 0.096742965 0.09039548 -0.4708039 -0.13071527 -0.114864126 -0.104701735 -0.3589195
0.012664338 0.14094839 -0.0365282 -0.5018743 0.08522823 0.0057410137 -0.07640531 0.18115588
0.32873103 -0.028966688 -0.12047768 -0.12149818 0.068363465 -0.06421054 -0.06497873 0.3020293

network_body.linear_encoder.seq_layers.2.bias f4 [128]
00000000: 50ff af3b dc3a 903c 3c7c 15bb d47d f43d
00000010: 9a45 97bd 151f d9be 5e84 a83c 07de b2be
00000020: 5ab0 b43a f8ea 24bc 5804 813d 1aba c1be
00000030: f94e 2f39 5f60 62be f8f6 bdbd aea9 c23d
00000040: 1ef3 67bd 867d e4bd 1c23 563d bcf8 c8be
00000050: 8b20 413d 4bbb 86bd feda 91bd 74be 2abe
00000060: 9ccd 97bc 283c ae3c 42a9 b13c cb70 b9bc
00000070: 737a 7abc 5a24 373c 9691 cbbb 5b59 623d
00000080: bcd0 89bb 5dfa 58bc 96bf afbe e762 c0b9
00000090: 35a4 343c f7ae afbc 24e0 7b3d bfdd ffbc
000000a0: 7a88 66bc 9532 aebd a368 2b3c 9ab7 a9be
000000b0: f35e 61bc 9b0e 613b e8c2 acbe dff9 c23c
000000c0: b100 abbe dc40 0bbd da22 a8be b7f6 db3c
000000d0: 4a8d 8ebe 6d48 353c 5398 9dbe 7c39 aebe
000000e0: 8455 c9be bc63 58bd a969 91be 3cae aebe
000000f0: 7aab 433c 364a 90bd 9ab0 a43b 2a01 4aba
00000100: b718 8bbe 0a9d 963c bbc5 24bd df44 d0bc
00000110: 80fc 97be 0de1 1abd 4869 99be a908 1c3d
00000120: 7289 c63b 7785 92bd defe a6be 9e61 a8be
00000130: 1587 11bb 1308 a5be c4f0 9d3d d88a e4bc
00000140: 3c09 5c3a 68a1 643b 471b 28bc 162f 5e3d
00000150: cb5f 93bc 3fcb 07bd d404 e7bb ae14 25bd
00000160: 4b95 08bd dbe3 cc3c 9e5c fdbb d0e4 b3be
00000170: 934e 7a3d a514 bcbc de6f 053d c75e 87bd
00000180: fd3c 3a39 439a 803c 11e3 bcbe f5eb a2be
00000190: 4e51 9bbe 4b21 e03c eed1 f03c 2d21 463d
000001a0: ae35 aebe 9116 c7be 4a8c 8abe 65e6 77bb
000001b0: 8b40 b3be 4945 cc3c bcfc efbc a6ef 6c3c
000001c0: a12d d6bb 21bd 8bbe 91df 57bd 3421 71bc
000001d0: 7d03 c3be 0933 26bd 4f10 52ba 43e1 d3bb
000001e0: 45f2 123d a2d9 5dbb 26ba b1be 6994 f438
000001f0: bcff 6ebb e693 ea3d 192c ffbc beb6 1a3b
0.005371012 0.017606191 -0.0022809645 0.11938062 -0.07386322 -0.42406526 0.02057093 -0.34935018
0.0013785467 -0.010065787 0.06299657 -0.37837297 0.0001671872 -0.22107075 -0.09275621 0.0950502
-0.05662834 -0.11156754 0.052279577 -0.3925227 0.047150176 -0.06578692 -0.071218476 -0.16674215
-0.01853066 0.02126892 0.021687154 -0.022636792 -0.015287983 0.0111781005 -0.0062124236 0.055260997
-0.0042057913 -0.013243285 -0.34325856 -0.00036694782 0.011025478 -0.021445734 0.061493054 -0.031233666
-0.0140706245 -0.085057415 0.010461959 -0.3314789 -0.013755548 0.003434098 -0.33742452 0.023800788
-0.33398965 -0.0339974 -0.3283909 0.026851041 -0.2784217 0.011064631 -0.30780277 -0.34028232
-0.39323056 -0.05282949 -0.28400925 -0.34117305 0.011942739 -0.070454046 0.0050259354 -0.0007705862
-0.27167293 0.018385429 -0.040227633 -0.025423465 -0.2968483 -0.03781228 -0.29963136 0.038094196
0.006058865 -0.07154363 -0.32616323 -0.32886976 -0.002220576 -0.32232723 0.07711938 -0.027898237
0.000839371 0.0034886245 -0.01026041 0.054244123 -0.017990014 -0.033152815 -0.007050136 -0.040302925
-0.033345502 0.025010994 -0.007731988 -0.35135508 0.06111009 -0.022959063 0.032577388 -0.06609874
0.00017761062 0.015698558 -0.36891988 -0.31820646 -0.30335468 0.027359625 0.029396977 0.048371483
-0.3402533 -0.38884404 -0.27060157 -0.0037826535 -0.3501018 0.024935381 -0.029295318 0.0144614335
-0.006536201 -0.2729273 -0.052703444 -0.014717389 -0.380886 -0.040576015 -0.00080132944 -0.0064660623
0.035875577 -0.0033851643 -0.34712332 0.0001166247 -0.0036468348 0.11453991 -0.031148957 0.0023607458

network_body.linear_encoder.seq_layers.2.weight f4 [128, 128]
00000000: 9891 03be cb65 0f3d a5ca b73d e68a b63d
00000010: f7b2 9fbd e7df 203c de8e 12ba dabb 413d
00000020: 894f 82bd df95 0a3e 5ab3 bcbc 3d61 083b
00000030: 1fa4 e7bd 0c17 013e bd97 6abe c91d c73c
00000040: c52c 923d 9366 823e 1467 bd3d 1c7f ba3b
00000050: e27b 71be 2514 06bc 18b8 843d c766 a8bd
00000060: 3217 8dbd 7e0f a93c 42b3 a33d d78f 85be
00000070: 2791 4bbe 9130 d03d e0a8 823c d467 1b3d
00000080: c763 ec3d 5a5d 453c 8dda 15bc 5221 11be
00000090: d7c6 acbd 5495 8fbc cbc7 053e 2f9d 153e
000000a0: 881e 2d3d dc08 37be 12a2 fa3d 4ea8 d83d
000000b0: 51b3 6ebd 015e fbbd 030b debd 5ad0 74bc
000000c0: b7cd 80bd 11ca ae3d a703 893b 9fae b0bd
000000d0: 8ed7 083c efe4 e73c 8173 1039 8a7a bd3d
000000e0: cbc8 233e 9b4c 133d 8633 26bd 645d 69bd
000000f0: 3392 13be 0913 aabd 6387 c7bd 015e 75bd
00000100: 2e24 9c3d d543 8b3e 2d94 083d 3999 303d
00000110: 5a91 833a 9479 2fbb 5dcb 7ebc 3cab e43d
00000120: e618 87bd f1c1 06be 5820 33be 6614 8d3c
00000130: dffa ce3d ecb7 6bbd 5a3a 1e3e 089a 85ba
00000140: 57b7 893d fecb 70bd 9169 3a3e f3e8 1c3e
00000150: 420b 2b3c 59ad 1f3e e8f5 c83d 8402 39bd
00000160: 580a 603d 53a3 59bd dded debc 25bb 9abe
00000170: ce49 b1bd 7b45 b4bb 4e76 e3bd 0f22 98bb
00000180: 8390 993d 3dd9 593d 1d59 143e 69dd c03d
00000190: e018 bdbc 6d8b 37be b2ed 16be 6f0c 13bb
000001a0: 8dbe de3d 5af9 67bb fb8e f9bd b724 07bd
000001b0: 6950 463d 8cd3 df3d 74f3 d1bc eb79 aa3d
000001c0: 373a 20be a08f 633d e118 30bd 5122 03be
000001d0: 5ed2 c73d 56c2 553e 2707 043d 9090 01bd
000001e0: 06aa e43b 73a8 ab3e 914c 81bd e3a9 103b
000001f0: afe3 4b3e 20c2 6cbd c2bc 143d 16a9 103e
00000200: 050b 833e 9098 523d cfac c0bd 83a6 0e3e
00000210: 8c09 a9bd b0dd dcbd 141e df3d a589 c0bd
00000220: 3435 d63d 4c70 5fbd 80bf 8dbe 5a31 20bd
00000230: 63a1 e63d 5a11 903d c92d 4dbe 5e08 bf3c
00000240: b347 6d3e 1e21 fcbd 4836 89bd 2573 753d
00000250: c09b a2bd da30 b13d 332f 9dbd c152 d03d
00000260: e1ef 723d cfe9 0ebe e48a 383d de72 a7bc
00000270: 2cd8 0e3e 4974 5b3d 3a9c e13b 999f 223c
00000280: c47d 3b3e 5314 45bd 7243 6a3b ca55 36bc
00000290: 1237 253d 4f05 80be 0e36 453d e8bb 9d3c
000002a0: f86c 853c 50c2 b5bb 3cdc 39be 18c4 0e3e
000002b0: ea88 4cbd cbfe babc 9bb8 2db8 4230 ea3d
000002c0: fb7c 7cbe d27b 83be 4b57 713c 6ee2 773d
000002d0: 84b3 a13c a2c1 4ebc 7071 9fbb b662 1bbe
000002e0: a282 10be acd4 173e 5540 c9bd 97b9 0ebe
000002f0: 100a af3d 5d7c 9fbb 6f89 013e ab8d 903d
00000300: 812b 03be 73ab abbc 9088 b03d 27e3 c13c
00000310: 546a ac3c a7f5 653d c10a 843d 91af 083e
00000320: c09c a4bd 8345 2c3e 4555 8f3d 94b2 88be
00000330: 768b 06bd 6e3b 8a3d f6e6 abbd 9c7d 6f3e
00000340: 9d99 e5bd cc14 42be cc30 a93d f1bf ce3d
00000350: 3225 703d e711 333c b35a f6bc e10b 26be
00000360: 1a13 f93c cf71 07bd ba45 203d 30c5 e3bd
00000370: 955c a9be 1490 8cbd 29cd 1bbd 2bf1 bebc
00000380: 1118 6dbd 9f69 0e3d 8127 8a3e b404 2dbe
00000390: 5e44 b23d aa60 d93d b1a3 9abd d05c 743c
000003a0: 3868 573d 7bd5 00be 6de0 e93d 43c6 063d
000003b0: c4f9 cabc aa8c 343e a0ed bebd 4561 9cbb
000003c0: e4b4 2cbd b49e abbd e4f0 99bc d339 b6bd
000003d0: e49c b3be d728 683c 3627 96bb 2a00 13be
000003e0: 6fed 04be 86b1 ffbd e19b a6bb 0729 00be
000003f0: 7cb2 253e f893 823d c67c 46be dd23 f73d
-0.12848508 0.035009187 0.08974198 0.089132115 -0.07797807 0.0098190075 -0.0005590747 0.04729829
-0.063628264 0.13533734 -0.02303474 0.0020809912 -0.113106005 0.12606448 -0.22909446 0.024306195
0.07137445 0.25468883 0.09248176 0.005691422 -0.23582414 -0.008183514 0.064804256 -0.08222728
-0.0688919 0.02063727 0.07993175 -0.26086304 -0.1987959 0.10165513 0.015949667 0.037940815
0.115424685 0.0120461825 -0.009146345 -0.14172867 -0.08436363 -0.01752726 0.13064496 0.14610742
0.042265445 -0.17874473 0.12237944 0.105789766 -0.05827648 -0.12273789 -0.10841944 -0.014942253
-0.06289237 0.08534635 0.0041813436 -0.08627056 0.0083521735 0.028307406 0.00013775939 0.09251888
0.15994565 0.03596173 -0.04057648 -0.05697383 -0.1441124 -0.08304412 -0.0974262 -0.059904102
0.07624088 0.2720019 0.033344436 0.043114875 0.0010037825 -0.0026775347 -0.015551415 0.11165473
-0.06596546 -0.1315992 -0.17492807 0.01722164 0.101064436 -0.05754845 0.15451947 -0.0010193
0.067244224 -0.058788292 0.18204333 0.15323238 0.010439696 0.1559347 0.09812528 -0.045168415
0.054697365 -0.053134274 -0.027213031 -0.30220905 -0.08656655 -0.005501447 -0.11106549 -0.004642732
0.074982665 0.05318569 0.14487119 0.09417231 -0.02308315 -0.1792428 -0.14739111 -0.002243783
0.108761884 -0.0035396428 -0.121854745 -0.032994 0.04841653 0.10929021 -0.025628783 0.08324035
-0.15647207 0.055556893 -0.042992476 -0.1280606 0.09756921 0.20874915 0.032233384 -0.031632006
0.006978276 0.33526954 -0.06313432 0.0022073917 0.19911073 -0.05780232 0.036312826 0.14127001
0.25594345 0.051415026 -0.094079606 0.13930707 -0.08253774 -0.10784471 0.10894409 -0.094012536
0.104593664 -0.054550454 -0.27685165 -0.039109565 0.11261251 0.070345595 -0.20036997 0.02331942
0.23171882 -0.12311004 -0.066998065 0.059924264 -0.07939863 0.08651896 -0.07675018 0.10172034
0.059310798 -0.13956378 0.04505433 -0.020440515 0.1394965 0.053577695 0.0068850787 0.009925746
0.18309695 -0.048115086 0.0035745767 -0.011128852 0.040335722 -0.2500405 0.048147254 0.01925464
0.016287312 -0.0055468455 -0.18150419 0.13941991 -0.04993526 -0.022826573 -4.141834e-05 0.11434986
-0.24657051 -0.25680405 0.014730285 0.060518675 0.01973892 -0.012619408 -0.0048658177 -0.15174374
-0.14112332 0.14827222 -0.098267235 -0.13937984 0.08546841 -0.00486712 0.12650083 0.07058271
-0.12809564 -0.020955777 0.08619797 0.023667885 0.021046795 0.056142475 0.06447364 0.13348223
-0.0803771 0.16823392 0.06998686 -0.26698744 -0.032847844 0.067496166 -0.08393662 0.2338776
-0.1121094 -0.18953246 0.082612604 0.10095204 0.058629222 0.010929561 -0.030072546 -0.16215469
0.030404616 -0.03306752 0.039128996 -0.11121595 -0.33078447 -0.06863418 -0.038037453 -0.023308357
-0.05788428 0.034768697 0.26983264 -0.16896325 0.08704446 0.1061414 -0.07550753 0.014914706
0.052589625 -0.12581436 0.11419759 0.03290392 -0.0247773 0.17631784 -0.09322667 -0.0047723376
-0.0421647 -0.083798796 -0.018791623 -0.08897748 -0.35080636 0.014169893 -0.004582311 -0.14355531
-0.12981199 -0.12485032 -0.0050845 -0.1251565 0.16181368 0.06375879 -0.19383535 0.12067387
