Learning/results/mx11/KartAgent/KartAgent-15149988.onnx (onnx, 104129 bytes, 7 tensors)

41 f4 [1, 2]
00000000: df41 cc3e da13 82be
0.39894006 -0.2540577

distribution.mu.bias f4 [2]
00000000: 01bf 3b3e 84f0 1f3f
0.18334581 0.6247637

distribution.mu.weight f4 [2, 128]
00000000: d29c cfbd 59e7 ee3a 907a d9ba 113f c43e
00000010: 9ac2 3abc 3432 83bd 267d f6bb 5f5f 22be
00000020: b8b9 873b 5c89 2d3e 01ab a33c 4b8c 89bd
00000030: 40d6 96ba c32e a4bd e69c 85bc eca6 01be
00000040: 3215 8fbb 5e53 9fbc d7d8 00bd f8a2 79be
00000050: 3cfc 23bc 89b9 88be 6db3 21bc fe6b 1b3e
00000060: 10b5 ccba 39a9 223c 6b97 67bb 8307 92bb
00000070: b46b 1dbe e055 8abc f2f4 a83c 7d70 3dbb
00000080: 6b80 1fbd c329 563c 0ce8 19bd f61b 90be
00000090: 0691 033c 63b0 d9bb 64c3 1cba 80d1 52bc
000000a0: b0e6 3b3c 5b04 ccbd e950 6ebd abf3 b13e
000000b0: 6e38 3839 61e1 a3ba 6236 9bbd 3ab8 90bb
000000c0: 3852 00bd ca15 363c af86 9cbe 6105 4b3c
000000d0: b7c7 61bd 5722 4fbc 68bc c3bd 9392 11be
000000e0: 3b44 dbbd 58ba 6abb ea35 26be 5fa6 24be
000000f0: 1d09 3fbc fa6e 87bb b68f 1839 a663 04bc
00000100: 94e5 89bc 189e 0ebc c471 003c 5332 9cbc
00000110: 13dd a1bd de94 803b db99 adbe f7a5 27bd
00000120: 30c7 073c 9344 073c 3aca 443c 8626 8dbd
00000130: 5e19 94bb 0c7d 67be 150d 67ba 0159 513c
00000140: 73f2 0cbb e2d9 713a a97e c2bc e520 bfbd
00000150: 5291 8ebb e9e8 3a3e e58e dabc 8e2b 8fba
00000160: dbc4 22bb 2681 a138 1e2a 293d 7702 973c
00000170: fb9e b0bb 5809 89bb c3d1 42bb 49c7 a63a
00000180: 637b d5b9 fc87 e9bc 76eb 2ebe 3b72 f3bd
00000190: a6e3 1cbd 0826 fdbb 758a a2ba 198f 87bb
000001a0: 1329 c2bc 4e5f 3ebd 4d7e 87bd 4166 003c
000001b0: 9f82 0cbd c862 74bb f2bb b83a 340a 0cbf
000001c0: 588b ecba 130c b9bd 0959 81ba b9e2 193a
000001d0: 1c52 d7be 0d46 f83d e6a8 a7bb 4b10 f73b
000001e0: 6beb d73c 0b17 0cbc 502b 8abe 13a8 98bb
000001f0: 64b3 64ba 05c2 1b3f 4525 01bd e495 17ba
00000200: 3436 10bd 9b12 d53a 15fc 303a 68ef 2cbd
00000210: 72a7 9a3b 6cbf 6d3c a2ce 98bc 5e18 643d
00000220: 6038 2bbb 40e3 7d3d 45b9 a0bb 96ee c2bd
00000230: 37d3 d5bb ade3 12be 75d0 bcbd 455e 7cbc
00000240: b317 12ba bfb3 52be 58bc d9bd e179 d8bc
00000250: 6650 d4b9 15fd a6bd 2c39 843a 165c ba3d
00000260: c9f7 4239 8afb 1dbc 9b3b 083a fbf2 bdbb
00000270: fa75 45bd 8c27 113c 6e38 8fbd fdaf 0d3c
00000280: 2b02 8a3a 1e44 123c b7b0 22bc 6bbd 453e
00000290: 9673 24bd 1a08 663a e2d2 6fba b223 5e3b
000002a0: 26f1 583b e3eb 80bd aac4 d53b cca8 0b3a
000002b0: c01d b039 82be 46ba f6e3 9fbd 9612 67bb
000002c0: f2d5 a9bd 1ec4 673b b174 28be cf41 0cbe
000002d0: 545a 56be 6368 62bb fbd6 25be 2505 51be
000002e0: 2774 ea39 9c56 dcb8 daef 77be d89e 89be
000002f0: 823a 093b 689c 8cbb 35a8 a93b 5e51 b9bb
00000300: a727 543d 9fb5 6bb9 b902 3fbb 2d97 ff3b
00000310: 3fb1 44bd 13f6 073d a9a1 7cbc 85f3 b93b
00000320: 91a1 6e3a c034 bfbb c10c 64be 9181 33be
00000330: fcfe 693b 5a17 5cbd 9d0b e7ba dc6b 80bb
00000340: 063d e9ba 2f79 af39 7a2a 17bc 3da5 06bd
00000350: 2a1e 1aba e245 27bd 4f2a b63c 7018 ff3b
00000360: e62e 82bb 7ce6 6bbb 6887 023d fe84 17be
00000370: c428 c03b 5b44 dbbb 6242 043b 8f13 d53a
00000380: e204 8cbb 3a8b 033c 45a6 2fbe b7c9 71be
00000390: e681 94bd e710 0fb9 3f39 13bb 170f 963b
000003a0: f406 ffbd 39fe 82be e39d 87ba 4e2a 61bb
000003b0: 9143 2ebe bbdb 683b 13ad c3bb b528 9ebb
000003c0: b67c 08bb a6cc 32be 5612 0abc 305f 1d3c
000003d0: 65ca ffb9 ace2 683d 3b32 073b ba6e 8f3a
000003e0: e174 ecbc 8dea 0b3b 7986 15be f653 2e3b
000003f0: 5768 dfb8 5d86 8cbd 4e50 b9ba d4d7 5d3b
-0.10137333 0.0018226906 -0.0016592313 0.38329366 -0.011398936 -0.0640606 -0.007522243 -0.15856694
0.0041420124 0.1694693 0.019979002 -0.06716212 -0.0011507943 -0.080167316 -0.016310167 -0.12661332
-0.0043665404 -0.019448932 -0.031456795 -0.24378574 -0.010008868 -0.26704052 -0.009869439 0.15177915
-0.0015617926 0.009928041 -0.0035338055 -0.004456462 -0.15373117 -0.016886652 0.020624612 -0.002890616
-0.03894083 0.01307148 -0.037574813 -0.28146333 0.008030182 -0.0066433414 -0.0005980043 -0.0128673315
0.011468574 -0.09961768 -0.05818263 0.34756216 0.00017568629 -0.0012503081 -0.07578732 -0.004416493
-0.03132841 0.011113593 -0.30571505 0.012391419 -0.055122104 -0.012642465 -0.0955742 -0.1421607
-0.10706373 -0.0035816636 -0.16231504 -0.1607909 -0.011659888 -0.0041331025 0.00014549386 -0.008080399
-0.016833104 -0.008704685 0.007839624 -0.019066965 -0.07903495 0.0039239964 -0.33906445 -0.04092976
0.008287236 0.008256095 0.012011105 -0.068921134 -0.0045196256 -0.22606295 -0.00088139 0.012777568
-0.0021506816 0.00092258875 -0.023742037 -0.09332446 -0.0043508196 0.1825291 -0.026679466 -0.0010923014
-0.0024836573 7.701134e-05 0.04129993 0.018433793 -0.0053900457 -0.004182022 -0.0029727079 0.0012724187
-0.00040718456 -0.028507225 -0.17082009 -0.11887022 -0.03830304 -0.007725481 -0.0012400883 -0.0041369316
-0.023701226 -0.04647761 -0.06615887 0.007836879 -0.034304257 -0.0037290324 0.0014094098 -0.5470307
-0.0018046899 -0.09035506 -0.0009868453 0.0005870271 -0.42054832 0.12122736 -0.00511657 0.007539784
0.026357373 -0.008550416 -0.2698617 -0.004658708 -0.0008724241 0.60842925 -0.031529684 -0.00057825283
-0.035207942 0.0016256155 0.00067514303 -0.042220503 0.004719668 0.014510971 -0.018653218 0.0556873
-0.0026126131 0.0619843 -0.0049048983 -0.09518163 -0.006525423 -0.14344664 -0.092194475 -0.015403335
-0.00055729895 -0.2057638 -0.10631627 -0.026425304 -0.00040495693 -0.0815374 0.0010087839 0.09099595
0.00018593589 -0.009642491 0.000519687 -0.005796788 -0.048208214 0.008859526 -0.06993185 0.008647916
0.001052921 0.008927373 -0.009929827 0.19310538 -0.040149294 0.0008775011 -0.00091485505 0.0033895788
0.003310272 -0.06294992 0.0065236883 0.0005327582 0.000335915 -0.00075814885 -0.07807152 -0.003525888
-0.0829276 0.0035364698 -0.16450764 -0.13696979 -0.20932895 -0.0034547083 -0.1619529 -0.20412119
0.00044718498 -0.0001050655 -0.2421259 -0.26879 0.0020939414 -0.004291106 0.0051775225 -0.0056554517
0.051795628 -0.00022479006 -0.002914591 0.007800004 -0.048020598 0.03319366 -0.015419402 0.0056747817
0.0009103055 -0.0058351457 -0.2227049 -0.17529894 0.003570496 -0.053733207 -0.0017627362 -0.003919108
-0.0017794676 0.0003346889 -0.009226436 -0.032872427 -0.00058791286 -0.04083813 0.022236971 0.0077848956
-0.003972876 -0.0035995534 0.031867415 -0.14796826 0.0058642346 -0.006691498 0.0020181169 0.0016256439
-0.004273043 0.0080288 -0.1715327 -0.23612104 -0.07251339 -0.0001364384 -0.0022464541 0.0045794356
-0.12452498 -0.25584581 -0.0010346737 -0.003435749 -0.17017962 0.003553136 -0.00597156 -0.00482663
-0.0020826287 -0.1746088 -0.008427223 0.009605214 -0.00048788186 0.056856796 0.0020629305 0.0010943033
-0.028864326 0.002134952 -0.14602078 0.0026600338 -0.000106529034 -0.06861565 -0.0014138313 0.0033850567

network_body.linear_encoder.seq_layers.0.bias f4 [128]
00000000: fab0 753c d121 86bd 2e4b 0f3c 0842 41be
00000010: 2b7f 7dbe ee92 7bbc 3180 143e 8303 8a3c
00000020: f01a 69bd f09a 19be 9324 50be 88e1 86bd
00000030: f91a d13d 805c 43bd 09f7 a1bd e4d8 44be
00000040: ceb0 c73d 5a25 6b3c 1fd0 cf3c 4d2c b63d
00000050: 598f 7fbe f038 8b3d b9a2 13bd 549b 95bd
00000060: 10ad d6be fba9 0cbd 5c21 a3bc 4aba 853c
00000070: 52fc 953d 4953 8bbb 6828 9bbd 12e1 aabd
00000080: 6793 84bd 7b84 5c3c 527a 22be 791d 19be
00000090: 435d 2ebd aedf 88bc 540c 21be e7df a3bb
000000a0: 0518 a2be e535 c5bd d01d 413d c4ba 5dbd
000000b0: 6ce6 013d be4e 5bbd fa0e 443c c030 17be
000000c0: 37e0 223e 71d6 8f3d 41a0 723d 65c1 663d
000000d0: af79 c43d aeb3 b3bc c008 6ebe c961 fa3c
000000e0: 6b3d 8e3d 0953 f2bd b885 01bd d6a5 36be
000000f0: 6a2a 54be ef0d a8bd 48ab 963d 0083 8fbe
00000100: c5b3 963d 6801 8cbe a23d ddbd b7bf eabd
00000110: 0fc6 49be 0320 4fbd 4ca1 e8be d237 3cbd
00000120: 3e79 853d 6e68 2abe 8c09 e73d 338c b03d
00000130: 41e7 c43d fe03 603e d44c 50bd 4984 823d
00000140: 2eb0 80bb 5df3 993c a156 15be 3e50 bf3d
00000150: 7808 cc3c e2b6 bcbd 16aa 1d3d 6764 ef3c
00000160: d91f 16be 192f e1bd 750e 913c ac16 b03c
00000170: 1e9b 27bd 7a3f e0bd 12a0 7b3d c98b 98bc
00000180: 3499 d6bd 285d 833d 35d5 0b3e 8d4b bb3d
00000190: 9daa d73d 3d12 20bd 8f0c 89be 1faf 833c
000001a0: 2391 e8bd 9408 2dbe 01c6 0f3c 5680 39bd
000001b0: 9ee0 52bd cf72 c9be 0bc5 3ebe 3a65 83bd
000001c0: 7900 fb3b 0d29 a53d fcc4 353c e6d0 58be
000001d0: 932f 06be fbec 233d 5ffb 6dbe 7692 94be
000001e0: c8cf 3cbe 3fe8 6bbe 4a60 f3bc 3943 69be
000001f0: 7495 6dbd 8fed 393d 9112 39be 3a05 91be
0.014995808 -0.06549419 0.008745952 -0.18872845 -0.24755542 -0.015354855 0.14502026 0.016847378
-0.056910455 -0.1500051 -0.20326452 -0.065859854 0.10210223 -0.047695637 -0.07908446 -0.19223362
0.0975052 0.014352167 0.025367795 0.088951685 -0.24957027 0.06797969 -0.036043856 -0.07305017
-0.4192891 -0.034341794 -0.019913368 0.016324181 0.07323517 -0.0042518717 -0.07576066 -0.0834371
-0.06473427 0.01345932 -0.15866974 -0.14952649 -0.04256941 -0.016708221 -0.15727359 -0.0050010565
-0.3165895 -0.0962942 0.047147572 -0.05413319 0.031713888 -0.05354189 0.011966461 -0.1476469
0.15905844 0.07023323 0.05923486 0.05633678 0.09593522 -0.021936264 -0.23245525 0.030564206
0.06945308 -0.11832244 -0.031621665 -0.17836699 -0.20719305 -0.082057826 0.07356888 -0.28029633
0.07358507 -0.27344823 -0.10802771 -0.11462348 -0.1970446 -0.050567638 -0.4543556 -0.045951672
0.06517266 -0.166414 0.11281118 0.08620491 0.09614421 0.21876523 -0.05085452 0.06372888
-0.0039272523 0.018792802 -0.14583828 0.09341477 0.024906382 -0.0921457 0.038492285 0.02922268
-0.14660586 -0.10995311 0.017707089 0.021495186 -0.040919416 -0.10949607 0.06143195 -0.018621342
-0.1047844 0.064142525 0.13655551 0.091452695 0.10530589 -0.039079893 -0.26767394 0.016074715
-0.11355808 -0.16897804 0.008775235 -0.045288406 -0.051483743 -0.39345405 -0.18629853 -0.06415792
0.0076599685 0.080644704 0.011094328 -0.21173438 -0.13104086 0.040020924 -0.23240422 -0.2901799
-0.18438637 -0.23037814 -0.029709 -0.2277955 -0.058003858 0.04539257 -0.18073489 -0.283243

network_body.linear_encoder.seq_layers.0.weight f4 [128, 68]
00000000: c96c babd b662 273e 5485 96bc 1e90 473e
00000010: 8bd4 1bbe 13af 1bbe 8dd5 1d3e 52ef c2bd
00000020: 52de 8d3e 61ae 223e a6bb 8fbd 7a22 4a3f
00000030: 2abb 5cbe 48ac 7e3d 1740 0ebb ba99 0fbf
00000040: 45e0 33be d0be c4bd 1378 d3bd e440 c6be
00000050: 380b b03d 30fe 7f3d 4fb6 973d 954d b8bf
00000060: 6f37 2fbe 7d1b 2dbe 4a36 d23d a645 ccbe
00000070: 5aaa 823e a7a4 28be 10eb cb3d 3824 e9be
00000080: 6eb1 5dbe 2b34 893d 35f7 1ebe 32a6 64be
00000090: 9ee9 c73c 5922 87bc 6225 bcbe 562c 303e
000000a0: 4b36 833d 4aa5 d33d 4d7a ff3c a341 ccbd
000000b0: 8ca0 b4be da9a f1bd 8783 0abf 5046 fa3e
000000c0: 9974 423e 9747 643d f5ba cebd 99c0 723e
000000d0: d5c8 e53e 0801 57bd 5727 eabc f3da 1f3e
000000e0: 8bdc 63be 07e6 b33d c3c4 a6bc 556a 26be
000000f0: 52ea de3d d422 433d 9925 17be f2c7 623e
00000100: 194e c83d e933 66be af9f da3d 5a69 8e3d
00000110: 24a6 613e 2344 a1bc ddd5 11bc 7348 30c0
00000120: 8377 143d e73f 66be 3238 9abd 7eef 47bf
00000130: b4cd 8a3e 1b45 5bbd 57aa 883d ce8c a5be
00000140: 096c 43bd c087 b3bd 2c6d 4bbd f049 113f
00000150: 0475 b3bd 2343 9c3d 3507 0dbd c261 803f
00000160: 58b4 82bd 5eaf 9f3d 3ecf 87bb 497a a43f
00000170: d16c e73d 8b3e 12be ee46 703d 99dc 2c3f
00000180: 94ef 253e 0088 67bb ea34 41bf 591d da3c
00000190: 5db0 14be d742 96bd 9836 6c3e 619f bc3e
000001a0: 6d00 5cbd 40ea a3bd d4d7 95bf b8c4 d6be
000001b0: 0cac d83d 1bed 98ba 1029 423d 819e e0be
000001c0: 612a 62bb d029 c1bd b25f 04bf b069 5a3e
000001d0: 358f f63d 3f57 ee3d 0217 003e ad98 7f3e
000001e0: a0d9 253e 10f4 8dbd be56 8abc ca11 5a3f
000001f0: 4e5e 93be 3657 bc3c 31f0 0b3e 4581 00bf
00000200: a7b5 303d 13b6 23be c605 ab3d c878 453e
00000210: e134 a3be c6a9 6b3c 624c 023d 4067 863e
00000220: accd a3be 89f4 0f3c 5d06 823e 41d8 f93f
00000230: f410 073f ba0a b03e 0116 223d c4d5 93bd
00000240: 61dd 53be 1a4d 25be f5cc 093e 0852 fc3f
00000250: a45b 063e 3f24 48bd 5480 f6bd 1bef 8bbf
00000260: 866c 693d 58d8 debd f395 253d 4479 d23e
00000270: 2355 8c3e d341 d43d a085 5c3e 07f4 80bf
00000280: f338 8cbe 9b52 1f3e c27e cc3d 48c1 693f
00000290: 39a4 663e c08a 993c e4da 4a3f 48da 123e
000002a0: 7dd4 65bc cf46 7a3c eaad 893d dbee 223d
000002b0: 77fc b93d 916c 3dbd 571c c7bd b318 8bbe
000002c0: 7647 8ebd d61f 77be 7921 e4bd 0edf 943e
000002d0: 1b75 193d b0d9 bb3c ff16 43bd 5fed dabd
000002e0: 3e29 febe 2464 6fbe 4064 85be c296 c8be
000002f0: 4081 3f3e eb94 0a3e f524 1ebd 41d9 c3be
00000300: aab9 58be 9bc3 893c aa34 a23d 56d5 4e3f
00000310: b5ad bcbd b107 433e 8f64 7ebe 4d4e 4c3e
00000320: ebe5 e6bd fc90 563d 6460 09be 35be 41bd
00000330: 2d4a 9bbe a76a e93d e91d 773c 2ec4 fe3f
00000340: 3e4b eb3c b34b f63d 0a7d d13b cfdf 863e
00000350: 9120 26bf 0340 363e f958 02bd f45e d83f
00000360: 758c a83d ed19 523d 7678 3b3d 0154 5abf
00000370: b85a 18be c2a8 5dbd a280 043e df53 22be
00000380: 98c9 9ebd a35b fe3a 4b30 763e f17b 9cbf
00000390: aeb7 15bb d17c 79be b376 053e dd5c 063f
000003a0: caf7 28be 2d21 c63d 4cfd 113f 242d 23bf
000003b0: 243c 4cbe e23d ebbd 0e37 81bd bc1a 38bf
000003c0: b2b0 04bd c654 103e 2712 873e f37e b4be
000003d0: 65c7 a53d 1d1f bc3b e38c 17be db0a 2a3f
000003e0: 18e4 923e 8c4b edbc e9f6 ecbe a7ca e83c
000003f0: 966f cb3d d180 83bd 56c0 15be 8bcf 77be
-0.0910278 0.16346249 -0.018374123 0.1948857 -0.15217797 -0.15203504 0.15413494 -0.09518303
0.2770868 0.15886833 -0.07018213 0.7895886 -0.21555772 0.06217602 -0.002170568 -0.56093943
-0.17566021 -0.09606707 -0.10325637 -0.38721383 0.0859589 0.06249827 0.074078195 -1.4398676
-0.1711099 -0.16905017 0.10264261 -0.39896888 0.25520593 -0.1646906 0.09956944 -0.45535445
-0.21649715 0.066994034 -0.1552399 -0.22329023 0.02440339 -0.01649587 -0.3674727 0.17204413
0.0640684 0.10334261 0.031186247 -0.09973457 -0.35278738 -0.11797114 -0.54106945 0.4888177
0.18989791 0.055732336 -0.10094253 0.23706283 0.44879785 -0.052491218 -0.028583212 0.15610866
-0.22252099 0.087841086 -0.020357495 -0.162515 0.10884537 0.047640637 -0.14760436 0.22146586
0.09780521 -0.2248074 0.106749885 0.06953688 0.22036034 -0.01968581 -0.008901087 -2.754422
0.036246788 -0.22485314 -0.0753025 -0.7809981 0.27110064 -0.0535327 0.06673115 -0.32333988
-0.047710452 -0.08766127 -0.04966466 0.56753445 -0.08762553 0.07629993 -0.0344307 1.0029833
-0.06382054 0.077971205 -0.0041445782 1.2849818 0.11300052 -0.14281671 0.058661394 0.67524105
0.16204673 -0.0035328865 -0.75471365 0.026625322 -0.14520402 -0.073369674 0.23067701 0.36840346
-0.053711344 -0.08003664 -1.170649 -0.4194696 0.1057969 -0.0011667343 0.04740244 -0.4387093
-0.0034510123 -0.09431803 -0.5170852 0.21329379 0.12039033 0.116377346 0.12508777 0.24960585
0.16196299 -0.06931317 -0.016887065 0.85183394 -0.28782886 0.022990804 0.13665845 -0.5019725
0.043141987 -0.15987425 0.083507106 0.19284356 -0.3187628 0.014383739 0.031811126 0.26250648
-0.31992853 0.008786329 0.2539548 1.951912 0.52760243 0.34383184 0.039571766 -0.07218507
-0.20689918 -0.16142693 0.13457091 1.9712534 0.13120896 -0.048862692 -0.120361954 -1.0932344
0.05698826 -0.10881108 0.040426206 0.41108143 0.27408704 0.103641175 0.21535349 -1.0074471
-0.273872 0.15558855 0.09985115 0.9131055 0.22523583 0.018742919 0.7924025 0.1434108
-0.014027712 0.015275671 0.067226246 0.03977857 0.09081357 -0.046246115 -0.09722202 -0.27167282
-0.06947224 -0.24133238 -0.11139197 0.29076427 0.037465196 0.02293095 -0.047629353 -0.10689806
-0.4964084 -0.23378044 -0.26053047 -0.3917752 0.18701649 0.1353337 -0.038609464 -0.3825169
-0.21164575 0.016816905 0.07920201 0.80794275 -0.092128195 0.19045903 -0.24843048 0.19951744
-0.11274322 0.05238436 -0.13415676 -0.047300536 -0.3033003 0.113972954 0.015082815 1.9903619
0.028722402 0.12026157 0.0063930796 0.26342627 -0.6489344 0.17797856 -0.031823132 1.6903977
0.08229915 0.051294256 0.045769177 -0.8528443 -0.14878356 -0.054116018 0.12939695 -0.15852307
-0.07753295 0.0019405972 0.2404186 -1.2225324 -0.0022845077 -0.2436402 0.13033561 0.5248545
-0.16500774 0.096742965 0.57027125 -0.63740754 -0.19944817 -0.114864126 -0.06309329 -0.71915793
-0.032395072 0.14094839 0.26381037 -0.35253105 0.08094672 0.0057410137 -0.14799838 0.66422814
0.28689647 -0.028966688 -0.46282127 0.028416945 0.09933393 -0.06421054 -0.14624152 -0.24200265

network_body.linear_encoder.seq_layers.2.bias f4 [128]
00000000: dca1 5abe c21d 4fbd 6e55 2bbc 68a1 1e3e
00000010: 2877 07be 5eeb 73bf 4843 c8bc 60cd e3be
00000020: 8724 a5bd 7181 a63b 4dc3 8a3d 9b4c 11bf
00000030: 5c3e fcbc 9fcf 90be bab1 adbe 520d 9ebe
00000040: e34f 14be 4778 9bbe 1bb1 afbd f58d 41bf
00000050: 9c83 fcba ec9d 79be 72d5 0ebe fc04 91be
00000060: 3bd3 1abc 3bef 6cbc 42b9 be3b c022 ebbd
00000070: 4856 81be 7e5a b73c 1099 2dbe 3702 3d3d
00000080: 5017 d0bc 3872 10bc 1f94 1ebf fa31 073e
00000090: 1ffc aabd 9c10 d7bd 0ab0 223d 6049 6cbd
000000a0: 9f37 3abd 7802 06bf 72ca d9be 6e01 d6be
000000b0: ff02 503b 9caa 3dbc b4ae 25bf c501 42bd
000000c0: a28b 0abf 7336 8dbd e9fa babe 819c 80be
000000d0: 18eb c8be 69c8 0ebd 99de d8be 5737 debe
000000e0: 2687 78bf ca02 f5bd 06bb 7abe 11e0 03bf
000000f0: 08cd edbc 089c 27be 9483 21bd dda5 11bd
00000100: 008d 4abf c6ad 96bc dd03 dbbd d5fc a4bd
00000110: 547b ecbe df66 61bd 648d 1abf dcdf 9ebe
00000120: 15cc 95bd 6eee dbbd ec2c 05bf 495b a8be
00000130: f4de 64bd 8169 3cbf f6d1 783d fd9f fabd
00000140: 7e34 c23c 421f 3fbd ecd6 82bc 9cb5 3abe
00000150: 6378 19bd c8b6 a8be 4936 95bd ff04 70bd
00000160: 15e2 0cbd ed96 2cbd 01ce f2bd 4099 13bf
00000170: 465f 2b3d 4a08 07be b295 363c f7d0 bcbd
00000180: a456 cbbc 52c3 b7bd 1d57 b4be efb5 b8be
00000190: 1d40 2fbf 0993 14bd 8f2d 97ba 4610 913c
000001a0: c0e5 f2be 8771 ffbe 05c9 41bf 593f 30bd
000001b0: b47a 10bf 54f9 a93d 9179 f6bd 06ab e03b
000001c0: cb10 b7bd 1b5a d3be c6ce f2bc 3dd1 c0bc
000001d0: fbed 7fbf 8b4f b8bd a6c4 56bd b31c 77bd
000001e0: e1f1 babc 1c54 3abd 1297 01bf 98e9 02bd
000001f0: 0c2d a0bc 6ee3 d83e 2219 99bd be01 8abc
-0.21350807 -0.05056549 -0.01045738 0.15491259 -0.13229048 -0.95281017 -0.024446145 -0.44492626
-0.08063608 0.0050813486 0.06775532 -0.56757516 -0.030791454 -0.28283402 -0.33924657 -0.30869538
-0.144836 -0.30365202 -0.08578702 -0.75607234 -0.0019265297 -0.24376649 -0.1394861 -0.28324115
-0.009449775 -0.014461334 0.0058204243 -0.114812374 -0.2526114 0.022382017 -0.1695292 0.04614469
-0.025401741 -0.008816294 -0.61944765 0.13202658 -0.083488695 -0.10501215 0.039718665 -0.057687163
-0.0454632 -0.52347517 -0.42537266 -0.41797966 0.0031740067 -0.011576321 -0.647197 -0.04736497
-0.5411931 -0.06895151 -0.36519554 -0.25119403 -0.39241862 -0.034859095 -0.4235733 -0.43401596
-0.9708122 -0.119634226 -0.24485406 -0.51513773 -0.02902843 -0.16368115 -0.039432123 -0.03555857
-0.791214 -0.018393409 -0.10694096 -0.080560364 -0.46187842 -0.055029746 -0.60371995 -0.31030166
-0.07314316 -0.10738836 -0.5202167 -0.32882145 -0.055876687 -0.73598486 0.06074711 -0.122375466
0.02370667 -0.04666067 -0.015971623 -0.18233341 -0.037468325 -0.3295195 -0.07285745 -0.058598515
-0.034395296 -0.04213612 -0.118556984 -0.57655716 0.041838907 -0.13186756 0.011144089 -0.092195444
-0.024821587 -0.08972801 -0.35222712 -0.36076304 -0.68457204 -0.036273036 -0.0011533963 0.017707955
-0.4744091 -0.49891302 -0.75697356 -0.043029163 -0.5643723 0.08299509 -0.12034906 0.006856325
-0.0893875 -0.41279683 -0.029639613 -0.023537273 -0.99972504 -0.089995466 -0.052433632 -0.060330104
-0.022820415 -0.04549037 -0.5062114 -0.031961054 -0.01955273 0.42361015 -0.07475497 -0.016846534

network_body.linear_encoder.seq_layers.2.weight f4 [128, 128]
00000000: 7fb3 cfbe ec23 c43d 20f3 61be e479 9f3d
00000010: 842d ce3c 34b1 28be 0429 8abe 840c 613e
00000020: 88fa e73c c4b4 c0bd 9787 233e 7f4e 233d
00000030: accf 1c3e dd38 7b3a 6340 dbbe ef99 d4be
00000040: 5da9 00be 6a7d 893e 42e4 563e afc1 a7bc
00000050: 600c b5be 30f8 353e 197b 2b3e 1f26 c03c
00000060: 2b56 a93d d6df f4bd b511 98be cc64 8fbe
00000070: 9165 09bd 4a39 f1bd b205 2cbe 9067 92be
00000080: 949a 8a3e 18a3 a53c aecf 1ebe 0334 39be
00000090: c373 dfbd 193f abbe c381 97bd 83ce b13e
000000a0: 6cb2 d83d 6b43 3dbe 7f75 b63e ee1b 4dbd
000000b0: 1780 d83d 3ab8 0abf ee0e 2ebd 4439 e43d
000000c0: 6511 b8bd 7885 c53e 981f 1ebe c84b 91be
000000d0: 6f04 0dbe a0c1 c9bc 89fb 423e a0e4 cf3e
000000e0: e8c0 d03e b2a6 963c e6a6 8e3c f822 a23d
000000f0: 7cd0 2bbd 9ad3 053e 0da3 2c3e 8872 2abe
00000100: 00b5 b53e 9cd3 9f3e c60d 86bd 0937 9dbe
00000110: 21b5 e5bd 2ebd 41be e651 16bd 480c 0dbe
00000120: 2c37 ccbe 054b 6bbe 37eb 84be 9a16 8dbc
00000130: c5c7 213d ad71 713e 5be5 b23e e0cc 5a3e
00000140: f639 8e3e 4d17 11be eeb4 c9be f557 143f
00000150: 6f12 293d 1328 e83e c7d7 003e 5c9c aabd
00000160: af7b d8bd af7f b43e 3405 22bd 6b7d dbbe
00000170: bc27 9ebe 6c24 ac3c 2d1c 08be b572 f13d
00000180: 099e 20be c064 0fbe bd8b b03e e7f6 cc3e
00000190: 5cff b83d 1ada 0d3d 59a8 89be 6137 663e
000001a0: 67b4 d83e 94f2 2bbe c884 783e c535 8c3d
000001b0: ba04 9fbe 21a6 2e3e af1a 7dbd f957 6dbe
000001c0: 7ca7 363e 73c8 5f3e fa4a 5abe 2778 613e
000001d0: b9b5 7c3d ade5 4f3e e221 82be fc63 243e
000001e0: 91e5 a83d cdb3 df3e 5f7a aebe 8e5d 443d
000001f0: cdb6 3c3e 09ce fd3d 4c68 c2bd 9a08 873e
00000200: 0a11 b33d 44ee db3d b8d8 fd3d f3cf 513d
00000210: 8c6c 85bd f511 8a3d 1080 f73c b47f 41bd
00000220: 6272 e33c 3740 5d3b e0f2 75be 9873 963d
00000230: 1f69 5e3e 9dce 2d3e 28ba 913c 1949 dfbd
00000240: f480 cf3d 1c18 6239 9cfc 0bbd edf6 633d
00000250: e59a 873e df0c 0e3e e1ab d9bc 7780 a8bc
00000260: a788 963c fcde f2bd 730b 753e abcd e1bd
00000270: 0a47 093d f363 78be ef0b f4bc 73fe 4ebd
00000280: d2ea 36bd d8d9 9cbd 18bf 23be cada 7fbd
00000290: 1454 d4bc bd4a 0fbe 6688 19bd 7c99 a23d
000002a0: 88aa f8bd da1e 10bb ca07 18bb 0f06 4b3d
000002b0: 5ab6 213e 7269 17be 7636 8f3c 04d1 223d
000002c0: 6fed 6dbe cfd5 12be 897c f83d c298 373b
000002d0: c2e7 0d3a f9f2 e23c 8eac de3d 0a11 01be
000002e0: f89d 0cbe 80b4 193e 1cfc 9ebc 4e24 0fbe
000002f0: 838d 5a3e d65c 0d3d a674 ef3d 030b 603e
00000300: d7cf 92bd 6186 083e ea76 4a3e 202d ebbd
00000310: 4081 253c 6cd6 023e 3a74 3fbe f5cd 483e
00000320: 3110 afbd 241e f1bd 20c8 31be 0c40 39be
00000330: 0053 223d 990e 65bd d77f 97bd 53af 8d3d
00000340: eed2 32bd 754d e1bd a52b 703d 7f31 9fbc
00000350: de7b bebc 556d 7d3d ef5c 953b 6edd 85bd
00000360: ce56 38bd 111e 80bd 3eeb 16be b374 8a3d
00000370: ae88 b4be a11a b1bd 3d55 5e3d 51aa e3b9
00000380: 171c 13be f7e2 033e b1d5 be3e a667 833d
00000390: 471c 183e 00ba 5dbc 5686 263e 3a06 1f3d
000003a0: 55bf 863d f915 afbd e7ba afbb a664 a13d
000003b0: 0f25 853d 9327 a13b d7f9 f53c 7b1e 8fbd
000003c0: 1862 38bd c4c4 5b3d d794 bebc 4d05 07be
000003d0: 1f02 7fbe 9152 02be 78f4 d23d d89d 1cbe
000003e0: 7d2e debd 4a26 e6bd 166c bfbd 92f1 523e
000003f0: b88f 5b3e 27bd a13d 047c bfbe df60 4c3e
-0.40566632 0.09577164 -0.22065401 0.07786921 0.025168188 -0.16473848 -0.26984417 0.2197743
0.028317705 -0.09409478 0.15969692 0.03986978 0.15313596 0.00095833634 -0.4282256 -0.41523692
-0.12564607 0.26853496 0.20985511 -0.020478098 -0.35361004 0.17770457 0.16746177 0.023455678
0.08268388 -0.11956756 -0.2970101 -0.2800659 -0.033544127 -0.11778505 -0.16799048 -0.28594637
0.2707106 0.02021937 -0.15508911 -0.18086247 -0.10910752 -0.33446577 -0.07397797 0.34727868
0.10580906 -0.18482749 0.35636517 -0.050075464 0.10571306 -0.5418736 -0.042494707 0.11143735
-0.08987693 0.3857839 -0.1544174 -0.2837813 -0.13771223 -0.02462846 0.19041266 0.40604115
0.40772176 0.018390033 0.017413568 0.07916826 -0.041946873 0.13069001 0.16859074 -0.16645253
0.35489655 0.31216133 -0.06545596 -0.3070605 -0.11216188 -0.18919823 -0.0366992 -0.13774216
-0.39885843 -0.22977836 -0.25960705 -0.017222691 0.039497156 0.2357852 0.3494061 0.21367216
0.27778596 -0.14169045 -0.3939585 0.5794671 0.041277345 0.45343074 0.12582313 -0.083306044
-0.10570466 0.35253665 -0.039555743 -0.42869124 -0.3088969 0.021013461 -0.13291998 0.11789457
-0.15685286 -0.14003277 0.34481612 0.40032122 0.09033081 0.034631826 -0.26886252 0.22482063
0.42325136 -0.16791755 0.24269402 0.06846193 -0.31058294 0.1705556 -0.061793026 -0.2317809
0.17837328 0.21853809 -0.21317664 0.2201849 0.06169674 0.20302458 -0.25416476 0.16053766
0.08246911 0.43691865 -0.34077737 0.047940783 0.18429108 0.12392814 -0.09492549 0.2637375
0.08743484 0.10738805 0.123948514 0.051223706 -0.06514844 0.06741706 0.030212432 -0.047240928
0.027764503 0.00337602 -0.2401843 0.073462665 0.21719788 0.16973348 0.017788962 -0.10902614
0.10132018 0.00021562021 -0.034176454 0.05565541 0.26485363 0.13872097 -0.026571216 -0.02056907
0.018375708 -0.11858937 0.23930149 -0.11025556 0.033515014 -0.24256878 -0.029790847 -0.05053563
-0.044657536 -0.07658738 -0.15990865 -0.062464513 -0.025918998 -0.13993354 -0.037483595 0.07939431
-0.12141901 -0.0021991045 -0.0023198002 0.049566325 0.15792218 -0.14786318 0.017482024 0.039750114
-0.23235105 -0.14339374 0.12133128 0.0028014635 0.0005413258 0.027703749 0.10872756 -0.12604156
-0.13732135 0.15010262 -0.019407324 -0.13978693 0.21343045 0.034512363 0.11692171 0.218792
-0.071685486 0.13332511 0.19771925 -0.11483216 0.010101616 0.12777108 -0.1869668 0.19609816
-0.0854801 -0.11773327 -0.17361498 -0.18090838 0.039629936 -0.055922125 -0.073974304 0.06918206
-0.04365819 -0.11001102 0.058635373 -0.019432781 -0.023252424 0.061871845 0.0045581977 -0.06536375
-0.04500466 -0.06255735 -0.14738175 0.0676054 -0.35260528 -0.08647657 0.05428051 -0.0004342371
-0.14366184 0.12879549 0.3727241 0.06416254 0.14854537 -0.013533115 0.16262183 0.038824297
0.065794624 -0.08549113 -0.0053628567 0.07880525 0.06501209 0.0049180477 0.03002636 -0.069882356
-0.045015424 0.053654447 -0.023264332 -0.13185616 -0.24903153 -0.12726809 0.10300535 -0.15294588
-0.10848711 -0.11237772 -0.09346788 0.20599964 0.21441543 0.07897406 -0.37399304 0.19958828
