Learning/results/mx11/KartAgent/KartAgent-15249970.onnx (onnx, 104129 bytes, 7 tensors)

41 f4 [1, 2]
00000000: 283d c63e 727a 74be
0.38718534 -0.23874834

distribution.mu.bias f4 [2]
00000000: 436e 353e e531 213f
0.17717843 0.6296676

distribution.mu.weight f4 [2, 128]
00000000: 6c93 a2bd 0ee8 ca39 9cc8 95bb a6a6 b13e
00000010: f70e 413b bbc2 a3bd e802 bc3b c669 26be
00000020: 696a 9ebb 8411 2b3e 1981 1bbc 600d 67bd
00000030: 86bb 2dbb 576b 94bd bf82 b6bc f7aa e5bd
00000040: 2536 b23b e7cf 95bc 7466 21bd acbf 6bbe
00000050: 0cf6 d23b dc39 86be a96a 1f3c 8c60 203e
00000060: ce72 92ba facd ceb3 91e4 9bb9 6369 053b
00000070: 6df9 d2bd c8d0 99b9 642e 043c e771 863a
00000080: 69f1 d5bc 1370 683b f7d3 2dbd 2392 8dbe
00000090: c69f 303c 351f dd3b b3bc eeba f744 3dbb
000000a0: 3042 8f3c 0301 bfbd e0d4 82bd 6046 bd3e
000000b0: cfa7 863b ce0d d93b 9c81 93bd 96ab 133c
000000c0: eb9e 24bd 7fe6 e53a e86a 97be d1f1 033c
000000d0: 2507 47bd 2765 a5bb a638 d4bd 795b 0ebe
000000e0: 4eba 07be eb2b b7bb 4a2f 28be 12ab 1ebe
000000f0: f672 2e3b 281d 983c b831 48bc 1ab0 193c
00000100: e71f d4bc a8f8 d63a 94fa d53b 6948 a4bc
00000110: 0dc7 94bd 9da4 a03b 05c5 a0be c312 1cbd
00000120: 8e4f 653c bd9c b33b e6f3 823c 596a 78bd
00000130: 0f06 c0bb fc43 7fbe f5c0 123c aaec 5a3a
00000140: 0c68 0dbc 9977 193b 1690 cf3b be7c b3bd
00000150: 7469 99bb 5759 333e 89d9 adbc 0bce 463b
00000160: b0c9 4b3b a28f eeba 27a1 8d3b d291 473d
00000170: 3bbe 6dbb 28f5 ae3a dfb0 1139 8909 303b
00000180: 0c3f 0fbb b2ba b1bc d4e1 30be 6b62 ddbd
00000190: 5fa6 4cbd 016a acba 1b68 16ba da0f 0fbc
000001a0: 7012 b6bc 9405 29bd 6a85 58bd 5767 513b
000001b0: 1a64 12bd 2932 f438 aa1c 1f3c e2d9 08bf
000001c0: e31e f339 4570 b2bd d220 abbb 7f25 c2b9
000001d0: dd6a e2be 5e21 f83d 704b e039 95f6 3eb9
000001e0: edf7 1e3d 6d20 493b e526 84be b782 00bc
000001f0: c39a 223a cd3e 193f b15a 283b 524b a6bb
00000200: 22cb ebbc c40f afba e3d2 c43a 90a3 68bd
00000210: e5ab 703b 5b40 6ebc 9fff 483b 376b 523d
00000220: 7122 5c3b 3321 943d 7927 513a 3231 bfbd
00000230: d192 4f3b f99d 1bbe 172d 97bd d79b 8fbc
00000240: 59ca 5b3b cce4 47be fbb9 b0bd cda3 48bd
00000250: ec66 6eba c4a7 bcbd 15f2 883b 703f cf3d
00000260: 857e 3a3b 82a2 823a a17e 573b 3a67 02bb
00000270: 1c78 35bd 2a0b 703c 9be2 8abd f205 e4ba
00000280: 1562 223c 0c0f b8bb 2e62 8bbb 69b0 453e
00000290: eee4 18bd 59b6 8a3b c590 a5bb 06fe 2d3b
000002a0: 2ed0 6a3b 0956 40bd b35b a53b a3ab 523c
000002b0: 990f 91b9 526b 283a 9773 9fbd 2030 94ba
000002c0: b11d b4bd 563f 90b9 d4e6 23be 78e2 ebbd
000002d0: 6e40 55be 70c5 9bba a76d 1dbe 9891 48be
000002e0: edc7 33bc af65 593b a54a 70be 12ae 8bbe
000002f0: 69f6 a539 ac32 49bb c406 573b b2c5 a7ba
00000300: 3cf7 743c 6099 82bb 8f22 a3ba 1b73 ab3b
00000310: dcb2 1ebd 5cfd e4bb 713a 4cbd 0114 6bbb
00000320: 793a ceba 1ee6 5fbc 35ad 61be 1846 29be
00000330: 4659 cc3b 7d92 77bd 9259 ebba 537d e8ba
00000340: af79 db39 083d ff39 dc22 2d3a 7c7e 95bc
00000350: 0199 933b 5cb5 e2bc 8dbc 423c 2c52 dcba
00000360: dc54 25bb 170c 65bb e9d9 40bb add9 23be
00000370: 4005 e1bb a591 813b 2e33 a03b 964e 0fbb
00000380: b072 2abb f33e da3b 9f53 3cbe 85e5 74be
00000390: 9431 93bd 538c a83a b3d1 9ebb baaf 4dba
000003a0: 591d 01be 72f7 80be c90e 53bb 74f6 1b3b
000003b0: 91c0 2abe 39e2 c13a 1e17 a9bb 1ce1 00bd
000003c0: b889 9ebb 3dcc 34be 3a9c 3c3b 7f94 3b3a
000003d0: 3890 41bc c267 703d 4980 413b 508a 6d3a
000003e0: c339 91bc 2106 113a 05d1 26be 5e8f db39
000003f0: d9cc a3ba 0ebc 97bd d58a d63b 6b51 3ebb
-0.07938275 0.00038701337 -0.0045710336 0.34697455 0.0029458383 -0.07996126 0.005737651 -0.16251287
-0.0048344624 0.167059 -0.0094912285 -0.05640924 -0.0026509478 -0.07247036 -0.022279141 -0.112142496
0.0054385834 -0.018287612 -0.039404348 -0.23022336 0.0064380225 -0.26216018 0.00973002 0.1566183
-0.001117313 -9.6300894e-08 -0.000297342 0.0020357005 -0.103014804 -0.00029337988 0.008067701 0.0010257334
-0.02611609 0.0035467192 -0.042438474 -0.27650556 0.01078028 0.006748105 -0.0018214196 -0.0028880218
0.017487615 -0.09326365 -0.06388259 0.36967754 0.00410936 0.00662396 -0.072024554 0.009013077
-0.04019062 0.0017540007 -0.2957375 0.008053259 -0.048590798 -0.0050474587 -0.10362367 -0.13902082
-0.13254663 -0.005589952 -0.1642429 -0.15494946 0.0026618815 0.01856859 -0.012218885 0.009380365
-0.025894118 0.001640101 0.0065301154 -0.02005406 -0.072645284 0.004902436 -0.31400314 -0.03810383
0.013996018 0.005481331 0.01598544 -0.060648296 -0.0058600972 -0.24928278 0.008957137 0.0008351306
-0.008630764 0.0023417233 0.006334315 -0.08764027 -0.0046817604 0.17514549 -0.021221893 0.0030335214
0.0031095557 -0.0018200765 0.0043221894 0.04872305 -0.0036276716 0.0013348209 0.00013894167 0.0026861152
-0.0021857647 -0.021695469 -0.17273647 -0.10809787 -0.04996335 -0.001315415 -0.0005737559 -0.008731807
-0.022225589 -0.041265085 -0.05286161 0.0031952464 -0.035739996 0.0001164417 0.009711424 -0.5345746
0.00046371584 -0.0871282 -0.0052224183 -0.000370305 -0.44222155 0.12115739 0.00042780815 -0.00018211671
0.03881066 0.0030689493 -0.25810924 -0.007843665 0.0006202871 0.5986145 0.0025688822 -0.005074897
-0.028783385 -0.0013356139 0.0015016462 -0.05679661 0.003672355 -0.014541711 0.003066994 0.05137178
0.0033589865 0.07232895 0.0007978599 -0.09335555 0.0031673203 -0.1519698 -0.07381647 -0.017530365
0.0033537357 -0.19520873 -0.08629223 -0.048984338 -0.0009094316 -0.09211686 0.004179249 0.101195216
0.002845676 0.0009966644 0.0032881873 -0.0019897954 -0.044304 0.014651099 -0.06781503 -0.0017396791
0.00991108 -0.005617028 -0.0042536473 0.19305576 -0.0373277 0.0042331633 -0.0050526583 0.0026549115
0.0035829651 -0.04695705 0.005046332 0.012858304 -0.00027668176 0.00064246834 -0.07785719 -0.0011305846
-0.08794726 -0.0002751301 -0.16006023 -0.11517805 -0.20825359 -0.0011884402 -0.1537386 -0.1958679
-0.010972959 0.003317218 -0.23465975 -0.27281243 0.00031654842 -0.0030700369 0.003281043 -0.0012800007
0.014951523 -0.003985569 -0.0012446212 0.0052322275 -0.038744792 -0.0069882106 -0.04986042 -0.0035870078
-0.0015733979 -0.013665704 -0.2203873 -0.16530645 0.006236228 -0.060442436 -0.0017955771 -0.0017737545
0.00041861596 0.00048682862 0.0006604621 -0.018248789 0.0045043235 -0.02767437 0.011885774 -0.0016809157
-0.0025227582 -0.0034949833 -0.002942676 -0.16001005 -0.006867081 0.0039541298 0.0048889136 -0.002186691
-0.00260083 0.006660336 -0.18391274 -0.2391568 -0.07187191 0.0012859203 -0.0048467754 -0.00078463147
-0.12608851 -0.25188786 -0.0032204858 0.002379802 -0.16675021 0.0014792151 -0.0051602265 -0.03146468
-0.0048381947 -0.17656036 0.0028779642 0.00071556115 -0.01181417 0.0586927 0.0029525927 0.00090614427
-0.017727738 0.00055322243 -0.16290672 0.00041877752 -0.0012496962 -0.074089155 0.006547312 -0.0029040228

network_body.linear_encoder.seq_layers.0.bias f4 [128]
00000000: 0e9c 133c 5973 8ebd c864 2c3c e7a3 33be
00000010: e749 81be 371b 65bc 31f0 193e 7b7f 753c
00000020: 5d7a 57bd 0288 18be de40 3ebe da3e b0bd
00000030: 8de7 ef3d 1221 50bd 7a8e a5bd 6d38 45be
00000040: 6a20 b33d c0e8 be3c db21 023c f557 b33d
00000050: 1bba 83be 7a84 593d fc8c 03bd 9085 a7bd
00000060: b0da e5be 2c29 e2bc 8dee 94bc e295 303c
00000070: 5788 9a3d d77e d23b fe68 9bbd 9768 9bbd
00000080: 4d3f 7ebd 94fb c63b 454e 1ebe 2afa 04be
00000090: 3826 aabc f6c0 77bc 4737 16be 563d e5bb
000000a0: aa04 b4be fd75 afbd 4c75 353d adb6 81bd
000000b0: ae07 2b3d 3848 6cbd 6203 f23c 7f9e 2cbe
000000c0: d2f2 1a3e fb07 853d 8460 6a3d cfd5 7a3d
000000d0: 6659 d63d ee28 57bc ca95 79be 0cd1 e33b
000000e0: a7ff 6b3d 787b f5bd 2782 18bd 354d 56be
000000f0: 6230 49be b635 bdbd 79eb ba3d eb6a 8ebe
00000100: 4689 af3d c40e 8fbe c5b7 ddbd 45b7 eabd
00000110: 18c8 48be 3ccf 58bd 44ff 00bf 1a5b 68bd
00000120: 486f 8c3d 1afe 30be ec8e e93d ce55 c53d
00000130: 7c7e cc3d 4661 673e 16b5 8abd f533 833d
00000140: 4905 49bb ba06 a63c e3d0 15be cb47 b23d
00000150: 0608 c73c a3b3 93bd dfd7 293d 7312 c63c
00000160: 7fb4 09be f3c3 e2bd 4fc1 093c 4358 e63c
00000170: 1b2d 13bd 2dfa c5bd aae0 893d a2b5 abbc
00000180: c64d d9bd 9bd5 653d c3d7 f43d 8c61 a13d
00000190: 0de9 cd3d a062 4abd 1290 88be 25c8 873c
000001a0: 2fef f0bd 499c 22be c39a b93c e19a 92bd
000001b0: 6ea5 4dbd ccae d8be 2d4b 40be 5141 8fbd
000001c0: 2240 2abc 001b a53d b8aa 423c 9516 61be
000001d0: 51b8 03be 8b43 1f3d 560d 72be 68e8 a0be
000001e0: 2b5b 14be 5322 6cbe c976 a9bc bee0 6dbe
000001f0: c646 33bd d05d 083d 1295 3cbe ece7 93be
0.009009374 -0.069555946 0.010522075 -0.17542993 -0.25251696 -0.013983539 0.15033032 0.014984007
-0.05260693 -0.14895633 -0.18579432 -0.08605738 0.11714087 -0.05081279 -0.08083816 -0.19259806
0.08746417 0.023304343 0.007942642 0.08757011 -0.25727925 0.053104855 -0.032116875 -0.08179772
-0.44893408 -0.027607523 -0.018180156 0.010777922 0.07545536 0.006423812 -0.07588385 -0.07588308
-0.062072087 0.006072471 -0.15459545 -0.12986055 -0.020770177 -0.015121689 -0.14669524 -0.006995837
-0.35159808 -0.08567426 0.044301316 -0.06333671 0.04175537 -0.05768606 0.029542629 -0.16857336
0.15131691 0.06495663 0.05722095 0.06123906 0.1046627 -0.013132317 -0.24373546 0.0069524106
0.057616856 -0.119864404 -0.037233498 -0.2092789 -0.19647363 -0.0923876 0.09126944 -0.27815947
0.08571105 -0.27940953 -0.10826067 -0.11460737 -0.1960758 -0.05293201 -0.50389504 -0.056727506
0.06857163 -0.17284432 0.11404213 0.096355066 0.099850625 0.225957 -0.06772821 0.064063944
-0.0030673316 0.02026688 -0.14630465 0.087051 0.024295818 -0.07211997 0.041465636 0.02417872
-0.1344776 -0.110725306 0.008407905 0.028118258 -0.035931688 -0.09666858 0.067323044 -0.020960633
-0.10610537 0.056111913 0.11955216 0.07879934 0.100542165 -0.049410462 -0.26672417 0.016574929
-0.11764371 -0.1587993 0.022656804 -0.07158447 -0.050206594 -0.4232086 -0.18778677 -0.0699488
-0.010391267 0.080617905 0.011881523 -0.2198127 -0.1286328 0.038882773 -0.236379 -0.31427312
-0.14487903 -0.23059969 -0.020686524 -0.23230264 -0.043768667 0.03329259 -0.18416241 -0.2888788

network_body.linear_encoder.seq_layers.0.weight f4 [128, 68]
00000000: 8a58 d0bd b662 273e 5485 96bc a392 2b3e
00000010: 936a 19be 13af 1bbe 8dd5 1d3e ac82 afbd
00000020: 9ddc 903e 61ae 223e a6bb 8fbd bb20 443f
00000030: a989 4cbe 48ac 7e3d 1740 0ebb 4a60 08bf
00000040: 5e6f 37be d0be c4bd 1378 d3bd 3254 c7be
00000050: 855b c73d 30fe 7f3d 4fb6 973d d2ec b8bf
00000060: a195 30be 7d1b 2dbe 4a36 d23d 3bb4 d5be
00000070: 1096 863e a7a4 28be 7614 d23d e1e4 cfbe
00000080: 881e 52be 2b34 893d fb57 ecbd decf 4fbe
00000090: 9532 0c3d 5922 87bc b8b0 babe f052 303e
000000a0: f9b7 923d 4aa5 d33d a229 2a3d 6076 b2bd
000000b0: 426b b6be da9a f1bd f4f1 06bf 339c f83e
000000c0: ab1c 413e 9747 643d 5f1d d3bd 6b36 863e
000000d0: 3042 e33e 0801 57bd a1ea 93bc 2057 0d3e
000000e0: 5ffc 53be 07e6 b33d 57ba fbbc eb8d 19be
000000f0: 8dd2 e73d d422 433d cf24 18be f008 623e
00000100: 9236 d13d e933 66be b8a1 d83d 24eb 8c3d
00000110: ead7 4c3e 2344 a1bc ddd5 11bc 120f 33c0
00000120: 1821 f33c e73f 66be 3238 9abd fb96 49bf
00000130: b6cb 753e 1b45 5bbd 57aa 883d fe3d aebe
00000140: 2569 3bbd c087 b3bd 2c6d 4bbd 881c 0e3f
00000150: f863 c5bd 2343 9c3d 3507 0dbd a165 7d3f
00000160: 97d2 84bd 5eaf 9f3d 3ecf 87bb 2a4e a43f
00000170: c9ac ed3d 8b3e 12be ee46 703d 6e95 2c3f
00000180: 8600 183e 0088 67bb 379b 43bf 3c90 173d
00000190: bf5a 17be d742 96bd 5e23 383e 5cd0 b83e
000001a0: 8e98 79bd 40ea a3bd 6227 9dbf 6db6 e1be
000001b0: 1c56 e63d 1bed 98ba f342 ef3c 908b e7be
000001c0: 69c7 a9bc d029 c1bd 9945 09bf 5d92 493e
000001d0: e864 f03d 3f57 ee3d 4ffb c43d 1ff0 863e
000001e0: 1ccf 153e 10f4 8dbd cb07 0ebd 9a79 5d3f
000001f0: 43a9 86be 3657 bc3c cbe7 aa3d 628c 04bf
00000200: 6181 3a3d 13b6 23be 35c6 813d bca0 3c3e
00000210: 48fb a1be c6a9 6b3c 7b35 3f3c 3cfb 813e
00000220: 03e3 a0be 89f4 0f3c 5d06 823e e74c f83f
00000230: 8f51 0b3f ba0a b03e 0116 223d f507 4bbd
00000240: f0de 56be 1a4d 25be f5cc 093e 3a7a 0040
00000250: 1529 fc3d 3f24 48bd 5480 f6bd 2ae2 8abf
00000260: 851a 483d 58d8 debd f395 253d b5cf cc3e
00000270: d5af 893e d341 d43d a085 5c3e 9a09 81bf
00000280: 72b8 8fbe 9b52 1f3e c27e cc3d b2c7 673f
00000290: 31d5 6e3e c08a 993c 7e78 453f b015 253e
000002a0: 88da 73bc cf46 7a3c e1b7 183c 4468 ab3c
000002b0: ed4a ca3d 916c 3dbd 9e01 d2bd 669d 78be
000002c0: f9fd 9dbd d61f 77be 78cf 09be 3ba3 883e
000002d0: b25b cb3c b0d9 bb3c 2f23 ecbc 6fbf e5bd
000002e0: 75b4 02bf 2464 6fbe 9780 84be 6380 d2be
000002f0: ee48 463e eb94 0a3e 2b3a c1bc 08ad c5be
00000300: 1704 57be 9bc3 893c a7f9 b33d 51af 483f
00000310: a91c d9bd b107 433e 1dfe 7cbe 49c3 473e
00000320: 9daa 01be fc90 563d 05fa 07be 08ea 53bd
00000330: 4263 8dbe a76a e93d e91d 773c e0de 0240
00000340: 29f5 703d b34b f63d 0a7d d13b 74b4 983e
00000350: 0fb0 24bf 0340 363e f958 02bd 33c4 d93f
00000360: d0bf 553d ed19 523d 7678 3b3d a49e 5ebf
00000370: 9958 dbbd c2a8 5dbd a280 043e 492d 47be
00000380: e5a3 c5bd a35b fe3a 4b30 763e 8a49 9dbf
00000390: 63d8 f93b d17c 79be b376 053e 6a99 0b3f
000003a0: 4ae1 0cbe 2d21 c63d 22ab 103f da04 2dbf
000003b0: 6733 32be e23d ebbd b01d 51bd 2005 3bbf
000003c0: 038a 85bc c654 103e b3d3 8c3e fde3 afbe
000003d0: 23e6 e63d 1d1f bc3b 0a0c 19be ba90 2d3f
000003e0: 3056 a23e 8c4b edbc 78fb e6be 6121 343d
000003f0: a950 0d3e d180 83bd fa0d 10be f34c 6ebe
-0.101731375 0.16346249 -0.018374123 0.16755156 -0.14982061 -0.15203504 0.15413494 -0.085698456
0.28293315 0.15886833 -0.07018213 0.7661244 -0.19974388 0.06217602 -0.002170568 -0.53271925
-0.17913577 -0.09606707 -0.10325637 -0.38931423 0.09734253 0.06249827 0.074078195 -1.4447272
-0.17244579 -0.16905017 0.10264261 -0.41739067 0.26286364 -0.1646906 0.10257809 -0.40604308
-0.20519459 0.066994034 -0.115402184 -0.20294139 0.034227926 -0.01649587 -0.3646295 0.17219138
0.07163996 0.10334261 0.04154361 -0.087139845 -0.35628706 -0.11797114 -0.5271294 0.4855667
0.18858592 0.055732336 -0.103083365 0.26213393 0.44386435 -0.052491218 -0.018056216 0.13802767
-0.2070174 0.087841086 -0.030728502 -0.14995544 0.11319456 0.047640637 -0.14857791 0.22073722
0.102154866 -0.2248074 0.105777204 0.06880787 0.2000424 -0.01968581 -0.008901087 -2.7977948
0.029678866 -0.22485314 -0.0753025 -0.78746 0.24003491 -0.0535327 0.06673115 -0.3403167
-0.04575457 -0.08766127 -0.04966466 0.55512285 -0.09638208 0.07629993 -0.0344307 0.989832
-0.06485479 0.077971205 -0.0041445782 1.2836354 0.11605222 -0.14281671 0.058661394 0.6741551
0.1484395 -0.0035328865 -0.76408714 0.037002787 -0.1478071 -0.073369674 0.17982242 0.36096466
-0.060936503 -0.08003664 -1.2277644 -0.44084492 0.11246893 -0.0011667343 0.029206729 -0.45223665
-0.020724969 -0.09431803 -0.5362182 0.1968474 0.11737996 0.116377346 0.09618246 0.26355073
0.14629787 -0.06931317 -0.0346754 0.86513674 -0.2630101 0.022990804 0.08344992 -0.5177671
0.04553354 -0.15987425 0.06336633 0.1842069 -0.31637025 0.014383739 0.011670466 0.2538699
-0.31423196 0.008786329 0.2539548 1.9398469 0.54421324 0.34383184 0.039571766 -0.049568135
-0.20983481 -0.16142693 0.13457091 2.00746 0.12312523 -0.048862692 -0.120361954 -1.085027
0.048853416 -0.10881108 0.040426206 0.40002218 0.26891962 0.103641175 0.21535349 -1.0081055
-0.28070408 0.15558855 0.09985115 0.90539086 0.23323514 0.018742919 0.7713698 0.16121554
-0.014883645 0.015275671 0.009321184 0.020923741 0.09877572 -0.046246115 -0.10254215 -0.24278793
-0.07714457 -0.24133238 -0.1345805 0.26687035 0.024823997 0.02293095 -0.02882537 -0.11218154
-0.51056606 -0.23378044 -0.25879356 -0.41113576 0.19363758 0.1353337 -0.023587307 -0.38608575
-0.20997654 0.016816905 0.08787852 0.7839251 -0.106011696 0.19045903 -0.24706312 0.19508089
-0.1266274 0.05238436 -0.13278969 -0.05173686 -0.2761479 0.113972954 0.015082815 2.0448532
0.058827553 0.12026157 0.0063930796 0.29825175 -0.64331144 0.17797856 -0.031823132 1.7013
0.05218488 0.051294256 0.045769177 -0.86960816 -0.10710258 -0.054116018 0.12939695 -0.19450869
-0.09650401 0.0019405972 0.2404186 -1.2288067 0.0076246723 -0.2436402 0.13033561 0.54530966
-0.13757816 0.096742965 0.5651113 -0.6758553 -0.17402421 -0.114864126 -0.051053703 -0.73054695
-0.01630116 0.14094839 0.27505264 -0.3435363 0.11274364 0.0057410137 -0.14945999 0.6779896
0.3170638 -0.028966688 -0.4511373 0.043977145 0.138003 -0.06421054 -0.14067832 -0.23271541

network_body.linear_encoder.seq_layers.2.bias f4 [128]
00000000: 20a2 62be 9618 5abd 43ed 99bc d07c 193e
00000010: 56f7 04be 8b18 71bf 8aea 64bc 6983 dfbe
00000020: 63cd aabd 7021 bdb8 19c1 6f3d b758 14bf
00000030: 4871 d3bc 5026 96be cf35 abbe 3d83 abbe
00000040: 1e53 0abe f14f 96be 3930 c6bd ecf2 48bf
00000050: 0eb3 e23b e6d9 6cbe f73b 09be c8e4 7ebe
00000060: 77e3 3bbb 925a 32bc 428e 5c3c 567b d9bd
00000070: 330e 8fbe 4f92 c13c 941e 30be df64 1e3d
00000080: 6b5d efbc b420 82bb 03b5 21bf 444c 023e
00000090: 21b0 c8bd 6b48 bebd ea39 193d 2fa0 55bd
000000a0: d297 2abd 1e2c 11bf 145b ddbe f8ce d0be
000000b0: 27ad da3b 3704 6dbc deda 2abf 016a 2fbd
000000c0: 41bd 09bf f5d5 85bd 539f babe 1228 7fbe
000000d0: f51d d1be 1473 07bd 6e55 e0be 5ace ecbe
000000e0: e18b 79bf cd77 fdbd 96ed 87be 08f3 01bf
000000f0: 3697 fcbc ec5c 1abe a230 4cbd de56 bdbc
00000100: 5f03 4cbf a5d1 99bc 67c3 d7bd df3b a6bd
00000110: 8a00 00bf 9d63 7cbd 25a4 1ebf 2ab2 a3be
00000120: 66d9 91bd 90c9 f8bd 1d61 06bf 8426 a9be
00000130: 8017 56bd 58e9 38bf ceff 7e3d 905a febd
00000140: 0656 9b3c d5cb 41bd 1d63 25bc a081 44be
00000150: 7bf5 24bd f706 a4be 0e9e 8ebd 51b9 59bd
00000160: be3a b6bc b2ef 16bd 4a5a 08be b81d 0fbf
00000170: cddf ff3c 6156 efbd 43fa 843c 5b4b bcbd
00000180: ae4c eebc a94b bbbd 8aa0 b4be 2e55 b9be
00000190: 2b13 32bf d57a 29bd eba1 873b 0aa1 263c
000001a0: 164e f3be 109c fdbe 49f3 45bf e973 31bd
000001b0: b277 11bf 7898 b73d 1b9f e6bd bba4 183b
000001c0: 25fd b6bd 02c6 debe 45dc fcbc f7a8 d2bc
000001d0: cb94 7abf 8248 c2bd ce13 2dbd de0b 7cbd
000001e0: b54e bbbc 032f 14bd ae99 02bf e60c fbbc
000001f0: 24e2 a9bc 37e1 d83e d01e 8ebd dc4a bebc
-0.22132158 -0.053246103 -0.018789893 0.14989018 -0.12984976 -0.94178075 -0.013971934 -0.43654945
-0.08339956 -9.0184505e-05 0.05853376 -0.5794787 -0.025810853 -0.29326105 -0.3343949 -0.33498564
-0.13508269 -0.29357865 -0.096771665 -0.7849567 0.0069183176 -0.23129997 -0.13401781 -0.2489196
-0.0028669515 -0.010885851 0.013461651 -0.106192276 -0.2794052 0.023629336 -0.17199165 0.038670417
-0.02921935 -0.0039711837 -0.63166827 0.12724406 -0.09799219 -0.092911564 0.037408747 -0.052154716
-0.041648693 -0.5670794 -0.4323355 -0.40782905 0.0066734734 -0.014466337 -0.66740215 -0.042825703
-0.53804404 -0.0653495 -0.3644968 -0.2491763 -0.40843168 -0.03306873 -0.43815178 -0.46251184
-0.97479063 -0.12376366 -0.2654845 -0.5076146 -0.030833822 -0.1507451 -0.049851067 -0.02311271
-0.79692644 -0.018776724 -0.10535317 -0.08116888 -0.5000082 -0.061618436 -0.61969215 -0.31971866
-0.071215436 -0.1214782 -0.52491933 -0.33037198 -0.052268505 -0.72231054 0.062255673 -0.12419617
0.018961918 -0.04731353 -0.010094431 -0.19190073 -0.04027317 -0.32036564 -0.0696374 -0.053155247
-0.022244807 -0.036849685 -0.13315693 -0.5590472 0.031234646 -0.11686397 0.016232615 -0.091940604
-0.029089298 -0.091452904 -0.35278732 -0.361978 -0.695605 -0.041376907 0.004139175 0.010170231
-0.47520512 -0.4953313 -0.7732435 -0.04332343 -0.56823266 0.08964628 -0.11260816 0.0023291546
-0.08935002 -0.43510443 -0.030866751 -0.025715334 -0.9788329 -0.09486486 -0.042255215 -0.061534755
-0.022864679 -0.036177646 -0.51015747 -0.030645799 -0.020737715 0.42359325 -0.06939471 -0.023229055

network_body.linear_encoder.seq_layers.2.weight f4 [128, 128]
00000000: 07db cebe 46ad d73d 475d 67be 59f4 a63d
00000010: 1e52 9e3c 3aca 44be 33fe 88be 49c8 613e
00000020: 5af3 0d3d 5b9b b7bd e09b 173e 3dce 1f3d
00000030: 77c6 e53d 661e 5b3c bb37 dbbe e239 d4be
00000040: ba3d e8bd b2c8 7f3e 529c 513e 1a87 12bd
00000050: 7f30 b3be f170 443e 02ab 273e 1dd0 1a3d
00000060: cbc3 a53d 8e76 f1bd 96d7 8fbe 09ba 85be
00000070: 0522 36bd fa67 d9bd a7ae 29be 7d5b 98be
00000080: ccb3 873e de48 f53c 9c37 29be 01cf 5fbe
00000090: 780c ddbd ea0c adbe e9e9 b2bd 0c24 b43e
000000a0: b650 e33d 9349 48be 079d ac3e 9b0f 3dbd
000000b0: fc00 b73d 0d04 08bf 69d3 4ebd f8c9 f43d
000000c0: 8fbc b2bd 4573 bb3e 95bb 2bbe d1ad 94be
000000d0: 0f92 18be 75d9 993b c18a 413e 3a66 d23e
000000e0: f2a3 d43e 36b7 c13c fbb9 d93c 2bad a93d
000000f0: 01d1 30bd 8d61 053e 14c5 173e fd07 3cbe
00000100: 83e2 ac3e 2937 9a3e 0293 63bd 5d1a 9cbe
00000110: dc3d d0bd 6786 42be acec acbc 7725 25be
00000120: 0b14 d1be ceb6 76be dcda 7dbe 5806 3cbd
00000130: 817c 603d c5a7 5b3e 3b17 b43e 1238 4f3e
00000140: 02fd 863e b622 22be a3e8 cbbe d469 133f
00000150: 9996 533d 1fc2 e43e 019c 003e 3753 94bd
00000160: 263a c4bd ddb4 ac3e 2bd0 13bd af7c e9be
00000170: d801 96be 51e5 e13b 3cc2 19be deda 0b3e
00000180: 8b7e 28be 6605 26be 5bf0 b23e 329b c73e
00000190: 1b2f b83d a390 1a3d a713 87be 55dc 753e
000001a0: 774b d73e 25ec 36be b0a2 5e3e 3ce7 943d
000001b0: 7f86 9fbe 96ca 393e 5380 79bd 450f 68be
000001c0: e8d1 313e e5b7 6a3e add1 53be 3c37 603e
000001d0: 4ccf 6c3d 9265 5d3e 2e6a 7abe 286d 263e
000001e0: 3414 b23d fd5a df3e 9c80 b3be f9e2 2c3d
000001f0: b261 383e 3001 063e 65f4 c4bd 8581 843e
00000200: 09e9 963d d737 d63d 9af8 263e ad46 893d
00000210: 56ea 78bd 910d 8d3d 2dba eb3c 387a 57bd
00000220: 2145 d53c c541 eb3c 0c3c 7bbe 31d1 bf3d
00000230: 9bbc 5b3e 0d0d 223e 1859 ae3b d499 cdbd
00000240: d4ea c63d 47d2 cb3b 10e4 e3bc 3302 4b3d
00000250: 4dbc 903e 6fc1 1e3e 342a 3fbc 1840 d5bc
00000260: 49f6 7b3c 5439 d2bd a4da 853e 665b dfbd
00000270: c56c 003d aa97 71be b7b1 58bc 44f5 00bd
00000280: 0104 03bd c5fc a9bd 8657 17be bb7a b2bd
00000290: 2c5b 3cbc ea97 07be eba4 eebb a2fc a13d
000002a0: fe08 f5bd ec33 a6bc 4564 8cbb 99dc 103d
000002b0: 3338 203e 2bac eebd bef6 823c 00f4 793d
000002c0: ccb0 57be 46d2 1ebe f627 da3d ad6f a63c
000002d0: 75a8 003d 8525 1f3d 3e4c f23d 3800 f5bd
000002e0: 036a 0bbe f002 0a3e ae6b 883b c7a7 0fbe
000002f0: f5c5 6c3e de41 463d a0b0 f13d 6b6b 823e
00000300: 6289 b1bd 64e0 103e e623 693e 571e c3bd
00000310: 840a 0c38 fe1d 133e 37bd 38be d3cf 523e
00000320: 629c d6bd 037b d4bd f3fa 2fbe 9725 36be
00000330: da8d 863d 6d7c 3fbd 5922 6cbd dbe5 8f3d
00000340: a6b4 76bd cd90 e6bd 0da9 9b3d f904 a2bc
00000350: d00b 34bd 36eb 703d 4dbe 6e3c 3da2 8cbd
00000360: 4a81 a2bc 47ac 20bd abfe f5bd c5d3 773d
00000370: 75c3 a8be c99c afbd dc98 853d f824 6bbc
00000380: 1812 01be 2c7a 163e d28c be3e 3435 633d
00000390: 21ba 233e 7710 eebc 7391 263e 5fcb 503d
000003a0: 70c4 443d 98e2 90bd a07c 93bc 3b8e b23d
000003b0: 7a20 9b3d 6254 273c 97b9 7c3d 0937 68bd
000003c0: 095f 32bd 03f8 413d 3cbb b6bc 42de 06be
000003d0: 46bb 5dbe be4e f4bd 9165 e93d 2200 0dbe
000003e0: 8a68 d1bd ec99 c9bd b35d e7bd 7432 543e
000003f0: 883c 5b3e ecfe bd3d de35 b7be d2a6 513e
-0.4040148 0.10531096 -0.22594176 0.08152074 0.019326266 -0.19217768 -0.2675644 0.22049059
0.034655906 -0.089651786 0.14805555 0.039015044 0.11219495 0.013373947 -0.42815956 -0.4145041
-0.113398984 0.24978903 0.20469788 -0.035773374 -0.34997937 0.19183709 0.16373828 0.03779613
0.08093985 -0.11790191 -0.28094167 -0.26118496 -0.044466037 -0.10615535 -0.16570531 -0.297573
0.26504362 0.029941972 -0.1652512 -0.2185631 -0.10793394 -0.33798915 -0.08736021 0.35183752
0.11099379 -0.19559316 0.33713552 -0.04615746 0.08935735 -0.5313118 -0.050494585 0.11952585
-0.08727371 0.3661138 -0.16770776 -0.2903886 -0.14899467 0.0046951124 0.18900587 0.41093618
0.4153133 0.023646932 0.02657794 0.08284982 -0.04316807 0.13025494 0.14821273 -0.18362422
0.33766565 0.3012021 -0.05556012 -0.30488864 -0.10168049 -0.18996583 -0.021108948 -0.16127573
-0.40835604 -0.24093172 -0.2479052 -0.045904487 0.054806236 0.21450718 0.35173973 0.20236233
0.26364905 -0.15833554 -0.39825925 0.57583356 0.051657293 0.44679353 0.12559511 -0.072424345
-0.095814034 0.33731738 -0.036087196 -0.4560294 -0.29298282 0.0068937917 -0.15015501 0.1365771
-0.16454522 -0.16212997 0.34949002 0.38985592 0.0899336 0.037735593 -0.2638218 0.24009831
0.42049763 -0.1786352 0.21741748 0.07270667 -0.311573 0.18143687 -0.060913395 -0.22662075
0.17365229 0.22921713 -0.20685454 0.2189607 0.05781488 0.21620777 -0.24454567 0.16252577
0.0869526 0.43624106 -0.3505906 0.042208645 0.18006018 0.1308639 -0.09616927 0.25880066
0.07368667 0.10459869 0.16305771 0.067029335 -0.060770355 0.06887353 0.028775299 -0.05260679
0.02603394 0.028717885 -0.24534625 0.09366072 0.21458666 0.15825291 0.0053206794 -0.10039106
0.09712759 0.0062201354 -0.02781871 0.049562644 0.28268662 0.15503477 -0.011667777 -0.026031539
0.015378543 -0.10264841 0.26143372 -0.10906105 0.03135373 -0.23593011 -0.013225964 -0.031483904
-0.03198624 -0.08300165 -0.14779481 -0.08714815 -0.011496346 -0.13241544 -0.0072828433 0.07909514
-0.11964606 -0.02028843 -0.004284414 0.03536663 0.15646438 -0.11653932 0.015986796 0.061023712
-0.21063536 -0.155099 0.10652153 0.020316923 0.031410653 0.03885414 0.11830948 -0.11962932
-0.13614659 0.13477683 0.004163227 -0.14028846 0.2312239 0.04840266 0.11801267 0.25472578
-0.08668782 0.14148098 0.227676 -0.09527271 3.3388395e-05 0.1436691 -0.1804093 0.20587091
-0.104790464 -0.10375025 -0.17185573 -0.17787777 0.06570025 -0.04674952 -0.057649944 0.07026263
-0.060230874 -0.11258087 0.07600603 -0.019777762 -0.043956578 0.058818065 0.014571738 -0.06866882
-0.01983704 -0.039226796 -0.12011465 0.060504694 -0.32961622 -0.08574826 0.06523296 -0.014352076
-0.12604558 0.14695042 0.37216812 0.05547066 0.15988971 -0.029060585 0.16266422 0.0509752
0.0480389 -0.07074469 -0.018003762 0.087185346 0.07574554 0.0102129895 0.06170043 -0.05669311
-0.043547664 0.047355663 -0.022306077 -0.13170722 -0.2165347 -0.119290814 0.113963254 -0.13769582
-0.10225017 -0.098438114 -0.112971686 0.20722371 0.2140981 0.09277138 -0.35783285 0.20473793
