Learning/results/mx11/KartAgent/KartAgent-15330632.onnx (onnx, 104129 bytes, 7 tensors)

41 f4 [1, 2]
0.39026383 -0.24177669
00000000: a9d0 c73e 4f94 77be

distribution.mu.bias f4 [2]
0.17821628 0.6404057
00000000: 547e 363e a1f1 233f

distribution.mu.weight f4 [2, 128]
-0.083232485 0.015427625 0.00056641526 0.34060884 0.0076590735 -0.0878904 -0.0037197182 -0.13993531
0.0010127418 0.1739161 0.009432872 -0.050830252 0.006775753 -0.07332594 -0.0053750663 -0.09605014
-0.004001875 0.023845393 -0.012844036 -0.21856186 0.0058103255 -0.25741398 -0.0031336527 0.16216543
-0.0058337343 -0.012093317 -0.013601297 0.0022707144 -0.098118536 -0.031930268 0.033278994 0.0011524309
-0.028934026 -0.01722278 -0.043724824 -0.26881364 0.0071488605 0.0060569667 0.0030079016 0.0016401849
-0.0032227437 -0.07831202 -0.05344488 0.37896323 -0.00016753636 0.0082255695 -0.08298932 0.003618408
-0.040870253 -0.0055399854 -0.26973596 0.055770297 -0.03530842 -0.0066058026 -0.08671208 -0.1341856
-0.124854356 0.00079831947 -0.1574329 -0.14742991 -0.0004174086 0.0017424449 0.0040351665 -0.0016035365
-0.016286355 0.008120314 0.003097791 -0.0049101086 -0.06873647 0.00021179304 -0.31895897 -0.026482854
0.0017324773 -0.021425348 0.027981596 -0.031576954 0.0052458136 -0.25561833 0.00062609 0.024365082
-0.011497331 -0.0023208368 0.00027664218 -0.0841014 0.010985882 0.15542187 -0.02590573 -0.0046117855
-0.011010094 -0.015237179 -0.011388381 0.08204063 0.007278224 0.0015116496 0.0045839055 -0.0020145692
-0.002943267 -0.016096829 -0.15116978 -0.09778415 -0.06792782 0.0009884322 -0.004670059 0.0036594507
-0.028326172 -0.019675324 -0.057032526 0.0056208693 -0.030366862 0.0019102884 0.0026293609 -0.5292296
0.0055462085 -0.08780834 -0.009405947 0.0014862613 -0.441772 0.12935643 -9.5286276e-05 -0.0019040875
0.033926573 0.003937603 -0.24001014 0.009532792 0.007290164 0.6002802 0.00024083388 0.0018220324
-0.038921177 0.01713543 -0.0003552467 -0.060945235 0.0137353055 -0.03747175 -0.0007654616 0.059472475
0.00050312374 0.06531982 0.0018130403 -0.10383172 -0.00038083163 -0.14577785 -0.089071915 -0.03552267
-0.00082799303 -0.19355714 -0.09530396 -0.044134054 0.0024265307 -0.091734596 0.009225115 0.101028934
8.128368e-05 -0.00213816 -0.0055983923 -0.00072565227 -0.07700642 0.016964372 -0.06877094 0.00036791674
-0.015102262 0.0015592774 -0.011761763 0.20473541 -0.039074115 -0.0034171303 -0.0024724344 -0.0054768072
0.002164631 -0.07314697 -0.009617211 0.009486649 -0.004495089 -0.0024831758 -0.08385965 -0.008070587
-0.10436551 0.0039349706 -0.17482758 -0.119939975 -0.21790121 0.0006307785 -0.15920319 -0.21010631
-0.016723633 0.00015304639 -0.24750173 -0.2816389 -0.0152736865 0.0012249262 0.0043735406 0.0019145695
0.009542641 0.02146261 -0.0030804481 0.012019912 -0.04715334 0.008193184 -0.04827015 -0.014680795
0.0036954947 -0.0071942587 -0.2246785 -0.17743602 0.012470208 -0.057789315 -0.005735576 0.0143856425
-0.020374492 0.0054238467 -0.0059819343 -0.035568368 0.0057200836 -0.017079912 0.011376981 -0.0058753304
-0.00016495462 -0.001953644 0.011699591 -0.14422724 -0.002728157 0.0030392755 0.004362948 -0.0011610973
-0.005929916 -0.0014099451 -0.20428364 -0.2399313 -0.09278985 -0.000995748 0.006601994 0.0039618546
-0.122725844 -0.2616774 -0.0283324 0.0029079407 -0.18061513 0.00447719 0.0045417873 -0.0337419
0.006161705 -0.18527594 -0.0052420506 0.0020123038 -0.027509416 0.055337165 0.00014064347 -0.000468956
-0.018124886 0.00245777 -0.1557502 0.0064068795 0.0033776432 -0.060769487 -0.000376091 -0.008219858
00000000: cb75 aabd 26c4 7c3c 7c7b 143a 4864 ae3e
00000010: f7f8 fa3b e2ff b3bd 84c6 73bb 344b 0fbe
00000020: fabd 843a 1017 323e 558c 1a3c 6233 50bd
00000030: 2307 de3b e92b 96bd 5321 b0bb f0b5 c4bd
00000040: 2922 83bb 6a57 c33c cb6f 52bc aece 5fbe
00000050: 8b64 be3b c4cb 83be f85d 4dbb b20e 263e
00000060: e928 bfbb 0c23 46bc f9d7 5ebc 44d0 143b
00000070: 5ff2 c8bd 50c9 02bd 8e4f 083d 2a0d 973a
00000080: 0d07 edbc ca16 8dbc cd18 33bd f1a1 89be
00000090: fd40 ea3b 8579 c63b 3720 453b 79fb d63a
000000a0: ab34 53bb 0d62 a0bd 05e9 5abd 7807 c23e
000000b0: b3ac 2fb9 8ac4 063c 4ef6 a9bd d022 6d3b
000000c0: 9167 27bd c488 b5bb d51a 8abe 656f 643d
000000d0: 909f 10bd 7d75 d8bb 1a96 b1bd f367 09be
000000e0: a4b3 ffbd 5046 513a 1736 21be def7 16be
000000f0: a2d7 dab9 c062 e43a 6e39 843b c22d d2ba
00000100: f66a 85bc 110b 053c 4f04 4b3b fae4 a0bb
00000110: b5c5 8cbd c314 5e39 974e a3be 92f2 d8bc
00000120: 4b14 e33a 3684 afbc a939 e53c d656 01bd
00000130: 13e5 ab3b 68e0 82be 3020 243a 4899 c73c
00000140: 4d5f 3cbc 2e19 18bb 490a 9139 5b3d acbd
00000150: 21fe 333c e926 1f3e 4138 d4bc 761e 97bb
00000160: ae63 34bc 5ca5 79bc 5596 3abc eb04 a83d
00000170: 2b7e ee3b 8b22 c63a 9634 963b dd06 04bb
00000180: d4e3 40bb 7fdd 83bc 40cc 1abe 0e43 c8bd
00000190: be1d 8bbd 488e 813a 4b07 99bb 65d3 6f3b
000001a0: 4a0c e8bc 252e a1bc f09a 69bd 452f b83b
000001b0: edc3 f8bc a462 fa3a 5b51 2c3b 977b 07bf
000001c0: f8bc b53b dcd4 b3bd 671b 1abc a7ce c23a
000001d0: f12f e2be 0376 043e 6ed4 c7b8 9392 f9ba
000001e0: 97f6 0a3d 0207 813b 38c5 75be 6d2f 1c3c
000001f0: 54e2 ee3b f7ab 193f 5a88 7c39 43d1 ee3a
00000200: d06b 1fbd 9a5f 8c3c 6840 bab9 b6a1 79bd
00000210: 0c0a 613c fa7b 19bd 42a9 48ba 6999 733d
00000220: 10e4 033a 66c6 853d 8aa3 ed3a baa5 d4bd
00000230: 5baa c7b9 ca46 15be 566b b6bd 3880 11bd
00000240: ac0d 59ba d833 46be b92e c3bd e9c5 34bd
00000250: 6e06 1f3b 59df bbbd f024 173c 42e8 ce3d
00000260: d876 aa38 5f20 0cbb b872 b7bb b339 3eba
00000270: 8bb5 9dbd def8 8a3c c7d7 8cbd f3e4 c039
00000280: 7a6f 77bc ab60 cc3a 69b4 40bc 29a6 513e
00000290: 2e0c 20bd eff1 5fbb 9108 22bb ca76 b3bb
000002a0: 7bdc 0d3b 14ce 95bd 8291 1dbc e46d 1b3c
000002b0: 8a4b 93bb c7bc 22bb 9cbe abbd 7f3a 04bc
000002c0: 96bd d5bd edf0 803b 0006 33be 17a3 f5bd
000002d0: 7f21 5fbe d45a 253a 2906 23be 1c26 57be
000002e0: 0000 89bc 147b 2039 1871 7dbe f932 90be
000002f0: 7c3e 7abc b48d a03a eb4f 8f3b 4bf2 fa3a
00000300: bd58 1c3c 5bd2 af3c 58e1 49bb 2aef 443c
00000310: dc23 41bd b43c 063c ecb6 45bd b887 70bc
00000320: 1d30 723b d1bd ebbb 1f12 66be cab1 35be
00000330: d84f 4c3c 7db4 6cbd 80f1 bbbb c2b1 6b3c
00000340: 68e8 a6bc 86ba b13b 1a04 c4bb 23b0 11bd
00000350: 8a6f bb3b 2ceb 8bbc 8466 3a3c d885 c0bb
00000360: abf7 2cb9 b508 00bb a4af 3f3c 4eb0 13be
00000370: e1ca 32bb 952e 473b 0ff7 8e3b f62f 98ba
00000380: be4f c2bb e8cd b8ba bb2f 51be 8db0 75be
00000390: 9b08 bebd c283 82ba 8a55 d83b 72d2 813b
000003a0: b057 fbbd 95fa 85be 5919 e8bc 2693 3e3b
000003b0: 2cf3 38be 64b5 923b 46d3 943b f234 0abd
000003c0: 21e8 c93b fab8 3dbe 82c5 abbb dbe0 033b
000003d0: 6d5b e1bc 39a9 623d b279 1339 35de f5b9
000003e0: a47a 94bc 8a12 213b fb7c 1fbe cdf0 d13b
000003f0: 735b 5d3b 6de9 78bd 142e c5b9 95ac 06bc

network_body.linear_encoder.seq_layers.0.bias f4 [128]
0.013298893 -0.07612423 0.017553966 -0.16015519 -0.2622855 -0.015786218 0.14529994 0.027564354
-0.04265422 -0.14820333 -0.18971725 -0.10181614 0.11503498 -0.056835543 -0.071884565 -0.19025373
0.072309375 0.021932654 -0.0039953464 0.08458441 -0.25886524 0.052309494 -0.03811292 -0.06447723
-0.46984887 -0.028832654 -0.011881016 0.037926458 0.06790949 -0.0048763123 -0.0634663 -0.08475013
-0.06670743 0.011610193 -0.14829493 -0.1309813 -0.03181685 -0.007174523 -0.14119592 0.0027432442
-0.3580377 -0.08992289 0.05694105 -0.050995745 0.035092372 -0.05519406 0.01577557 -0.15478736
0.15630463 0.05480156 0.06690533 0.059288904 0.09034709 -0.011697072 -0.2270722 0.022116171
0.058153786 -0.113763615 -0.044025544 -0.21584594 -0.19002196 -0.11296333 0.049977243 -0.26799896
0.06452819 -0.29474965 -0.10942446 -0.11000158 -0.19512416 -0.04788597 -0.48744163 -0.044195183
0.06758384 -0.1695316 0.11531779 0.086014785 0.090914756 0.22030883 -0.067325175 0.04869694
-0.0084188 0.01960134 -0.13866504 0.07353668 0.02039384 -0.084645554 0.031796437 0.030502995
-0.12952332 -0.106078066 0.013195441 0.019587139 -0.036322813 -0.10274754 0.049433436 -0.024267865
-0.1076762 0.067336835 0.12646991 0.06458704 0.07738167 -0.055003993 -0.25582397 0.024170905
-0.11959204 -0.16166426 0.0106531195 -0.08725563 -0.049019925 -0.4185873 -0.18876393 -0.0625448
-0.0013345528 0.07232069 0.011681592 -0.22113858 -0.118806735 0.03811966 -0.21978797 -0.3084865
-0.16996738 -0.22760437 -0.011584682 -0.20907077 -0.048558492 0.035960633 -0.18523672 -0.27549738
00000000: 9ae3 593c 05e7 9bbd 56cd 8f3c b9ff 23be
00000010: 494a 86be 1952 81bc 82c9 143e a4ce e13c
00000020: 31b6 2ebd 9dc2 17be 3d45 42be fb84 d0bd
00000030: 7697 eb3d 63cc 68bd 3738 93bd e0d1 42be
00000040: f016 943d 1cac b33c 65eb 82bb 973a ad3d
00000050: fc89 84be 7b42 563d 4b1c 1cbd a30c 84bd
00000060: 0890 f0be 7532 ecbc 98a8 42bc c658 1b3d
00000070: 2114 8b3d 79c9 9fbb 9ffa 81bd 7a91 adbd
00000080: e89d 88bd ae38 3e3c a0da 17be f61f 06be
00000090: 6352 02bd 4318 ebbb aa95 10be 00c8 333b
000000a0: b850 b7be 7e29 b8bd 053b 693d eae0 50bd
000000b0: 05bd 0f3d 2b13 62bd c53b 813c 9480 1ebe
000000c0: 520e 203e 9a77 603d a905 893d ecd8 723d
000000d0: e507 b93d 13a5 3fbc 9d85 68be f92c b53c
000000e0: aa32 6e3d e6fc e8bd 2154 34bd b806 5dbe
000000f0: 1e95 42be 5159 e7bd f0b4 4c3d 2937 89be
00000100: 5b27 843d 6de9 96be ee19 e0bd 8248 e1bd
00000110: a1ce 47be 1424 44bd f391 f9be 0206 35bd
00000120: 6569 8a3d b199 2dbe bc2b ec3d 8528 b03d
00000130: 8431 ba3d a398 613e c8e1 89bd 7176 473d
00000140: 02ef 09bc fd92 a03c 35fe 0dbe 669a 963d
00000150: fb10 a73c a65a adbd fb3c 023d 6be1 f93c
00000160: c3a1 04be 753f d9bd b131 583c 3575 a03c
00000170: 3bc7 14bd 4d6d d2bd b77a 4a3d 67cd c6bc
00000180: 5785 dcbd e5e7 893d 5481 013e 3646 843d
00000190: 487a 9e3d de4b 61bd 5cfb 82be 1002 c63c
000001a0: acec f4bd 518b 25be 6c8a 2e3c 14b3 b2bd
000001b0: 1ec9 48bd 1351 d6be 554b 41be 7d17 80bd
000001c0: 29ec aeba df1c 943d 2664 3f3c 2772 62be
000001d0: f250 f3bd 5c23 1c3d 1910 61be f1f1 9dbe
000001e0: ee0b 2ebe 1f11 69be aecd 3dbc a616 56be
000001f0: 45e5 46bd 754b 133d b2ae 3dbe fe0d 8dbe

network_body.linear_encoder.seq_layers.0.weight f4 [128, 68]
-0.10788537 0.16346249 -0.03390465 0.15307161 -0.15209338 -0.15203504 0.13610296 -0.11957414
0.2822648 0.15886833 -0.075334586 0.76841617 -0.1984682 0.06217602 -0.006436913 -0.54347926
-0.17352083 -0.09606707 -0.10255521 -0.34540522 0.093762994 0.06249827 0.07042083 -1.4462514
-0.16415238 -0.16905017 0.10454774 -0.44195166 0.25325194 -0.1646906 0.1118896 -0.38772386
-0.20792091 0.066994034 -0.124751695 -0.21557583 0.02635389 -0.01649587 -0.3523104 0.18037435
0.06889908 0.10334261 0.03918043 -0.07264699 -0.35823232 -0.11797114 -0.53342056 0.49645573
0.18301482 0.055732336 -0.14023611 0.23642038 0.4437671 -0.052491218 0.0039654677 0.17652673
-0.20603767 0.087841086 -0.019779002 -0.1514316 0.1128315 0.047640637 -0.13822693 0.20805576
0.10179181 -0.2248074 0.116127685 0.056126587 0.19505548 -0.01968581 0.031944536 -2.7876968
0.02212602 -0.22485314 -0.017650686 -0.7582451 0.23661447 -0.0535327 0.076078504 -0.3664845
-0.049923405 -0.08766127 -0.027843405 0.58656585 -0.10756826 0.07629993 -0.004308709 1.0158265
-0.07321066 0.077971205 0.009066829 1.2967968 0.11144191 -0.14281671 0.090366736 0.69168514
0.14430504 -0.0035328865 -0.7599317 0.044046756 -0.15217577 -0.073369674 0.17602296 0.3501465
-0.06325248 -0.08003664 -1.2015094 -0.41181833 0.11543218 -0.0011667343 0.023644615 -0.47197324
-0.014643251 -0.09431803 -0.51742864 0.23570845 0.12076454 0.116377346 0.055802327 0.236136
0.13975355 -0.06931317 -0.011817895 0.86010724 -0.26563308 0.022990804 0.09293576 -0.48786733
0.036731124 -0.15987425 0.06615619 0.19173335 -0.3251723 0.014383739 0.014460293 0.26139745
-0.29967985 0.008786329 0.2850194 1.9512599 0.53226393 0.34383184 0.08378791 -0.055520806
-0.19806644 -0.16142693 0.14522842 2.049361 0.114942476 -0.048862692 -0.071691476 -1.0328948
0.053864766 -0.10881108 0.06086655 0.37753353 0.2690505 0.103641175 0.24552362 -1.0196345
-0.26983038 0.15558855 0.12220715 0.8916592 0.23728083 0.018742919 0.7731454 0.18221165
-0.020262081 0.015275671 0.012029095 -0.023237454 0.100433104 -0.046246115 -0.078674965 -0.22861688
-0.08816455 -0.24133238 -0.11422286 0.30421916 0.030675044 0.02293095 -0.01892459 -0.09429993
-0.5426663 -0.23378044 -0.2407496 -0.40379903 0.20086558 0.1353337 -0.0041509704 -0.34582016
-0.22365111 0.016816905 0.10032993 0.7791403 -0.09409568 0.19045903 -0.23226964 0.19246937
-0.114711516 0.05238436 -0.1179968 -0.05434863 -0.31483224 0.113972954 0.03571757 2.0131176
0.069655284 0.12026157 0.057820346 0.31235778 -0.6505504 0.17797856 -0.04011659 1.735362
0.060137525 0.051294256 0.058210954 -0.83825165 -0.09599118 -0.054116018 0.119095236 -0.25309685
-0.09247297 0.0019405972 0.25350285 -1.2192552 -0.004269589 -0.2436402 0.12343246 0.4859527
-0.1281042 0.096742965 0.5477426 -0.6832922 -0.1742508 -0.114864126 -0.06165948 -0.7594638
-0.005101747 0.14094839 0.29885563 -0.3244499 0.11803712 0.0057410137 -0.15011963 0.69057554
0.3371403 -0.028966688 -0.44775495 0.051188394 0.1436692 -0.06421054 -0.15529826 -0.25155044
00000000: 01f3 dcbd b662 273e 9adf 0abd cebe 1c3e
00000010: 5ebe 1bbe 13af 1bbe 935e 0b3e 49e3 f4bd
00000020: 0385 903e 61ae 223e 0549 9abd ecb6 443f
00000030: 3f3b 4bbe 48ac 7e3d bdec d2bb 7521 0bbf
00000040: 72af 31be d0be c4bd 7708 d2bd f4d8 b0be
00000050: d006 c03d 30fe 7f3d cc38 903d c41e b9bf
00000060: 9017 28be 7d1b 2dbe 201d d63d 7d47 e2be
00000070: 3daa 813e a7a4 28be 6026 e53d be83 c6be
00000080: 38e9 54be 2b34 893d d17d ffbd e9bf 5cbe
00000090: 1de4 d73c 5922 87bc 0762 b4be 0eb4 383e
000000a0: f61a 8d3d 4aa5 d33d a97b 203d f2c7 94bd
000000b0: 3a6a b7be da9a f1bd 408e 08bf 722f fe3e
000000c0: 3d68 3b3e 9747 643d 0e9a 0fbe 2f18 723e
000000d0: 7135 e33e 0801 57bd c1f0 813b 6cc3 343e
000000e0: 8afb 52be 07e6 b33d 9307 a2bc e310 1bbe
000000f0: 3414 e73d d422 433d 5c8b 0dbe 920c 553e
00000100: 3978 d03d e933 66be 5ad4 ed3d fee4 653d
00000110: a0bc 473e 2344 a1bc 46d8 023d a069 32c0
00000120: a141 b53c e73f 66be 2c98 90bc 5a1c 42bf
00000130: 104b 723e 1b45 5bbd 0ccf 9b3d dba3 bbbe
00000140: 7c7c 4cbd c087 b3bd da17 e4bc 2e29 163f
00000150: bf4c dcbd 2343 9c3d 1230 8dbb 9a06 823f
00000160: 78ef 95bd 5eaf 9f3d 0a8d 143c 70fd a53f
00000170: a83b e43d 8b3e 12be 3212 b93d 4712 313f
00000180: b3c4 133e 0088 67bb e28a 42bf 5f6a 343d
00000190: f7d3 1bbe d742 96bd 5d3f 343e 6746 b33e
000001a0: 848a 81bd 40ea a3bd 0fcb 99bf dad9 d2be
000001b0: b567 ec3d 1bed 98ba 5ab2 c13c 7aa6 f1be
000001c0: 3fea 6fbc d029 c1bd 3476 04bf 8e5d 713e
000001d0: 6653 f73d 3f57 ee3d fb90 643d a3cd 713e
000001e0: 8e1b 0f3e 10f4 8dbd d89f 41bc fd2f 5c3f
000001f0: 0f01 88be 3657 bc3c 1b55 be3d bfc9 f9be
00000200: 6073 163d 13b6 23be e67c 873d bf55 443e
00000210: fc7c a6be c6a9 6b3c ddea 6c3c e3d5 853e
00000220: a36f 99be 89f4 0f3c 10ee 913e e2c2 f93f
00000230: 7342 083f ba0a b03e ff98 ab3d c969 63bd
00000240: eed1 4abe 1a4d 25be c2b6 143e bb28 0340
00000250: f666 eb3d 3f24 48bd fbd2 92bd e635 84bf
00000260: 4da1 5c3d 58d8 debd 344f 793d 134c c13e
00000270: fdc0 893e d341 d43d 8b6a 7b3e 6283 82bf
00000280: 3527 8abe 9b52 1f3e be47 fa3d c743 643f
00000290: bff9 723e c08a 993c dbec 453f b195 3a3e
000002a0: aafc a5bc cf46 7a3c ae15 453c 795c bebc
000002b0: dfaf cd3d 916c 3dbd 5720 a1bd 8b1a 6abe
000002c0: 9e8f b4bd d61f 77be aded e9bd 9dc2 9b3e
000002d0: 3b4a fb3c b0d9 bb3c be07 9bbc 5220 c1bd
000002e0: 2eec 0abf 2464 6fbe 1087 76be bfbe cebe
000002f0: b5af 4d3e eb94 0a3e dd04 88bb 570f b1be
00000300: cc04 65be 9bc3 893c c779 cd3d bd75 473f
00000310: 3cb5 c0bd b107 433e 18d8 6dbe b116 453e
00000320: dfed eabd fc90 563d 4ea8 f1bd ab9c 5ebd
00000330: b131 a1be a76a e93d 964c 123d ebd6 0040
00000340: 6ea7 8e3d b34b f63d 07d5 6c3d 5ced 9f3e
00000350: 798a 26bf 0340 363e 4b51 24bd 5820 de3f
00000360: c452 763d ed19 523d 9c6e 6e3d a997 56bf
00000370: 0697 c4bd c2a8 5dbd 34e8 f33d e995 81be
00000380: 7862 bdbd a35b fe3a 20cb 813e 8e10 9cbf
00000390: e9e7 8bbb d17c 79be 28ca fc3d cbce f83e
000003a0: bf2d 03be 2d21 c63d dc38 0c3f 3dec 2ebf
000003b0: cd6e 32be e23d ebbd a78e 7cbd 386c 42bf
000003c0: 8e2c a7bb c654 103e 9b03 993e 4c1e a6be
000003d0: 72bd f13d 1d1f bc3b f6b8 19be 8fc9 303f
000003e0: a79d ac3e 8c4b edbc 2340 e5be ecaa 513d
000003f0: 051e 133e d180 83bd 8206 1fbe 38cb 80be

network_body.linear_encoder.seq_layers.2.bias f4 [128]
-0.21752505 -0.050782047 -0.01630472 0.13032764 -0.13295788 -0.9273495 -0.011319224 -0.43401074
-0.080512285 0.00380887 0.05902293 -0.591241 -0.030964099 -0.30072087 -0.32421142 -0.33216205
-0.14816687 -0.29619354 -0.09112178 -0.7868599 0.01217265 -0.24696067 -0.14121376 -0.25163996
-0.0048097256 -0.0075578955 0.009979653 -0.10201304 -0.2713344 0.039102312 -0.18122198 0.038688157
-0.027397443 -0.0062928917 -0.647886 0.13580693 -0.10761243 -0.09171871 0.035949033 -0.0657698
-0.04833567 -0.5633232 -0.443978 -0.40361252 0.009895672 -0.013411813 -0.65450865 -0.04417925
-0.55280787 -0.06034999 -0.37952903 -0.23780194 -0.4032195 -0.03184989 -0.4413936 -0.4471427
-0.9689262 -0.12652142 -0.2682582 -0.51884145 -0.030821359 -0.15374403 -0.057561517 -0.024766611
-0.8150206 -0.019671222 -0.10260241 -0.08479415 -0.49610272 -0.07022377 -0.64449245 -0.34693357
-0.07021872 -0.116298504 -0.5191098 -0.33614412 -0.059811287 -0.7132341 0.06837664 -0.118632615
0.020685947 -0.039410923 -0.013052998 -0.1676353 -0.037451133 -0.31581402 -0.07999637 -0.06022083
-0.031952232 -0.03625149 -0.13151114 -0.5468765 0.020282108 -0.11278365 0.016004592 -0.08480393
-0.025813354 -0.103942044 -0.35826537 -0.36774975 -0.712173 -0.033927046 0.008220107 0.008947682
-0.49560747 -0.4835 -0.7733456 -0.049593907 -0.5780785 0.07971947 -0.11149949 0.0036193957
-0.08830228 -0.42983612 -0.026423732 -0.03734334 -0.9992269 -0.092994325 -0.03837588 -0.07009329
-0.03820712 -0.044366896 -0.51894784 -0.030116795 -0.03364451 0.4170947 -0.0738993 -0.027415061
00000000: e3be 5ebe d600 50bd 7a91 85bc 9c74 053e
00000010: 1c26 08be c766 6dbf 4474 39bc a836 debe
00000020: a0e3 a4bd 3c9e 793b 07c2 713d 925b 17bf
00000030: 6ca8 fdbc 16f8 99be 0aff a5be 2511 aabe
00000040: 0eb9 17be aea6 97be 0e9e babd a76f 49bf
00000050: cb6f 473c 42e3 7cbe 579a 10be f4d6 80be
00000060: e79a 9dbb 39a8 f7bb b381 233c 36ec d0bd
00000070: 58ec 8abe bf29 203d 4192 39be 7977 1e3d
00000080: 9a70 e0bc 9a34 cebb dbdb 25bf f910 0b3e
00000090: e863 dcbd 05d7 bbbd 4b3f 133d 51b2 86bd
000000a0: a0fb 45bd f335 10bf 1651 e3be 4da6 cebe
000000b0: 7521 223c 39bd 5bbc e18d 27bf 4df5 34bd
000000c0: d184 0dbf 8d31 77bd a151 c2be 5a82 73be
000000d0: c972 cebe 0875 02bd 58fe e1be e3ef e4be
000000e0: 8c0b 78bf d58e 01be 2459 89be cbd2 04bf
000000f0: 137d fcbc 136f 1dbe a0c5 6bbd 59e3 cabc
00000100: 31a5 50bf 8b25 a1bc 3621 d2bd 8ea8 adbd
00000110: 2d01 febe 7bd1 8fbd 75fd 24bf 47a1 b1be
00000120: d5ce 8fbd e92d eebd 61e4 04bf 151b acbe
00000130: aefc 74bd 8396 36bf 0d09 8c3d a8f5 f2bd
00000140: 9375 a93c 596d 21bd 3edc 55bc 97a8 2bbe
00000150: 5c66 19bd 60b2 a1be 23d5 a3bd 1eaa 76bd
00000160: 58e0 02bd 717c 14bd dbaa 06be 1900 0cbf
00000170: aa26 a63c 1dfb e6bd 101c 833c afad adbd
00000180: 8776 d3bc 91df d4bd 8f6e b7be b249 bcbe
00000190: f850 36bf 16f7 0abd a1ad 063c 4c99 123c
000001a0: 43c0 fdbe 508d f7be faf9 45bf fb22 4bbd
000001b0: f4fc 13bf f643 a33d d859 e4bd 6233 6d3b
000001c0: d3d7 b4bd 7b13 dcbe 9576 d8bc 55f5 18bd
000001d0: 56cd 7fbf cf73 bebd 0730 1dbd 128d 8fbd
000001e0: 127f 1cbd 10ba 35bd c4d9 04bf 7fb7 f6bc
000001f0: d3ce 09bd 708d d53e 8458 97bd 8d95 e0bc

network_body.linear_encoder.seq_layers.2.weight f4 [128, 128]
-0.38472745 0.040996917 -0.2273684 0.06670401 0.014351538 -0.25444388 -0.24402358 0.2069137
0.024818283 -0.07999948 0.114228226 0.038855024 0.13352317 -0.006831199 -0.44055724 -0.42662185
-0.106992625 0.24733971 0.21065767 -0.021165282 -0.35846806 0.18887812 0.1958111 0.0072568003
0.078549445 -0.13630621 -0.26530644 -0.28860286 -0.04807652 -0.05132224 -0.17169288 -0.27479848
0.2700061 0.05879065 -0.16042145 -0.18122107 -0.122081056 -0.3475413 -0.118461646 0.32987708
0.09583077 -0.20552862 0.38114545 -0.060747482 0.05875615 -0.56972814 -0.05883851 0.12178194
-0.10210706 0.2862105 -0.1358462 -0.3231769 -0.11304174 -0.07180647 0.17965564 0.40388346
0.410754 -0.0124720475 -0.05306127 0.076984294 -0.068023354 0.1260043 0.14400229 -0.19054888
0.34743175 0.30640823 -0.06447086 -0.3024167 -0.16184929 -0.19755986 -0.013379194 -0.12103593
-0.37129065 -0.20369726 -0.24676499 -0.08434978 -0.004922523 0.22804588 0.3451475 0.23958336
0.23888391 -0.16449311 -0.43475312 0.6374834 0.04432844 0.400838 0.069586776 -0.11919535
-0.115152106 0.32791296 -0.03090338 -0.471601 -0.3670525 -0.049772874 -0.14315404 0.11691035
-0.13368356 -0.17638437 0.354462 0.3684568 0.08105436 0.061458368 -0.29943818 0.23885284
0.4094862 -0.22866787 0.23356305 0.06371644 -0.3661188 0.18901303 -0.08252204 -0.23697767
0.19744295 0.15577745 -0.19068314 0.19563414 0.028723424 0.20031397 -0.28509513 0.14632423
0.08093504 0.41528046 -0.32038683 0.02936171 0.15963061 0.13189265 -0.12152612 0.24430251
0.09651053 0.0771277 0.1726375 0.085619114 -0.06515334 0.052474197 0.027220452 -0.06938599
0.014698246 0.02976293 -0.26096937 0.087669685 0.19884439 0.14835688 0.0065016067 -0.1106143
0.09550938 -0.0036200383 -0.030023606 0.05823405 0.27989614 0.1440833 -0.019861624 0.01511755
0.009415606 -0.09883571 0.26508808 -0.06426744 0.017053122 -0.24835391 0.01715384 -0.04011774
-0.039026964 -0.1147172 -0.1391504 -0.028845802 -0.019259311 -0.12413927 -0.009376168 0.054397285
-0.13289209 -0.03960593 -0.03394612 0.061787006 0.17686062 -0.08839954 0.009396245 0.042139884
-0.21088539 -0.18018247 0.1097279 0.040599987 0.035397936 0.026257742 0.11862166 -0.12393993
-0.13819046 0.09663504 -0.005005457 -0.14875656 0.22972885 0.044307686 0.11518838 0.26960647
-0.09330568 0.13951108 0.22865051 -0.062177733 0.025347397 0.14666666 -0.20562598 0.22407703
-0.09246903 -0.09042813 -0.18463857 -0.1961555 0.07931233 -0.07535639 -0.069835246 0.042697415
-0.0692676 -0.106022306 0.086558536 -0.04808994 -0.058110423 0.032958884 -0.0070893317 -0.09065821
-0.010564335 -0.006232724 -0.12364347 0.065244645 -0.32166728 -0.065175146 0.05980803 -0.006498763
-0.09291424 0.15004909 0.3727222 0.043600664 0.15237996 -0.01346901 0.1769677 0.04583042
0.06570838 -0.04098189 -0.031207366 0.089641735 0.09442603 -0.005412406 0.04935148 -0.0497371
-0.048316248 0.010316491 -0.02454744 -0.1590546 -0.20791166 -0.11332687 0.13359539 -0.13201436
-0.10357825 -0.099261366 -0.11470316 0.21113336 0.23372492 0.08180495 -0.35945514 0.2061062
00000000: fffa c4be 62ec 273d 43d3 68be 1d9c 883d
00000010: b722 6b3c 7846 82be 51e1 79be 2fe1 533e
00000020: b64f cb3c c4d6 a3bd 7df0 e93d 7226 1f3d
00000030: 4cba 083e 40d8 dfbb b890 e1be 2e6e dabe
00000040: f31e dbbd 9f46 7d3e a5b6 573e d062 adbc
00000050: 2089 b7be 4469 413e b482 483e 74ca ed3b
00000060: 88de a03d db93 0bbe 3fd6 87be c1c3 93be
00000070: e3eb 44bd 4537 52bd 42d0 2fbe 63b2 8cbe
00000080: 3d3e 8a3e 77ce 703d 8545 24be 0492 39be
00000090: a205 fabd eff0 b1be 059c f2bd a6e5 a83e
000000a0: ec42 c43d 1876 52be 7f25 c33e 5ad2 78bd
000000b0: 4aaa 703d b4d9 11bf a600 71bd cf68 f93d
000000c0: 821d d1bd 2f8a 923e 441b 0bbe 7177 a5be
000000d0: 6e82 e7bd 450f 93bd a6f7 373e d0c9 ce3e
000000e0: 594e d23e 8f57 4cbc c656 59bd f1a9 9d3d
000000f0: d44f 8bbd 4507 013e 5675 133e 3f1f 43be
00000100: 93e2 b13e 8ae1 9c3e 4c09 84bd 5dd6 9abe
00000110: d2bb 25be 224d 4abe 6834 5bbc b0e1 f7bd
00000120: cf19 bebe 0496 50be f6af 7cbe 94bf acbd
00000130: 1e4d a1bb dc84 693e 2cb7 b03e 5755 753e
00000140: fc9d 743e e270 28be f697 debe 1d32 233f
00000150: bd91 353d a33a cd3e 8383 8e3d b11c f4bd
00000160: ded4 ebbd 35e4 a73e 1629 fdbc b075 f1be
00000170: 4eee bbbe a4de 4bbd f996 12be b26e ef3d
00000180: 58e4 08be 1b9e 34be 0b7c b53e 5fa6 bc3e
00000190: d4ff a53d c5bb 7b3d f64f 99be d795 743e
000001a0: 2da8 d13e e927 6abe 272b 6f3e c47d 823d
000001b0: ec73 bbbe a28c 413e 5101 a9bd 46aa 72be
000001c0: 7c2e 4a3e 2084 1f3e 7142 43be 5154 483e
000001d0: 634d eb3c 1b1f 4d3e fdf7 91be 05d6 153e
000001e0: 45c1 a53d a49f d43e be09 a4be f887 f03c
000001f0: 3576 233e de0e 073e b0e2 f8bd 702a 7a3e
00000200: 50a7 c53d 21f5 9d3d e3c7 303e 1359 af3d
00000210: 1d6f 85bd 2fef 563d 6dfd de3c 3e1a 8ebd
00000220: e9d0 703c 63d1 f33c c79d 85be 2a8c b33d
00000230: dd9d 4b3e deea 173e 6e0b d53b c089 e2bd
00000240: 6c9a c33d 2a3e 6dbb 11f4 f5bc d486 6e3d
00000250: 8c4e 8f3e 938a 133e d8b4 a2bc 9aaf 773c
00000260: ea43 1a3c 606a cabd a0b9 873e a69e 83bd
00000270: fdb2 8b3c 7d50 7ebe 3686 8c3c 8052 24bd
00000280: bdda 1fbd daf0 eabd 717d 0ebe 084e ecbc
00000290: b4c5 9dbc bb3c febd 809e 19bc b0cf 5e3d
000002a0: dd14 08be d439 22bd 160b 0bbd 5f14 7d3d
000002b0: f31a 353e d10a b5bd b5f2 193c df9a 2c3d
000002c0: 57f2 57be c181 38be 05b9 e03d 2c4c 263d
000002d0: 6dfd 103d 7a1a d73c eaef f23d 38d4 fdbd
000002e0: cd81 0dbe 98e8 c53d d104 a4bb a453 18be
000002f0: 0a3e 6b3e fa7b 353d e3e7 eb3d dc09 8a3e
00000300: 0c17 bfbd fedb 0e3e 5c23 6a3e 14ae 7ebd
00000310: 58a5 cf3c c92f 163e 9e8f 52be 7374 653e
00000320: 6760 bdbd 6232 b9bd e511 3dbe fddc 48be
00000330: 816e a23d 7354 9abd c805 8fbd 7ce3 2e3d
00000340: 2cdc 8dbd 3922 d9bd 9a45 b13d f5f9 44bd
00000350: 3205 6ebd e5ff 063d a04d e8bb 03ab b9bd
00000360: 0816 2dbc e13b ccbb ca38 fdbd fc9e 853d
00000370: 93b1 a4be 8c7a 85bd 44f9 743d 93f3 d4bb
00000380: d249 bebd 78a6 193e 72d5 be3e 9c96 323d
00000390: 7e09 1c3e 1fad 5cbc 0537 353e aeb8 3b3d
000003a0: 1d92 863d a0dc 27bd 97a6 ffbc 1696 b73d
000003b0: 6f62 c13d 8d5a b1bb c724 4a3d 21b9 4bbd
000003c0: 42e7 45bd 8006 293c b717 c9bc 36df 22be
000003d0: cbe6 54be eb17 e8bd 3bcd 083e c62e 07be
000003e0: d520 d4bd 8b49 cbbd 7ee9 eabd 5833 583e
000003f0: 9655 6f3e 5b89 a73d 810a b8be 810d 533e
