Learning/results/mx11/KartAgent/KartAgent-4949983.onnx (onnx, 104129 bytes, 7 tensors)

41 f4 [1, 2]
000000 6b 9c 82 be 81 99 ab bf
       -0.25509962 -1.3406221

distribution.mu.bias f4 [2]
000000 cb 69 83 3d 3b 24 86 3e
       0.06416663 0.26199517

distribution.mu.weight f4 [2, 128]
000000 22 d6 5c 3a a8 91 a2 bc 67 f5 0b 3b 97 0f 98 3e
       0.0008424242 -0.019844845 0.0021355988 0.29699394
000010 1d 96 ea b9 bb 44 b3 bc ae b0 78 3b a8 62 13 bd
       -0.000447438 -0.02188336 0.0037947106 -0.035982758
000020 2f 52 64 bc ea f4 bb 3d c1 22 1b 3a 68 cc 78 bd
       -0.01393561 0.09177573 0.00059179595 -0.060741812
000030 5f 19 a3 bb fb 0a 85 bc 79 ab b0 3d c1 bd 23 3e
       -0.0049773897 -0.016240587 0.08626456 0.15990354
000040 50 d9 12 bc 12 1a b3 3d 7d af 7c 3e 11 1d 38 bd
       -0.008962944 0.08745207 0.24676318 -0.044949595
000050 8a 12 ed bb 31 1c 24 be 4c 4e 80 bc fc 01 62 3d
       -0.007234876 -0.16026379 -0.015662335 0.055177674
000060 09 f8 0b bc 0e 57 8a bb d1 a3 89 bc c9 3e c7 3b
       -0.008543023 -0.0042218035 -0.016801747 0.0060804826
000070 ad 61 b4 ba 9a c6 30 3c 18 f5 35 3e 43 06 0b bc
       -0.001376202 0.010789538 0.17769277 -0.00848538
000080 07 91 82 bb 93 17 d2 bb 6d d7 fe bc f7 27 56 be
       -0.0039845738 -0.0064115017 -0.031108582 -0.20913683
000090 2e 39 9e bc c4 17 de ba da da 41 3c 7e 51 4a ba
       -0.019314375 -0.0016944339 0.011831963 -0.0007717832
0000a0 f9 7c 57 3b 07 33 fc bd ac cf 99 3d c8 25 3c 3e
       0.0032880886 -0.1231442 0.075103134 0.18373787
0000b0 1a 80 6c 3b 51 d4 18 bc 41 52 a0 bc d6 11 f3 3c
       0.0036087097 -0.009327964 -0.019570472 0.02967159
0000c0 22 db 09 bd 01 54 55 bb 0b cc 83 bd 0a d1 67 3e
       -0.033656247 -0.003255129 -0.064354025 0.22638336
0000d0 70 4d 69 bc 02 d1 11 bc 87 76 23 bd 16 4c 5e bd
       -0.014239654 -0.008899929 -0.03990796 -0.05427178
0000e0 e8 16 2b bd 0a 89 c2 3c 7a 5e 84 bd 02 2d ed bc
       -0.041769892 0.023746986 -0.064633325 -0.028952125
0000f0 2c f7 e6 bb 8e b3 22 3c 05 fd 8e bb 5f c7 cc 39
       -0.007048508 0.0099305045 -0.0043636584 0.00039058455
000100 5e 5f 3d bc ec 48 0e bc e6 1c f2 3b 7c 54 b6 bc
       -0.011558382 -0.008684378 0.007388699 -0.022257082
000110 95 b1 6c bd d1 0d 34 3b 7b 0a 4b bd 8e d7 ad bb
       -0.057786543 0.0027474056 -0.04957054 -0.005305237
000120 a8 bd fd 39 f2 25 17 bc ce 95 be bc e2 9b 5d 3c
       0.00048397225 -0.009225355 -0.023264792 0.013525935
000130 13 64 09 3c 86 73 7d bd 90 7c 86 3c d6 19 75 bb
       0.008385676 -0.06187775 0.016416818 -0.0037399433
000140 cc 31 1e bc 9c 29 14 3c 0b 77 a3 b9 ea 47 0e 3b
       -0.009655427 0.009043124 -0.00031178477 0.0021710345
000150 83 62 40 bc 62 30 2b 3e 15 05 41 3c 17 74 1a 3c
       -0.011742237 0.16717675 0.011780997 0.009427092
000160 57 1b 85 3c 86 68 80 bb bd 7d 10 3d 30 b1 56 bd
       0.016248388 -0.00391871 0.035276163 -0.052415073
000170 e6 bc 74 3b 81 02 ee bb c2 ac b4 bb 80 90 cb 39
       0.0037344038 -0.007263482 -0.0055137584 0.00038826838
000180 9f 86 86 bc c8 2d fe bb f9 b2 f6 bc 9f 7b b4 bb
       -0.016421614 -0.0077569224 -0.030114638 -0.005507901
000190 96 e6 89 bd 2a 2d 88 bc a3 e1 87 3c eb ae e4 bb
       -0.06733434 -0.016623098 0.016587084 -0.0069788597
0001a0 7e 15 68 bd 98 04 d6 bc b1 64 8b bd 4a 19 bb bb
       -0.05666112 -0.026125237 -0.06806315 -0.005709802
0001b0 23 80 8f bd e1 ea 85 ba a9 0a 64 bb cd c4 5e be
       -0.07006862 -0.0010217094 -0.0034796393 -0.21754761
0001c0 ec 59 f5 bb bf a4 82 bc 81 a7 92 bb 30 da 2e bc
       -0.007487526 -0.015947698 -0.0044755344 -0.010672137
0001d0 0a 65 4e bd c2 cf c0 3c 21 2d dd 3c 20 2f 66 3b
       -0.050389327 0.023536567 0.026999058 0.0035123304
0001e0 48 b7 8d bb 5e d4 ab 38 af 19 34 bd 83 ce c9 39
       -0.0043248273 8.193472e-05 -0.043969806 0.0003849157
0001f0 1a 38 fc 3b 4a ef a1 3e 63 15 cd bb 37 11 b8 bb
       0.0076971175 0.31627876 -0.006258653 -0.0056172865
000200 c7 b3 9b ba 6b f8 54 3b 44 8f b2 3a 1c d7 cc bc
       -0.0011879139 0.0032496701 0.0013623019 -0.025004916
000210 11 27 c9 ba d0 40 eb bd d0 30 85 bb e7 7c 8d bd
       -0.0015346726 -0.114869714 -0.004064657 -0.06908589
000220 a7 b8 4b bb d5 0d 4b bc 34 e9 9f bb 1a 07 1e be
       -0.0031085403 -0.0123934345 -0.004880095 -0.15432397
000230 fa e4 2d 39 f7 9b d6 bd d6 2d b0 bc d6 e6 73 bc
       0.00016583866 -0.10478967 -0.021506231 -0.014886579
000240 f7 e0 1a bb a8 26 c1 bc 20 f3 0f bd ad 52 a6 bd
       -0.0023632625 -0.023578003 -0.03514397 -0.08121238
000250 95 b1 a5 3a 0e 0a df bc e1 78 47 3b d3 1c 0a bd
       0.0012641425 -0.027226474 0.003043704 -0.033718895
000260 22 5b 2c bb 57 44 08 3b da be 03 3b 3a 80 78 bb
       -0.0026299437 0.0020792687 0.002010277 -0.0037918226
000270 e8 ef 9e 3a ae 08 85 3a cd 8e be bc 81 c1 8e 3b
       0.0012125941 0.0010149681 -0.023261452 0.0043565636
000280 82 12 fa ba c3 48 e8 38 94 eb 07 be 91 cd 98 3c
       -0.0019079002 0.00011076175 -0.1327346 0.01865271
000290 92 2d bd 3b 85 41 7b 39 b3 a1 7d 3b 17 a4 20 3a
       0.0057732547 0.00023961633 0.0038701117 0.0006127967
0002a0 da d0 a5 3a a5 f0 21 bd 15 56 3f bc 8b fe 8f 3c
       0.0012650744 -0.039536137 -0.011678238 0.01757743
0002b0 3a 5f 82 ba 08 80 3c 3a d7 52 2c be 13 88 51 b9
       -0.0009946593 0.0007190709 -0.16828476 -0.00019982485
0002c0 7f 80 d5 bd 2f 22 25 ba 11 0f 05 be 09 dc 23 bd
       -0.10424899 -0.0006299344 -0.12994029 -0.040004764
0002d0 6b 11 1b be 85 53 08 bb 03 65 19 be ae 41 08 be
       -0.15143363 -0.0020801735 -0.14979939 -0.13306305
0002e0 5d 7f f9 bd 05 2d 87 bb 8b 30 06 be 18 35 f5 bd
       -0.12182496 -0.00412524 -0.13104455 -0.119730175
0002f0 40 36 32 3b 09 d0 54 3b 3a 0f 47 ba 0f 20 31 3b
       0.002719298 0.0032472631 -0.00075935165 0.0027027165
000300 8f 5c c5 bd a2 62 ae ba ac fc 7d 3a 63 a3 29 3b
       -0.09636795 -0.0013304541 0.0009688835 0.002588474
000310 28 1c 9b bd 20 bc 85 3a 9a a0 73 bd c0 7b 3c 3a
       -0.0757373 0.001020316 -0.059479333 0.0007190071
000320 e9 49 3a 3b f2 ad 75 3b a0 24 31 be 03 5d f5 bd
       0.0028425402 0.0037487713 -0.17299128 -0.11980631
000330 bb 34 e8 38 21 ff f7 bd 79 9f ab bb e6 80 1f bb
       0.00011072444 -0.12109209 -0.0052375165 -0.0024338304
000340 51 34 42 3b 2a 08 9e ba 8d a2 bb ba 60 7e 82 bc
       0.0029633234 -0.0012056876 -0.0014315412 -0.0159294
000350 56 00 bd ba 2c b4 be bc ee 99 4a b8 f9 26 8a bb
       -0.0014419656 -0.023279272 -4.830391e-05 -0.0042160717
000360 2e 1d 4e 3b 23 2d 31 3b 0e ea 02 bc 96 3d 10 be
       0.0031450498 0.002703496 -0.007990373 -0.14085993
000370 5b 08 9c ba 76 df 17 bb 8a 09 c8 3a a0 89 aa 3a
       -0.0011904346 -0.0023173965 0.0015261632 0.0013010986
000380 6f 4c a9 3b f0 75 c8 39 06 6a 00 be 59 4e 17 be
       0.0051665823 0.00038234843 -0.12540445 -0.14775981
000390 7b 44 bf bd d0 93 23 ba 3e 5e 7b bb 4a 58 73 bb
       -0.093392335 -0.00062399823 -0.0038355733 -0.0037131482
0003a0 dd be 09 be ff ee 12 be 35 13 9c bd 48 02 fa 3a
       -0.13451715 -0.14348982 -0.07620851 0.0019074166
0003b0 51 e3 2c be cb 6a 13 3a 54 76 ed 3a 1a 5e e9 bc
       -0.1688359 0.00056235184 0.001811693 -0.028487254
0003c0 f9 1d e5 39 ea 0b 0b be 66 93 ef b9 3d 07 fb ba
       0.00043700615 -0.13578764 -0.00045695453 -0.0019151937
0003d0 4a d6 a8 bd 77 1f a5 bb b2 2e 8b bb df 36 1c bb
       -0.082439974 -0.0050391513 -0.00424751 -0.0023836417
0003e0 74 88 c2 38 38 a9 ce bb 18 69 3e be a9 66 69 3b
       9.276057e-05 -0.0063067935 -0.18594778 0.0035614169
0003f0 54 41 40 bb b0 1c 8a bc 48 9b c9 b9 74 02 40 3b
       -0.0029335814 -0.016859382 -0.000384534 0.0029298337

network_body.linear_encoder.seq_layers.0.bias f4 [128]
000000 58 19 85 bc 2e 37 a6 bd 43 88 90 3b 66 6f 48 bd
       -0.016247436 -0.081159934 0.004410775 -0.048934363
000010 65 5b 4d bd 31 2c 31 bc 5d 0c 75 3b dc fa 87 3d
       -0.05013599 -0.010813759 0.0037391402 0.066396445
000020 12 ce 65 bd f0 e4 ce bd d4 55 13 be c5 3e 5d 3d
       -0.056104727 -0.1010226 -0.1438821 0.05401494
000030 7f a5 91 3d 86 de 37 bd 9f 2f 29 bd 21 3b 05 be
       0.07111644 -0.04488995 -0.04130518 -0.13010837
000040 d4 e0 64 3d d6 05 18 bc 0d 59 dd 3c 19 7b 72 bb
       0.055878475 -0.009278735 0.027020002 -0.0036999641
000050 6f 85 aa bd bc 9e 1b 3e 7b e5 22 bd d3 79 04 bc
       -0.08326232 0.15197271 -0.03976963 -0.008085686
000060 62 56 a0 bd bb 83 40 3d c0 0d 29 bd 0a 98 5b bb
       -0.07828976 0.047000628 -0.04127288 -0.003350737
000070 95 17 1e 3d 9e 17 1a bd 45 90 a4 bd ae f8 1c bd
       0.03859671 -0.03762018 -0.0803533 -0.038323097
000080 63 ff 0e bd 63 80 b4 bc 39 d5 f4 bd 0c 48 8c bd
       -0.034911525 -0.022033876 -0.119547315 -0.06849679
000090 30 8b a7 bc a7 5d de bc ae fc dc bd a8 44 8d bd
       -0.020452112 -0.027144266 -0.10790382 -0.06897861
0000a0 60 60 b7 bc 0f a8 b2 bd b2 bc 69 3d a5 56 16 bd
       -0.022384822 -0.08723461 0.05706472 -0.036703724
0000b0 db 71 47 3d 48 d4 35 bb b5 54 93 3d 5a 03 84 be
       0.048692565 -0.0027744938 0.07193891 -0.25783807
0000c0 ba 78 00 3e e8 4b 03 3d b3 70 cb bc 59 fd 18 3d
       0.12546054 0.03205481 -0.024834013 0.037350986
0000d0 ba d0 8e 3d ab 88 dc 3c 33 73 b1 bd 1e 8c 98 3d
       0.06973405 0.026920637 -0.08664551 0.074486
0000e0 5a 5c bb 3d 11 93 a8 bd 80 a3 c1 3c 04 f1 78 bd
       0.09148474 -0.08231176 0.023637533 -0.060776725
0000f0 32 34 03 be 79 12 60 3d ca a4 6b 3d be 3d f8 bd
       -0.1281288 0.054705117 0.057530202 -0.121211514
000100 59 28 3c 3d 2b 5d 2c bd 69 e7 c8 bd b6 b0 39 bd
       0.045936916 -0.04208104 -0.09809763 -0.04533454
000110 4c cf e1 bd 1c 20 8b bd 0a e1 b4 bb f7 50 29 bd
       -0.11025867 -0.06793234 -0.005519991 -0.04133698
000120 c0 b6 90 3d 53 39 b9 bd 8b 87 fd 3c d5 21 ac 3d
       0.07066107 -0.09044137 0.030948421 0.084048904
000130 d2 14 41 3e 1f e7 21 3e 40 56 b3 3c 32 03 4c 3c
       0.18855599 0.15810822 0.021891713 0.012451934
000140 22 cf b0 3a 19 63 cd bb 96 c1 96 bd 88 63 e7 3c
       0.0013489465 -0.006267917 -0.07361142 0.028245702
000150 d9 63 a9 3c 40 62 fc bd 68 63 39 3d 2a 1a 2d 3c
       0.020677494 -0.12323427 0.045260817 0.01056532
000160 65 2a 8e bd ee 8a 1b bd e1 e9 92 3b 22 06 28 3d
       -0.0694168 -0.03797429 0.004483447 0.041021474
000170 d3 06 08 bd a1 15 b1 bd 07 b2 d6 3c b7 e2 ea 3b
       -0.033209633 -0.086467035 0.026207937 0.00716814
000180 90 1d 1a bd 85 19 cb 3d 18 bc e3 3d e2 0b 42 3d
       -0.03762585 0.09916977 0.111198604 0.047374614
000190 62 7f fe 3d 82 f4 9b bc e5 ce 05 be 44 b3 a9 bc
       0.1242664 -0.019037489 -0.13067205 -0.020715363
0001a0 a0 84 b3 bd ba dd e1 bd 71 ed 79 bc 3d 04 a3 3d
       -0.087655306 -0.11028619 -0.015254364 0.07959793
0001b0 5d e3 35 bd 99 27 52 bc fe 69 d6 bd d0 84 fb bc
       -0.044406284 -0.012826824 -0.10469435 -0.030702978
0001c0 08 67 f0 3c 11 a5 38 3d 4e 99 0b bd ee ed 17 be
       0.029346004 0.045079295 -0.03408175 -0.14836857
0001d0 05 59 82 bd 00 e1 0c 3c f8 91 16 be 74 95 fd bd
       -0.063646354 0.008598566 -0.1470412 -0.123820215
0001e0 63 56 86 bd bd 40 ae bd 45 6b b6 bb 0b 37 a8 bd
       -0.06559446 -0.085084416 -0.0055669867 -0.082136236
0001f0 f2 0e 28 bd 70 3d 92 3d bc 7c 99 bd 53 07 22 be
       -0.041029878 0.071406245 -0.07494494 -0.15823106

network_body.linear_encoder.seq_layers.0.weight f4 [128, 68]
000000 b9 b7 de bd b6 62 27 3e 57 d7 ca bb 7e b0 62 3f
       -0.10874886 0.16346249 -0.0061902213 0.88550556
000010 af 66 80 be 13 af 1b be 32 e6 8b 3d 05 75 97 3d
       -0.2507834 -0.15203504 0.06831016 0.073953666
000020 4e dc 30 3e 61 ae 22 3e a6 bb 8f bd 7b 0b 2e 3f
       0.1727154 0.15886833 -0.07018213 0.6798627
000030 9c f0 18 3d 48 ac 7e 3d 47 8d 15 3e 65 89 c2 be
       0.037338838 0.06217602 0.14604674 -0.3799545
000040 02 cd 7b bd d0 be c4 bd 74 e0 87 bd 5e a9 d2 bd
       -0.061474808 -0.09606707 -0.06634608 -0.102862105
000050 6f fa 96 3d 30 fe 7f 3d 5e 37 2f 3e c1 43 3d bf
       0.07371985 0.06249827 0.17110965 -0.7393151
000060 e4 45 1e be 7d 1b 2d be b1 c2 cd 3d a8 7f a3 bd
       -0.15456349 -0.16905017 0.100469 -0.07983333
000070 be 07 1d 3e a7 a4 28 be 4c 41 2f 3e af d2 9a be
       0.15334985 -0.1646906 0.17114753 -0.30238864
000080 28 19 9e bd 2b 34 89 3d 71 04 41 be 9b 7a e9 ba
       -0.07719642 0.066994034 -0.1884935 -0.0017813029
000090 84 66 72 3b 59 22 87 bc ca 78 18 be a8 2c 31 bd
       0.0036987374 -0.01649587 -0.14889827 -0.04325548
0000a0 4c d7 bd 3d 4a a5 d3 3d 9d e0 87 3d 9f 7a 87 bd
       0.0926958 0.10334261 0.066346385 -0.06615185
0000b0 09 97 99 be da 9a f1 bd 72 a8 bc be f6 31 60 bd
       -0.29998043 -0.11797114 -0.36847264 -0.054735146
0000c0 3a 7d c9 3d 97 47 64 3d 11 99 a9 bd 99 79 e9 3e
       0.09838338 0.055732336 -0.08281148 0.45600584
0000d0 32 d3 9b 3e 08 01 57 bd ec 17 e8 bc e2 29 10 3e
       0.30434567 -0.052491218 -0.02833172 0.14078477
0000e0 0e 29 1b be 07 e6 b3 3d f6 ff 75 bc 5b fe 3d 3e
       -0.1515238 0.087841086 -0.015014639 0.1855406
0000f0 9c 42 dd bb d4 22 43 3d a6 71 1a be 45 03 50 3c
       -0.006752325 0.047640637 -0.15082416 0.012696092
000100 43 f2 92 bc e9 33 66 be 90 07 d4 3d 70 91 0e be
       -0.017937785 -0.2248074 0.10353005 -0.13922668
000110 e5 32 53 3d 23 44 a1 bc 53 23 1b bc 22 ef b1 bf
       0.05156221 -0.01968581 -0.009468871 -1.3901103
000120 10 cb eb 3d e7 3f 66 be 56 ac 01 bd e8 70 83 3e
       0.115133405 -0.22485314 -0.031658493 0.25672078
000130 56 17 f3 3d 1b 45 5b bd 57 aa 88 3d 2e ca 67 be
       0.11869685 -0.0535327 0.06673115 -0.22635719
000140 b6 67 2d bc c0 87 b3 bd 08 b8 bd bd 93 91 f7 3e
       -0.010583809 -0.08766127 -0.09263617 0.48353252
000150 b9 99 90 3d 23 43 9c 3d 7e 74 1e bd 94 66 64 3e
       0.0706057 0.07629993 -0.038685314 0.22304755
000160 80 12 f7 3a 5e af 9f 3d e4 c8 42 be c5 7a 08 3f
       0.0018850118 0.077971205 -0.19021946 0.5331233
000170 1f fc be 3d 8b 3e 12 be 12 29 1e 3d 6e c4 32 bd
       0.09325432 -0.14281671 0.038613386 -0.04364436
000180 5b 3b 02 3e 00 88 67 bb 65 52 1f be 24 1c 5f 3c
       0.12717955 -0.0035328865 -0.15558775 0.013617549
000190 94 ac 39 be d7 42 96 bd f0 89 fb 3d 65 d0 1a be
       -0.1813224 -0.073369674 0.12282169 -0.15118559
0001a0 e2 d3 a0 bd 40 ea a3 bd 4b f0 b0 be e3 88 20 3e
       -0.078529134 -0.08003664 -0.3455833 0.15677218
0001b0 d6 a2 1a 3b 1b ed 98 ba c4 b2 ed 3c 98 47 d7 bd
       0.0023595593 -0.0011667343 0.029015906 -0.10511702
0001c0 dc 14 6a be d0 29 c1 bd 03 80 5b be 77 02 e0 3d
       -0.2285952 -0.09431803 -0.21435551 0.1093797
0001d0 21 bc 2a bd 3f 57 ee 3d 0f d1 a8 3d 29 3b 45 3d
       -0.04168332 0.116377346 0.08243 0.048152123
0001e0 38 21 d4 3d 10 f4 8d bd 85 92 46 bd 09 f0 61 3e
       0.103578985 -0.06931317 -0.048479576 0.22064222
0001f0 5a ab 01 be 36 57 bc 3c 43 ce f4 3d 86 cf 37 be
       -0.12663022 0.022990804 0.11953404 -0.17950258
000200 96 97 26 3e 13 b6 23 be 82 5e b3 3d e8 e7 16 3e
       0.16268763 -0.15987425 0.0875826 0.14736903
000210 c9 ea 4b be c6 a9 6b 3c f7 fd 12 3d ee 6d 5e 3e
       -0.19913782 0.014383739 0.03588673 0.21721622
000220 62 c8 85 be 89 f4 0f 3c e7 17 81 3e 12 a5 9d 3f
       -0.26129442 0.008786329 0.2521355 1.2316
000230 85 78 87 3e ba 0a b0 3e 21 8d c3 bd fb 09 16 bf
       0.26459137 0.34383184 -0.095484026 -0.5860898
000240 08 ce 89 be 1a 4d 25 be f5 cc 09 3e 51 9c b7 3f
       -0.26915002 -0.16142693 0.13457091 1.4344579
000250 27 0a c9 3d 3f 24 48 bd 40 13 4e 3d 71 9d 5e bf
       0.098163895 -0.048862692 0.050311327 -0.86958987
000260 38 8f f7 bc 58 d8 de bd 56 88 0f 3d d7 a3 bb 3e
       -0.03021966 -0.10881108 0.03504213 0.36648437
000270 ee 9f ca 3d d3 41 d4 3d ec 28 4f 3e 8a a2 98 be
       0.098937854 0.103641175 0.20230454 -0.29811507
000280 9b e0 7c be 9b 52 1f 3e f4 13 d7 3d 26 dd f1 3e
       -0.24695055 0.15558855 0.10501853 0.47239035
000290 e8 08 4b 3e c0 8a 99 3c 0d 9f ec 3d 93 35 00 be
       0.19827616 0.018742919 0.11553774 -0.12520437
0002a0 10 4f 45 ba cf 46 7a 3c 8f 22 9b 3c f2 63 ad 3e
       -0.0007526735 0.015275671 0.018937377 0.33865315
0002b0 50 81 91 3d 91 6c 3d bd 22 ef ae 3c 96 7f 06 3e
       0.071047425 -0.046246115 0.021354262 0.13134608
0002c0 ef 93 d1 3d d6 1f 77 be ae 39 7e bd 37 63 98 3e
       0.10233294 -0.24133238 -0.062066726 0.29763195
0002d0 44 3b e4 bd b0 d9 bb 3c bf e6 36 3d 11 41 86 be
       -0.111441165 0.02293095 0.04465365 -0.26221517
0002e0 a3 9c 86 be 24 64 6f be 5d f7 49 be 41 f1 0c 3f
       -0.2629138 -0.23378044 -0.19723268 0.55055624
0002f0 78 d9 9f 3d eb 94 0a 3e b3 2e 43 bd 8d 92 76 be
       0.07805151 0.1353337 -0.047651958 -0.24079342
000300 25 a6 bd bd 9b c3 89 3c c3 32 1e 3e 66 cc 05 3f
       -0.09260205 0.016816905 0.15449052 0.5226501
000310 59 7f 11 be b1 07 43 3e 25 1c 3d be 6a 1e d9 3d
       -0.14208736 0.19045903 -0.18467768 0.10601504
000320 4d d2 26 be fc 90 56 3d bc 2f 90 bd 76 48 10 be
       -0.16291161 0.05238436 -0.070403546 -0.14090142
000330 55 be a0 be a7 6a e9 3d 15 ab 6d 3c f4 f9 b5 3f
       -0.31395212 0.113972954 0.014506121 1.4216905
000340 01 3d 91 bd b3 4b f6 3d d4 17 5a bd 92 62 b1 be
       -0.07091714 0.12026157 -0.05324538 -0.34645516
000350 ea 10 9d be 03 40 36 3e f9 58 02 bd 00 8c 98 3f
       -0.30676967 0.17797856 -0.031823132 1.1917725
000360 fa c5 62 3e ed 19 52 3d ce d3 08 be cc b3 08 bf
       0.22145835 0.051294256 -0.13362047 -0.5339935
000370 a0 0f d7 bd c2 a8 5d bd 64 ec 16 3e dc 07 42 3e
       -0.10501027 -0.054116018 0.14738613 0.1894831
000380 ac 2f a5 bd a3 5b fe 3a 40 7e 7d 3e 64 5d 04 bf
       -0.08065733 0.0019405972 0.24755192 -0.51705
000390 07 08 8e 3d d1 7c 79 be 8c d1 18 3e 46 e4 f2 3e
       0.06935125 -0.2436402 0.14923686 0.47439784
0003a0 2d 89 86 bc 2d 21 c6 3d bb b5 b6 3d 9b c8 f7 be
       -0.016422832 0.096742965 0.08921381 -0.48395237
0003b0 a1 24 07 be e2 3d eb bd dd 6d d6 bd 57 a4 c1 be
       -0.13197567 -0.114864126 -0.104701735 -0.37820694
0003c0 45 02 38 3c c6 54 10 3e 98 9e 15 bd 3b 65 02 bf
       0.01123101 0.14094839 -0.0365282 -0.50935715
0003d0 5e f7 ab 3d 1d 1f bc 3b 63 7a 9c bd df 8b 3f 3e
       0.08396791 0.0057410137 -0.07640531 0.187057
0003e0 87 cc a4 3e 8c 4b ed bc 76 25 fb bd 45 2c fe bd
       0.32187292 -0.028966688 -0.122630045 -0.124107875
0003f0 5f 6d 89 3d d1 80 83 bd 92 13 85 bd f7 99 95 3e
       0.06710314 -0.06421054 -0.06497873 0.29219028

network_body.linear_encoder.seq_layers.2.bias f4 [128]
000000 d5 16 cf 3b c1 9d 8e 3c 74 16 a9 3b 1e 54 fa 3d
       0.0063198605 0.017409207 0.0051601473 0.12223075
000010 c2 2d 9f bd 33 e1 d5 be 41 ed 8a 3c 36 84 ad be
       -0.077723995 -0.41773376 0.016958835 -0.3388993
000020 a8 a8 17 bb 1d 4a 87 bc 5d 28 82 3d 1c 8e c1 be
       -0.0023141298 -0.016514832 0.06355355 -0.37803733
000030 02 68 b1 ba e3 19 6a be d3 b6 d0 bd 4e cb bd 3d
       -0.0013535025 -0.22861437 -0.10191121 0.09267293
000040 1e 5c 85 bd 0e 08 f9 bd 65 7f 53 3d 99 c8 c6 be
       -0.065117106 -0.121597394 0.051635165 -0.3882492
000050 ea e7 43 3d c5 19 7c bd 7c 9f 9d bd bb b7 32 be
       0.047828592 -0.061548013 -0.07696435 -0.174529
000060 33 7e 9e bc 79 c2 93 3c 9c 7f c1 3c c4 42 0a bd
       -0.019347286 0.018037068 0.02362042 -0.03375508
000070 2f 07 67 bc 3c ad e8 3b 38 6e b1 bb 0f 50 82 3d
       -0.014100834 0.0071007293 -0.0054147504 0.06362926
000080 27 6d 80 bb b2 38 68 bc 3a 58 b0 be cb 79 0c 3c
       -0.003919262 -0.0141736735 -0.34442312 0.00857396
000090 5c 63 27 3c d1 d4 e8 bc ca 84 8b 3d 2e 06 02 bd
       0.01021656 -0.028421791 0.06812437 -0.031744175
0000a0 ee f4 83 bc 01 d9 ae bd 0a 90 c4 3b 58 7e ae be
       -0.016108003 -0.08537484 0.005998616 -0.34080768
0000b0 90 ba 6d bc e1 0d fb 3b 83 e4 b1 be 56 f9 a9 3c
       -0.014509812 0.0076615666 -0.34744653 0.020748775
0000c0 96 fe ac be 33 c4 16 bd 6b 3b a8 be f4 68 c7 3c
       -0.33787984 -0.036808204 -0.32857832 0.024342038
0000d0 7d 69 91 be 8c 3a 13 3c bb 0a 9f be f5 a1 ae be
       -0.28400794 0.008986127 -0.31062874 -0.34107938
0000e0 c0 30 cb be 08 de 4f bd cf b0 91 be bc 09 b2 be
       -0.3968563 -0.050748855 -0.28455207 -0.34773052
0000f0 17 f4 6a 3c 65 3e 90 bd d2 bf 07 3a ca 25 cf bb
       0.014340422 -0.07043151 0.0005178425 -0.0063216435
000100 8d bc 90 be 2c 1b 71 3c 49 d9 0c bd 1e 3e b5 bc
       -0.28268853 0.014715951 -0.034386907 -0.022124346
000110 65 ac 9c be b7 05 21 bd a0 47 9b be d6 b3 18 3d
       -0.30600277 -0.03931209 -0.30328083 0.03728088
000120 ce 4e df 3b e1 ec 8a bd 76 7d ad be ac 7f a7 be
       0.006814814 -0.06783462 -0.33884782 -0.32714593
000130 f4 41 4b bb 85 34 a4 be dc 95 93 3d 39 a7 08 bd
       -0.0031014653 -0.3207132 0.07206318 -0.0333626
000140 14 e3 44 3c d1 e3 c9 bb c3 a7 0c bb b7 f5 5a 3d
       0.01201703 -0.006161191 -0.0021462298 0.05345699
000150 df 15 b9 bc 7a 19 08 bd 4c 41 b3 bb ed 5f 37 bd
       -0.022593437 -0.03322742 -0.0054704305 -0.044769216
000160 b5 15 f8 bc 61 1f ce 3c 56 f3 6a bc a4 2b b7 be
       -0.030283788 0.025161447 -0.014340242 -0.35775483
000170 41 b3 67 3d c2 7c d8 bc ad 8a 1f 3d 87 a5 8d bd
       0.056567434 -0.026426677 0.03895061 -0.069163375
000180 24 bb 88 3b 24 ea b6 3c 1c 30 be be aa 74 a8 be
       0.0041726995 0.022328444 -0.3714608 -0.32901508
000190 ae e7 9d be 63 e5 ec 3c 8d 16 04 3d 55 c6 1d 3d
       -0.3084082 0.028917974 0.03224807 0.038519222
0001a0 24 cd b5 be 0c f7 c8 be 5f 8e 89 be 29 f6 4b 3b
       -0.35508072 -0.39250982 -0.26866433 0.0031122065
0001b0 32 cd b4 be 4f 82 01 3d 6b 8b da bc a0 3f 9c 3c
       -0.35312802 0.031618413 -0.026677808 0.019073308
0001c0 7c ba 4f bc d5 08 8a be bd f5 46 bd 1e 85 99 bc
       -0.012678739 -0.26959863 -0.048574198 -0.018740233
0001d0 9e 19 bb be 70 c8 1a bd d6 00 b1 bb f8 00 17 bc
       -0.36542982 -0.03778881 -0.005401711 -0.00921654
0001e0 63 bf 1c 3d 2e e1 e0 bb 46 f6 b3 be ca 3a 8a 3b
       0.038268458 -0.006862781 -0.3514883 0.004218434
0001f0 fd b0 00 3a ee d4 f3 3d eb f7 13 bd 32 28 e7 3b
       0.0004909186 0.119058475 -0.036125105 0.007054352

network_body.linear_encoder.seq_layers.2.weight f4 [128, 128]
000000 69 de e4 bd 29 a6 2f 3d 45 6c a0 3d a9 52 ae 3d
       -0.11175234 0.042883072 0.07833151 0.0851186
000010 1c 23 a6 bd ed 77 a3 3c 6d 60 32 bc 91 ea 62 3d
       -0.08112165 0.019954646 -0.0108872475 0.05539948
000020 6d fe 7e bd 90 ec fe 3d 34 3d a0 bc 82 37 26 3b
       -0.062254358 0.124474645 -0.019560434 0.0025362675
000030 2b d7 bd bd e2 36 1b 3e ac 5e 7c be 06 79 dd 3c
       -0.09269556 0.15157655 -0.2464549 0.027035248
000040 35 f0 ac 3d b8 c5 83 3e d6 d1 df 3d 53 38 9e 3c
       0.08444253 0.25736785 0.10928695 0.019313967
000050 a9 1f 81 be 7f 13 f3 bb c8 d0 97 3d a9 e4 98 bd
       -0.25219467 -0.0074180956 0.07412869 -0.074654885
000060 ba c5 8d bd 35 bc 4c 3c 9b dc b3 3d fc 9a 83 be
       -0.06922479 0.012496044 0.087823115 -0.2570418
000070 3a 95 3f be 59 f5 bc 3d a9 05 0b 3c 17 45 34 3d
       -0.18709269 0.09226484 0.008485236 0.0440112
000080 e1 0f ea 3d d6 d5 96 3c 47 56 d8 bc 98 b1 0c be
       0.1142881 0.018412512 -0.026408328 -0.13739622
000090 b8 22 aa bd 7d a4 bd bc 4f 01 e8 3d d7 53 09 3e
       -0.08307403 -0.023149723 0.113283746 0.13410889
0000a0 82 04 17 3d 72 44 43 be 1e 2f 06 3e 7a 0c e5 3d
       0.036869533 -0.19069079 0.13103911 0.1118402
0000b0 bd 8a 0d bd 8b 08 f0 bd 4d af c3 bd 83 8b 2d bc
       -0.03455614 -0.117203794 -0.0955492 -0.010592344
0000c0 ba ac 88 bd 74 e3 c4 3d f5 15 0d 3b 50 a2 aa bd
       -0.0667357 0.09613696 0.002152798 -0.0833174
0000d0 8b 70 01 3c 8d 95 1c 3d 78 90 77 bb c9 1b c7 3d
       0.0079003675 0.03822856 -0.003777532 0.097220965
0000e0 81 6c 2a 3e 0a a5 0c 3d 63 c4 2d bd 83 1e 6c bd
       0.16642953 0.03433708 -0.042423617 -0.057646286
0000f0 77 d3 2a be 37 44 9d bd fa e3 a5 bd e9 4e a0 bd
       -0.1668223 -0.076790266 -0.08100124 -0.07827551
000100 2f bf ba 3d 86 65 8b 3e a9 da cd 3c a7 d2 67 3d
       0.091184966 0.27225894 0.02512868 0.056597378
000110 4e bd 94 3c 65 1b 28 bc 31 49 8c bc eb 4d e3 3d
       0.018156674 -0.010260438 -0.017124744 0.11098846
000120 f8 b7 57 bd 3a 7d 1b be cb 54 2e be 99 6e b6 3c
       -0.05266568 -0.15184489 -0.17024533 0.022269534
000130 52 25 a2 3d 09 a8 0b bd 46 d5 23 3e 5b 2f a4 bc
       0.079172745 -0.034095798 0.15999326 -0.020042112
000140 85 3b 9f 3d 22 18 3c bd 7e 9a 32 3e 9c af 19 3e
       0.07775024 -0.045921452 0.17441747 0.15008396
000150 43 d4 40 3c 4b 49 0f 3e 3e 9b ec 3d c6 d9 33 bd
       0.011769357 0.13992803 0.115530476 -0.043908857
000160 c5 f7 28 3d 4a 58 05 bd ff 60 a3 bc 14 78 98 be
       0.041251916 -0.032554902 -0.019943712 -0.29779112
000170 7d 1a c1 bd 42 1a 27 3c 49 dc d4 bd 75 29 b2 bb
       -0.0942888 0.010199131 -0.103935786 -0.005437071
000180 bc 55 96 3d 56 40 80 3d 7a 29 1e 3e 89 bb c6 3d
       0.07340571 0.06262271 0.1544551 0.09703738
000190 66 a3 b8 bc a2 e8 4c be b5 0a 1d be cb 34 5f bb
       -0.022538852 -0.20010617 -0.15336116 -0.0034058567
0001a0 d8 4b ce 3d 04 7c 21 3b 04 2d da bd 54 a8 07 bd
       0.1007306 0.002464057 -0.10653117 -0.033119515
0001b0 55 33 6a 3d bf 3f e7 3d 76 9b 48 bd de 2b cd 3d
       0.05717786 0.112914555 -0.048976384 0.100181326
0001c0 ca f7 0d be 71 f6 85 3d c1 d8 51 bd b6 c1 0d be
       -0.13864055 0.065411456 -0.051232103 -0.13843426
0001d0 44 5c b7 3d 26 01 51 3e fb 7c 2e 3c 5b de 27 bd
       0.08953145 0.20410594 0.010649915 -0.04098354
0001e0 0f bb 08 3c 90 3d a7 3e cc e1 37 bd 79 83 b6 bb
       0.0083453795 0.32664156 -0.04489307 -0.005569872
0001f0 f0 b8 5a 3e a2 24 6f bd 6c ad f9 3c a7 e9 14 3e
       0.2135961 -0.058384545 0.030478202 0.14542256
000200 a3 fe 7a 3e e0 07 00 3d 0d 90 b7 bd 62 dd 1e 3e
       0.24511199 0.03125751 -0.089630224 0.15514138
000210 93 41 aa bd ef 64 0a be 5c 99 d9 3d 08 2a c3 bd
       -0.083132885 -0.13515066 0.10624954 -0.09529501
000220 c6 94 c8 3d 67 cc f0 bc 4e d3 79 be 1d 06 18 bd
       0.09794001 -0.029394342 -0.24397013 -0.037115205
000230 98 7c d3 3d ea e6 77 3d f0 cf 2c be 7e a8 bf 3c
       0.10326499 0.06052295 -0.16876197 0.023395773
000240 a2 cd 72 3e 8c 50 06 be 29 7e 6f bd 48 fb 55 3d
       0.23711255 -0.13116664 -0.058469925 0.052241594
000250 fb 60 7b bd 70 67 b0 3d f0 67 8c bd 0b 7a b2 3d
       -0.061371785 0.08613479 -0.06855762 0.08714684
000260 65 65 87 3d 77 0a fe bd b0 dd 64 3d b1 a9 bf bc
       0.06611136 -0.1240434 0.05587548 -0.023396345
000270 ce 88 0c 3e 38 9c ad 3d 1c 0b ac 3c 8d a3 b8 3c
       0.13724062 0.08477062 0.021001391 0.022538925
000280 89 c4 48 3e ac 21 21 bd 12 83 b8 3c b0 40 15 bb
       0.19606222 -0.039338753 0.022523437 -0.0022774152
000290 05 70 0b 3d 1f a7 75 be 8b df a8 3d 65 04 f5 3c
       0.034042377 -0.23989533 0.082457624 0.029909322
0002a0 05 71 0e 3d bc f3 b5 3a 91 28 34 be 0a 6d 08 3e
       0.034775753 0.0013881843 -0.175936 0.13322845
0002b0 b2 86 6e bd 27 8d 11 bd 28 3b 73 bc 6d f7 ec 3d
       -0.058233924 -0.035535004 -0.014845647 0.1157063
0002c0 2d 85 85 be a9 57 8c be 01 c5 63 3d ac 07 17 3d
       -0.26078168 -0.2741063 0.0556078 0.03687255
0002d0 1a a5 3c 3c ba 94 ea bc c4 38 8a bb d3 66 25 be
       0.011513973 -0.028635371 -0.004218193 -0.16152506
0002e0 f4 70 13 be 7f 3e 1e 3e 9f 64 06 be 8f a2 0e be
       -0.14398557 0.15453528 -0.13124321 -0.13929199
0002f0 d7 86 d7 3d b0 5a dd 3a 81 04 0f 3e 7d 46 a3 3d
       0.105237655 0.0016887989 0.13966562 0.07972429
000300 90 30 09 be 25 86 6a bc fd 38 d9 3d 35 a1 7b 3c
       -0.13397431 -0.014314209 0.10606573 0.015358259
000310 0c 55 26 bc 65 c7 80 3d ad 79 ac 3d 32 fe 19 3e
       -0.010152113 0.062880315 0.08421645 0.15038374
000320 a4 b4 88 bd 47 c3 40 3e c9 54 49 3d 47 23 8d be
       -0.066750795 0.18824492 0.049153123 -0.27565977
000330 a3 8e 5f bd be 93 7f 3d fa 51 a8 bd 4c b7 7c 3e
       -0.05457939 0.062396757 -0.08218761 0.24679297
000340 91 c9 07 be 9b df 5f be 88 33 b6 3d 41 57 d6 3d
       -0.13260485 -0.21862642 0.088965476 0.10465861
000350 88 48 25 3d 42 8f fd 3c 9a 45 1d bd 24 35 55 be
       0.040352374 0.0309521 -0.038396455 -0.20821053
000360 f2 a1 03 3d 63 3a 1e bd 23 c1 88 3c 22 9a ea bd
       0.032136865 -0.0386299 0.016693657 -0.1145518
000370 6f 18 b5 be 1c a1 93 bd b3 b2 2c bd 26 76 00 bd
       -0.35370204 -0.072084635 -0.04216261 -0.031362675
000380 a4 32 d7 bc b1 e6 50 3c 30 4d 83 3e 6d 64 36 be
       -0.026269265 0.012750314 0.25644827 -0.17811747
000390 a1 a5 b5 3d 6f bb fe 3d 2e ed 83 bd a7 81 76 3c
       0.08869482 0.12438094 -0.06441723 0.01504556
0003a0 cd 7c 8d 3d a5 9d f5 bd 4c 11 cb 3d 7e 73 02 3d
       0.069085695 -0.11992959 0.099154085 0.031848423
0003b0 0b 36 41 bd e9 67 2b 3e 50 7c 9c bd a1 31 bd bb
       -0.04717068 0.16738857 -0.07640898 -0.0057737385
0003c0 ee a5 56 bd b0 be f8 bd 6f a0 6a 3b 73 fb 8a bd
       -0.052404337 -0.12145746 0.0035801192 -0.067862414
0003d0 12 7c ab be 46 fe 82 3c 18 bc 3e 3c d1 52 f0 bd
       -0.33493096 0.015990388 0.011641525 -0.11734546
0003e0 5d 9c 0f be 96 fe c4 bd 73 ce 0c 3c b7 7b ef bd
       -0.14024492 -0.09618871 0.008594143 -0.116935186
0003f0 e0 88 31 3e 2f 5a 82 3d ac b5 39 be e8 f6 04 3e
       0.1733737 0.063648574 -0.18135709 0.12984812
