Learning/results/mx11/KartAgent/KartAgent-15299947.onnx (onnx, 104129 bytes, 7 tensors)

41 f4 [1, 2]
00000000: 8655 c53e cd34 80be
0.38541812 -0.25040284

distribution.mu.bias f4 [2]
00000000: ea90 323e dce0 223f
0.17438093 0.6362436

distribution.mu.weight f4 [2, 128]
00000000: d5e3 9ebd 3e4a d7ba 8873 89bb 47e6 b13e
00000010: 75fe 66bb 1e37 aebd 8523 24bc d28c 15be
00000020: f3e2 55bb 3c6a 253e 9c63 07bb 3b72 3abd
00000030: 8b12 29bc 1d1a 6dbd db0f 37bb 9873 c5bd
00000040: ba05 bf39 3efe e03b e571 92bc 2cc1 62be
00000050: 4738 9a3b 63f4 7dbe 67c6 ddbb 1231 253e
00000060: 06de b5bb b55c 003b 0428 403b 971e f03a
00000070: 41d0 c9bd a3a7 a5bc 784b 893c 5abb 1eba
00000080: 04e4 00bd 2288 63bb 8a11 36bd 7f58 88be
00000090: fbbc aa3c b49f 13bb 30bd 2d3b 82d6 e3bb
000000a0: 5a7b 253b 7df2 93bd 401d 5fbd 209f c03e
000000b0: 67d6 9b3b f917 aaba 298f 97bd 56e2 57bb
000000c0: 831e 14bd ccd4 94bb 9899 8abe b971 203d
000000d0: fceb 06bd 0e97 a5bb 0e5f c8bd 6aaa 06be
000000e0: 5837 f3bd 6e4a edbb 0a6a 1dbe 4460 15be
000000f0: 1146 f03b 8277 8abb 7e33 ffbb 35dc 3139
00000100: 8418 17bd 1640 b03b 8978 283b 915b 9abc
00000110: 8e66 90bd cbae 9d3b 5dcf a5be c9d0 d8bc
00000120: ea59 beba 2127 19bc f753 dd3c 9ed6 0fbd
00000130: 3183 d3bb 1259 80be 344f 173c a782 31b9
00000140: 0659 26bc bb64 cebb 7e6f 48bb f162 abbd
00000150: 78ee be3a 1c3b 303e 23fc 0cbd 5103 a5bb
00000160: d880 ccba f8de 8c39 780d 34bc 9ce9 7a3d
00000170: 73e2 343c c76d dfbb f8b1 363a 27a3 82ba
00000180: 8f02 243c 72fa d1bc 2d89 16be 4909 c7bd
00000190: f01c 4bbd d472 e3b9 8bb0 0d3a 0efe b9bb
000001a0: 9e18 adbc fe4b d2bc 982f 34bd dbfe 563b
000001b0: b35d cbbc d5e8 30bb 4e1b 643b be35 06bf
000001c0: 6760 febb 31a0 a6bd 64d9 64bc 5a48 393a
000001d0: c7fb dcbe 0c15 fc3d 8487 cbb8 5442 ca3a
000001e0: 5383 5e3d 8907 cabb d7d9 73be 6580 d6bb
000001f0: ff64 88bb e415 193f 4330 453a 84da dc3a
00000200: bee0 0fbd 7283 e9bb 03fd 43b9 b418 90bd
00000210: 9fbf 2a3b a117 0abd dfa1 d13b 537d 663d
00000220: 1a7b deba ad11 8e3d 0862 dbbb a8c5 cebd
00000230: 9e80 44ba 986f 15be 6f29 a7bd 928b e9bc
00000240: b6fb 33bb d805 4ebe 3220 c7bd 1f10 4ebd
00000250: 02fc 133a 85a3 d8bd 1107 023c d447 c73d
00000260: 2456 04bb bc0e f63a fee5 bdba d464 1d39
00000270: 57a6 98bd 3f9e c83c 3f6b 8ebd 20a6 843a
00000280: c11d 1a3c dc0d ea3a 8bc2 94bb f082 4b3e
00000290: e27a 12bd 339e 043b 2ecf f7bb 079c b2bb
000002a0: 1677 9bba e2b5 6ebd 669f 9fbb 8cc6 cd3b
000002b0: 8f50 4cb8 b582 6c3b c9b3 a7bd af45 67b9
000002c0: aa1b bebd 485f 27bb 22f1 2fbe 9c92 01be
000002d0: f0dc 5dbe 2324 a53b e110 1dbe c944 4fbe
000002e0: 2c9a 66bc d76e a7b9 0951 76be 1cf0 8ebe
000002f0: 36d5 34bb 2956 913b 39eb 8f3a da3f 313a
00000300: d285 953c 2be0 6339 3c2f a7ba a7c3 703c
00000310: fd41 29bd a0e6 543b d2bc 3cbd 0253 e3bb
00000320: 52fe 8abb b708 14bc ac49 63be 194d 32be
00000330: e4ef 1e3b a6b8 5cbd c92b 24bb 898f 1fbb
00000340: 30b4 a73a d8fb 6f3b 7d7f 163b 354e c9bc
00000350: b5a1 4cb9 c1b5 dfbc a745 003c 1d94 0c3a
00000360: df16 ef3a 0996 c639 f073 69b9 c1d4 10be
00000370: 8a7a fe3a 93af 483b 5bec d23a 0c62 0539
00000380: e7f5 5dbb f6a0 e23b db57 56be 4a37 75be
00000390: 1f54 a7bd 758c 3b3a 5ae2 a33b f609 873a
000003a0: 1919 fbbd c06f 85be f86b 9ebc d2fb bcbb
000003b0: 3d61 30be f5e7 c53a 0781 3a3a d4c4 22bd
000003c0: d03c 4c3b f7fd 3abe 9c2a 963b b264 953a
000003d0: 31ff b9bc 2b58 693d 7a24 5bbb 3f75 7fbb
000003e0: 5142 e0bc 5eab e2ba 589b 22be a51d 203a
000003f0: ec73 92ba 252e 93bd 58c5 ca3b 00b1 3038
-0.07758299 -0.0016425324 -0.0041946806 0.34746 -0.0035246883 -0.085066065 -0.010018234 -0.146045
-0.0032636493 0.16153806 -0.0020658737 -0.045519095 -0.010319362 -0.05788623 -0.0027933035 -0.096411884
0.00036434626 0.0068662455 -0.017876575 -0.22144002 0.004706416 -0.24800257 -0.006768036 0.16132
-0.005550149 0.0019586508 0.0029320726 0.0018319663 -0.098541744 -0.020221537 0.01675962 -0.0006055139
-0.031467453 -0.0034718593 -0.04445032 -0.26630017 0.020842066 -0.002252561 0.002651047 -0.0069530616
0.0025250525 -0.07223985 -0.054471254 0.37621403 0.0047557834 -0.0012977115 -0.074003525 -0.0032941303
-0.03616191 -0.004541969 -0.27070308 0.039170954 -0.032939896 -0.0050534075 -0.09783755 -0.13150945
-0.1187579 -0.0072415387 -0.15372482 -0.14587504 0.0073325713 -0.004225672 -0.007788121 0.00016962069
-0.036888614 0.0053787334 0.002570661 -0.01884249 -0.07050811 0.0048120967 -0.32384768 -0.026466744
-0.0014522646 -0.009347708 0.027017577 -0.035116784 -0.006454848 -0.25067955 0.009235192 -0.00016928707
-0.010153061 -0.006298629 -0.0030584033 -0.08368481 0.0014566919 0.17210048 -0.034420144 -0.0050357957
-0.0015602363 0.00026869006 -0.010989539 0.061257944 0.011040318 -0.0068185064 0.00069692684 -0.0009966836
0.010010376 -0.025632117 -0.14700766 -0.09718568 -0.049588144 -0.00043382368 0.000540503 -0.0056760376
-0.021129902 -0.025671002 -0.0439907 0.0032805714 -0.024824953 -0.0026994247 0.0034806314 -0.52425754
-0.007762957 -0.08136023 -0.013967846 0.0007067971 -0.4316084 0.12308702 -9.705036e-05 0.0015431144
0.05432446 -0.006165449 -0.23813568 -0.0065460675 -0.0041624303 0.5979903 0.0007522145 0.0016849791
-0.03512644 -0.007126265 -0.00018690903 -0.07035962 0.0026054156 -0.03371394 0.0063974704 0.056271862
-0.0016973943 0.06936965 -0.006695036 -0.10096294 -0.0007495972 -0.14593351 -0.081622 -0.028508935
-0.0027463264 -0.20119417 -0.09722938 -0.050308343 0.0005645157 -0.10578064 0.007936255 0.09730497
-0.0020192945 0.0018772702 -0.0014488099 0.00015010248 -0.07453602 0.02448952 -0.06954049 0.001012031
0.009406508 0.0017856914 -0.004539793 0.19874167 -0.03576172 0.0020235896 -0.0075625395 -0.005450729
-0.0011861052 -0.058278926 -0.0048712967 0.006279772 -4.8712416e-05 0.003608865 -0.08188588 -0.00022055836
-0.0928262 -0.002553897 -0.17181829 -0.12653583 -0.21666312 0.005039708 -0.1533847 -0.20241083
-0.014074843 -0.00031935304 -0.2405435 -0.27917564 -0.0027592904 0.00443532 0.0010980136 0.0006761529
0.018252287 0.00021731916 -0.0012755166 0.014695085 -0.041322697 0.0032486096 -0.04607851 -0.0069373855
-0.004241743 -0.009035281 -0.22196072 -0.17412223 0.0024251873 -0.053887032 -0.0025050512 -0.0024347028
0.0012794789 0.0036618616 0.0022964173 -0.024573425 -0.00019515197 -0.027308347 0.007829106 0.0005362647
0.0018241069 0.00037877288 -0.00022263802 -0.14143659 0.0019415182 0.0030622229 0.0016092168 0.00012720394
-0.0033868493 0.0069161607 -0.20931952 -0.23946872 -0.08170342 0.00071544136 0.0050013484 0.0010302651
-0.122606464 -0.2606182 -0.019338593 -0.005767324 -0.17224593 0.0015099036 0.00071145635 -0.03973849
0.0031164177 -0.18260942 0.004582716 0.0011397807 -0.022704693 0.05696885 -0.003343849 -0.0038979796
-0.027375372 -0.0017293503 -0.15879571 0.0006107933 -0.0011173463 -0.07186536 0.006188076 4.2126514e-05

network_body.linear_encoder.seq_layers.0.bias f4 [128]
00000000: 2374 423c 2d3f 9cbd 0a4a b13c 62a3 1fbe
00000010: 558a 87be 283a a7bc 958e 153e 5574 be3c
00000020: 4178 43bd bea6 17be d1a9 3fbe c8e3 cbbd
00000030: 556f ee3d 31d0 60bd 68a5 8fbd e832 44be
00000040: ad86 c23d 4127 ab3c b2e7 873c 8f0e ae3d
00000050: 63c2 82be 9c70 523d 33bf 1ebd 3191 92bd
00000060: f799 eebe 5b5a 80bc 7c45 9dbc ecbf f93c
00000070: d82c 933d c39e 533b 0f7d 74bd 6650 aebd
00000080: b7a5 90bd de12 013a 4f29 18be 9ce9 01be
00000090: bd83 08bd b570 a4bb 71e7 0dbe b9b1 f5ba
000000a0: 945b babe d12f aebd cbf9 643d e5e0 68bd
000000b0: 54f5 153d b6c3 71bd 85fa 413c d9b7 21be
000000c0: 447b 223e de3c 563d c240 863d 3744 703d
000000d0: 91a3 be3d 285d 7bbc 5b15 73be 1c34 a53c
000000e0: 5e6e 703d 38fa fcbd 962c 31bd 44a1 5dbe
000000f0: 6ffb 42be bbce c6bd 4b87 973d ad04 89be
00000100: f9f2 973d 0c9b 94be 5940 dbbd 2b1a cabd
00000110: 427a 49be dcf7 3dbd bea6 fabe d64e 32bd
00000120: 7f00 953d edc4 24be b693 f43d 7743 b93d
00000130: 41ce be3d 094a 653e a27b 83bd 8b74 6f3d
00000140: 8048 d2bb db8b a53c 0a6a 0dbe 247b b03d
00000150: 34a3 0e3d f2da a9bd fcc5 f43c 53af fd3c
00000160: 3bc9 05be 8d16 ddbd 5255 1a3c c919 ac3c
00000170: 8bf2 1cbd 1bf5 d6bd 3a02 733d 7d71 85bc
00000180: 7eb2 d5bd 4b00 813d 8968 083e 0d82 863d
00000190: 80af ab3d 7511 4bbd 135f 84be 70a4 c53c
000001a0: 00b6 e6bd c5be 29be 9043 f03b d3b3 babd
000001b0: cfde 54bd 6bca dabe bc24 42be 9cac 69bd
000001c0: 853f e2bb 645c a03d e594 213c ff25 60be
000001d0: a58a f2bd ff80 2c3d 6894 5fbe f6df a0be
000001e0: 1b65 14be 6ab3 72be c0c0 9ebc b211 5bbe
000001f0: c2e4 49bd e0e8 0d3d 9692 3bbe 17aa 8fbe
0.011868509 -0.07629237 0.02164175 -0.1558967 -0.26472726 -0.020413473 0.14605172 0.02324883
-0.047722105 -0.14809701 -0.18717124 -0.09955555 0.11642329 -0.054886047 -0.070139706 -0.19160044
0.094983436 0.020892741 0.016589973 0.084988706 -0.2553893 0.051376924 -0.03875656 -0.07156599
-0.4660184 -0.015668085 -0.019198172 0.030487023 0.07186288 0.0032290674 -0.059689578 -0.085114285
-0.070628576 0.0004923771 -0.14859508 -0.12686771 -0.03332876 -0.0050183185 -0.13857819 -0.0018744982
-0.36397994 -0.08505214 0.055902284 -0.0568551 0.036610916 -0.059024535 0.011839514 -0.15792789
0.15867335 0.05230414 0.0655532 0.058658805 0.093085416 -0.015342034 -0.23738615 0.02016645
0.058699004 -0.12352413 -0.04325541 -0.21643549 -0.19041227 -0.097073995 0.07398852 -0.2676138
0.0741939 -0.2902454 -0.10705633 -0.098682724 -0.19675544 -0.046378955 -0.4895534 -0.043532215
0.07275485 -0.16090746 0.11942236 0.09046071 0.093166836 0.22391523 -0.064200655 0.058460753
-0.006417334 0.02020829 -0.13809982 0.08617237 0.03482361 -0.08293714 0.029879563 0.03096739
-0.13065045 -0.10795317 0.009419756 0.02100839 -0.038317244 -0.10495969 0.059328295 -0.016289467
-0.10434435 0.06298884 0.13321127 0.06567774 0.08383083 -0.049577195 -0.25853786 0.024126261
-0.112651825 -0.16576679 0.007332273 -0.0911633 -0.0519703 -0.42732558 -0.18959326 -0.05704938
-0.006904545 0.07830122 0.009862159 -0.21889494 -0.118428506 0.042115208 -0.21833956 -0.3142087
-0.14491694 -0.23701254 -0.01937902 -0.21393469 -0.049290426 0.034645915 -0.18317637 -0.28059456

network_body.linear_encoder.seq_layers.0.weight f4 [128, 68]
00000000: 8e3c d6bd b662 273e 9adf 0abd 902e 1f3e
00000010: ffaf 20be 13af 1bbe 935e 0b3e 76ca edbd
00000020: 709b 8e3e 61ae 223e 0549 9abd e0bd 423f
00000030: f2cc 47be 48ac 7e3d bdec d2bb b097 0bbf
00000040: 27a0 33be d0be c4bd 7708 d2bd 23a8 bbbe
00000050: 3ee8 c43d 30fe 7f3d cc38 903d d454 b9bf
00000060: 8a90 23be 7d1b 2dbe 201d d63d 5d61 dfbe
00000070: 5302 843e a7a4 28be 4c2b d93d 6483 cebe
00000080: 50e5 54be 2b34 893d d17d ffbd c96b 5fbe
00000090: 6630 fb3c 5922 87bc 850a b7be b160 343e
000000a0: 1dfa 8a3d 4aa5 d33d fadd 2d3d 58b0 a7bd
000000b0: cd12 b5be da9a f1bd 0dd0 04bf 063d 003f
000000c0: f1a8 3c3e 9747 643d cb37 e4bd 28bb 873e
000000d0: 23b8 e33e 0801 57bd 56a8 14bc ec97 283e
000000e0: 8a3d 4abe 07e6 b33d 85e3 13bd 8315 1cbe
000000f0: 1a88 e33d d422 433d 99b0 11be 5565 5b3e
00000100: 1fec cc3d e933 66be 0e8a e53d dd47 7f3d
00000110: 1fd7 573e 2344 a1bc 46d8 023d 348e 31c0
00000120: 3f0f d73c e73f 66be 2c98 90bc f9f8 3fbf
00000130: 2e19 773e 1b45 5bbd 0ccf 9b3d 7d0b babe
00000140: 08f0 53bd c087 b3bd da17 e4bc 6634 153f
00000150: 26aa d1bd 2343 9c3d 1230 8dbb e86d 7e3f
00000160: 6181 91bd 5eaf 9f3d 0a8d 143c 8aab a43f
00000170: f436 e33d 8b3e 12be 3212 b93d 0beb 2a3f
00000180: 1852 133e 0088 67bb 7f14 43bf d5cb f33c
00000190: 65e8 1fbe d742 96bd 5d3f 343e cd82 b33e
000001a0: 61fa 8abd 40ea a3bd 42ad 9abf 86b7 d6be
000001b0: 03a1 d73d 1bed 98ba de4d c23c 474c ebbe
000001c0: e7bc dabc d029 c1bd 76d1 04bf c843 643e
000001d0: 9eaf ed3d 3f57 ee3d 6a1b b43d a2c0 843e
000001e0: 276d 0f3e 10f4 8dbd b123 cabc 88a8 5b3f
000001f0: d443 88be 3657 bc3c 2cd2 9b3d 61a2 ffbe
00000200: d421 153d 13b6 23be 96c4 843d 6089 443e
00000210: 35a7 a6be c6a9 6b3c 3d28 573c 96ef 853e
00000220: 7cf7 9fbe 89f4 0f3c 10ee 913e 83be fb3f
00000230: 54e9 083f ba0a b03e ff98 ab3d dd4d 63bd
00000240: 824d 47be 1a4d 25be c2b6 143e 7682 0240
00000250: 0bfd f43d 3f24 48bd fbd2 92bd 529f 85bf
00000260: 8176 663d 58d8 debd 344f 793d a292 c73e
00000270: f54e 8b3e d341 d43d 8b6a 7b3e 9037 7fbf
00000280: c5de 88be 9b52 1f3e be47 fa3d b939 653f
00000290: 94b7 773e c08a 993c c0cd 483f a8a8 3c3e
000002a0: d0be 87bc cf46 7a3c ae15 453c 6aaf d9bc
000002b0: b06b db3d 916c 3dbd cd8b a7bd 355e 68be
000002c0: 71bd adbd d61f 77be 5474 efbd 92c3 8e3e
000002d0: 518e 033d b0d9 bb3c ded5 27bc 0519 b1bd
000002e0: 3660 09bf 2464 6fbe 8e63 76be e6fc c7be
000002f0: 0bc3 4b3e eb94 0a3e 2d62 91bb a410 b9be
00000300: 18b8 59be 9bc3 893c 9071 c83d 114e 463f
00000310: f4ac b8bd b107 433e f65e 6fbe c74e 433e
00000320: 96e5 e2bd fc90 563d d7b5 f4bd 6fbc 65bd
00000330: 429b 9bbe a76a e93d 964c 123d 0b47 0240
00000340: f47a 883d b34b f63d 07d5 6c3d 43cb aa3e
00000350: c3fd 23bf 0340 363e 4b51 24bd 5777 df3f
00000360: 7ef3 7e3d ed19 523d 9c6e 6e3d 1663 52bf
00000370: bfe3 dabd c2a8 5dbd 34e8 f33d 2957 6dbe
00000380: 6432 bcbd a35b fe3a 20cb 813e 6e49 9abf
00000390: b6ac 173c d17c 79be 28ca fc3d e484 063f
000003a0: 7abe 02be 2d21 c63d f496 123f b8e3 27bf
000003b0: 8d34 25be e23d ebbd a78e 7cbd 4079 42bf
000003c0: 6e3e d939 c654 103e 5afb 8e3e 2250 adbe
000003d0: 790e 033e 1d1f bc3b c43a 22be 72e0 2b3f
000003e0: b158 ad3e 8c4b edbc 0a31 e5be e2ff 603d
000003f0: 71e4 1a3e d180 83bd 9de6 16be 79af 6fbe
-0.10460769 0.16346249 -0.03390465 0.15545106 -0.15692137 -0.15203504 0.13610296 -0.11610882
0.27852964 0.15886833 -0.075334586 0.76070976 -0.19511774 0.06217602 -0.006436913 -0.5452833
-0.17541562 -0.09606707 -0.10255521 -0.36651716 0.09614609 0.06249827 0.07042083 -1.4479012
-0.15973106 -0.16905017 0.10454774 -0.4362897 0.25783023 -0.1646906 0.10603961 -0.40334618
-0.20790601 0.066994034 -0.124751695 -0.2181846 0.030662727 -0.01649587 -0.35750213 0.1761501
0.067859866 0.10334261 0.04244802 -0.08187932 -0.35365906 -0.11797114 -0.5187996 0.50093114
0.18423821 0.055732336 -0.11143454 0.26509976 0.44476423 -0.052491218 -0.009073338 0.16464204
-0.19750038 0.087841086 -0.03610565 -0.15242581 0.11109944 0.047640637 -0.14227523 0.21425374
0.10005974 -0.2248074 0.112079725 0.062324394 0.21078156 -0.01968581 0.031944536 -2.7743044
0.026252387 -0.22485314 -0.017650686 -0.7498928 0.24130699 -0.0535327 0.076078504 -0.3633689
-0.051742584 -0.08766127 -0.027843405 0.5828308 -0.10237531 0.07629993 -0.004308709 0.99386454
-0.07104755 0.077971205 0.009066829 1.286485 0.11094466 -0.14281671 0.090366736 0.667649
0.14386785 -0.0035328865 -0.7620315 0.02976028 -0.15615995 -0.073369674 0.17602296 0.3506073
-0.06786037 -0.08003664 -1.2084124 -0.41936892 0.105287574 -0.0011667343 0.02371877 -0.45956632
-0.026701404 -0.09431803 -0.5188211 0.22291481 0.11605762 0.116377346 0.08794291 0.25928217
0.14006482 -0.06931317 -0.024675222 0.85804033 -0.2661425 0.022990804 0.076084465 -0.49928573
0.036409214 -0.15987425 0.06482808 0.1919303 -0.32549444 0.014383739 0.013132152 0.26159352
-0.31243503 0.008786329 0.2850194 1.9667515 0.5348103 0.34383184 0.08378791 -0.055494178
-0.1946316 -0.16142693 0.14522842 2.0392127 0.119623266 -0.048862692 -0.071691476 -1.0439246
0.056265358 -0.10881108 0.06086655 0.3897906 0.27208677 0.103641175 0.24552362 -0.99694157
-0.2673246 0.15558855 0.12220715 0.895412 0.24191123 0.018742919 0.7843895 0.18423712
-0.016570479 0.015275671 0.012029095 -0.026572902 0.10713899 -0.046246115 -0.08180962 -0.22692187
-0.08483399 -0.24133238 -0.1169211 0.27883583 0.032118145 0.02293095 -0.010243861 -0.0864735
-0.5366243 -0.23378044 -0.24061415 -0.39060134 0.19898622 0.1353337 -0.0044367523 -0.36145508
-0.21261632 0.016816905 0.09787285 0.7746287 -0.09017363 0.19045903 -0.23376068 0.1907302
-0.11078946 0.05238436 -0.11948746 -0.056087907 -0.3039189 0.113972954 0.03571757 2.035586
0.066640764 0.12026157 0.057820346 0.333582 -0.64059085 0.17797856 -0.04011659 1.7458295
0.06224393 0.051294256 0.058210954 -0.82182443 -0.1068797 -0.054116018 0.119095236 -0.2317778
-0.09189299 0.0019405972 0.25350285 -1.2053659 0.009257486 -0.2436402 0.12343246 0.52546525
-0.12767974 0.096742965 0.57261586 -0.65581846 -0.16133328 -0.114864126 -0.06165948 -0.7596626
0.0004143598 0.14094839 0.2792614 -0.338502 0.1279849 0.0057410137 -0.1584273 0.6713935
0.3385673 -0.028966688 -0.44763976 0.05493153 0.15126206 -0.06421054 -0.1473641 -0.23406781

network_body.linear_encoder.seq_layers.2.bias f4 [128]
00000000: 8490 66be 6176 5ebd 69fb 15bc f1a1 0c3e
00000010: 9813 0cbe e2fe 6cbf 9fb8 92bc 2e79 d9be
00000020: e076 aabd 700f 0ab9 db4e 753d e263 16bf
00000030: 9d9c 20bd dc33 9bbe 8fd7 a5be 2653 aabe
00000040: 3ca5 1abe 1005 98be 0dee bfbd 8c66 49bf
00000050: 1105 063c e94d 7bbe dd30 10be 804c 80be
00000060: 91e1 55bb 1778 98bc d62d 183c cd95 d8bd
00000070: 6a15 8fbe 910e 273d e35f 49be 6892 3f3d
00000080: d18b bdbc f6fa 5bbb 2f99 27bf 35bc 073e
00000090: 70b8 dbbd 1e0e bcbd ca26 223d 3ea8 7ebd
000000a0: 860b 40bd f834 12bf 0653 e1be b2eb cbbe
000000b0: d033 ac3b 5a6c b7bc 1dd3 29bf 6854 37bd
000000c0: b324 0dbf 6eb8 85bd 0802 c3be 8232 7abe
000000d0: 58bd cdbe f5c5 e0bc c5fe e2be 547b ecbe
000000e0: e74a 7abf 5e96 04be cef2 8fbe c73d 03bf
000000f0: d589 d8bc 8b7b 26be 997c 61bd 987d c6bc
00000100: 10a1 4bbf b4c5 abbc fcd4 dbbd 1f80 a6bd
00000110: deba ffbe 3f40 85bd 34f9 1dbf dfd2 aabe
00000120: 10b6 9bbd a0db f5bd 539e 04bf fad2 a9be
00000130: e932 89bd 8569 37bf 3c55 843d b35c f4bd
00000140: a077 ce3c 6919 2ebd 578e 21bc 7821 3dbe
00000150: cea1 2bbd 666f a0be 39e1 98bd e60b 4abd
00000160: a288 fcbc 6916 10bd a5d3 06be 14d9 0dbf
00000170: 4673 da3c 20db f6bd 5990 743c b069 b1bd
00000180: c1a3 91bc 6c81 c3bd b118 b9be bf23 b8be
00000190: 0299 35bf 3dac 0fbd 9faa a03b 65a7 853c
000001a0: e79c f6be 8c2e f9be ef63 47bf 21b5 5dbd
000001b0: bc7f 12bf 3531 b33d c408 e9bd 42a8 ba3b
000001c0: fe0a a9bd 5711 e0be 038a f4bc e960 08bd
000001d0: 7d6b 7dbf 7bbb c4bd 740b 1bbd 44f6 8bbd
000001e0: 8c93 f5bc 8687 32bd d37b 05bf 06d7 15bd
000001f0: 16bd 00bd ca77 d43e 25ba 8fbd e3de f5bc
-0.22516066 -0.054312114 -0.009154179 0.1373365 -0.1367935 -0.9257642 -0.0179103 -0.42475265
-0.08323455 -0.00013166456 0.059889656 -0.5874616 -0.039211858 -0.30313003 -0.3239102 -0.33266562
-0.15102094 -0.29691362 -0.093715765 -0.786721 0.008179919 -0.24541439 -0.1408114 -0.25058365
-0.0032635669 -0.01861195 0.009288272 -0.10575447 -0.27946025 0.040785376 -0.19665484 0.046770483
-0.023137959 -0.0033566332 -0.65468115 0.13255389 -0.10728538 -0.0918238 0.039587773 -0.062172167
-0.04688599 -0.57112074 -0.44008654 -0.3982826 0.0052552 -0.022390533 -0.6633776 -0.04475823
-0.55134124 -0.06529318 -0.38087487 -0.2443333 -0.4018352 -0.027438143 -0.44335 -0.46187842
-0.9777054 -0.12947986 -0.28114933 -0.5126614 -0.026432911 -0.16258065 -0.055050466 -0.02422981
-0.79542637 -0.020968296 -0.10733983 -0.08129906 -0.49947256 -0.065063946 -0.6170838 -0.33364007
-0.07603085 -0.12004781 -0.51804084 -0.33168775 -0.066991635 -0.71645385 0.0646157 -0.119317435
0.025203526 -0.0425047 -0.009860597 -0.18469799 -0.041902356 -0.3133499 -0.07464833 -0.049327753
-0.03082687 -0.035177622 -0.13166673 -0.5540936 0.026666295 -0.120535135 0.014926993 -0.086627364
-0.01777828 -0.0954617 -0.3615165 -0.35964772 -0.70936596 -0.03507637 0.004903152 0.016315171
-0.48166582 -0.48668325 -0.7788686 -0.054127816 -0.5722616 0.0874962 -0.11378625 0.0056963274
-0.0825405 -0.4376323 -0.029850965 -0.033295546 -0.9899214 -0.096060716 -0.03785272 -0.06834081
-0.029977582 -0.043586276 -0.52142066 -0.036582015 -0.031430326 0.41497642 -0.07017926 -0.030013507

network_body.linear_encoder.seq_layers.2.weight f4 [128, 128]
00000000: db7a c4be 48f5 a23d f4d4 5abe c71f b03d
00000010: d621 993c 793e 64be 9ba0 81be 8db4 5b3e
00000020: f4cf 1b3d 6358 a2bd e555 0b3e 7508 313d
00000030: 4b9f f33d 6224 673c 7eec dbbe b623 d3be
00000040: 57d1 c5bd 95bc 773e 9850 5f3e 3f9e 1abd
00000050: 8a13 b3be d114 473e 8148 393e e782 913c
00000060: 3545 a63d 7b89 e5bd 5d6b 8cbe 86f6 91be
00000070: d471 23bd 4bb2 81bd 4ddd 27be 185d 8fbe
00000080: 5bb9 8e3e 43c2 533d daf6 24be 1d9e 55be
00000090: 941d efbd 4088 acbe b05b b8bd bbbf ad3e
000000a0: b271 dd3d fa91 43be 952a b53e c7af 3cbd
000000b0: f85c 913d 4e11 0fbf 7781 4bbd ad19 013e
000000c0: 6147 a3bd 6d38 af3e d775 24be 4bdd a2be
000000d0: d1be 00be e197 a6bc 666b 413e 1c44 d43e
000000e0: 59c2 d43e 7541 af3c 7ffd 41bc da7a ae3d
000000f0: 2bfa 58bd 408f 073e 5209 1b3e 35fe 41be
00000100: f19b af3e af51 9c3e 148f 41bd 8a6c 97be
00000110: 05c0 02be cd27 3dbe 6487 9abc 545b 16be
00000120: 4e95 c7be ea6f 5fbe ec7b 67be c247 78bd
00000130: 978f dc3c 78d4 663e 6e69 b43e fc5f 783e
00000140: c253 813e 7272 2bbe f584 d2be 77f0 1a3f
00000150: f846 6b3d c8ef df3e 45ee d83d 799b cfbd
00000160: d3c2 d3bd 7ec2 a83e 4bb6 46bd 7855 efbe
00000170: ce18 a9be ec34 bcbc 2440 15be f85a 053e
00000180: 6e02 19be 22c9 2abe 3244 b63e 11f7 c73e
00000190: 517d bd3d 247e 3a3d 1cfe 8dbe 2fdb 743e
000001a0: 0e84 d43e 897f 5dbe b9ee 633e f150 8c3d
000001b0: 96e0 b2be 901a 3e3e 07ee 87bd 758c 61be
000001c0: 8e2e 433e 1876 513e d565 46be 194d 5f3e
000001d0: accb 5e3d 3c31 633e 15b5 82be 9b1c 263e
000001e0: e40e b63d a14c de3e 30ee abbe 3e3e 283d
000001f0: 5b20 233e 0a53 083e bab5 c3bd 3fa4 843e
00000200: 41bc b43d b67b b63d bcd8 2e3e 3757 a63d
00000210: deb5 7abd a2e2 903d e069 d63c 92f0 95bd
00000220: 03ab 103d 0cdd f33c e06a 82be b997 bd3d
00000230: 7022 593e 9d53 1f3e 910b 203c eb44 d5bd
00000240: 4ebf ac3d 9672 163c 31da 1abd 9bea 4d3d
00000250: 6770 933e c2b8 1a3e c895 24bc f5dc 3d3b
00000260: e8fc c33c 99e4 c5bd 612f 823e d339 aabd
00000270: 5fde e13c 546c 74be 7df1 a53b 5c8c 05bd
00000280: 9103 edbc bbde b4bd a25b 0ebe a31d 49bd
00000290: 800f 5cbb b838 06be 6ab1 663b b8c2 643d
000002a0: e16a e9bd 3e5b ebbc d0a8 c4bb c72b 113d
000002b0: 4a69 2c3e 4cae cfbd 9353 813c 282e 743d
000002c0: f431 4ebe 1a70 21be b095 e43d 8528 f03c
000002d0: d8b2 9e3c 00ff 493d 149d f33d 082f ebbd
000002e0: d06a 08be fd9a f63d a579 ad3c 9c2c 0ebe
000002f0: fdd6 723e 8c83 493d 3012 e33d c91f 843e
00000300: 1364 bebd afaf 153e 9314 653e 2304 cbbd
00000310: 17d0 b23c 6512 103e 5ab4 35be a0d3 593e
00000320: 29a9 ecbd 7f1d bdbd ed4e 3bbe 60f6 36be
00000330: 5392 9d3d 8ed8 66bd 05b2 6cbd 8982 7d3d
00000340: e76f 44bd 75ae d2bd 65ef b83d 485c 05bd
00000350: 76c6 60bd bc91 2e3d ca94 193c 66e0 a0bd
00000360: f73e a4bb 3e34 fbbc acad 09be b1cc 893d
00000370: 2afc a0be 7aae 88bd 3650 7f3d a589 f4bb
00000380: e995 e9bd 18af 113e 4210 c23e 342d 563d
00000390: db9e 1d3e 18b1 64bc 3fb4 353e 4052 593d
000003a0: 42b8 4d3d a34c 6cbd dc74 86bc d676 b53d
000003b0: dd86 b33d b896 8b3c 4c4d 953d c664 7dbd
000003c0: 22f6 0fbd 0ff6 033d 8612 eabc b5ce 1ebe
000003d0: d04c 50be 4394 dabd f8f8 053e 7ae9 00be
000003e0: a271 d2bd 353c bcbd e31f efbd 4621 563e
000003f0: b71d 6a3e 65ce c03d e9c0 b1be c10b 573e
-0.3837498 0.0795694 -0.21370298 0.08599811 0.018692892 -0.22289456 -0.25317845 0.21455593
0.038040116 -0.07927015 0.13606985 0.043220956 0.11895617 0.014107795 -0.42953867 -0.41238183
-0.09659069 0.24193032 0.21808088 -0.03774857 -0.34975845 0.19441535 0.18094064 0.017762614
0.08118669 -0.11207863 -0.27425662 -0.28508395 -0.039903477 -0.06332835 -0.16393013 -0.28000712
0.2787579 0.051698934 -0.16109791 -0.20861097 -0.116755635 -0.336977 -0.09001863 0.3393534
0.10812701 -0.19098654 0.3538405 -0.04606607 0.070978105 -0.5588578 -0.049684014 0.12607451
-0.07972599 0.34222737 -0.16060577 -0.31809458 -0.1257279 -0.020336093 0.18888626 0.41458213
0.41554525 0.021393517 -0.011840223 0.08519526 -0.052972954 0.1323824 0.15140274 -0.18944629
0.3429866 0.3053107 -0.04725559 -0.29574996 -0.12768562 -0.18472214 -0.018863387 -0.14683276
-0.38981098 -0.21820036 -0.22605866 -0.06061531 0.026923938 0.22541988 0.35236686 0.24255365
0.25259215 -0.16742876 -0.41117063 0.6052317 0.057440728 0.43737626 0.10592321 -0.10137076
-0.10339894 0.32960886 -0.048513692 -0.46744895 -0.33026737 -0.022974454 -0.14575249 0.13022983
-0.14942333 -0.16678289 0.35598904 0.39055684 0.09252418 0.045530453 -0.27732933 0.23911737
0.41507 -0.21630682 0.22259034 0.06851376 -0.3493697 0.1856482 -0.06637197 -0.22026236
0.19060728 0.20455205 -0.19374783 0.21806754 0.054393455 0.2218675 -0.2552878 0.1622185
0.08889559 0.43417838 -0.3358016 0.041074984 0.15930311 0.13312927 -0.09556146 0.2590656
0.08824969 0.08910315 0.17074865 0.08122104 -0.0612086 0.07074477 0.026173532 -0.07321276
0.03531934 0.02976849 -0.25472164 0.092574544 0.21204543 0.1555924 0.009768383 -0.10413536
0.08434926 0.009182593 -0.03780574 0.050272565 0.28796694 0.15109542 -0.010045476 0.0028970812
0.023924306 -0.09662742 0.25426772 -0.0831181 0.027571855 -0.23869449 0.005064188 -0.03260456
-0.028932365 -0.08831545 -0.13902143 -0.04910053 -0.0033578575 -0.13107574 0.0035200962 0.05584976
-0.11397339 -0.028730031 -0.0060015693 0.03544214 0.1683704 -0.10140666 0.015786922 0.05961433
-0.20136243 -0.1576542 0.11161363 0.029316196 0.019372389 0.049315453 0.11895195 -0.1148358
-0.13321996 0.120412804 0.021176169 -0.13884205 0.23714824 0.04919772 0.11087453 0.258055
-0.092964314 0.14617799 0.2237113 -0.099128984 0.02182774 0.14069517 -0.1774458 0.21272135
-0.11555702 -0.092341416 -0.18291827 -0.17867422 0.07693925 -0.056358866 -0.05778696 0.061892066
-0.04795828 -0.10287181 0.09030036 -0.03255871 -0.054876767 0.042619452 0.009373853 -0.078553006
-0.005012389 -0.03066456 -0.13445157 0.06728495 -0.31442386 -0.06673904 0.062332354 -0.0074626976
-0.11405546 0.14226949 0.3790303 0.052289203 0.1539263 -0.013958238 0.1774454 0.053056955
0.05022455 -0.057690274 -0.016413145 0.08860557 0.087659575 0.017039642 0.07290134 -0.061863683
-0.03514684 0.03221708 -0.028573286 -0.1550854 -0.20341802 -0.1067281 0.13083255 -0.12589064
-0.1027558 -0.09191171 -0.11676004 0.2091113 0.22862898 0.09414367 -0.3471749 0.21000578
