Learning/results/mx11/KartAgent/KartAgent-4849944.onnx (onnx, 104129 bytes, 7 tensors)

41 f4 [1, 2]
000000 57 4e 95 be 09 d3 a9 bf
       -0.2916133 -1.3267528

distribution.mu.bias f4 [2]
000000 4b 77 96 3d 46 fb 82 3e
       0.07346972 0.2558233

distribution.mu.weight f4 [2, 128]
000000 6c 2c a4 3b 8c 8b 4f 3c 56 a2 66 bb b9 bc 93 3e
       0.0050101783 0.012667548 -0.0035191975 0.2885492
000010 58 5c fd bb 81 48 16 bd 05 97 61 3b 0e c1 48 bd
       -0.0077319555 -0.03669024 0.003442229 -0.049012236
000020 dc 30 eb bb 7b 9e b3 3d 94 66 8f 3a 3a 55 98 bd
       -0.0071774554 0.08770462 0.0010940605 -0.07438131
000030 9d 02 01 3c 50 b7 d6 bc ef f3 a0 3d d9 71 21 3e
       0.007874158 -0.026210457 0.07859027 0.15766086
000040 63 08 74 bb c0 ca aa 3d 1b b4 75 3e 98 16 6b bd
       -0.0037236444 0.08339453 0.23994486 -0.057394594
000050 30 c3 c2 bb 15 6a 2e be f0 63 38 3b ed b3 3f 3d
       -0.0059436783 -0.17032655 0.002813574 0.04680245
000060 60 fe 7b 3b e6 f5 15 bb b0 36 32 bb f4 7a 07 39
       0.003845118 -0.0022882163 -0.002719324 0.00012920407
000070 54 97 e2 bb bb b0 dd 3c fc f7 2a 3e 68 dd 57 bb
       -0.0069150124 0.02706181 0.16696161 -0.0032938365
000080 95 04 20 ba 1b d7 9a bb 9e 68 31 bd cc ff 4b be
       -0.00061041984 -0.0047253496 -0.04331266 -0.19921798
000090 97 13 d3 3b 33 e2 7f bb 66 fc 8a 3b c2 39 10 3b
       0.0064415443 -0.0039044737 0.004241514 0.0022007083
0000a0 34 ce e1 3a 57 36 12 be 81 c5 8f 3d b2 cf 48 3e
       0.0017227591 -0.14278542 0.07020093 0.1961048
0000b0 fc 60 51 3b 65 3a 05 bc cd af fd bc 7d 39 40 3c
       0.0031948676 -0.008131598 -0.030967617 0.011732456
0000c0 fe f3 3a bd 23 e8 83 ba 05 64 a4 bd 0e ea 61 3e
       -0.045642845 -0.0010063689 -0.0802689 0.22061941
0000d0 f6 94 c9 bc 7a ed e1 bb 13 ed 50 bd 2f 9d 8a bd
       -0.024607163 -0.0068947645 -0.05100734 -0.06768262
0000e0 f5 3c 59 bd a8 0a 3e bc 6a 9b 97 bd ce f6 1f bd
       -0.05303665 -0.01159922 -0.0740269 -0.03905373
0000f0 e5 69 8d bb cb 27 4a bc 78 19 7b bb d6 fc bc ba
       -0.004315602 -0.012338589 -0.003831474 -0.0014418613
000100 71 7c b7 bc 32 8c 1e bc 72 43 86 bb 41 b8 2f bc
       -0.022398205 -0.00967698 -0.0040973956 -0.010725082
000110 c5 e1 8c bd 78 54 61 3b 6c 77 74 bd e5 3e bc 3a
       -0.068789996 0.0034382623 -0.059684202 0.0014362006
000120 da de a0 3b ef cf 6d bb a0 bb 0c bd 57 31 01 3b
       0.0049093785 -0.0036287268 -0.03435862 0.0019713247
000130 58 fd 2f 3b cc 9a 91 bd d0 d2 92 3b 1c ba 42 3b
       0.0026853886 -0.07109603 0.004480697 0.002971298
000140 ba d3 07 bb a3 9d 87 3b 57 d9 ec 3b b4 af 0b 3d
       -0.0020725564 0.004138665 0.0072280574 0.03410311
000150 92 99 03 bc cc 29 22 3e 76 f8 0e 3c bd 89 ae bb
       -0.0080322195 0.15836257 0.00872623 -0.0053264783
000160 2a de 1a 3c b8 9f a8 3a 1e c9 5b bc 56 1a 84 bd
       0.009452382 0.0012864983 -0.013414649 -0.06450336
000170 45 f5 e8 b9 37 b7 f4 3a 98 30 17 3a 40 41 4a 3b
       -0.00044433228 0.0018670325 0.0005767434 0.0030861646
000180 9a e0 43 bb 27 8d 7c bb 5e 7c 27 bd ff e0 7b bc
       -0.0029888512 -0.0038536282 -0.04089009 -0.0153734675
000190 6d a5 9c bd b4 62 05 bc 9d cf d2 bb 4e e8 de 39
       -0.0764874 -0.008141208 -0.006433441 0.0004251622
0001a0 e3 76 88 bd 8a a8 24 bd d7 b7 99 bd 45 c5 12 bc
       -0.06663301 -0.040199794 -0.07505768 -0.0089581655
0001b0 a9 9f a5 bd 4e 8b c2 3a a4 a9 be bb 8d ed 64 be
       -0.080870934 0.0014842541 -0.0058185626 -0.22356243
0001c0 e9 a5 ca 3a db f7 ee bc 32 f8 1a bb 10 5a a2 bb
       0.0015460822 -0.029170921 -0.002364647 -0.004954584
0001d0 25 c1 7d bd 5f 24 14 3d 92 2a dd bb 37 71 71 ba
       -0.061951775 0.0361675 -0.0067494595 -0.0009210291
0001e0 11 3e df 39 b9 19 5e ba 05 84 5f bd 82 ae 76 3b
       0.00042580118 -0.0008472461 -0.054569263 0.0037640636
0001f0 6b 5f fa 3b 50 80 9d 3e 61 bf 17 bb 94 9b 32 3a
       0.0076407692 0.30761957 -0.0023154842 0.0006813344
000200 3f e0 68 bb 12 fe 89 3b 7c 4a a4 ba 98 ea 93 bc
       -0.0035534052 0.0042111957 -0.0012534405 -0.018056199
000210 5c 36 a6 ba 63 2f e2 bd d5 e5 5f ba 62 eb 83 bd
       -0.0012680995 -0.110441945 -0.00085410225 -0.0644138
000220 eb b7 b6 3a 2d 39 68 bc a2 0f 3c bb 5e c2 19 be
       0.001394031 -0.014173788 -0.0028695841 -0.15015551
000230 6d 83 8e ba 37 35 cd bd a7 55 e4 bc 72 7f 07 3b
       -0.0010872908 -0.100199156 -0.027872873 0.0020675329
000240 fd 00 e9 3a a5 0f ef bc 60 dc eb bc c7 0f a2 bd
       0.0017776784 -0.029182265 -0.028791606 -0.079131655
000250 d1 f4 34 3a eb a7 19 bc 25 c8 ff 3b b8 e3 17 bd
       0.00069029356 -0.009378414 0.0078058415 -0.037082404
000260 d2 15 81 bb 00 1f 11 3b a7 75 6f 3b bc 7d 7b bb
       -0.0039393688 0.0022143722 0.0036538632 -0.0038374504
000270 d1 c3 10 39 a4 63 6d 3c 46 cc 62 bc 19 f8 e2 3b
       0.00013805857 0.014489088 -0.013842648 0.006926548
000280 40 9d 89 ba 5f 41 c9 3b 1a 82 01 be f0 6a e9 3c
       -0.0010499135 0.006141826 -0.12647286 0.028493375
000290 68 52 14 3c 51 fb 38 3a 1e 34 52 bb e7 b3 70 3b
       0.00905285 0.0007056492 -0.0032074521 0.0036728324
0002a0 c6 1c b5 ba 26 6e 51 bc c4 6b af bb 08 3d b3 3c
       -0.0013817779 -0.012782609 -0.005353423 0.021879688
0002b0 2f d7 d2 bb b9 57 29 3b a8 74 26 be 02 35 d8 ba
       -0.0064343433 0.002583964 -0.16255438 -0.001649529
0002c0 25 d8 cc bd 65 a0 4a 3b ff 08 f9 bd 81 1d 0e bd
       -0.10002164 0.0030918356 -0.12159919 -0.034696106
0002d0 e0 07 15 be 77 45 87 3a b8 ee 14 be 10 5d fe bd
       -0.14553785 0.0010320385 -0.14544189 -0.12420094
0002e0 66 43 ee bd 5d d5 fe bb 26 f9 02 be 70 5c ea bd
       -0.11633949 -0.0077768997 -0.12790355 -0.11443412
0002f0 14 db 7e 3b 8c 52 79 b8 b0 b7 31 3a 90 e7 04 bb
       0.0038887905 -5.9443104e-05 0.0006779386 -0.0020279624
000300 01 0b bb bd f7 a0 73 3b e5 11 49 3b 7a b1 06 3c
       -0.09132958 0.00371748 0.0030680832 0.008221025
000310 ed 7f 92 bd 27 5f 49 3b 35 fc 5a bd 22 99 9e ba
       -0.07153306 0.0030726881 -0.05346318 -0.001210008
000320 1b 43 37 bb 8d b3 e3 bb 02 1f 2b be 45 79 eb bd
       -0.0027963582 -0.0069488944 -0.16711047 -0.1149774
000330 d5 30 b8 ba 74 7f ee bd 8f c1 20 bc 61 85 7d bb
       -0.0014052639 -0.116454035 -0.009811773 -0.0038684236
000340 97 f3 22 3a f9 d8 01 bc 25 bd 9c bb e8 0e 11 3c
       0.0006216107 -0.0079252655 -0.00478329 0.008853652
000350 c6 bd 22 3b 72 af 00 bc bb 6f bc bb 05 af 50 bc
       0.0024832352 -0.007854329 -0.005750624 -0.01273704
000360 1b 4e d7 3a d8 17 c5 bb ee 44 ed bb ea 5f 0b be
       0.0016426475 -0.0060148053 -0.007240883 -0.13610807
000370 39 a0 31 3b b7 8b f6 bb 7e 20 4c 3a 16 ae 80 ba
       0.0027103557 -0.0075239795 0.0007786824 -0.0009817507
000380 9f 93 a0 bb b4 4b 3d 3b 37 00 f8 bd 16 19 13 be
       -0.0049004103 0.0028884234 -0.12109416 -0.14365038
000390 f6 50 ba bd f2 99 fd 3a 64 4b c5 bc 8e 63 f8 b9
       -0.09097473 0.0019348247 -0.0240838 -0.0004737642
0003a0 70 f9 04 be 1a 6f 0c be 71 a7 99 bd 24 d5 1c 3c
       -0.12985778 -0.13714257 -0.0750264 0.009572301
0003b0 b3 3c 26 be ee e1 ac 39 03 91 d8 3b b7 7d 1b bc
       -0.16234092 0.00032974727 0.0066090836 -0.009490422
0003c0 de ae ac 3b f4 7d 03 be f6 26 86 3b e8 a2 ae bb
       0.005269869 -0.12841016 0.004094 -0.0053294785
0003d0 68 21 9a bd 66 21 8a 3a fd 6d b9 bb e8 51 48 ba
       -0.07525903 0.0010538518 -0.0056588636 -0.00076415995
0003e0 b0 44 0f bb c6 13 96 bb f1 48 38 be 52 32 6d 3a
       -0.002186101 -0.004579994 -0.17996575 0.0009048331
0003f0 a0 df 6e bb eb 17 33 bc 36 d0 d6 ba ca 7c eb ba
       -0.003644921 -0.010930995 -0.0016388956 -0.0017966267

network_body.linear_encoder.seq_layers.0.bias f4 [128]
000000 0b 20 44 bc 6b 0a 8c bd c2 5b 97 b7 e4 e4 3b bd
       -0.01197053 -0.068379246 -1.804333e-05 -0.045872584
000010 fb e3 5e bd c5 19 ea bb 51 7a 19 bb 6a 0f 90 3d
       -0.054416638 -0.0071441852 -0.0023418854 0.0703419
000020 40 b7 5f bd 42 6c d8 bd 20 87 05 be 04 ce e5 3c
       -0.05461812 -0.105675235 -0.13039827 0.028052337
000030 d4 aa 92 3d c9 ba 37 bd a2 2c 40 bd b3 05 00 be
       0.07161489 -0.044855867 -0.046917565 -0.12502174
000040 b5 62 7e 3d 2e f9 62 bb c6 3c 08 3d 34 f8 a5 bb
       0.062105853 -0.0034633386 0.033261083 -0.0050649885
000050 5a 1c b2 bd f8 0a 0f 3e 6e 93 16 bd 67 d2 a4 bc
       -0.08696814 0.13969028 -0.036761694 -0.020119859
000060 92 3e 92 bd e8 0d 3c 3d c3 71 d7 bc 2a 88 9b 3b
       -0.071408406 0.0459117 -0.026299363 0.0047464566
000070 e7 5e 0a 3d 90 37 38 bd ad b4 b2 bd b1 44 dd bc
       0.033781912 -0.044974864 -0.087258674 -0.027010294
000080 20 7e 10 bd 97 a6 8e bc 8d cc fe bd 29 b5 9e bd
       -0.035276532 -0.01741342 -0.12441359 -0.07749397
000090 c1 91 ff bc db 07 e3 bc 76 cb d9 bd 90 92 97 bd
       -0.03119743 -0.027713707 -0.1063451 -0.074010015
0000a0 d7 7e 17 bc 7c 0f 9f bd fc d7 7f 3d ab c7 21 bd
       -0.00924655 -0.07766625 0.062461838 -0.03949706
0000b0 b9 30 5b 3d 3d 1d 94 3a ad 91 89 3d 28 59 84 be
       0.053513262 0.0011300218 0.067172386 -0.2584927
0000c0 85 17 0a 3e 7e 42 11 3d e4 6c 0e bd 5d b7 0d 3d
       0.13485534 0.035463803 -0.034771815 0.034598697
0000d0 87 fd 9b 3d f0 fd d1 3c a9 cc bc bd e2 78 7d 3d
       0.07616716 0.025633782 -0.09218723 0.06188286
0000e0 56 74 c1 3d 62 82 b5 bd ef 80 52 3c 62 a6 2a bd
       0.094460174 -0.08862759 0.012848123 -0.04166258
0000f0 54 13 02 be 09 35 5a 3d 82 33 8b 3d 6e 3c e1 bd
       -0.12702686 0.053273235 0.06796934 -0.10997854
000100 e1 15 1f 3d f0 3f 49 bd af 16 d5 bd dc 3c 4b bd
       0.038839225 -0.04913324 -0.10404717 -0.049618587
000110 e2 9d d6 bd 15 d8 95 bd dc 7b e5 3b b4 81 3e bd
       -0.104793325 -0.07316605 0.0070032906 -0.046510413
000120 a5 4b 75 3d 70 22 b1 bd fc 30 f8 3c 6e 9a b2 3d
       0.059886593 -0.086491466 0.030296795 0.087208614
000130 3d f4 4c 3e dc a9 1a 3e ae 02 8b 3c 13 b0 1a 3a
       0.20015045 0.15103859 0.016969051 0.0005900871
000140 dd eb 00 3c b6 aa ef bb 3b 49 93 bd f3 90 d7 3c
       0.007868734 -0.0073140515 -0.07191702 0.026314234
000150 a4 c8 4d 3c 33 60 01 be 27 65 45 3d 09 29 22 3c
       0.0125600435 -0.12634353 0.04819217 0.009897479
000160 54 3a 8c bd d3 b3 14 bd bb 42 1e b9 ae 58 21 3d
       -0.06847063 -0.036304306 -0.00015092913 0.039391212
000170 af 47 b7 bc 1a 8c a5 bd 1f db ce 3c 89 43 3c 3c
       -0.022373049 -0.08083363 0.02525097 0.011490711
000180 9d 27 bc bc 10 32 da 3d 4b 73 db 3d 49 cc 55 3d
       -0.022968108 0.1065408 0.1071535 0.052196775
000190 1c e4 f0 3d 73 50 b6 bc 0a 1a 03 be 8d 57 93 bc
       0.117622584 -0.022255158 -0.12802902 -0.017986083
0001a0 a7 0d d8 bd 07 c0 d9 bd e0 26 78 bc df bc 6e 3d
       -0.10549479 -0.106323294 -0.015145987 0.05828559
0001b0 9c cb 2c bd 5b ac 5c bc 0f a1 d1 bd c9 fb e5 bc
       -0.042186365 -0.013468827 -0.102357976 -0.028074162
0001c0 4d 2f bd 3c 0b 76 43 3d ae 68 1a bd 0a 85 11 be
       0.023093844 0.047719996 -0.037697487 -0.14210907
0001d0 63 9c 8b bd 12 a4 27 3b ae 32 18 be cc 8e 04 be
       -0.06816938 0.0025579971 -0.14863083 -0.12945098
0001e0 ec b0 81 bd c4 03 b8 bd 2e 97 bf ba 9c 67 ad bd
       -0.06332573 -0.08985093 -0.0014617199 -0.084670275
0001f0 de 23 ca bc 80 27 92 3d 23 ac 96 bd 5d 63 21 be
       -0.024675306 0.0713644 -0.07357051 -0.1576056

network_body.linear_encoder.seq_layers.0.weight f4 [128, 68]
000000 47 eb ea bd b6 62 27 3e 57 d7 ca bb 11 94 6a 3f
       -0.11470657 0.16346249 -0.0061902213 0.9163218
000010 04 5c 6e be 13 af 1b be 32 e6 8b 3d b1 ed ab 3d
       -0.23277289 -0.15203504 0.06831016 0.083949454
000020 4a d6 38 3e 61 ae 22 3e a6 bb 8f bd 85 f0 2f 3f
       0.18050495 0.15886833 -0.07018213 0.6872638
000030 28 93 07 3d 48 ac 7e 3d 47 8d 15 3e 29 09 ca be
       0.033099324 0.06217602 0.14604674 -0.39460114
000040 c1 3d 71 bd d0 be c4 bd 74 e0 87 bd db 82 f1 bd
       -0.058896784 -0.09606707 -0.06634608 -0.11792537
000050 1a 97 9d 3d 30 fe 7f 3d e0 95 57 3e e3 e6 3c bf
       0.07694836 0.06249827 0.21053267 -0.73789805
000060 92 e4 19 be 7d 1b 2d be b1 c2 cd 3d 4a ff b7 bd
       -0.15028599 -0.16905017 0.100469 -0.089842394
000070 70 5c 1f 3e a7 a4 28 be 82 54 80 3e c0 d1 8a be
       0.15562606 -0.1646906 0.25064474 -0.27113152
000080 e3 56 95 bd 2b 34 89 3d 71 04 41 be a9 d7 c1 3b
       -0.07291963 0.066994034 -0.1884935 0.0059156013
000090 e0 c5 09 3c 59 22 87 bc ca 78 18 be 38 cb 64 bd
       0.0084089935 -0.01649587 -0.14889827 -0.055857867
0000a0 8f 99 c6 3d 4a a5 d3 3d 9d e0 87 3d ff 47 35 bd
       0.09697258 0.10334261 0.066346385 -0.044258114
0000b0 a1 23 94 be da 9a f1 bd d9 29 b5 be e8 c9 9a bc
       -0.28933433 -0.11797114 -0.3538349 -0.018895105
0000c0 04 75 d0 3d 97 47 64 3d 11 99 a9 bd 26 12 e2 3e
       0.10178569 0.055732336 -0.08281148 0.4415447
0000d0 e2 80 9a 3e 08 01 57 bd ec 17 e8 bc da c6 0d 3e
       0.30176455 -0.052491218 -0.02833172 0.13845387
0000e0 5e 6e 22 be 07 e6 b3 3d f6 ff 75 bc c7 17 2e 3e
       -0.15862414 0.087841086 -0.015014639 0.17001258
0000f0 37 f0 5e bc d4 22 43 3d a6 71 1a be fe 69 02 3c
       -0.013607076 0.047640637 -0.15082416 0.007959841
000100 8a 19 cb bc e9 33 66 be 90 07 d4 3d 35 6f 13 be
       -0.024792451 -0.2248074 0.10353005 -0.14397891
000110 05 fd 8e 3d 23 44 a1 bc 53 23 1b bc 98 94 ae bf
       0.069818534 -0.01968581 -0.009468871 -1.3639097
000120 bc a9 d4 3d e7 3f 66 be 56 ac 01 bd b4 c9 82 3e
       0.10383937 -0.22485314 -0.031658493 0.25544512
000130 4b 54 05 3e 1b 45 5b bd 57 aa 88 3d 15 be 4e be
       0.13020436 -0.0535327 0.06673115 -0.20189698
000140 6e 57 f6 3a c0 87 b3 bd 08 b8 bd bd 39 a6 e8 3e
       0.0018794367 -0.08766127 -0.09263617 0.45439318
000150 31 97 aa 3d 23 43 9c 3d 7e 74 1e bd 82 19 71 3e
       0.08329619 0.07629993 -0.038685314 0.23544887
000160 2a 5f 6a 3c 5e af 9f 3d 04 7e 3e be ec 0b 0f 3f
       0.014304915 0.077971205 -0.18602759 0.55877566
000170 e1 28 d9 3d 8b 3e 12 be 12 29 1e 3d 90 b6 87 bd
       0.106035 -0.14281671 0.038613386 -0.06626618
000180 1a 62 0f 3e 00 88 67 bb 0f 6a 12 be e0 92 e5 3c
       0.14002267 -0.0035328865 -0.1429827 0.028024137
000190 15 96 2c be d7 42 96 bd f0 89 fb 3d c8 37 25 be
       -0.16854127 -0.073369674 0.12282169 -0.1613456
0001a0 6f 8c 83 bd 40 ea a3 bd 4b f0 b0 be 7d f0 2e 3e
       -0.0642327 -0.08003664 -0.3455833 0.17083926
0001b0 ab 0e 78 3c 1b ed 98 ba c4 b2 ed 3c f2 2b d2 bd
       0.015140216 -0.0011667343 0.029015906 -0.10262288
0001c0 a0 df 5e be d0 29 c1 bd 5d 05 69 be 0e 67 a9 3d
       -0.21764994 -0.09431803 -0.22755952 0.08271609
0001d0 71 0d e5 bc 3f 57 ee 3d 0f d1 a8 3d 39 6c 49 3d
       -0.02796051 0.116377346 0.08243 0.049175475
0001e0 85 6b ec 3d 10 f4 8d bd 85 92 46 bd 66 a6 6d 3e
       0.11543945 -0.06931317 -0.048479576 0.23208007
0001f0 6a 11 e8 bd 36 57 bc 3c 43 ce f4 3d 9a 77 39 be
       -0.113314465 0.022990804 0.11953404 -0.1811203
000200 6e 27 37 3e 13 b6 23 be 82 5e b3 3d a0 03 1a 3e
       0.17886135 -0.15987425 0.0875826 0.15040445
000210 f1 5a 3b be c6 a9 6b 3c f7 fd 12 3d 69 90 61 3e
       -0.1829641 0.014383739 0.03588673 0.22027744
000220 3b 19 89 be 89 f4 0f 3c e7 17 81 3e f8 8e 9c 3f
       -0.26777062 0.008786329 0.2521355 1.2231131
000230 17 69 87 3e ba 0a b0 3e 21 8d c3 bd de 67 0b bf
       0.26447365 0.34383184 -0.095484026 -0.54455364
000240 ec de 8c be 1a 4d 25 be f5 cc 09 3e 72 78 b4 3f
       -0.27513826 -0.16142693 0.13457091 1.4099257
000250 36 9e bb 3d 3f 24 48 bd 40 13 4e 3d 81 41 60 bf
       0.09161036 -0.048862692 0.050311327 -0.8759995
000260 f6 b0 0f bd 58 d8 de bd 56 88 0f 3d cf 1f b4 3e
       -0.035080872 -0.10881108 0.03504213 0.35180518
000270 a0 8b c4 3d d3 41 d4 3d 12 08 4d 3e 75 2b 8e be
       0.09596944 0.103641175 0.2002261 -0.2776753
000280 d3 b4 80 be 9b 52 1f 3e f4 13 d7 3d da d1 04 3f
       -0.25137958 0.15558855 0.10501853 0.5188271
000290 cd 05 47 3e c0 8a 99 3c 97 22 d7 3d da ae 00 be
       0.19435807 0.018742919 0.10504644 -0.125667
0002a0 8f c9 a9 bb cf 46 7a 3c 8f 22 9b 3c 78 6a 9f 3e
       -0.0051814984 0.015275671 0.018937377 0.31135917
0002b0 da 94 80 3d 91 6c 3d bd 22 ef ae 3c 4c 55 0b 3e
       0.06278391 -0.046246115 0.021354262 0.13606757
0002c0 ce 81 c8 3d d6 1f 77 be ae 39 7e bd b1 57 7c 3e
       0.09790383 -0.24133238 -0.062066726 0.24642827
0002d0 f1 c2 ff bd b0 d9 bb 3c 99 15 18 3d 31 9c 82 be
       -0.12488354 0.02293095 0.037129972 -0.2550979
0002e0 38 26 89 be 24 64 6f be 5d f7 49 be 56 76 0c 3f
       -0.2678697 -0.23378044 -0.19723268 0.54868066
0002f0 9f cd 79 3d eb 94 0a 3e b3 2e 43 bd b5 d2 82 be
       0.06098711 0.1353337 -0.047651958 -0.25551382
000300 a4 f2 d2 bd 9b c3 89 3c c3 32 1e 3e 8f 9a fe 3e
       -0.10300186 0.016816905 0.15449052 0.49727294
000310 68 ac 19 be b1 07 43 3e 25 1c 3d be dd 35 08 3e
       -0.15007174 0.19045903 -0.18467768 0.13301797
000320 5c ff 2e be fc 90 56 3d bc 2f 90 bd ac 48 e9 bd
       -0.170896 0.05238436 -0.070403546 -0.11390814
000330 b1 1d ad be a7 6a e9 3d 15 ab 6d 3c 4b c5 b5 3f
       -0.33811715 0.113972954 0.014506121 1.4200834
000340 d5 6d 9b bd b3 4b f6 3d d4 17 5a bd 54 46 a1 be
       -0.07589308 0.12026157 -0.05324538 -0.3149897
000350 61 81 96 be 03 40 36 3e f9 58 02 bd 91 6b 98 3f
       -0.29395583 0.17797856 -0.031823132 1.1907827
000360 f1 d1 65 3e ed 19 52 3d ce d3 08 be 3f 1f 09 bf
       0.22443368 0.051294256 -0.13362047 -0.535633
000370 0c a3 c9 bd c2 a8 5d bd 64 ec 16 3e 3f 8b 5a 3e
       -0.09845552 -0.054116018 0.14738613 0.2134218
000380 4b 72 a0 bd a3 5b fe 3a 02 5b 7d 3e 7b fb 02 bf
       -0.078343 0.0019405972 0.24741748 -0.5116498
000390 5c 4d 94 3d d1 7c 79 be 8c d1 18 3e 27 3b fa 3e
       0.07241318 -0.2436402 0.14923686 0.48873255
0003a0 02 64 4c bc 2d 21 c6 3d 03 02 97 3d fa 48 ed be
       -0.012475016 0.096742965 0.073734306 -0.4634474
0003b0 f1 01 04 be e2 3d eb bd dd 6d d6 bd 52 db bb be
       -0.12891366 -0.114864126 -0.104701735 -0.36690766
0003c0 c6 64 61 3c c6 54 10 3e 98 9e 15 bd bc b5 00 bf
       0.013756936 0.14094839 -0.0365282 -0.50277305
0003d0 b6 3c b2 3d 1d 1f bc 3b 63 7a 9c bd 11 ed 16 3e
       0.08702986 0.0057410137 -0.07640531 0.14738871
0003e0 25 a7 aa 3e 8c 4b ed bc 93 05 11 be 3a d1 f1 bd
       0.33330646 -0.028966688 -0.14162283 -0.11807485
0003f0 21 34 8f 3d d1 80 83 bd 92 13 85 bd 9f 74 8e 3e
       0.06992365 -0.06421054 -0.06497873 0.2782335

network_body.linear_encoder.seq_layers.2.bias f4 [128]
000000 6f 48 0e 3c 68 d4 51 3c 83 f1 0e 3b 1b 98 ed 3d
       0.008684262 0.012806989 0.0021811433 0.116012774
000010 46 dc a2 bd a9 0a dd be ef cd de 3c e8 cb b8 be
       -0.0795217 -0.43172196 0.027197806 -0.36093068
000020 97 ed a9 3b 72 94 96 bb a8 e2 6a 3d 04 23 c3 be
       0.0051857936 -0.004595333 0.057345062 -0.38112652
000030 31 7d a9 bb da 0e 67 be d7 c7 b9 bd 04 c5 ce 3d
       -0.0051723947 -0.22564259 -0.090713196 0.100961715
000040 ca 25 70 bd 9b fe dc bd 19 aa 4e 3d b6 af c7 be
       -0.05862979 -0.1079075 0.050455187 -0.39001244
000050 2c 36 37 3d bf 94 83 bd bf 29 80 bd c8 c3 2a be
       0.044729397 -0.064248554 -0.062579624 -0.16676247
000060 24 c7 ca bc 9b ca b4 3c 52 bb cd 3c 31 6e 8c bc
       -0.02475316 0.022069266 0.025113735 -0.017142387
000070 42 99 7a bc a4 4f f4 3b 38 31 7d bb 0e 37 5e 3d
       -0.015295329 0.007455783 -0.0038634073 0.054251723
000080 6a ec e8 bb 65 37 73 bc 83 43 b6 be 47 7a 9a bb
       -0.007108261 -0.01484475 -0.35598382 -0.0047142836
000090 83 7b 53 3c b0 30 b3 bc e6 7b 6e 3d 2f 16 d0 bc
       0.012907865 -0.021873802 0.058223628 -0.025401203
0000a0 42 05 d3 bc 7d 9f a5 bd ed 9c 7c 3c ac 1e a8 be
       -0.025759343 -0.080870606 0.015418273 -0.328359
0000b0 ee b2 0a bc 0c 76 64 3b 48 3f a5 be 73 ce b4 3c
       -0.008465512 0.00348604 -0.32274842 0.022071099
0000c0 a7 47 a9 be 85 ff fe bc 6b 55 ad be d4 8b d7 3c
       -0.3306248 -0.0311277 -0.3385423 0.026311792
0000d0 5b 24 8d be f2 6a 96 3b 33 d4 9e be 48 a7 b0 be
       -0.275668 0.0045903856 -0.3102127 -0.34502625
0000e0 35 95 c5 be e6 24 3d bd 26 fe 99 be 32 57 b1 be
       -0.38590398 -0.046177767 -0.30076712 -0.34636837
0000f0 3c ae 3e 3c 94 6f 8f bd 33 d9 ef ba 70 e7 31 bc
       0.01163822 -0.07003704 -0.0018298983 -0.010858402
000100 aa 17 89 be c0 ac 5f 3c da 40 15 bd 99 fe af bc
       -0.26775867 0.013652027 -0.0364388 -0.021483706
000110 a2 9e 94 be 1f c4 3b bd cd fb 95 be c8 c2 05 3d
       -0.29027277 -0.045841333 -0.2929367 0.03265646
000120 17 c8 d4 3b 75 b0 8b bd 74 50 a7 be 5b 87 a9 be
       0.006493579 -0.06820766 -0.32678568 -0.3311108
000130 f7 3c 01 bc 6a f8 a9 be 14 6a 9d 3d f0 91 f8 bc
       -0.00788807 -0.33197337 0.076862484 -0.030343026
000140 32 58 d4 3b 30 a6 46 3a 7c f3 84 bb 0f 29 5e 3d
       0.0064802403 0.00075778645 -0.004057346 0.054238375
000150 53 d1 a2 bc da 08 03 bd a9 4e 18 bc e3 3c 27 bd
       -0.019875204 -0.031990863 -0.009296098 -0.04082955
000160 6b 7e 06 bd 34 5f 92 3c 15 d4 3a bc fe 08 b3 be
       -0.032835405 0.017867662 -0.011403103 -0.34967798
000170 7a 80 78 3d ba 91 d1 bc 7c cf 25 3d 6a a2 42 bd
       0.0606694 -0.025582183 0.040481076 -0.04751817
000180 ce d1 07 bb 13 79 b6 3c f4 eb c1 be 53 22 9d be
       -0.0020724419 0.02227453 -0.3787533 -0.3069025
000190 5c 6b 97 be a4 d7 c3 3c 72 dc c9 3c 3e 4b 2f 3d
       -0.29574096 0.023906536 0.02464125 0.042796366
0001a0 c3 f3 a5 be 63 39 c8 be 38 54 8b be 60 a3 d7 bb
       -0.32412538 -0.39106283 -0.2721269 -0.006580755
0001b0 da 7a a9 be 90 9b 17 3c a9 53 e5 bc 23 a2 85 3c
       -0.3310154 0.009253398 -0.027993994 0.016312664
0001c0 0b a6 16 bc ce 3e 8f be 72 1c 68 bd ab ee 98 bc
       -0.009194861 -0.27977604 -0.056667753 -0.018668493
0001d0 6f a2 c5 be 10 76 0f bd ba 3e af bb db 2d 5f bc
       -0.3860049 -0.035024703 -0.0053480538 -0.013621773
0001e0 2e ea cd 3c d8 08 0c bc f2 31 b5 be e4 be 8f 3b
       0.02513608 -0.00854703 -0.35389668 0.0043867696
0001f0 0e bf 2f bc 4c 66 e2 3d 53 98 16 bd 33 b3 33 3b
       -0.010726703 0.11054668 -0.03676636 0.0027420043

network_body.linear_encoder.seq_layers.2.weight f4 [128, 128]
000000 89 ff 02 be e7 fe 2c 3d 18 fe b4 3d 22 21 c9 3d
       -0.12792791 0.04223528 0.08837527 0.09820773
000010 a2 7c ab bd 35 22 0e 3c b7 46 ad bb 82 aa 90 3d
       -0.08373381 0.008675148 -0.005287971 0.07063772
000020 82 b1 79 bd dc 59 09 3e 9b 3b 08 bc 56 7a cb ba
       -0.0609603 0.13413185 -0.008314992 -0.001552413
000030 39 20 d4 bd f3 c2 13 3e 78 0b 6f be b5 52 4c 3c
       -0.103577085 0.14429836 -0.23344219 0.012470891
000040 1a a3 71 3d 58 39 88 3e 0b d4 d0 3d e0 7e a6 3c
       0.058993436 0.2660625 0.10196694 0.02032417
000050 8b 21 79 be 5c 3a 2d bc 23 e2 86 3d c5 4e 8b bd
       -0.24329202 -0.010572996 0.06586101 -0.068021335
000060 c6 c1 99 bd 5f 54 b1 3c c9 2c ba 3d 4a ab 82 be
       -0.075076625 0.021646677 0.09090573 -0.25521308
000070 97 45 3e be 40 24 c1 3d 97 3f 79 3c e8 fb 25 3d
       -0.18581234 0.09430742 0.015212915 0.04052344
000080 c8 8d 06 3e c8 d0 b3 3c a0 fa a3 bc 33 8b 14 be
       0.13140023 0.02195014 -0.020016968 -0.14506225
000090 2b 0b a9 bd d8 d9 6a bc e4 09 f9 3d 0f fa 06 3e
       -0.08254083 -0.014334165 0.121600896 0.13181327
0000a0 0b f5 4d 3d 3e 51 2c be 17 d5 f3 3d 9a 28 d8 3d
       0.05028252 -0.16827866 0.11905878 0.10554619
0000b0 1d 25 43 bd 2e 94 04 be e7 66 cd bd e3 27 af bc
       -0.047642816 -0.12947151 -0.10029393 -0.021381324
0000c0 b0 54 84 bd 71 b1 aa 3d cd 29 36 bc 24 c9 9e bd
       -0.06461465 0.083346255 -0.0111183645 -0.07753208
0000d0 93 e1 23 ba 5c 5a 12 3d ba 41 80 bb 85 19 cd 3d
       -0.000625157 0.035730705 -0.003914085 0.10014633
0000e0 ac 15 26 3e 09 55 1c 3d 3c 1f 2e bd a3 05 79 bd
       0.16219205 0.038167033 -0.042510256 -0.06079639
0000f0 2d 73 13 be 01 95 aa bd df 76 9f bd d5 85 70 bd
       -0.14399405 -0.083292015 -0.07786345 -0.058721382
000100 33 58 ad 3d d3 57 88 3e 4d ac 1b 3d 3a 70 ae 3c
       0.08464088 0.26629505 0.038006116 0.021293748
000110 b1 55 5d 3c 45 31 7c bb 19 6c 8b 39 4f 5d eb 3d
       0.0135092 -0.0038481515 0.00026592685 0.114924066
000120 d8 32 c3 bd e8 b4 0e be a6 f9 3a be 7c ce ba 3c
       -0.09531182 -0.13936198 -0.18259296 0.022803538
000130 e0 d9 d5 3d dd f7 6c bd 52 a9 19 3e 34 3a 80 bc
       0.10441947 -0.05785357 0.15005997 -0.015652753
000140 7c 97 a0 3d 31 fd 50 bd f6 40 48 3e 02 d8 1f 3e
       0.07841393 -0.051022712 0.1955603 0.15609744
000150 5c 45 37 ba 61 87 23 3e e0 e1 ca 3d 4e e0 d7 bc
       -0.00069912313 0.15969612 0.099063635 -0.026352074
000160 b4 4c 49 3d 08 9f 0e bd 05 4f bd bc 87 4d 96 be
       0.049145415 -0.034819633 -0.023108969 -0.29356024
000170 a7 87 a0 bd ca c3 f4 3b 4f 3a dc bd d2 18 19 bc
       -0.07838374 0.007469629 -0.10753309 -0.0093442965
000180 0c 55 a7 3d 32 99 5a 3d 91 63 19 3e ad 75 f5 3d
       0.08170518 0.053368755 0.14979388 0.119853355
000190 22 29 e3 bc a7 05 27 be 3e 94 20 be 61 c9 b9 bb
       -0.027729575 -0.1631075 -0.1568155 -0.005669758
0001a0 d3 59 bb 3d 0b 23 90 3c 08 51 e4 bd 3f 8f 18 bd
       0.09147992 0.017594835 -0.11148268 -0.037245985
0001b0 6b 59 89 3d a2 dc dd 3d 92 1f ea bc 19 07 a4 3d
       0.06706508 0.10833098 -0.028579507 0.08009166
0001c0 a3 14 18 be f4 79 84 3d c5 93 47 bd b9 81 d7 bd
       -0.14851622 0.06468573 -0.04872491 -0.105227895
0001d0 f9 ed c3 3d c5 99 63 3e f5 38 0e 3d 08 1e 15 bd
       0.09566874 0.22226627 0.034722287 -0.036405593
0001e0 33 df cb 3c 65 ea aa 3e cf d7 88 bd d7 7f 2f 3b
       0.024886703 0.33381954 -0.06681787 0.002677908
0001f0 24 2c 5f 3e a9 dd 79 bd 10 e7 0e 3d a2 fd 10 3e
       0.21794182 -0.061002407 0.034888327 0.14159253
000200 f2 ee 85 3e 23 d4 70 3d 7b 84 af bd 68 5a 06 3e
       0.26158863 0.05879606 -0.085701905 0.13120425
000210 73 fe 95 bd 61 4b e5 bd 00 8b 00 3e fe ea f1 bd
       -0.07323923 -0.11196018 0.12553024 -0.11812399
000220 12 84 eb 3d 9d e0 84 bd a2 26 9e be 0f 41 11 bd
       0.114998 -0.06488154 -0.3088885 -0.035462435
000230 52 9b e2 3d 7a be 9d 3d 2a 59 56 be a7 cd 29 3d
       0.11064781 0.07702346 -0.20932451 0.04145589
000240 23 60 82 3e 0d d5 00 be cd b7 2b bd e2 a5 54 3d
       0.25463971 -0.12581272 -0.041923333 0.05191601
000250 b6 70 9c bd 85 5d b8 3d 72 11 a1 bd d4 89 c6 3d
       -0.076386854 0.090022124 -0.078646556 0.096942574
000260 be 72 48 3d cf 97 15 be e1 79 64 3d 60 52 34 bc
       0.04893755 -0.14608692 0.055780295 -0.011005968
000270 b4 8c 02 3e 22 35 5f 3d c4 05 bc 3c 3f 58 da 3c
       0.12748986 0.05449403 0.022951968 0.026653407
000280 53 54 2f 3e 0e 29 43 bd 91 c6 df ba 93 08 c4 bb
       0.17122011 -0.047646575 -0.0017072727 -0.0059824674
000290 4b 5f 20 3d 9e 7f 83 be 8f 79 2c 3d 21 72 44 3c
       0.03915338 -0.25683302 0.042108115 0.011990101
0002a0 72 a9 a0 bb 02 c5 b7 bc 70 a0 23 be 1b a6 14 3e
       -0.004903012 -0.022432808 -0.15979171 0.14516489
0002b0 b5 10 31 bd 77 0f 83 3c d4 74 ae bb 0d 41 f8 3d
       -0.043228824 0.015998585 -0.0053239856 0.121217825
0002c0 1d 2c 64 be b7 12 82 be dc 79 b7 3c 4d 7a 89 3d
       -0.22282453 -0.25404903 0.022396974 0.0671278
0002d0 7a 81 44 3d f6 57 d7 b9 1d 1b aa b9 7e 12 1f be
       0.04797504 -0.00041073532 -0.00032445128 -0.15534398
0002e0 e7 99 09 be c8 73 09 3e 56 01 87 bd 74 5a 0b be
       -0.13437615 0.13423073 -0.06592052 -0.13608724
0002f0 83 fc 88 3d c0 5c dc 39 51 dd f5 3d ff a4 90 3d
       0.06688788 0.00042030774 0.120051034 0.070627205
000300 e7 f8 08 be f1 73 e6 bc 3e 34 a6 3d e1 34 5a 3d
       -0.13376199 -0.028131457 0.08115433 0.053273086
000310 76 80 de 3c 12 bb 80 3d 13 d4 2b 3d cd 37 0f 3e
       0.027160864 0.06285681 0.041950297 0.1398613
000320 a4 9f 86 bd 20 9f 2e 3e 52 38 b2 3d 28 0e 88 be
       -0.06573418 0.17052889 0.087021485 -0.265733
000330 0a d7 97 bc 5c 0e 94 3d bf a4 9f bd 88 25 7c 3e
       -0.018535156 0.07229301 -0.07795095 0.24623692
000340 fe f0 d0 bd 36 05 3a be f3 8f bb 3d b7 af bc 3d
       -0.102022156 -0.1816605 0.091583155 0.092132024
000350 2f 61 be 3d b6 f7 88 3b e5 e1 ce bc 9a a7 2f be
       0.0929588 0.00417992 -0.0252542 -0.17153779
000360 62 8c a5 3c c0 e7 17 bd 9e 47 37 3d 63 71 ef bd
       0.020208541 -0.03708625 0.044746034 -0.11691549
000370 44 dc a7 be 86 46 91 bd f6 ab 1e bd 30 78 77 3c
       -0.32785237 -0.070935294 -0.038738213 0.0151043385
000380 cc 56 5c bd cc b3 5e 3d 2f d5 88 3e 2a 49 30 be
       -0.053793713 0.054370686 0.26725146 -0.1721541
000390 3e 7a ba 3d e5 a1 ae 3d 98 e2 a6 bd 13 60 a2 3c
       0.09105347 0.08526973 -0.08148688 0.019821202
0003a0 27 17 6a 3d 50 5b 04 be a4 d4 d5 3d 2a eb 20 3d
       0.057150986 -0.12925458 0.104409486 0.03928677
0003b0 a0 f6 e8 bc a0 62 34 3e 70 e9 e0 bd 2e 2e 96 3c
       -0.028437912 0.17615747 -0.10982025 0.018332567
0003c0 f8 dd 39 bd 6a d5 9c bd 70 80 db bc aa 22 ea bd
       -0.0453777 -0.07657893 -0.026794642 -0.11432393
0003d0 e0 f4 b8 be b6 bd 84 3b d5 59 a7 3a fa d0 11 be
       -0.36124325 0.0040509356 0.0012767861 -0.14239874
0003e0 d6 35 0b be 14 80 06 be f5 50 07 3c 97 87 0a be
       -0.13594756 -0.13134795 0.008259048 -0.13528286
0003f0 71 87 19 3e 0e ac 8a 3d 71 09 3f be 75 3b 01 3e
       0.14993073 0.06771098 -0.18655945 0.12620337
