Learning/results/trainSession1/KartAgent.onnx (onnx, 108737 bytes, 7 tensors)

41 f4 [1, 2]
000000 42 98 23 bc f0 7b c1 ba
       -0.009985032 -0.0014761668

distribution.mu.bias f4 [2]
000000 0f 37 1f 3b 49 81 77 3a
       0.0024294292 0.0009441567

distribution.mu.weight f4 [2, 128]
000000 bc 16 ff bc 7f e1 23 3c 91 df 87 3c a7 94 94 3c
       -0.03113877 0.010002493 0.016586097 0.01813729
000010 4d 27 c6 bc 60 4e 18 3d ca 81 59 bb f5 75 ba 3b
       -0.024188662 0.03718412 -0.0033188933 0.005690331
000020 82 dd 0f bc f5 a6 b2 bc c5 60 91 3b 22 eb 88 bc
       -0.008780839 -0.021808127 0.0044365847 -0.016713683
000030 0d ab a6 ba 57 2a 0c 3d c6 53 c4 bb ba 29 6d 3c
       -0.0012715772 0.034220066 -0.005991432 0.01447528
000040 d2 f1 3b bc 50 17 57 36 87 21 52 3c 1f 0f a7 bb
       -0.011471229 3.2051066e-06 0.012825376 -0.005098238
000050 a7 05 45 bb 2f b5 c8 3c 2b e8 84 ba c3 b6 a0 bc
       -0.0030063184 0.024500458 -0.0010139992 -0.019618398
000060 42 c6 bc bc 1e e8 8c bb 56 b4 ab bc b1 e8 47 3a
       -0.023043755 -0.0043001315 -0.020960014 0.0007625921
000070 b3 7d 8d 3b 95 6b 4b bb 9e 09 19 3c 41 33 f5 3c
       0.004317963 -0.0031039466 0.009340672 0.029931666
000080 a6 11 51 3c 7c ff 5a 3d ec af 21 3b 0c 67 99 bc
       0.012760555 0.053466305 0.0024671508 -0.018725894
000090 f7 f7 22 3c 9e 35 2a 3c 79 02 20 3c 1a cd 64 b9
       0.009946815 0.01038876 0.0097662145 -0.0002182018
0000a0 b6 08 95 bc 6f 87 47 39 87 fb c3 3c 45 50 c3 3c
       -0.01819263 0.00019028572 0.023923649 0.023841986
0000b0 7a a3 b0 bb f8 95 38 3c 4c 55 c2 3a 96 e7 9d 3c
       -0.0053905817 0.011266224 0.0014826446 0.019275468
0000c0 f2 a0 c0 bb 99 f2 3d bc 9f 7e ab bc e8 78 97 bb
       -0.005878561 -0.011593484 -0.020934401 -0.0046225674
0000d0 d0 2d 02 bd e7 37 21 3c b8 fb 15 bb 57 d7 f8 3a
       -0.03178197 0.009839988 -0.0022885632 0.0018985075
0000e0 fa 0b 84 38 3b 30 e4 3b 61 70 34 3c 95 4d d5 bb
       6.296481e-05 0.0069637573 0.011013121 -0.0065094926
0000f0 de fa a8 bb 07 19 98 bb 5d 96 19 3c 5a e0 03 3b
       -0.005156859 -0.0046416554 0.009374228 0.0020122738
000100 32 f3 21 bc a2 f1 1a bd 87 d1 86 bc eb d5 22 3c
       -0.009884642 -0.037828095 -0.016457332 0.009938697
000110 4f d1 2f bc 79 36 b8 bc 16 d2 be 3c d9 8a 15 bc
       -0.010731055 -0.022486912 0.023293536 -0.009127342
000120 83 3d d1 bc b9 6c 9b 3b aa 56 00 bb 7c b5 a7 bb
       -0.025542026 0.0047431854 -0.0019582906 -0.00511807
000130 b7 65 d7 3c 9e 85 7c 3c 54 00 6e bb 1d 97 eb bb
       0.026293619 0.015412716 -0.0036316114 -0.007189645
000140 96 69 31 3c 23 f2 b3 3a 84 db 55 3b 6c de 47 3c
       0.010828396 0.0013728779 0.0032632062 0.012199026
000150 0d 23 c3 bb f5 9a 93 bc 13 9b c5 3c fd 53 c1 3b
       -0.005955106 -0.018018225 0.024121797 0.0058999048
000160 4f 1b b8 bb 22 59 24 3c 14 6d 0e bb c5 bc ac bb
       -0.00561849 0.010031017 -0.0021732496 -0.0052715265
000170 1a 45 a7 39 19 53 7d 3c e4 e4 90 3c 81 51 f6 3b
       0.00031904207 0.015461707 0.017687269 0.0075170402
000180 4f f9 14 3d 97 ee 25 3c 1d 56 b3 ba bc c0 41 3b
       0.03637057 0.010127685 -0.001368228 0.0029564342
000190 4f 24 84 b9 3f 1a 57 bc 5a 8a db bc 17 4c 6a 3c
       -0.00025204054 -0.013128816 -0.02679937 0.014300368
0001a0 94 4a 8d 3b e7 41 2f 3b 94 11 9f 3b b1 de ec 3c
       0.004311869 0.0026742162 0.0048543904 0.028914781
0001b0 f8 33 b1 3b 62 43 1c bc 07 35 cb 3b 5d f0 a4 3c
       0.0054078065 -0.00953755 0.0062013897 0.020134145
0001c0 7f e0 5a 3c aa 54 f3 3a 72 9b a0 3c 5e 12 e8 3c
       0.013359188 0.001856466 0.019605372 0.02832907
0001d0 1f 97 06 bb d2 63 a7 bc 58 12 30 3b 6e 3e 20 bc
       -0.0020536853 -0.02043334 0.0026866402 -0.009780509
0001e0 30 5c 8a bb 1b e9 c9 bc f1 89 45 3c 10 c0 4d 3b
       -0.0042224154 -0.024647286 0.012056814 0.0031394996
0001f0 c8 64 b1 3c a8 ba a0 bc b8 64 0b bd 23 f2 8d bc
       0.021654502 -0.019620255 -0.0340316 -0.017327374
000200 b7 ba 35 bc 42 59 45 3d 5f b9 8a 3c 18 ec 8f b8
       -0.01109188 0.048180826 0.016934095 -6.862747e-05
000210 ae bd 34 bd ee 98 aa 3c e2 78 c7 3a af c3 07 bd
       -0.044126205 0.020824876 0.0015218521 -0.033145603
000220 cb 0d 08 bc 98 d8 9e 3b 8b c5 1e 3c 00 79 56 3c
       -0.00830407 0.0048475973 0.009690653 0.013090372
000230 b4 09 0a 3c f9 17 96 3c 1e 0e ac 3c 64 be a6 bb
       0.008425165 0.018321978 0.021002825 -0.0050886143
000240 ad f1 b2 3c 76 a4 90 bc 72 86 82 3a b2 bb bb 3b
       0.021843756 -0.017656546 0.0009958281 0.005729162
000250 20 4b d7 bc 9e 6d c5 bc cb ff e6 3b a6 04 e2 3c
       -0.02628094 -0.024100121 0.007049536 0.027590107
000260 82 dd 7c 3c a5 b5 21 bd 4a ce 1c bd 9b 04 3c 3b
       0.015433671 -0.03947987 -0.03828267 0.0028689269
000270 5f 64 02 3d ab 95 a1 bc fa c1 e1 3b 6c 8c 9c bb
       0.031834003 -0.019724688 0.006889579 -0.004777482
000280 74 11 5e 3c 44 ea 87 bc 6c 36 b7 3c bc 63 ee ba
       0.013553966 -0.016591199 0.022364818 -0.0018187682
000290 2f 96 05 3d 42 a0 ee ba 9e ed b8 38 60 83 9d bc
       0.03261393 -0.001820572 8.818063e-05 -0.019227684
0002a0 b3 c9 10 3d 4e e3 2c 3c 05 a4 e5 ba 7b 3c a7 bb
       0.035348605 0.010552241 -0.0017520195 -0.0051036454
0002b0 51 70 8e bc 6d e5 65 ba 27 4e 0f 3c 54 58 c6 bb
       -0.017387541 -0.0008769844 0.00874666 -0.00605301
0002c0 2e 73 bb 3b e8 84 04 3c d6 8c 74 bc 0a dc 3e bc
       0.0057205176 0.008088328 -0.014926156 -0.011649141
0002d0 c1 ba 6d 3c f4 78 e0 3c e5 c5 12 3d 58 0b 6e 3a
       0.014509858 0.027401425 0.03583326 0.000908067
0002e0 73 d6 fb bc 24 7d ff 3b 13 82 4f 3b c8 d8 a3 3c
       -0.030741906 0.0077969003 0.0031663224 0.02000083
0002f0 ab e4 f8 bc b2 57 60 3c 18 29 e4 3c eb 84 4b bc
       -0.030382475 0.013692783 0.027851626 -0.012421827
000300 36 bf 97 3c e3 66 4f bd 56 a1 42 bc 2b 66 8d bc
       0.018523794 -0.05063523 -0.011879286 -0.017260632
000310 17 6a fe 3c 66 c1 53 3c 29 6e 1f 3d 97 06 8c 3a
       0.031056447 0.012924528 0.038923416 0.0010683116
000320 c0 cd a5 bc 5b 28 0e 3d a3 11 9d bc 13 6e 81 3c
       -0.02023971 0.034706455 -0.019173449 0.015799558
000330 50 3e 35 bd e9 16 94 3b 1e b5 ef bc 51 7f ca bc
       -0.04424888 0.0045193327 -0.029261168 -0.024718912
000340 14 ee ee bc 0a 85 d6 bb 3b 78 3f bc 85 b0 be 3b
       -0.029166259 -0.006546621 -0.01168638 0.0058193826
000350 82 1e b7 3c 4f 9f af ba 62 ff 16 3d 82 6c a9 3c
       0.022353414 -0.0013398918 0.036864646 0.020681623
000360 31 11 e8 3c 16 87 17 3c 75 35 6e bb 86 c7 0c bc
       0.02832851 0.009248516 -0.003634778 -0.008592492
000370 d8 d7 1d 3d 36 e4 5d 3c a0 75 83 3c 03 03 a0 b9
       0.038535923 0.013543179 0.016047299 -0.00030519822
000380 38 b5 c6 bc c5 12 ca bb 56 1f de 3c 81 0a 13 bd
       -0.024256334 -0.0061667883 0.027114552 -0.03589869
000390 a7 9a b4 bc 2e 6a 24 3c c7 d2 70 3c eb 2b 0a bd
       -0.0220464 0.010035081 0.014698691 -0.03373329
0003a0 dd 54 b0 3c 01 91 13 3b 97 df 77 3c 71 f5 9a bc
       0.021524841 0.002251685 0.015128992 -0.018915864
0003b0 eb 1f a7 bb 83 cc 05 bd a1 71 bb 3c 25 2d db 3c
       -0.0051002405 -0.03266574 0.02288133 0.026754925
0003c0 07 4a a3 3c 59 24 ba bb 80 c7 1b 3c c9 5f 8a bc
       0.01993276 -0.0056806025 0.009508014 -0.016891377
0003d0 2d 20 d4 3c 59 29 a5 3c e3 fd 02 bd be 0c 8e bc
       0.025894249 0.020161318 -0.031980406 -0.01734006
0003e0 1b bd f4 bc a4 ed f7 3c 3f a1 a1 3c 52 ba 14 3b
       -0.029875329 0.030264683 0.019730208 0.0022694063
0003f0 33 5b af bb 9a c6 94 bc d6 18 19 bb 3e 2d 19 bd
       -0.005351448 -0.018161107 -0.002336075 -0.037396662

network_body.linear_encoder.seq_layers.0.bias f4 [128]
000000 bc 0f 0b 3a 50 02 b3 bb de 10 2e 3a fc fd db 39
       0.0005304774 -0.005462922 0.00066400866 0.00041960168
000010 ca a4 7f bb 75 14 8d 3b 01 83 11 3b 5f b1 39 bb
       -0.0039008134 0.004305417 0.0022203329 -0.0028334481
000020 d0 ed 4e ba df 32 71 3b b3 74 4b 3b 59 65 47 3b
       -0.0007893713 0.0036804003 0.00310449 0.0030425398
000030 fd 5a 59 38 ca 1a 88 3b f7 26 48 ba 27 63 15 bc
       5.182157e-05 0.004153584 -0.0007635201 -0.009117878
000040 20 64 c8 bb 55 fc 38 bb 5a a2 bb 39 b0 83 a5 bb
       -0.0061154515 -0.0028226573 0.0003578838 -0.0050510988
000050 ea 1a eb bb 11 91 9b 3a 65 85 e0 3b cb 7a 05 bb
       -0.0071748393 0.0011868795 0.0068518394 -0.002036738
000060 b6 49 99 3c ba f0 b6 bb 35 eb c8 bb 6a f6 af 3b
       0.018711906 -0.005582896 -0.0061315545 0.005369951
000070 68 80 4b 3b dd bf 31 3c 19 18 8c bb 00 e7 04 3c
       0.0031051878 0.010848966 -0.0042753336 0.008111715
000080 17 43 88 3b 92 87 cb ba 28 a1 c2 3b 4e a1 29 3b
       0.0041583884 -0.0015528074 0.0059396215 0.0025883499
000090 42 ee 32 3c 55 94 98 3a 7f e0 e5 3b d2 36 94 3b
       0.010921063 0.0011640886 0.0070152874 0.0045231367
0000a0 b9 35 d0 3a 4e 29 8c 3b 37 c9 16 3b a3 f6 9c 3b
       0.0015885151 0.004277385 0.0023008117 0.0047901436
0000b0 26 fb df 3b 86 74 44 3c 41 10 29 3c c4 2f 54 3b
       0.006835359 0.011990672 0.010318817 0.0032377103
0000c0 e5 e4 4b ba 52 36 a7 bc 58 d7 5f 3a 57 50 93 3a
       -0.00077779434 -0.020411644 0.00085388636 0.0011239153
0000d0 0d 47 91 3b 10 3c be ba 2a 15 a0 ba 36 59 43 3c
       0.0044335187 -0.001451375 -0.0012213339 0.011923125
0000e0 e3 98 11 bc 81 cb f4 3b 54 f6 6e 3c 28 ca d0 3a
       -0.008886549 0.0074705486 0.014585096 0.0015929388
0000f0 01 b3 1c 3b 0b bc 69 3c c6 9b aa 3b a9 69 b9 bb
       0.0023910406 0.014266024 0.005206558 -0.0056583476
000100 ac ae 87 bb 53 5f 53 bb b3 70 88 ba 18 b8 9b 3b
       -0.0041406956 -0.0032252863 -0.0010409564 0.0047521703
000110 fe 3a cc 3c 23 f0 30 bb d6 88 bc bb 0e 0d 68 3a
       0.024930473 -0.0026998601 -0.005753617 0.0008852043
000120 a6 c1 9e 3b c6 ee b5 bb e8 3b 40 3c 69 7b ab 3b
       0.004844862 -0.0055521457 0.011733033 0.0052332175
000130 9f ff 23 bb fe f4 c1 3b c9 0c b9 bb 54 80 fa ba
       -0.0025024188 0.005919098 -0.005647276 -0.0019111731
000140 74 b0 60 3c 2b a7 ff 3a 83 ea 0c bc 86 88 7e bb
       0.013713945 0.0019504776 -0.008600834 -0.0038838699
000150 8c 48 52 3b be c1 c0 bb fd 1a 8a bb af 16 98 bb
       0.0032086698 -0.005882471 -0.004214643 -0.004641376
000160 17 1d 9f 3a 42 5a 35 bb c7 97 cd b9 be 8a 99 3a
       0.0012139407 -0.0027672206 -0.0003921373 0.0011714322
000170 82 59 04 3c 01 f0 ba ba 9f 0b a1 3b a8 b8 6a bb
       0.008077981 -0.00142622 0.0049147154 -0.003581563
000180 5f 8d a1 bb 3f 11 71 3b fd 10 a3 3b 8a 3b 43 3b
       -0.004930183 0.003678396 0.0049763904 0.0029790127
000190 15 3e 69 bc 17 23 14 bc 3d 3e 6f 3a a1 66 19 bb
       -0.014235993 -0.009041569 0.00091264007 -0.002340712
0001a0 35 72 27 3b 4e b3 e4 37 f2 7f 1f 39 2a 05 c3 3a
       0.002555025 2.7263213e-05 0.00015211085 0.0014878858
0001b0 09 ae 1e 3c 26 67 a7 3a ec e0 26 bb 36 ba 8c 3a
       0.009685048 0.001277183 -0.0025463654 0.0010736648
0001c0 8b 18 03 3c 13 5d 93 bb 17 a7 f5 3b 38 c2 b3 3b
       0.008001457 -0.0044971793 0.0074967253 0.005485799
0001d0 c2 05 8e 3a 7a 07 a4 bb 20 9a 22 3c 97 d5 a8 bc
       0.0010835456 -0.005005774 0.009924442 -0.02060966
0001e0 21 c7 92 bb 0d 58 8a bb 13 8c 82 3b ef 30 8a bb
       -0.0044793044 -0.0042219223 0.0039839833 -0.004217259
0001f0 74 10 87 3b 01 bd 38 3c 17 39 15 3b 16 aa 32 3a
       0.0041218344 0.011275531 0.0022769624 0.0006815506

network_body.linear_encoder.seq_layers.0.weight f4 [128, 77]
000000 31 f1 ad bc 2c 93 ff 3d 18 6e 74 be 5c 08 03 3c
       -0.021233173 0.12479243 -0.23870122 0.0079975985
000010 1a 38 d1 3c 36 00 d8 3d e3 b0 05 be 47 e0 3d be
       0.025539447 0.10546915 -0.13055758 -0.18542586
000020 f6 b7 ab 3d f5 c8 35 bd b2 cb a2 bd d9 53 51 bd
       0.08384697 -0.0443811 -0.07949008 -0.051105354
000030 1b 50 a2 bd 30 e7 57 3e 9c c8 b4 3d c1 18 47 3e
       -0.07925435 0.21084285 0.08827326 0.19443037
000040 15 fa 51 3b 48 6d 60 3d e3 7d 55 3e 6c 11 df bd
       0.003203993 0.05479172 0.20848803 -0.10891995
000050 dc 29 3a 3e 08 bc 02 bd 34 8d 59 3c 4e 45 04 bd
       0.1818003 -0.0319176 0.013278294 -0.032292657
000060 c4 8f 08 3c a2 5d bd 3c 97 f0 00 3d 1e 3f 81 bc
       0.008335058 0.023115937 0.031479444 -0.015777167
000070 72 31 51 3c 46 fa bb 3a 5b eb 0d be 7d f7 ab bd
       0.012768136 0.0014341555 -0.13859312 -0.08396814
000080 30 76 5e be 57 1b 30 be ca ff b9 bd ec 1e a8 3d
       -0.21724772 -0.1719793 -0.09081991 0.08209023
000090 30 af c1 bc 23 b4 97 3d 36 0c eb 3d a9 f0 dc 3c
       -0.023643106 0.07407405 0.114769384 0.026970224
0000a0 5b 24 d7 3d 1b 28 5b 3d 7d b2 00 be da aa c0 3d
       0.10504981 0.053505044 -0.12568088 0.09407587
0000b0 63 3c dc bd fd db 99 3d ad ce d6 bd b4 fa 52 bd
       -0.10753705 0.075126626 -0.10488639 -0.05150862
0000c0 fd 1d c2 bc 04 dc 7b be 80 58 63 be 47 cc 1b be
       -0.02369594 -0.24595648 -0.22201729 -0.15214644
0000d0 75 5c 99 3d 04 0d 2e bd 2a e5 d9 3d c1 fe d8 3d
       0.07488338 -0.04249288 0.10639413 0.105954655
0000e0 ef 95 9f bd 60 20 28 bd 13 59 58 bd 5f 60 36 3c
       -0.077922694 -0.0410465 -0.052819323 0.011131375
0000f0 71 33 8b bd c1 01 86 bd 08 ee 11 3e 04 86 48 3e
       -0.06796921 -0.06543303 0.14250958 0.19582373
000100 14 e2 fc 3c e4 ab 45 be 8e 26 af bc b7 34 8d 3d
       0.030869521 -0.19303852 -0.021380689 0.0689482
000110 cc 2b f0 3c e8 5e f5 3c 48 8e 21 3e 69 22 5d 3c
       0.029317759 0.029952481 0.15776932 0.013496974
000120 d1 20 0c 3e e3 6d dc bd b6 26 1d be eb 8d dc 3c
       0.13684393 -0.10763147 -0.15346798 0.02692314
000130 36 62 22 be 6c 19 7f 3c f6 90 dc bd aa 32 f0 3c
       -0.15857777 0.015570026 -0.107698366 0.029321034
000140 4c e4 47 be c1 ba 92 3e 13 5a 1e 3e c0 43 d5 bd
       -0.19520682 0.28658107 0.15464048 -0.10413313
000150 ee 50 bf bd 4d 4c 0c bd 8c e2 56 bd 33 47 73 bd
       -0.09341608 -0.034252454 -0.052462146 -0.059394073
000160 30 cf 72 3e 43 e1 16 3d ec b2 54 3e ae 93 22 bd
       0.23711848 0.03683592 0.20771378 -0.03969162
000170 f0 86 2e be 3e ef bb 3d bb bd 46 3d df c4 2a 3c
       -0.17043662 0.09176491 0.048520785 0.010422914
000180 9e 51 36 3e 7a de 90 3d 36 6d 86 bb 0d c0 71 bd
       0.17804572 0.07073684 -0.0041023744 -0.059021045
000190 d2 c2 28 3d 03 e5 e1 3c ef b7 33 3d d9 10 a4 bd
       0.04120142 0.027575022 0.043876585 -0.08011026
0001a0 2e e9 83 3d 08 64 55 be 2c 32 d3 bd 97 73 2c 3e
       0.0644096 -0.2083894 -0.10312304 0.16840969
0001b0 da 8b ed 3c e7 c8 e0 bc 0a 83 48 3d 87 a0 c1 3c
       0.02899735 -0.027439548 0.048953094 0.023636116
0001c0 31 84 33 3c 1c 95 4e bb c0 34 73 bd 9d 1b 43 3e
       0.01095681 -0.0031521982 -0.05937648 0.19053502
0001d0 23 0b bc bb 1b 89 81 bd 49 da 9d be 08 e4 3d bc
       -0.0057386323 -0.06324979 -0.308306 -0.011590011
0001e0 42 c9 ab 3c ac 84 4c 3e 14 2e 4f bd e9 5a a4 bd
       0.02096999 0.19972485 -0.050581053 -0.08025152
0001f0 ca 86 1c 3c db 49 5d 3e 23 b5 25 bd 56 a0 50 3e
       0.009553621 0.21610205 -0.04045595 0.20373663
000200 b4 fa d5 bd f1 c4 18 be 4e f9 da 3d bb c2 b9 3d
       -0.104482085 -0.14918877 0.10692082 0.09070345
000210 74 4b d8 bd b5 e8 bd 3d 5f b5 50 3e 3d 80 0d 3e
       -0.105612665 0.09272901 0.20381688 0.1381845
000220 95 94 c6 bd 3e 80 f0 bd 9c fe 0e bb 3f 6e 15 be
       -0.096963085 -0.1174321 -0.002181924 -0.14592837
000230 d8 6d 9e 3c 46 e5 7c bc 8d 66 36 be 1f 49 36 3e
       0.019339487 -0.015435522 -0.17812558 0.17801331
000240 fb b0 be 3d a1 5d 27 3e 7a af 77 3d 0d 4c a8 bd
       0.093111 0.1634431 0.060470082 -0.082176305
000250 6a d8 fd bd cc b1 db 3b 59 4f ab 3c f9 89 10 bd
       -0.12394793 0.0067045446 0.02091186 -0.03528783
000260 f3 fa 94 3d 2f d0 c7 3d 4b fe 1c 3d 97 15 3f bd
       0.07274427 0.09756505 0.03832845 -0.04665145
000270 d2 9e fb bc 94 f3 09 be ef 5c 99 3e ca 93 ba 3d
       -0.03071538 -0.13471824 0.29953715 0.0911022
000280 50 19 08 3d 65 a3 87 3d 57 9a 54 bd b4 e0 94 bb
       0.033227265 0.06622962 -0.051905002 -0.0045433883
000290 a3 1f 59 3d fc 0e c0 3d 47 4d 30 bb 40 ea 04 3e
       0.053008687 0.09377858 -0.002690153 0.12979984
0002a0 bd 35 c3 3d 0d a9 68 3d 95 f2 a5 bd 14 4a 82 be
       0.09531734 0.056801844 -0.081029095 -0.25447142
0002b0 23 fd c6 3d 6f 02 a6 be d8 6b 51 3d 56 25 2e be
       0.09716251 -0.32423732 0.05112824 -0.1700643
0002c0 b0 8c 15 3d bd 92 fb bd df f9 8f 3d cc 30 6f 3d
       0.036511123 -0.122838475 0.07030081 0.058396146
0002d0 a1 23 d5 ba da c3 4e 3d 79 cb bf 3a 69 01 32 3e
       -0.0016261229 0.050479747 0.0014632783 0.1738335
0002e0 a4 2d 00 bb 7b 8d 93 3d c1 b3 f5 3d 76 c2 32 bb
       -0.0019558454 0.0720472 0.11997176 -0.0027276552
0002f0 d9 68 29 3e 5f 18 60 be 41 c5 c2 3d 5e a8 47 3e
       0.16543902 -0.21884297 0.095102794 0.1949782
000300 aa 56 4e 3c b5 7a 4c be 17 02 65 bd 20 34 a9 3d
       0.0125939045 -0.19968684 -0.055910196 0.08261895
000310 af ba 2a bd 2b 3c c1 bb dc 60 cb be 27 5b 5e 3d
       -0.04168194 -0.005897065 -0.39722335 0.05428615
000320 22 f9 1e 3b 26 fd 32 3c be f8 3d 3d fd 2c c9 bc
       0.0024257381 0.010924613 0.046379797 -0.024557585
000330 50 ec fd 3d a5 c5 1f bd 6e a0 b2 bc b2 3b 9b 3d
       0.12398589 -0.039006848 -0.021805014 0.07579745
000340 ad ac 1c 3d 08 8a f7 bd 66 9a 33 be c6 40 60 3d
       0.038250614 -0.12086874 -0.17539367 0.054749273
000350 ab 1e 0d bd 54 22 07 3e 01 9f 58 3d 73 8c 91 bd
       -0.034453075 0.13196689 0.052886013 -0.07106867
000360 49 83 df 3d 5d e2 8d bd a1 b0 da bb 8a 27 a6 bd
       0.109137125 -0.06927941 -0.006673888 -0.0811301
000370 d0 ba a7 3d 8c 82 af 3d e8 40 14 be 51 1c 0c bd
       0.081899285 0.08569822 -0.14477885 -0.034206692
000380 d2 00 45 bd 59 96 82 3d 13 7d c2 bd 56 7c a6 3c
       -0.048096485 0.06376333 -0.09496512 0.02032296
000390 f9 b2 29 3c 9e b2 1e bd 0b c1 f8 bc a7 0b 81 3d
       0.010357612 -0.03874456 -0.030365488 0.06301051
0003a0 2c 0f 3a be d7 d2 54 be 0c 3a 10 3e 61 02 08 be
       -0.1816985 -0.20783554 0.14084643 -0.13282157
0003b0 29 0b 5d 3d de 34 93 3d 98 a9 1c 3e 5e 6d f1 3d
       0.05396572 0.07187818 0.1529907 0.11788438
0003c0 a2 f7 c9 3d 60 15 98 3d a4 a8 03 be f9 b3 dd 3c
       0.09861685 0.07425952 -0.128573 0.027063357
0003d0 fd 7b ab bd 1a 89 8c 3c 54 ad 68 bd 22 19 a1 3c
       -0.08373258 0.017155219 -0.056805924 0.019665305
0003e0 61 90 7d 3c d3 c7 c1 bc ac c3 93 3d ae 64 1f 3c
       0.015476317 -0.023654854 0.07215056 0.009728594
0003f0 52 1a 0e 3e 5b 62 0d 3e 4b cb 73 bd fb 5d b4 bd
       0.13877228 0.13807051 -0.059520047 -0.08806988

network_body.linear_encoder.seq_layers.2.bias f4 [128]
000000 56 e8 7c bb e5 c9 a4 3b ed 26 e9 3b 7e 9e 86 37
       -0.0038590631 0.0050289505 0.007115236 1.6047848e-05
000010 67 74 56 3a 11 4a 6c 3a a8 e5 56 bc 35 98 b8 ba
       0.00081807974 0.00090137223 -0.013116278 -0.0014083447
000020 c7 a7 92 bb 0a d6 f9 ba 9e f5 68 3c eb ce f0 39
       -0.004475567 -0.0019060981 0.014218716 0.00045930533
000030 6f 65 e5 3b 8b b3 a0 3b fe 67 c8 b9 53 aa 9d 3b
       0.007000617 0.0049042157 -0.00038224453 0.004811564
000040 c2 54 d8 3b 1b c1 60 bb 03 ee d9 ba ca c9 a6 bb
       0.006601901 -0.0034294787 -0.0016626719 -0.005089973
000050 ad a2 5b 3b 64 2b a6 3a 69 4b 15 3c d0 93 90 3b
       0.003351371 0.0012677726 0.009112217 0.004412152
000060 87 4a 1f bb 78 cd ba 39 fa c0 bc ba c6 49 56 3b
       -0.0024305896 0.0003562977 -0.0014400773 0.003269778
000070 cc 46 80 3b 63 f5 86 3a dd 6e 1a 3c de 1d 06 3b
       0.0039146896 0.001029652 0.009425846 0.002046458
000080 7b bf de b9 12 c7 93 3b f4 33 c7 3b b6 5d b0 39
       -0.00042485804 0.004509815 0.0060791913 0.00033639156
000090 3e 54 ce 3b 89 83 7f 3b cd 06 e9 ba 99 2d 05 39
       0.0062966635 0.0038988313 -0.0017778516 0.00012700855
0000a0 93 31 52 3b be 7a cc bb 6d 71 db b9 b7 3b 9f 3a
       0.0032073006 -0.006240218 -0.00041855444 0.0012148534
0000b0 35 ee 07 3b bc 42 45 bb 49 2d b4 bb 72 76 8f b9
       0.0020741348 -0.0030099591 -0.0054985625 -0.00027363334
0000c0 93 bb 3e ba 0d 95 0b 3b 0c 6a 89 ba f4 a3 ec b9
       -0.00072758755 0.0021298558 -0.0010483875 -0.00045135582
0000d0 ba ef 70 3a 72 54 9f 3b 4c d3 11 3b 8a ae 6c 3b
       0.00091909955 0.0048623616 0.0022251187 0.0036114776
0000e0 b5 50 12 bb 97 06 00 3c 1b 34 53 bb 4e 85 c1 ba
       -0.0022325937 0.007814071 -0.0032227102 -0.0014764459
0000f0 a3 75 35 bb fc 09 0d 39 36 da 9b ba 69 6a a0 3b
       -0.0027688525 0.00013450527 -0.0011890593 0.0048954976
000100 a8 6a 07 3b 66 fa ee b9 3f ac 1f bb 3c 3d 61 3b
       0.0020662937 -0.0004558146 -0.0024364141 0.0034368774
000110 a0 5c c4 3b fe 51 8c ba e7 ce 06 bb 2c ff 95 3b
       0.005992487 -0.0010705588 -0.00205701 0.004577538
000120 55 76 f9 ba 29 87 dd 3b 30 18 46 bb 08 90 c5 b9
       -0.0019032458 0.006760497 -0.003022682 -0.0003768208
000130 bf ff 2a 3b 98 3e d6 ba 44 fa 3a b9 f9 b2 1c bb
       0.0026092378 -0.0016345559 -0.00017831573 -0.0023910387
000140 37 c8 d3 39 12 84 84 bc 0e ff 65 3b 89 22 3a 3b
       0.00040394228 -0.016176257 0.0035094651 0.0028401932
000150 ce fa 01 3b 86 c5 61 3a 6a e6 37 3a 3d 7c 8a 3b
       0.001983333 0.0008612502 0.00070152304 0.004226236
000160 1d a2 10 3b 40 9b 03 3b c8 4f 13 bc 24 e7 7f 3b
       0.0022069283 0.002008155 -0.008991189 0.0039047683
000170 b0 1b 8a 3b 36 df 98 ba 36 38 8e 3b e0 09 ad ba
       0.0042147264 -0.0011663202 0.004340197 -0.0013201796
000180 56 d4 35 3b 49 2f 13 bb 84 4d c4 39 c9 d8 bb ba
       0.002774497 -0.0022458604 0.00037441787 -0.0014331575
000190 78 80 e6 ba 8c 21 91 3b ad 55 9d b9 4c d5 3e 3b
       -0.0017585894 0.004429048 -0.00030009207 0.0029118834
0001a0 31 20 8c ba da 43 d5 bb 8f 3b 3c bb b1 54 78 3b
       -0.0010690746 -0.0065083327 -0.0028722023 0.0037892277
0001b0 92 69 5c 3a 32 0a a1 b9 07 0b b8 3b 01 8f 80 3b
       0.0008408065 -0.0003071591 0.005616549 0.0039232974
0001c0 ee 7a 00 3b 8e 44 87 3b f9 e2 32 3b 7f 29 d3 3a
       0.0019604522 0.0041280454 0.002729593 0.0016110389
0001d0 45 99 ca 3a f2 d5 87 bb 4f 02 1c b9 ba 00 51 bb
       0.0015457055 -0.0041453773 -0.0001487818 -0.0031891302
0001e0 e9 b2 ea 3a be 6d bc b9 f6 54 70 3a e3 47 c7 bb
       0.0017906103 -0.0003593992 0.00091679336 -0.0060815676
0001f0 57 3c 84 3b 67 5c c5 ba bb 4e cf b8 cd 2a 2a 3a
       0.0040355134 -0.0015057445 -9.885194e-05 0.0006491363

network_body.linear_encoder.seq_layers.2.weight f4 [128, 128]
000000 1d 90 07 3e 07 ae 10 3e 34 d3 ef 3c 90 73 55 3e
       0.13238569 0.14128886 0.029275514 0.20844865
000010 1f 31 d7 3d 6e 63 a0 bd b1 a7 0d bd 76 1f 58 bd
       0.10507416 -0.07831465 -0.03458375 -0.05276438
000020 3a fe af bd ab 68 b3 3d da 8a 83 be 72 a7 f3 3c
       -0.08593412 0.08760198 -0.25691873 0.02974293
000030 50 e0 af bd 3f a5 c0 39 ca 3c f2 3d e6 a4 90 3d
       -0.08587706 0.00036744212 0.11828001 0.07062702
000040 29 1d 73 3e fb d2 be bd eb e8 95 bc f3 71 c8 3d
       0.23741592 -0.09317585 -0.01829954 0.09787359
000050 a7 57 cf 3c 69 a4 57 3d e8 bf 3f bd 12 4a 2f bd
       0.02531035 0.052647028 -0.046813875 -0.04279525
000060 9f dc b9 3d a1 08 f6 3d c2 23 9d bd 76 07 41 3d
       0.09075283 0.120133646 -0.07672836 0.047126256
000070 27 2f 37 bc dc 8e 95 bc 76 0b 2b 3d c6 21 ad bd
       -0.011180676 -0.018256597 0.041758977 -0.084537074
000080 8d c2 05 3e 31 ad f7 3c 4c 94 15 bd c2 6f 8d bc
       0.13062496 0.030233951 -0.03651838 -0.017265204
000090 78 10 7a bd 6a 16 a8 3c 11 48 a8 bc e2 b3 f7 bd
       -0.061050862 0.0205185 -0.020542176 -0.12094857
0000a0 6b bb 28 3e d9 86 c5 3d ff 74 ec 3d f4 b4 f8 bb
       0.16477744 0.09644861 0.11545753 -0.0075899307
0000b0 5e 21 b0 bd b7 9a 9c 3d e1 ca b4 bd 7f bc 85 3d
       -0.08600114 0.07646697 -0.088277586 0.065300934
0000c0 b1 50 92 3d 77 92 dd ba bb 16 3e bb 28 20 4b 3d
       0.07144297 -0.0016904612 -0.0029005248 0.049591213
0000d0 f3 df 14 bd b5 4c 91 bd 3a 7c 1d 3e ba 45 58 bd
       -0.036346387 -0.07094709 0.1537942 -0.05280087
0000e0 a9 d2 f6 3d cd 0e 11 be 80 78 fd 3d 3d 6a 60 3e
       0.12051899 -0.14165802 0.12376499 0.21915527
0000f0 05 29 89 3d 8b a6 76 bc 8e 7f 13 bc e4 e2 27 be
       0.06697277 -0.015054355 -0.009002579 -0.16395146
000100 14 8e b8 bd d7 10 17 bd 2f 9e bc bd 1a 3d 27 be
       -0.09011474 -0.036881294 -0.092098586 -0.16331902
000110 52 73 22 be 9f 1f aa 3c 6c f7 8c 3d 9c 74 22 3d
       -0.15864304 0.020767031 0.068831295 0.03966199
000120 8b 57 de bb 34 98 33 3e 1b aa 15 3e 89 43 c8 3c
       -0.0067853383 0.1753853 0.14615671 0.024446266
000130 0e 7d 77 be 68 43 e2 3d 97 21 4a 3d 90 aa a3 3d
       -0.24168798 0.11048013 0.04934844 0.079915166
000140 78 c2 4c bd 6a f7 14 3d 75 6b 02 bd ef 17 05 3c
       -0.049990147 0.036368765 -0.03184076 0.008123382
000150 de 57 02 bd 29 07 50 3e 9e 5b cc 3c b5 b5 97 3d
       -0.031822078 0.20315231 0.02494603 0.07407705
000160 0e e3 bf 3d 27 0a b9 3d c0 14 fc bb 6f 72 00 3e
       0.09369479 0.090351395 -0.0076929033 0.12543653
000170 6b 33 fd bc 27 a1 36 3e 6e 23 d5 bd 1b 4a c8 bd
       -0.030908307 0.17834912 -0.10407148 -0.097797595
000180 75 38 b9 3b 53 f5 95 be ff 26 6a 3d 03 d1 21 be
       0.005652482 -0.2928873 0.057166096 -0.15802388
000190 de 1c 30 bd 64 ae 2c 3b 84 31 43 3e da ea e2 bd
       -0.04299628 0.0026349062 0.19061857 -0.11079951
0001a0 df 41 29 bd 33 dd 99 bc 1f 37 ae bd b0 2d 7c bd
       -0.041322585 -0.018782234 -0.08506607 -0.06156701
0001b0 9a 61 c0 bd c0 57 6c 3d a2 ba 4c 3b e4 48 cc 3c
       -0.09393616 0.057700872 0.0031239172 0.0249371
0001c0 ab 26 00 bc d1 72 b1 3d 03 1d 69 bd c9 28 c3 bd
       -0.007821719 0.086644776 -0.056912433 -0.095292635
0001d0 74 c6 c7 bd 24 79 26 3e ff 2c b9 bc 26 98 64 bd
       -0.09754649 0.16257149 -0.022604464 -0.055809163
0001e0 18 5a e3 3c d7 08 3f bd cd 98 ab 3d 28 5a e2 3c
       0.027752921 -0.04663929 0.08378754 0.02763088
0001f0 61 bb f0 bd 98 6f 77 bc 4a 39 12 3c c4 82 03 3e
       -0.1175449 -0.01510229 0.008924792 0.12842852
000200 82 6f 40 3c 4b c9 c1 3d 1e ce fb 3d eb 71 5f 3e
       0.0117453355 0.09462222 0.12295173 0.218208
000210 55 25 ce 3d 2c 27 df bd 94 06 b1 bd da c8 f2 bd
       0.10065714 -0.10896143 -0.08643833 -0.11854716
000220 6b 65 2c 3d 5e a8 71 bc 56 60 32 3e 33 f6 05 3e
       0.042088907 -0.0147496145 0.17419562 0.13082199
000230 b7 d9 c4 3d 4e 9b 14 3e 4f 06 26 bd 01 91 03 be
       0.09611838 0.14512369 -0.04053336 -0.12848283
000240 7f fc fc bd e2 b1 12 be 67 c5 d7 bd 1a e0 80 3e
       -0.12352847 -0.1432567 -0.105356984 0.25170976
000250 9f 0e 02 bc 4e b6 ba 3c f9 63 c2 3d 4b 6e 98 bd
       -0.007938056 0.022792008 0.094917245 -0.07442912
000260 e8 0f 30 be 2b f1 92 bd a3 29 91 3d 4c d9 1c 3d
       -0.17193568 -0.071749054 0.0708802 0.038293168
000270 4c a0 bc 3d 2f fe c5 3d bc 8b cd 3d 36 5b 21 bd
       0.09210262 0.09667622 0.10036418 -0.039393626
000280 b4 d7 1f 3d 92 f4 a8 3d 8a 8f 94 bc 4c af 38 3c
       0.03902407 0.08249773 -0.018134851 0.011272263
000290 07 f6 9c 3d 73 ed 16 3d 3a 83 21 3d 57 25 a3 bc
       0.076641135 0.036847543 0.039431788 -0.019915266
0002a0 26 b2 12 bd f8 8a f8 3d 65 9f ae bd 8b 2b 7d 3d
       -0.035814427 0.12135881 -0.08526496 0.061809104
0002b0 37 21 01 3e 76 e3 2a bc 7d b1 f3 bc a3 20 58 3e
       0.12610327 -0.0104302075 -0.029747719 0.211062
0002c0 ce 55 c9 3b f8 69 3e bd 34 d6 e9 bc 78 d4 1c 3e
       0.006144262 -0.04648778 -0.028544523 0.15315425
0002d0 24 bd 8c bd 9a 4a 3d be 90 10 6d bd e1 34 7d 3c
       -0.06872013 -0.1848549 -0.057877123 0.015454502
0002e0 6c 2f 4c bc d5 03 f3 bc 7e 06 b5 3d 2c 83 62 bc
       -0.012462478 -0.029664913 0.08839129 -0.013825219
0002f0 bd 6f 5d bd 0b fe 8a 3d cf 65 a3 3d 23 1b 07 be
       -0.05406164 0.06786736 0.07978403 -0.13193946
000300 91 73 95 bd 18 ef 8b 3b 4c ba da bd 84 e4 08 be
       -0.07297433 0.0042704456 -0.106800646 -0.13368422
000310 c2 40 24 3d 4c a7 8a ba 57 ba ca bd c2 bc c5 bd
       0.04010082 -0.0010578423 -0.09898823 -0.09655143
000320 f3 59 bc 3d 92 f8 9b bd 41 b2 2c 3e 99 ac c2 3d
       0.09196844 -0.076157704 0.16864873 0.09505577
000330 50 bd 93 3d 5d 53 ce 3d e7 08 c0 3d ab 47 a1 3c
       0.07213843 0.10074494 0.09376698 0.019687494
000340 ae bb 89 3c 51 3c ae 3d 8c 5d 1e bd b4 c1 3b bc
       0.016813125 0.08507598 -0.038663432 -0.011459757
000350 d0 eb 97 3d 7d a3 18 bd 6e 5f 33 bd 0e 1e f6 bd
       0.074180245 -0.03726529 -0.04379218 -0.12017451
000360 d2 80 c0 bd fa b7 a4 3c 94 5b a9 3d 7b 7b ea 3d
       -0.093995705 0.020107258 0.0826942 0.11449333
000370 8d 8c 0b bc 78 57 0d bd 6d 56 61 3d 3d d6 01 be
       -0.008517397 -0.034507245 0.055014063 -0.12679382
000380 24 ef ea bc 1d f1 c6 3d 26 b5 c0 3d 55 fa 0c 3c
       -0.028678484 0.097139575 0.09409551 0.008604606
000390 cc 1e 2a bc da a8 0d be 71 af e0 bc 45 af cf ba
       -0.010383319 -0.13833943 -0.027427407 -0.0015845081
0003a0 41 bd 0a be ee 85 b8 bc dd 7c 85 3d 02 ab 16 3d
       -0.13548757 -0.0225248 0.065179564 0.03678418
0003b0 14 72 96 3d 65 7b 23 3d 9c 79 2e 3d ae e4 57 3c
       0.073459774 0.0399126 0.042596444 0.01317708
0003c0 27 30 e8 3d 5a 6c a7 bb ce 0b 00 bd 63 a3 a1 bd
       0.11337309 -0.005109352 -0.031261258 -0.07892492
0003d0 e1 74 bd bd 0b 29 b5 bd 8a 62 44 3c e7 8f 93 3b
       -0.092508085 -0.08845719 0.011986384 0.0045032385
0003e0 05 12 9f 3d 05 e7 f0 bc 6f 6a a3 3c 56 b6 a9 bd
       0.07767109 -0.029407034 0.019948212 -0.08286731
0003f0 c1 9a 5e 3d ff 7d 04 bd 7d 5d a2 3d b7 43 cb 3d
       0.054346804 -0.03234672 0.07927988 0.09925025
