Learning/results/test10/KartAgent/KartAgent-16400.onnx (onnx, 108737 bytes, 7 tensors)

41 f4 [1, 2]
00000000: ef75 833b 7031 26bc
0.0040118615 -0.010143623

distribution.mu.bias f4 [2]
00000000: 84d9 873a 6d75 b1bb
0.0010364507 -0.0054156096

distribution.mu.weight f4 [2, 128]
00000000: 9927 133d 2ac6 1ebd c3c8 013d 55f0 10bc
00000010: 83a9 273b c8ab 8f3a ee93 bfba ac9f ae3b
00000020: 88ce 323d 9bea 813c 91a9 793c 0ac4 b9ba
00000030: 7a3e 9bbb 597d d13c c08b da3c 47b3 e9bc
00000040: df78 cdbc c1e1 25bc 5854 c73b 7c3a c139
00000050: 7fb7 ef3c 1028 0b3c efa9 9e3b e0e6 eb3c
00000060: b77e cabc 0fb9 bebc 06bd 6e3c b4df 4ebc
00000070: 0b0d ffba df95 a73c db62 1bbc c125 613c
00000080: dbb3 58bc f35e 163c aad0 38bc f976 683c
00000090: 8e33 413c 23e0 d9bc b48f 953c a3dd ebb8
000000a0: c214 b9bb 96e6 efbc 97d1 7d3c c71f 903b
000000b0: e207 ce3c 16f9 673c 3a5f cebb 91d4 463c
000000c0: 4ccd 25bd 1db4 14bd ee19 f73c 005b 3c3c
000000d0: 1d5f 9c3c 4c87 7f3c 0471 adbc f09c 863c
000000e0: f590 b1bc c104 71bc 2b0e 9f3c 1b94 cf3a
000000f0: bd89 5c3b ba2b ad3b 1282 893c 3667 a1bb
00000100: ee2d 93bc e369 5abc 7ea5 76bc e0e7 b7bc
00000110: 2106 aebc b0aa b5bc 9b0a 95bc afc4 4aba
00000120: a283 103b bdfb 4bbb 63ef 2b3c 8c78 0abd
00000130: 6ae4 023d d85d 1cbd 3557 53bc f0e7 1b3d
00000140: 745d dc3c 58d7 c43c 89f7 313b 493e 00bd
00000150: 97eb 7cbc 65e8 183c d22b cfbb 7432 b9bb
00000160: 714a 653c a95f a2bc 3df7 0bbc 1527 b8bc
00000170: 7045 263b 805d 8cbc 161e 563d fdf1 413b
00000180: 4a96 5b3c 825f 5e3b 8e7d 6e3c d812 13bc
00000190: ed3f 50bc 19bc 1cbc c129 01bd 8573 c0bc
000001a0: 9666 e23a 1d88 a5bc 8644 063c 5d78 9b3b
000001b0: 13ed f2bb 9201 793c d235 2b3c 0e6b 24bd
000001c0: 9fb6 d1bc b4d5 533b 350a 31bc 3e4b 19ba
000001d0: 3341 5a3b c5b2 b23c 5b54 8abc 36d6 0d3c
000001e0: 52d3 bebb 1b72 d93c d561 723c 4b41 1abd
000001f0: e415 e43b 3f7a 73bd 5ae1 0fbc 0a61 bc3c
00000200: 57e4 613c bf9f 1a3c dc37 523c 98f8 e7ba
00000210: 0445 933c 546c 693c 433b 7cbb d1fa 8e3b
00000220: 096e ad3c 0fee 5f3c 64eb bfbc 4f29 073b
00000230: 0156 733b 6b2e 923c 3bb4 8fbc 52b7 3ebd
00000240: cee3 723d 7e8e 533c cc74 e53c df3f 743a
00000250: f250 e9bc 89c0 a83c dbb4 da3c 3628 b13c
00000260: b7cc 653c 37cf 65bc bec0 acbc a6d8 3bbc
00000270: a4a2 b13c ae07 bd3b 9f0f 863c 09b3 d83c
00000280: 83ab 853c 342e 853b e898 73bc df8c 17ba
00000290: e69f 433b 237c 85bc 9c61 c83b 4768 0cbb
000002a0: 5a8c 883b 9c97 9ebc af4d 503d ff70 6ebb
000002b0: 19f7 303b 8dc4 49bc b22d 35ba 191d c23b
000002c0: f281 c4bc b2d2 eb3b 76de bdbc b355 81ba
000002d0: 2af0 75bb ca42 9fbc 19bc d3bc 85e9 563c
000002e0: b005 be3c a3f7 303d f84e c93c d9b1 8fbc
000002f0: 71b5 87bc c65b 433c 2c61 12bc 8909 093c
00000300: a9f2 323c 9f8b 603c 824f 36bc 0c56 debc
00000310: ef0a 4f3c c8b1 cbbc db33 a2bb d3d8 003b
00000320: c31b 193c f317 27bc f2a8 02bb b145 2b3d
00000330: 7ffa c0b9 c61d e13b 01f0 1b3b 113a 53bc
00000340: 6ddd 2b3a 6485 ae3b 26fd 92bc 9e5c c83c
00000350: a96b 513c 75c8 9aba 49ba 843c a82e 0d3d
00000360: f9bf b53b 5311 04bd 8964 863c a7bb c0bc
00000370: e581 1a3c c43d 053d 5164 1e3b b660 e3bb
00000380: 9413 cb3b 0dd0 b2bc 7cf4 b4bb dde7 ad3c
00000390: 1fe9 87bc abbc 1e3d a648 413b 70bc de38
000003a0: 7327 92ba 6592 933b 01f1 3abb 1f87 8f3b
000003b0: 187e c83c e1c1 9e3c b906 ec3b a97c c3bc
000003c0: 9d07 b2bc a6d1 033c 53e5 58bb bf87 9d3b
000003d0: ba20 9e3b 8a46 9a3a 7d17 3f3c 5bec 6cbc
000003e0: b810 d53b 1ab1 bc3b 5eef 8cbc 812c 31bb
000003f0: 2dc3 453c 424e a0bb 78eb 4e3c fd09 bc3c
0.035926435 -0.038763203 0.031685602 -0.008846362 0.0025583215 0.0010961229 -0.001461623 0.005329093
0.043653995 0.015858939 0.015238182 -0.0014172804 -0.0047376724 0.025572466 0.026677966 -0.028527869
-0.02508205 -0.010124625 0.0060830526 0.00036855403 0.029262302 0.008493438 0.004842035 0.028796613
-0.024718625 -0.023281602 0.014571434 -0.012626577 -0.0019458843 0.020457206 -0.009484018 0.013741911
-0.013226475 0.009177911 -0.011280218 0.014188522 0.011792077 -0.026596135 0.018257 -0.00011246956
-0.0056482265 -0.029284757 0.015491865 0.0043983194 0.025150243 0.014158508 -0.006297973 0.012135641
-0.04047899 -0.036304582 0.030163731 0.0114963055 0.019088322 0.015596222 -0.021172054 0.016432256
-0.021675566 -0.014710606 0.019415936 0.0015836986 0.0033651434 0.0052847536 0.016785655 -0.004925634
-0.017966237 -0.013330909 -0.015054105 -0.022449434 -0.021243157 -0.022176117 -0.018193534 -0.00077349966
0.0022051116 -0.003112539 0.010494086 -0.03380637 0.031956114 -0.038175434 -0.01289921 0.03806299
0.02690003 0.024028465 0.00271556 -0.0313094 -0.015437028 0.009332751 -0.0063223625 -0.0056517664
0.013994799 -0.019821005 -0.008542833 -0.022479573 0.0025370978 -0.017134428 0.052274786 0.00295937
0.013402531 0.0033931439 0.014556302 -0.008976661 -0.012710554 -0.00956633 -0.03153396 -0.023492584
0.0017273005 -0.020206505 0.008195048 0.004744573 -0.0074135154 0.015198128 0.0104498435 -0.040141158
-0.025599776 0.0032323422 -0.010805656 -0.0005847699 0.0033303022 0.02181376 -0.016885927 0.008657029
-0.005823531 0.026543668 0.014793833 -0.037659924 0.0069606174 -0.059442755 -0.008781755 0.02299549
0.013787351 0.0094375005 0.012830701 -0.0017697988 0.017977245 0.014247019 -0.0038487471 0.0043633957
0.021170633 0.013667597 -0.023427673 0.0020623987 0.003713012 0.0178444 -0.017541995 -0.046561547
0.059299283 0.012912391 0.028009795 0.0009317379 -0.02848098 0.02059962 0.026697567 0.02162562
0.014025859 -0.014026455 -0.021088 -0.011465227 0.021683998 0.0057687378 0.01636487 0.026452558
0.016317135 0.0040643457 -0.014867999 -0.00057811843 0.0029849946 -0.016294545 0.0061151516 -0.0021424459
0.004167122 -0.019359402 0.050855335 -0.003638327 0.002700275 -0.012314928 -0.0006911411 0.005923879
-0.023987744 0.0071967477 -0.023177367 -0.0009867459 -0.0037527182 -0.019441027 -0.025846528 0.013117199
0.023196071 0.043204915 0.024573788 -0.017540859 -0.01656601 0.011923736 -0.0089343 0.00836409
0.0109221125 0.013705163 -0.011127355 -0.02714064 0.012636884 -0.024865046 -0.0049500293 0.0019660487
0.009344998 -0.010198581 -0.0019937125 0.04181451 -0.00036807728 0.0068700043 0.0023794177 -0.012892262
0.00065561273 0.00532596 -0.017942976 0.024458226 0.012782016 -0.0011809008 0.016202109 0.034468323
0.0055465666 -0.032243084 0.01640536 -0.02352698 0.009430383 0.032529607 0.002416868 -0.006939019
0.0061974023 -0.021827722 -0.005522309 0.021228725 -0.016590653 0.038754147 0.0029492765 0.00010620884
-0.0011150673 0.0045035356 -0.0028524997 0.0043801214 0.024474189 0.019379558 0.00720295 -0.023863154
-0.021732146 0.00804559 -0.0033095672 0.004807442 0.0048256787 0.001177029 0.011663315 -0.014460648
0.006502237 0.005758417 -0.017203983 -0.0027034583 0.012070459 -0.0048921416 0.012629382 0.022953982

network_body.linear_encoder.seq_layers.0.bias f4 [128]
00000000: 2932 163c 403f f5bb 9ac1 00bb 6a0b 73bb
00000010: 83e7 05bb e638 4abc 43e8 823c 2b93 813b
00000020: 1b9a 1ebb 951a 90bb f1b8 3fbb 038f 8d39
00000030: 2596 7339 1700 133b 6d1d 2b3b 3ee7 70bb
00000040: f37f 7a3c 8f8a 463c 9dcf 173c afc6 22bc
00000050: ab28 733b 1d2e 893a 3d9c 943c 7d3b 1abb
00000060: 8531 ecb9 6e1c e13b eba4 c5bb 74f3 1d3c
00000070: 34af b53a f80a 6ebc 2ba7 03bb ad54 113b
00000080: b687 f7bb 865e 883b a280 123b 39d5 883b
00000090: 6bb2 6fbb 4a1a 8fbb c006 34bc 2769 773a
000000a0: 0989 9cbb da5e bfbb 846c 8d3a e363 21bb
000000b0: ce25 833c 9b9b 2d3b 6deb 9d3b 3a95 15bc
000000c0: 2d21 30bb 86ac d8b9 c213 9cba 50b1 8fbb
000000d0: 5254 4cba f4de 133a 2c86 a3bb e22f c13b
000000e0: 35fa 903b 29df a6ba 3d82 18bc 09b8 e23b
000000f0: 36bb 973a 6b6f 48ba 8f60 033a ecc2 3fbc
00000100: cb56 093c ff92 bb3a 10fe e73b 3b50 b03b
00000110: afcf 803b 4322 4a3c d28f fabb 6100 9cba
00000120: 0235 acbb a2d1 663c 1f20 0a3c 2d91 2c3b
00000130: 65bd f8ba 964c 41bc 36fd 7bba cdc0 4f3b
00000140: e167 3e3c 70b1 b43b 8197 43bc 276a d83b
00000150: d05b 103b ffb3 c43b c481 0abc 9ff6 f73a
00000160: 9727 9cbb 2208 74bc 409a be3b aabb a13b
00000170: 3883 b73b 658b fdbb 2281 863a 9cd9 35bc
00000180: 457e 493b 7907 1fbb 7315 3cbb 4982 afbb
00000190: ed06 163c 7d6a 8a3b 0299 ecbb c479 71ba
000001a0: 3ebc 3b3a 23a7 0abc 2b09 ceba e380 4d3b
000001b0: 6df7 673a 39be c3bb 7c76 f3bb a0ba 4bbb
000001c0: 0b13 92ba d5f1 733b bd65 b83b 4190 5ebb
000001d0: 10e0 9ebb 3dba fcba ce8f 24bc 8243 11bb
000001e0: 4f59 253a fdfb d03b ae5c b1ba d250 31bb
000001f0: 5d18 9b3b f3e5 8138 0455 e1bb 9c9e 36ba
0.009167233 -0.0074843466 -0.0019646646 -0.003708566 -0.0020432181 -0.012342667 0.015979892 0.0039543114
-0.002420074 -0.0043977 -0.002925452 0.00027000168 0.00023230219 0.0022430473 0.0026110068 -0.0036758925
0.0152892945 0.012117996 0.009265807 -0.009935065 0.0037103097 0.0010466013 0.018140906 -0.0023533993
-0.00045050323 0.006869844 -0.0060316226 0.009640563 0.0013861419 -0.014528982 -0.0020088654 0.0022175715
-0.00755402 0.0041616587 0.0022354503 0.0041758087 -0.0036574851 -0.0043671476 -0.010987937 0.0009437971
-0.004777078 -0.0058401646 0.0010789786 -0.0024626188 0.016009238 0.0026490453 0.0048193247 -0.009129817
-0.0026875243 -0.0004132727 -0.0011907744 -0.004385151 -0.0007794547 0.00056408276 -0.00499036 0.0058956007
0.0044243583 -0.0012731302 -0.009308395 0.0069189114 0.0011576179 -0.0007645997 0.0005011642 -0.011704188
0.008382509 0.0014310776 0.007079847 0.005380658 0.003931008 0.01233727 -0.0076465392 -0.0011901968
-0.0052553425 0.014088066 0.00843051 0.0026331649 -0.0018977342 -0.011798045 -0.00096126215 0.0031700612
0.011621446 0.0055143163 -0.011937977 0.006604451 0.002202738 0.0060029025 -0.00845379 0.0018918103
-0.0047654617 -0.014894517 0.005816728 0.0049357014 0.0056003593 -0.0077375644 0.0010261873 -0.011099245
0.0030745429 -0.0024265929 -0.0028699308 -0.0053561074 0.009156925 0.00422412 -0.0072203884 -0.0009211565
0.0007161534 -0.0084627 -0.0015719285 0.003135734 0.000884882 -0.005973604 -0.007429896 -0.003108658
-0.0011144591 0.0037223 0.0056273625 -0.0033960494 -0.0048484877 -0.0019281578 -0.010044051 -0.0022165482
0.00063075585 0.0063776956 -0.0013531649 -0.002705623 0.004733129 6.194031e-05 -0.0068765897 -0.00069663837

network_body.linear_encoder.seq_layers.0.weight f4 [128, 77]
00000000: b904 88bc 252f 393e 160b 153d 708d e6bc
00000010: 071e 9bbe 1c61 0ebe 5845 4fbc 755e 613d
00000020: 4126 dd3d 5bd4 9b3c be25 063e 7bf5 223c
00000030: afd4 dbbd 64de 003e 13db 7cbd 6313 95bd
00000040: bdc1 47be ed25 013d b959 2f3e 0b6e e93d
00000050: 0ff6 08bd c5e1 8abd 6048 1ebe 5382 dd3c
00000060: a118 14bd 9cb7 7a3c e7d8 5d3d f550 9abd
00000070: 1426 633d 791e 6bbc 32e7 46be 1429 9639
00000080: 3d3d 473d feb0 a5bc b273 443e 3ae3 843d
00000090: 4df5 1cbb 6702 17bd 580f a53d 814b 3ebd
000000a0: 359b 263d 87f7 6fbe 677e 4c3e 30f6 893e
000000b0: 11fa 1f3d 62be ccbd 6dfa 213d 3b54 cdba
000000c0: 6af3 19bd 00a1 75bd f5c6 243e d8bc 2fbe
000000d0: 030c 2f3e b4d3 9f3d 6a8c 8fbd ceea 2abe
000000e0: 4e3d 363a ca4e 2e3d b42f 403d 2fda 79bc
000000f0: 3bc9 c03c 76cc d0bc 4a53 a2bd 60fc 16be
00000100: 35bc 223e 1b4e fd3c e823 d43d 00c2 1c3d
00000110: f6ab c0bd 98e2 433e 66de 45bd f3da f8bd
00000120: 469f b0bd cd43 54be bb43 d1bd 8cf8 033e
00000130: c046 19be 88d8 293d d10f a33a 2225 c83d
00000140: 6fa4 c73c a7dd e7bd 3577 aa3d 95c3 6abe
00000150: b2a3 683d 40ee 543d 8c18 953d e04e dd3d
00000160: 3928 af3d 2aae 8fbc c33b 6abd ff41 99bd
00000170: d798 5c3d 5d26 5d3e 9341 adbd 77fc e63c
00000180: c2e9 6e3d a2bd 04bd 2b08 c5bc bebc 4ebd
00000190: 7ee0 ab3d 4b41 183d 67d7 4ebe b9c1 5e3c
000001a0: 1e32 ca3c 722a 333e 2d32 d3bd 73f4 94bd
000001b0: d557 e13d f275 9dbd 5c74 2bbe 674c a03d
000001c0: 716d ef3b a793 35be db75 afbc 6ea5 2a3c
000001d0: 8539 1bbd ec56 f1bc 8299 f0bd 5364 45bd
000001e0: 70fb 0bbd db4b 1d3e 16ca 8b3d 91ca b8bd
000001f0: 43cc c7bd 2639 abbb 81ec 813d b55d 4bbd
00000200: 103a 1bbd 5032 c3bd 3b58 bc3d 7935 c63c
00000210: 2d5b 0dbe 88ed 2dbd 7d5d 21be 61e9 af3d
00000220: 0009 8f3d 0ed0 4b3d c704 41be 3fa6 6dbe
00000230: dc7e 9dbd 1b99 333e 40b5 313d 4dba 0b3e
00000240: e056 be3d e526 083e c729 b63c 6112 ffbd
00000250: b390 a13c 9df3 263d 1d53 50bd 3c92 f73d
00000260: 4c1b f1bd 9d2a cd3c 5b62 5f3e 4a39 e6bd
00000270: bf2d a8bd 57e8 0fbe c194 7ebd 0f43 1f3e
00000280: d06a 053e 3fa3 8c3d 3c0b b93c 16ef 323c
00000290: 4171 d1bd d1e5 263e 3344 823d 549b f93d
000002a0: 2e55 153e 6709 533d d1b2 debc 6824 4dbd
000002b0: 5e16 4b3e 8ffe d83b 6878 c7bc 7e16 333d
000002c0: 1d3a 363e 9da1 c53d b7a0 b63c 0f58 85bd
000002d0: 1543 9b3d 5ccb 023e 92f5 41bd 8cac 2bbd
000002e0: 0dad 36be 1540 a23c bb0d a23e d07d 3c3e
000002f0: 4b8c 0abd 8be1 00be 8255 1ebd 3daf 1fbe
00000300: 38a2 b63d 8d69 dc3d 420c 273d 334b f5bd
00000310: 6bcf a2bd ae18 a2bd 6364 4e3e ca97 ff3b
00000320: 3bc9 363e 2e3a ef3d ed0e 71bd 4a35 203e
00000330: 6756 31bd 6a0e 873d 5497 1ebe 8d4d 07bd
00000340: bc7e dcbd fc23 833c 007f 12bd f145 24be
00000350: a5cc ddbc ee6e 12be e36b 803d 8788 bd3d
00000360: 7f10 50bd d82a 3bbb 93fd 013d f768 31bd
00000370: f233 513d a2ad 70bd 3fff d53d 8343 713d
00000380: 8efe 63bd 49f9 603d 11d0 6c3c b0be 483e
00000390: c6c9 53bd 9af3 38bc 7ef5 213d 7bde 1b3d
000003a0: c664 dabd b416 21bd d667 723c e427 c9ba
000003b0: 51b1 6f3d 7ec0 e33d cbdf 58be cd1c 9e3d
000003c0: 3aa1 c0bd 83a5 90be b927 ef3d d041 6abd
000003d0: 34a4 30bd 849b 06be 4acc 8c3c b91e e3bc
000003e0: 2305 283e bf40 cdbd c183 90bd 2440 323d
000003f0: 671a ab3d f2a0 603e 6716 063d 0a9f dfbc
-0.016603814 0.1808439 0.036387525 -0.028143615 -0.30296347 -0.13904232 -0.01265081 0.055021722
0.10798312 0.019022157 0.13100335 0.009946222 -0.107339256 0.12584835 -0.061732363 -0.07279088
-0.19507499 0.03153031 0.1712407 0.11397942 -0.033437785 -0.06781343 -0.15457296 0.027039682
-0.0361563 0.015302565 0.054161932 -0.075349726 0.055456236 -0.014350527 -0.19424132 0.00028640835
0.048642386 -0.020225998 0.1918476 0.064886525 -0.0023949922 -0.036867525 0.08059567 -0.046458725
0.04067536 -0.23434268 0.19970094 0.2694564 0.03905684 -0.0999725 0.039545465 -0.0015665361
-0.037585653 -0.059967995 0.16091521 -0.17161882 0.17094426 0.07804051 -0.07009204 -0.16691133
0.0006951884 0.042555608 0.046920493 -0.015249773 0.023533454 -0.02548812 -0.079260424 -0.14744711
0.15892108 0.030921033 0.10358411 0.03827095 -0.09407799 0.19129407 -0.0483078 -0.12151136
-0.08624129 -0.20728989 -0.10217997 0.12887782 -0.14968395 0.041466266 0.0012440627 0.097727075
0.0243704 -0.11321574 0.08323518 -0.22926171 0.056796737 0.051985025 0.072800726 0.1080606
0.08552594 -0.017539103 -0.0571859 -0.07483291 0.053856697 0.21596666 -0.08459773 0.028196556
0.058328398 -0.03240741 -0.024051746 -0.050472967 0.08392428 0.037171643 -0.20199357 0.013595992
0.0246821 0.1749666 -0.10312305 -0.072731875 0.11003081 -0.07688512 -0.16743606 0.078270726
0.0073067476 -0.17732106 -0.021418503 0.010415418 -0.03789665 -0.029460393 -0.11748029 -0.04819138
-0.034175336 0.15360968 0.06825654 -0.090230115 -0.09755757 -0.0052253185 0.06343938 -0.049649913
-0.03789717 -0.09531081 0.09196516 0.02419542 -0.13804312 -0.042462856 -0.15758319 0.08589435
0.069841385 0.049758963 -0.18849479 -0.23207949 -0.07690212 0.17538874 0.043385744 0.13645287
0.09293914 0.13296087 0.022236718 -0.124546774 0.019722318 0.04075967 -0.050860513 0.12088439
-0.117727846 0.025044734 0.21814863 -0.11241396 -0.082118504 -0.14053474 -0.06215358 0.15552925
0.13029027 0.06867074 0.022588365 0.01092126 -0.102266796 0.16298606 0.06360664 0.121878296
0.14583275 0.05152264 -0.027184876 -0.050083548 0.19832751 0.0066221426 -0.024349406 0.043722622
0.17795606 0.09649966 0.022293432 -0.065109365 0.07581154 0.12772888 -0.047353335 -0.0419126
-0.17839451 0.019805947 0.316511 0.18407369 -0.0338252 -0.12586038 -0.038655765 -0.15594192
0.089176595 0.1076232 0.040783174 -0.11977234 -0.07949718 -0.079148635 0.20155482 0.007800077
0.17850201 0.11681019 -0.058852125 0.15645328 -0.04329529 0.06594546 -0.15487415 -0.033032943
-0.1076636 0.01600837 -0.035765648 -0.16042306 -0.027075121 -0.14300129 0.06270578 0.09254556
-0.050796982 -0.0028559472 0.031735968 -0.043312993 0.05107493 -0.05875934 0.10449075 0.058902275
-0.055662684 0.054925237 0.014453904 0.19603992 -0.051706098 -0.011288548 0.03954076 0.03805397
-0.10663752 -0.039328292 0.014795264 -0.0015346971 0.05851871 0.11120699 -0.2117912 0.07720337
-0.094057515 -0.28251275 0.11677498 -0.05719167 -0.043125346 -0.13145262 0.017187256 -0.02772461
0.1640821 -0.10022115 -0.0705638 0.0435182 0.08354645 0.21936396 0.03273621 -0.027297515

network_body.linear_encoder.seq_layers.2.bias f4 [128]
00000000: 6ce5 5fbb 2d23 5b3a b7fc 89bb a43b fabb
00000010: 0947 32bb 743a ceba c152 e03b 6596 03bc
00000020: 8871 1fbb 86bc 42bb 284e 4c3b 0d26 ceba
00000030: cb84 37bb c611 48bb 1ed0 cc3a fd8a 603b
00000040: 4bc4 9fbb 739a 1eba 2989 8cbb 666b 3bba
00000050: 78e6 a33b fbb3 a0bb a3c6 c5bb 8e0d d1ba
00000060: 790e c2ba 971f 8a3a 707d 463b d004 163c
00000070: b7e7 c4bb 9f47 97bb f53d 45bb e165 8abb
00000080: a258 d9bb a319 213b a929 4a39 50d4 e439
00000090: 6d6b 52bb 602c 713b ab2f a03a 9ad6 303b
000000a0: 953c bbbb b79b da3b b76c a8bb 8eb6 803a
000000b0: 5a23 5fba c82a 903b 3cb3 d1bb 0e81 02bc
000000c0: 936e 483b adf9 10bb 7fa5 133c 0bdc 803b
000000d0: 1020 333b ec07 ad3b ef4b b43b 4413 2ebb
000000e0: 1b1f a2bb 906f c1bb 77fc 59bb 7c80 893b
000000f0: c8ad dc39 0a8a d0bb b46c 9039 625f 03bb
00000100: fd88 71b9 6ea9 26b8 79b0 3d3b 9a96 7d3a
00000110: c8bc 21ba a96b 973a 0794 0e3c 3213 353b
00000120: a25d dd3a 222e a1b8 80ea fcbb d088 b7ba
00000130: e8b3 553b 6c2b 9b3a 3608 a33b f5c7 693b
00000140: 422d 7dbb 9341 5b3b c883 a33b 9e4d beba
00000150: bc9c d7bb f1e6 03bc b7d1 9fbb 604b 3fbb
00000160: a398 93ba d39c 5c3b 7522 84bb 6e58 4e3b
00000170: 6a88 9abb 9be2 1abb 1252 3b3b fa1c fe38
00000180: 4e0b c8bb d8cd b43b 1ebc b23b 7e97 6abb
00000190: bd62 3e3b 566e a0bb 0850 e33a 413c 95bb
000001a0: 4c2e 703b a6ae 1dba 2c25 80bb fae5 26bc
000001b0: 0666 3fbb 2a5a e7bb 2010 27ba 9ea2 b03b
000001c0: 11b2 073c 65d1 4539 644e 0dba 39be 30ba
000001d0: c022 3fbc d37c 53bb bdfe e1ba 9fe1 953a
000001e0: b2d4 05bb a197 413a 5079 453a 8db8 9f39
000001f0: a089 f5ba 9610 e13b f5b2 cfbb 7831 4bbb
-0.0034163846 0.00083594286 -0.004211034 -0.0076365042 -0.0027202985 -0.0015733973 0.0068458025 -0.008031462
-0.0024329145 -0.002971442 0.0031174514 -0.0015727893 -0.0028002735 -0.0030528172 0.0015625989 0.003426253
-0.004875695 -0.00060502364 -0.0042888117 -0.00071494875 0.0050018393 -0.004904268 -0.006035642 -0.0015949474
-0.0014805339 0.0010537979 0.003028717 0.009156421 -0.006009068 -0.004616692 -0.0030096744 -0.0042235707
-0.0066328803 0.002458193 0.00019279741 0.00043645734 -0.0032107488 0.0036800131 0.0012221237 0.0026983381
-0.005714009 0.0066713947 -0.005139913 0.000982003 -0.00085120427 0.004399631 -0.00639954 -0.007965339
0.0030583485 -0.0022121475 0.009011625 0.003932481 0.0027332343 0.0052804854 0.005502216 -0.0026561776
-0.0049475557 -0.005903192 -0.0033262053 0.0041962247 0.00042091147 -0.006364112 0.0002754681 -0.0020045866
-0.00023034583 -3.9735278e-05 0.0028944297 0.00096736255 -0.0006169793 0.0011552471 0.008702285 0.002762985
0.0016888867 -7.685671e-05 -0.0077183843 -0.0014002565 0.0032608453 0.0011838502 0.004975344 0.0035672162
-0.0038631712 0.0033455833 0.004990075 -0.0014518981 -0.0065799635 -0.008050666 -0.004877295 -0.0029189214
-0.0011260699 0.003366281 -0.004032428 0.0031485814 -0.004715969 -0.0023633603 0.0028582853 0.00012117061
-0.0061048632 0.0055177025 0.005454554 -0.0035795863 0.0029050552 -0.0048959656 0.0017342577 -0.004554302
0.003664869 -0.00060150994 -0.003910681 -0.010186667 -0.0029205098 -0.007060309 -0.0006372947 0.005390479
0.0082822 0.0001886539 -0.0005390404 -0.00067422126 -0.011666 -0.0032270446 -0.0017242056 0.0011435038
-0.0020420966 0.000738496 0.00075330306 0.00030464344 -0.0018733032 0.0068684323 -0.006338472 -0.0031004827

network_body.linear_encoder.seq_layers.2.weight f4 [128, 128]
00000000: 2bbe 4b3d 3ffd a03d ebd1 093e 1682 58bd
00000010: 893d 883d 8b45 0dbe fae9 efbc ce7c 64bd
00000020: 2119 123e 8643 5bbd 1db8 f1bd 6257 153d
00000030: 5b59 a93c fd6a 9b3d 92f6 133e f971 a23c
00000040: 06e0 213e fc99 8ebc d87b dc3c a17c 8b3d
00000050: 6855 97ba a6de aabd 3b94 c33d 73b7 f83c
00000060: 30a0 8cbd 69a6 17bd 85be 1a3e f1a2 a23d
00000070: 7cdc 21be 880e 22bd f209 f3bc e924 c63d
00000080: 5b77 013d 4934 febc b7c4 333d c212 07bd
00000090: f1ac c8bd 3d7b aabd 765b 29bd e5d2 09bd
000000a0: 001c 393e 495e 33bd 44dc bfbd 83e8 e73d
000000b0: b056 e7bd 6e56 9dbd a2bf 9a3d 81e6 ffbc
000000c0: f871 333b f982 44bd 1988 0dbe de55 bf3b
000000d0: 7ef0 6e3d f8ab 8bbd 8aa9 853d de4c 863c
000000e0: c816 fdbb 2248 823d 92d3 2d3d 40d8 edbd
000000f0: 84e8 003d 4e88 faba 58a0 87bd 89b9 443e
00000100: 8d38 44be 1b25 8ebc 4a62 c83c 9fe2 bcbd
00000110: 2169 f3bc 70fe 853d 2733 5abd 4cc7 513e
00000120: b426 02be 75b9 88bc c777 f8bc e768 41be
00000130: 31c5 5fba e7fa 533d ded8 0f3e 595b 55bd
00000140: 153e efbb fd4d e73d abd2 60bc ee4b 76bd
00000150: 295b afbd 2cc2 59be f9cf a13a e31f 673e
00000160: 4f04 41be 41fa 963d 82eb b5bd 6a57 8b3d
00000170: 0f79 b43d b199 1d3c 77ab 73bd 215d cb3d
00000180: 4624 023c fc34 e5bd ac6a 923d 7f4c 89bc
00000190: cfc9 173d b8be 06be 079b 363e 9b26 b03d
000001a0: 2f41 1b3d 998b f1bd b110 92bd f03e 7ebc
000001b0: ddf5 c8bd f01e 773b f3ce 84bd 403f 8fbd
000001c0: 49a3 e8bd a663 d6bd fd39 1e3e 6d27 333b
000001d0: aac8 73bd a9a8 f13c 3cc3 81bd 3516 65bd
000001e0: 11c9 79bd 78e2 bebd 290d 143e 4f88 2bbd
000001f0: 27e4 cc3d 4aa2 1abe eebe 21be da0d b0bd
00000200: 6561 3dbe 469a e1bd f4c5 443d 7c0e 29bd
00000210: 972d 08bd 4e32 9ebd 2db7 9e3d 5266 c53d
00000220: 2a76 913d 27f5 5fbe 51e6 1abd a71c f4bc
00000230: fa93 58bd e6a3 9d3c 16ed 5a3e 647f f83c
00000240: 78b5 313c 3e8e f43c 011c 8cbd 0de8 e2bb
00000250: 02bb 9cbd c760 b2bd 9f3e c43d 0941 c5bd
00000260: 2a72 163b 08ce 63bb 28da 16bd 2182 8c3d
00000270: d815 a43d 8d4c d7bc 2936 cabc 4714 ef3d
00000280: e11b a4bb 0e51 eb3d 2e3d e0bc f8d1 d2ba
00000290: df85 6e3d 96eb b5bd 28a6 193e f39f 153e
000002a0: 3fc8 853c 7a81 97bd 3a42 81bd 7b32 d53d
000002b0: 5b49 ccbc f8ed cdbb d171 853d c177 20bc
000002c0: 0f03 c7bd 4104 fa3c 8d81 b1bd fa9d a0bd
000002d0: 1ce4 6bbd 3f2c 08bd bbea 1fbe 0f27 b43d
000002e0: d6d6 6c3d c368 5ebd 8918 9cbd 6184 b2bd
000002f0: 86e5 c53c 0f22 3ebd caaf 4b3d ef87 fbbd
00000300: 861b cbbd 7617 febd f63a 8c3c 6fbe 693d
00000310: 1a1b 2a3d 1622 74bd e263 09bd 6131 69be
00000320: 0b69 8dbc 5cd2 7c3c 4034 a3bd 7f15 8f3c
00000330: e09d 13be 0a8f 13bd e0ae 91bc 1b7b f73d
00000340: 6242 a33d 1a2f b93b 652f bc3d 6f07 87bd
00000350: 430e fcbd bed6 91bc c2d6 973c 16ea 153d
00000360: 83b0 973d 2ecd e13a 0c4d 79bc be5e 30bd
00000370: d661 b7bd c687 fcbd 3513 a33c ceb2 fb3d
00000380: 21de 8d3d c1da 4bbd a54b cbbc 7fb6 373d
00000390: 90a7 abbd 1f12 05bd 3da2 043e 8405 54be
000003a0: 2032 223e 2a14 5c3d df31 893d 9eda 973d
000003b0: a01a 0abe 9247 0cbd c507 92bd c57c c13d
000003c0: 0c09 b1bc 5018 96bd 78cf fe3d a303 82bd
000003d0: c445 cdbd 0b25 503d 3845 2f3d ca1b d0bd
000003e0: 9b94 d2bd fe56 b7bd 6dc4 a4bd 00a6 85bb
000003f0: 31f3 a63d 6dd6 b33c 2cbc 513d 3a20 1f3e
0.049741905 0.07860803 0.13458984 -0.052858435 0.06652362 -0.1379606 -0.029286373 -0.055783086
0.14267398 -0.053531192 -0.11802695 0.036460288 0.02067249 0.07588766 0.14449528 0.019829737
0.15808114 -0.01740741 0.026914522 0.068108805 -0.0011545839 -0.08343248 0.09549757 0.030360913
-0.06866491 -0.037023935 0.1511174 0.07941235 -0.15806764 -0.03956464 -0.029667828 0.09675009
0.031607967 -0.03103079 0.043888774 -0.032976873 -0.09798611 -0.08324287 -0.04134699 -0.03364839
0.18077087 -0.04379109 -0.09368184 0.11323645 -0.11295831 -0.07682501 0.07556082 -0.031237843
0.0027381163 -0.047976468 -0.13821448 0.0058390936 0.05833482 -0.0681991 0.06526478 0.016394075
-0.007723663 0.063614145 0.042438097 -0.11613512 0.031471744 -0.0019114108 -0.0662238 0.19211401
-0.19162197 -0.017351678 0.02446093 -0.09222912 -0.029713215 0.06542671 -0.05327144 0.20486182
-0.12710077 -0.016689995 -0.030330552 -0.18887673 -0.0008536159 0.05175295 0.14047572 -0.05208907
-0.007301102 0.11294172 -0.013722102 -0.060131006 -0.08562309 -0.21265477 0.0012345306 0.22570758
-0.188493 0.07371951 -0.0888281 0.06803782 0.088121526 0.009619162 -0.059489693 0.09929872
0.007943219 -0.111917466 0.07149252 -0.016760109 0.037057694 -0.13158691 0.17832576 0.086011134
0.03790396 -0.11794204 -0.0713209 -0.015517935 -0.0981252 0.003770765 -0.06484785 -0.06994486
-0.11359269 -0.10468225 0.15451808 0.0027336732 -0.05951754 0.029499369 -0.06336066 -0.05592938
-0.060982767 -0.09320539 0.14458145 -0.04187804 0.10004454 -0.15100971 -0.1579549 -0.08596392
-0.18494184 -0.110157534 0.048040345 -0.04127358 -0.033246603 -0.077244386 0.07749782 0.09638657
0.07102616 -0.21870862 -0.037817303 -0.029798819 -0.052875496 0.019243192 0.21379504 0.030334182
0.010846488 0.029852983 -0.06841279 -0.0069246353 -0.076528564 -0.08709865 0.095822565 -0.09631545
0.002295623 -0.0034760255 -0.036829144 0.068607576 0.08011979 -0.02628162 -0.024684029 0.116737895
-0.0050082062 0.11490069 -0.027372923 -0.0016084304 0.05823314 -0.08882825 0.1500479 0.14611797
0.016330836 -0.073977426 -0.0631146 0.10410019 -0.024937322 -0.0062844716 0.065158494 -0.009794177
-0.0971738 0.030519607 -0.08667288 -0.07842632 -0.05759059 -0.03324532 -0.15616886 0.08796512
0.05782207 -0.054299127 -0.07621867 -0.087166555 0.024157297 -0.0464192 0.049728192 -0.12281787
-0.09917359 -0.124068186 0.017117959 0.057066377 0.041529752 -0.05960282 -0.03354252 -0.22772743
-0.017262002 0.015431013 -0.0796895 0.017466305 -0.14415693 -0.036025085 -0.017783582 0.120840274
0.07971646 0.005651367 0.09188727 -0.06593215 -0.12307408 -0.017802592 0.018535022 0.036600195
0.07406714 0.0017227286 -0.015216123 -0.043059103 -0.089542076 -0.12330584 0.01990662 0.12289964
0.06927133 -0.049769167 -0.024816344 0.044851776 -0.083815694 -0.032487985 0.12952514 -0.20705229
0.15839434 0.053730167 0.06698965 0.07414745 -0.13486719 -0.034247942 -0.07130388 0.09447626
-0.02161076 -0.07328856 0.12441915 -0.0634835 -0.10023072 0.050816577 0.04279062 -0.1016155
-0.102822505 -0.08952139 -0.08045278 -0.0040786266 0.08151854 0.021952832 0.051204845 0.15539637
