Learning/results/mx11/KartAgent.onnx (onnx, 104129 bytes, 7 tensors)

41 f4 [1, 2]
00000000: f1d7 59be 4c87 adbf
-0.21273781 -1.3556914

distribution.mu.bias f4 [2]
00000000: b371 833d 6e7c 893e
0.06418171 0.26852745

distribution.mu.weight f4 [2, 128]
00000000: 02a3 223c 2347 0f3c 61a2 f73b a8fd 943e
00000010: 28e1 aabb 2a16 d6bc bd45 bbbc 43ff 1fbd
00000020: 4a96 80bb f2e0 a33d 56a4 8cbb 1adb 73bd
00000030: fe11 7f3b 700b 86bc e031 9d3d 34a1 183e
00000040: cfdf 503b bb9e a93d 5ca8 743e b4b4 37bd
00000050: d95a f8bb 0896 1ebe 5675 6fbc 79de 5b3d
00000060: 6f8f c5bb 0bcf f3ba 43a4 913c 0544 b1bc
00000070: 1480 483c 9287 413c fc7a 273e 8d8e 3b3c
00000080: b25b 913c 3d51 03bc 00a0 05bd e4b6 56be
00000090: 40f6 a03c ec0c 843b 7629 2b3c 3696 953c
000000a0: cade 70ba 5294 eebd ed1e 693d 9be1 283e
000000b0: 7f9c 8a3c f992 613b e4df a8bc 5aab 06bc
000000c0: 9510 0abd 6a84 443c 7beb 95bd 0362 603e
000000d0: b609 77bc b023 4abb c187 24bd c063 70bd
000000e0: 55ae 29bd b523 3abb 3456 8bbd 3bff 02bd
000000f0: 8da3 c23a 516a 66bc f519 c1bb 5b7b eebb
00000100: 157f 38bc c645 87bb 0cd3 4fbb b78a afbb
00000110: 699d 5ebd d003 313c b2a4 4dbd f2d5 49bb
00000120: d24b 0fbc edab 8d3b 39ce c8bc 0f36 273c
00000130: cde8 363c 0649 79bd c024 f6bc 7dd1 7138
00000140: 00df 35bb fe7a adbc f0f0 e43c 782c 88bb
00000150: 6f62 f7bb 222f 223e 5582 e53b 8f67 baba
00000160: 0619 a33b 1de9 0a3c 37ee f1bb 3678 58bd
00000170: 2437 dcbb 93c3 773b 3af6 cc3a 37ad 323c
00000180: fe25 bd3c c1f4 ce3b 53e3 16bd 8b2f 35bc
00000190: 2c3b 89bd 2b2d 16bb 6fdc 66bc ea77 30bc
000001a0: ff4d 6fbd 87e9 e1bc 76c9 8abd 8b4b 353c
000001b0: 8594 95bd cd9e 0e3c afd8 79bc 30e9 56be
000001c0: 04f9 793a 73b0 d1bc adab dbba 9fee db39
000001d0: 1d31 4ebd 987e 6a3c 143a abba 65ac 8abb
000001e0: 1b15 8dbb 60d3 c3bb 3d0a 35bd 8566 403c
000001f0: 7a11 6bb8 d8c3 9f3e e577 aa3b c4d3 863c
00000200: 22f0 833b 02a5 9f3c deb3 a83a 1abd cdbc
00000210: a874 eaba 6c00 f4bd 30b2 1ebb 3071 95bd
00000220: 9284 03bb e594 2cbc bd03 093c 08fa 21be
00000230: b9ea 753a 99ed dfbd 2f12 75bc 79cf b5bc
00000240: a713 8bbb 7df2 8cbc 854d fabc ac6d acbd
00000250: 4a48 b139 0201 ebbc 9e03 46ba 73c2 0fbd
00000260: 3d3f eb3b 8234 c53a 20ed 4abb 9a74 8a3a
00000270: 91a8 d7b9 8b23 543c b881 e6bc 097a e8bb
00000280: 5bad 273c 647f ddba 5c68 0cbe f4ca dc3c
00000290: cccc 823b 547f 253a b1e3 21bb c550 89bb
000002a0: ac04 5fba 9d25 27bd 033a 5ebc 4e16 5b3d
000002b0: 1b6c 1cbc f5b5 83b9 2313 31be 9615 94bb
000002c0: 743c dcbd 8277 3e3b 9c93 09be 1c10 0cbd
000002d0: 84c6 1ebe 5c4b 903a 65ac 1dbe c804 0bbe
000002e0: bd81 01be ca4f 9abb e93b 0bbe 72d4 febd
000002f0: 426d 89bb a1ed 1fbc d204 053c 2e3f 7c3c
00000300: c418 cdbd 5133 88bb 73fb f2bb 81bb cbba
00000310: 150b a2bd 5834 54bc 151d 83bd 0c31 55bb
00000320: 11ab 4a3c e8e8 213c 073b 36be 332a fdbd
00000330: b6ce af3b 1232 01be 47f4 eebb 8971 5438
00000340: 0c80 a939 8610 203c 0b36 2ebc ff03 133a
00000350: dcc8 85bb 2437 debc 82c0 54ba 3159 e63a
00000360: 4128 1cbb eec7 033c f91b 43bc 14c6 14be
00000370: 9c5e bb3b ba9e 15bb c0f7 a5bb 289f 79bb
00000380: 9e04 273c f626 e3bb e7e9 02be e9b3 1abe
00000390: cb8f c8bd d26b 23bb 509a 23bc 46ce f23b
000003a0: 9f11 11be 028a 16be d538 a4bd a3ac 01bb
000003b0: 6056 31be 7c55 f43a 903a 6dbb 3c6f d9bc
000003c0: 5019 c3bb a477 12be e517 e4bb 2cfb de3c
000003d0: bbcf b6bd 5706 79bc f522 c1bb dcb9 5b3a
000003e0: 4f7c b63a d680 5039 5e51 43be b9b3 8d3a
000003f0: 8513 a73a 0949 93bc 9b01 b43b 432d c13b
0.009926559 0.008744988 0.007557199 0.29099774 -0.005214829 -0.026133616 -0.022860402 -0.039061796
-0.003924166 0.08001889 -0.0042920513 -0.059535123 0.0038920636 -0.016362876 0.076755285 0.14905244
0.0031871682 0.082822286 0.23892349 -0.044850066 -0.0075791893 -0.1548692 -0.014615377 0.053678963
-0.0060290615 -0.0018601132 0.017778521 -0.02163888 0.012237567 0.011812108 0.16355509 0.011447561
0.017743919 -0.008014974 -0.03262329 -0.20968205 0.019648671 0.0040298607 0.010446897 0.018260103
-0.00091884716 -0.116493836 0.05691426 0.16492312 0.016920326 0.0034419878 -0.020614572 -0.008219564
-0.03370722 0.011994461 -0.07320305 0.21912389 -0.015077999 -0.0030844025 -0.040168528 -0.05868888
-0.04142602 -0.002840263 -0.06803551 -0.031981688 0.0014849767 -0.014063434 -0.005892987 -0.0072778887
-0.0112607675 -0.0041281907 -0.0031711487 -0.0053571123 -0.054349337 0.010804132 -0.050205894 -0.0030797687
-0.008746104 0.0043234737 -0.024512397 0.01020576 0.0111639025 -0.060860656 -0.03004682 5.765398e-05
-0.0027751327 -0.021176811 0.02794692 -0.0041556917 -0.007549576 0.15838292 0.007004062 -0.0014221537
0.0049773483 0.00847843 -0.0073831338 -0.052849017 -0.0067204405 0.003780578 0.0015637346 0.010905555
0.023089405 0.006315798 -0.036837887 -0.011058698 -0.06700739 -0.0022915106 -0.014090641 -0.010770777
-0.058423992 -0.027577175 -0.06776707 0.011065374 -0.073037185 0.008704853 -0.015249415 -0.20987391
0.00095357024 -0.025596833 -0.0016759537 0.00041948722 -0.050339807 0.014312409 -0.0013063573 -0.004231977
-0.0043054945 -0.0059761256 -0.044199217 0.011743193 -5.6044642e-05 0.31204104 0.005202281 0.0164584
0.004026429 0.019487862 0.0012870987 -0.025114585 -0.001788755 -0.11914143 -0.0024215095 -0.072969794
-0.0020068032 -0.010533546 0.008362708 -0.15818036 0.00093809847 -0.1093399 -0.014957949 -0.022193657
-0.004244286 -0.017205471 -0.030554542 -0.08419356 0.0003381393 -0.028687004 -0.00075536396 -0.03509755
0.0071791694 0.0015045556 -0.0030964091 0.0010563314 -0.00041133587 0.012947927 -0.028138027 -0.007094626
0.010234202 -0.0016898927 -0.13711685 0.026952244 0.003991699 0.0006313224 -0.0024702365 -0.0041905367
-0.0008507471 -0.040807355 -0.013563636 0.05348807 -0.009547259 -0.00025121836 -0.17292456 -0.004519175
-0.10753718 0.0029062931 -0.13435215 -0.03419505 -0.15505415 0.0011008787 -0.15397795 -0.13576043
-0.12647147 -0.0047092186 -0.13597073 -0.124428645 -0.0041939327 -0.009761245 0.008118825 0.015395923
-0.10014489 -0.004156508 -0.007415229 -0.0015543551 -0.0791227 -0.012951933 -0.06402031 -0.0032530455
0.012369887 0.009882189 -0.17795955 -0.123615645 0.005365218 -0.12616757 -0.0072923037 5.0650477e-05
0.00032329594 0.0097695645 -0.010633002 0.00056082004 -0.004082782 -0.027125902 -0.0008115844 0.0017574189
-0.0023827704 0.008043272 -0.011908525 -0.14528686 0.0057180654 -0.0022830204 -0.0050649345 -0.003808925
0.010193972 -0.0069321347 -0.12784539 -0.15107693 -0.09793051 -0.0024936092 -0.009985521 0.0074098436
-0.14166878 -0.14701083 -0.08018652 -0.0019786737 -0.17318106 0.0018641199 -0.0036198236 -0.026542298
-0.005953945 -0.14303452 -0.0069608563 0.027219377 -0.0892634 -0.015199265 -0.00589406 0.0008381882
0.0013922545 0.00019884421 -0.19074008 0.0010811008 0.0012746906 -0.017979162 0.0054933554 0.005895288

network_body.linear_encoder.seq_layers.0.bias f4 [128]
00000000: 33f8 e7bc c0b4 bcbd 3fc9 0bbc 1d49 50bd
00000010: 1fe3 60bd 9555 7fbc a507 71b9 cc43 8a3d
00000020: 2582 88bd 47bc ccbd ab38 0fbe 0ec8 a03c
00000030: 10c9 8b3d 622b 5ebd 89df 32bd a8e7 06be
00000040: d530 5d3d 3cd6 0d3b 248a ff3c ffb3 8bbb
00000050: 0715 aabd 9512 113e 0134 3ebd c923 a5bc
00000060: f7b1 a7bd 29c9 423d 099f 33bd 5fdc 38bc
00000070: 4c48 213d 6a0e 08bd 567a bbbd 42db 1dbd
00000080: be9b 33bd 7df7 84bc 8137 f2bd 3865 8abd
00000090: 0e31 73bc d752 1dbd 52ce c8bd 248f 86bd
000000a0: b740 dbbc 69d3 bcbd afcf 603d 0dcc 1cbd
000000b0: 76a1 303d 3797 dabb d512 903d e0e8 8bbe
000000c0: 9d59 073e d629 d73c 0149 cdbc c915 393d
000000d0: 5655 753d 6b54 bc3c de56 bbbd 62ca 953d
000000e0: 3aa7 bd3d 13ba b3bd b0c3 903c 4986 36bd
000000f0: afb4 fdbd f6ef 3b3d 09cb 813d 6bf0 f4bd
00000100: 8cc9 353d e9c5 4bbd 9528 d9bd 26a0 58bd
00000110: 931f fabd 9734 91bd 26b6 58bc 09a8 1fbd
00000120: 03b9 863d 8eae acbd 53ed f63c 01e8 ad3d
00000130: f969 4e3e e786 173e 0b1c e13b fb13 d13c
00000140: f700 12ba 2a47 c3bb b85b 9fbd a2e8 c73c
00000150: 6700 b53c e602 ecbd 67fa 4b3d d133 deb8
00000160: b95a 84bd 3f3e 4abd 7c35 eb3b 562d 4e3d
00000170: 0ef2 e7bc a7a3 a6bd 94f5 d93c f67f a13c
00000180: c0e2 21bd f2d1 ca3d f976 d63d 1fb3 403d
00000190: 6f6a a73d c79c 1abc 0605 02be 27d4 23bd
000001a0: 7306 b7bd 2337 ecbd d648 5bbc f06f 883d
000001b0: d8f2 43bd 8026 5ebc f16b c5bd a68d 21bd
000001c0: 9e3a ef3c 3d8c 333d c812 1ebd 32c0 15be
000001d0: 1f75 8abd ff1d bb39 e5b0 13be 057a 00be
000001e0: f08a a7bd 6967 babd d567 d2bb 58ef aabd
000001f0: 6e97 0ebd 6399 9c3d 9c8d 95bd 891f 27be
-0.028316593 -0.09214163 -0.0085318675 -0.050850976 -0.0549041 -0.015584369 -0.00022986399 0.067512125
-0.06665448 -0.099968486 -0.13986461 0.019626644 0.06825459 -0.05424059 -0.04367021 -0.13174307
0.054001648 0.0021642586 0.0311938 -0.0042634006 -0.08304792 0.14167245 -0.046436314 -0.020158665
-0.08188241 0.047555123 -0.04385284 -0.011283009 0.03937559 -0.03321687 -0.09154193 -0.03853918
-0.0438497 -0.016231293 -0.11826993 -0.06757587 -0.0148432385 -0.03840908 -0.098049775 -0.06570271
-0.026764257 -0.09220011 0.054885563 -0.038280535 0.04312273 -0.0066708582 0.07034842 -0.27326107
0.13217779 0.026265066 -0.025059225 0.04518679 0.059895836 0.022989472 -0.09147428 0.07313992
0.092604116 -0.08775725 0.017671436 -0.044561658 -0.12387978 0.04588314 0.06337554 -0.119599186
0.044381663 -0.04974929 -0.106034435 -0.052887104 -0.122130536 -0.07090109 -0.013227021 -0.03897861
0.06578257 -0.08431731 0.030142462 0.08491517 0.20157613 0.14797555 0.006869798 0.025522223
-0.0005569602 -0.005959411 -0.07781166 0.02440292 0.022094918 -0.1152399 0.04979935 -0.000105954365
-0.064626165 -0.04937577 0.0071780067 0.050336204 -0.028313663 -0.08136683 0.026606359 0.019714337
-0.039522886 0.09903325 0.10471911 0.047045823 0.081745975 -0.009436793 -0.12697229 -0.039997246
-0.08936777 -0.11533954 -0.013384065 0.066619754 -0.047839016 -0.013558984 -0.09639729 -0.039441727
0.029202756 0.043834914 -0.03859213 -0.14624098 -0.0676062 0.00035689768 -0.14422949 -0.12546547
-0.08180797 -0.09101755 -0.006421069 -0.083464324 -0.034812383 0.07646444 -0.073024005 -0.16320623

network_body.linear_encoder.seq_layers.0.weight f4 [128, 68]
00000000: 99ae cbbd b662 273e 57d7 cabb c10c 693f
00000010: 0d26 84be 13af 1bbe 32e6 8b3d 7e96 203d
00000020: d3cc 273e 61ae 223e a6bb 8fbd e246 373f
00000030: b2ed 43bb 48ac 7e3d 478d 153e 4f4e cabe
00000040: 1115 89bd d0be c4bd 74e0 87bd bcd8 cfbd
00000050: 3141 823d 30fe 7f3d 2912 0c3e 260c 3bbf
00000060: b53e 23be 7d1b 2dbe b1c2 cd3d a304 b3bd
00000070: 282b 143e a7a4 28be d109 193e 1ce2 99be
00000080: 8d4c b3bd 2b34 893d 7104 41be adb7 ddbc
00000090: 28d2 7fbc 5922 87bc ca78 18be 2b62 54bd
000000a0: a5f4 a53d 4aa5 d33d 9de0 873d d058 26be
000000b0: 726c 99be da9a f1bd f7fa aebe 1e5b 26bc
000000c0: dacb ae3d 9747 643d 1199 a9bd 23fa d53e
000000d0: bca7 943e 0801 57bd ec17 e8bc 8c0c ab3d
000000e0: c2fe 21be 07e6 b33d f6ff 75bc 94e3 303e
000000f0: c365 e03b d422 433d a671 1abe 14b2 503d
00000100: de20 8ebb e933 66be 9007 d43d 58ca cebd
00000110: 9f37 c43c 2344 a1bc 5323 1bbc 5c96 b5bf
00000120: 04fd df3d e73f 66be 56ac 01bd 40eb 553e
00000130: c3b3 f53d 1b45 5bbd 57aa 883d 4055 6dbe
00000140: 7e90 b1bc c087 b3bd 08b8 bdbd ea4f f83e
00000150: 6cfa 723d 2343 9c3d 7e74 1ebd 2bc9 543e
00000160: 811f dcbb 5eaf 9f3d fdbf 45be b07f 013f
00000170: 51e8 a63d 8b3e 12be 1229 1e3d 14d7 27bd
00000180: 9c31 ed3d 0088 67bb 6b76 03be cdaa 443c
00000190: 1c51 45be d742 96bd f089 fb3d 8791 d6bd
000001a0: e6cf abbd 40ea a3bd 4bf0 b0be c172 d03d
000001b0: 1640 25bc 1bed 98ba c4b2 ed3c db70 80bd
000001c0: 471d 5fbe d029 c1bd 1cc7 65be 4a96 103e
000001d0: 4cad 7abd 3f57 ee3d 0fd1 a83d a9a3 6c3d
000001e0: f797 e33d 10f4 8dbd 8592 46bd cb81 863e
000001f0: 1ba4 16be 3657 bc3c 43ce f43d a3a5 4ebe
00000200: 85e2 2d3e 13b6 23be 825e b33d 65de 173e
00000210: da9f 44be c6a9 6b3c f7fd 123d 6f64 5f3e
00000220: ef40 7cbe 89f4 0f3c e717 813e 5ebb a33f
00000230: 82d0 853e ba0a b03e 218d c3bd 13f5 1abf
00000240: dde6 8bbe 1a4d 25be f5cc 093e 7f6b b93f
00000250: 35c4 883d 3f24 48bd 4013 4e3d 2f05 67bf
00000260: ca76 47bd 58d8 debd 5688 0f3d 2bef b03e
00000270: 8f51 bd3d d341 d43d b240 353e 245e 98be
00000280: cb4d 83be 9b52 1f3e f413 d73d e301 db3e
00000290: 51c5 3f3e c08a 993c 2463 c93d 7cdd f0bd
000002a0: 0297 3cbc cf46 7a3c 8f22 9b3c 5f2e 933e
000002b0: 94a4 6c3d 916c 3dbd 22ef ae3c 26b7 0a3e
000002c0: d7dc be3d d61f 77be ae39 7ebd e46a 783e
000002d0: fd05 c2bd b0d9 bb3c 464e 903d 2435 80be
000002e0: adbc 8ebe 2464 6fbe 5df7 49be 62e6 053f
000002f0: 4291 b73d eb94 0a3e b32e 43bd ccaf 9dbe
00000300: bf94 d3bd 9bc3 893c c332 1e3e 61cb 0c3f
00000310: 9569 0bbe b107 433e 251c 3dbe f42b d73d
00000320: 89bc 20be fc90 563d bc2f 90bd f241 11be
00000330: a1ff a3be a76a e93d 15ab 6d3c 9418 b43f
00000340: 4512 87bd b34b f63d d417 5abd 396f bdbe
00000350: 13b7 9cbe 0340 363e f958 02bd a34f 9d3f
00000360: 9f80 583e ed19 523d ced3 08be 97b8 0bbf
00000370: 699c e8bd c2a8 5dbd 64ec 163e 2361 533e
00000380: ab3c 95bd a35b fe3a 6aca 5e3e 23ae 02bf
00000390: 4b4d 893d d17c 79be 8cd1 183e 9c39 f93e
000003a0: a142 9dbc 2d21 c63d b798 853d b355 fbbe
000003b0: aa24 06be e23d ebbd dd6d d6bd df7e d9be
000003c0: c14d be3b c654 103e 989e 15bd e65b 00bf
000003d0: f67c ad3d 1d1f bc3b 637a 9cbd aa56 113e
000003e0: 515c ab3e 8c4b edbc aa96 babd f4f0 04be
000003f0: 9454 833d d180 83bd 9213 85bd 77c7 823e
-0.09945411 0.16346249 -0.0061902213 0.91035086 -0.2581028 -0.15203504 0.06831016 0.03920602
0.16386728 0.15886833 -0.07018213 0.71592534 -0.0029896316 0.06217602 0.14604674 -0.3951287
-0.06693471 -0.09606707 -0.06634608 -0.10148761 0.063600905 0.06249827 0.13678803 -0.7306541
-0.1594189 -0.16905017 0.100469 -0.08741119 0.14469588 -0.1646906 0.14945151 -0.3005532
-0.08754835 0.066994034 -0.1884935 -0.027065123 -0.01561407 -0.01649587 -0.14889827 -0.051851433
0.08103303 0.10334261 0.066346385 -0.16244817 -0.2996555 -0.11797114 -0.34175846 -0.01015356
0.08534975 0.055732336 -0.08281148 0.41792402 0.2903422 -0.052491218 -0.02833172 0.083520025
-0.15819839 0.087841086 -0.015014639 0.17274314 0.0068480684 0.047640637 -0.15082416 0.05095108
-0.004337414 -0.2248074 0.10353005 -0.10097188 0.023952303 -0.01968581 -0.009468871 -1.4186511
0.10936931 -0.22485314 -0.031658493 0.20890522 0.119971775 -0.0535327 0.06673115 -0.23177052
-0.021675345 -0.08766127 -0.09263617 0.4849847 0.059320852 0.07629993 -0.038685314 0.20779864
-0.0067176227 0.077971205 -0.19311519 0.5058546 0.081497796 -0.14281671 0.038613386 -0.0409766
0.11581728 -0.0035328865 -0.12838142 0.012003613 -0.19269222 -0.073369674 0.12282169 -0.10476976
-0.08389263 -0.08003664 -0.3455833 0.101781376 -0.01008608 -0.0011667343 0.029015906 -0.062715255
-0.21788512 -0.09431803 -0.22439235 0.1411983 -0.061200425 0.116377346 0.08243 0.057773266
0.11112969 -0.06931317 -0.048479576 0.262709 -0.14711039 0.022990804 0.11953404 -0.20180373
0.16980942 -0.15987425 0.0875826 0.1483093 -0.19201604 0.014383739 0.03588673 0.21815656
-0.24634145 0.008786329 0.2521355 1.2791555 0.2613564 0.34383184 -0.095484026 -0.60530204
-0.27324572 -0.16142693 0.13457091 1.448593 0.066780485 -0.048862692 0.050311327 -0.90242285
-0.04869727 -0.10881108 0.03504213 0.3455747 0.09244072 0.103641175 0.1770046 -0.29759324
-0.2564529 0.15558855 0.10501853 0.42774877 0.18727614 0.018742919 0.09833363 -0.11760995
-0.011510612 0.015275671 0.018937377 0.28746316 0.05777414 -0.046246115 0.021354262 0.13546428
0.093194656 -0.24133238 -0.062066726 0.24259526 -0.094737984 0.02293095 0.070461795 -0.25040543
-0.27878323 -0.23378044 -0.19723268 0.5230466 0.089632526 0.1353337 -0.047651958 -0.30798185
-0.103311054 0.016816905 0.15449052 0.5499783 -0.13614495 0.19045903 -0.18467768 0.1050643
-0.1569692 0.05238436 -0.070403546 -0.14185312 -0.32030967 0.113972954 0.014506121 1.4070001
-0.065952815 0.12026157 -0.05324538 -0.3699892 -0.30608425 0.17797856 -0.031823132 1.2289928
0.21142815 0.051294256 -0.13362047 -0.54578537 -0.11357958 -0.054116018 0.14738613 0.20642523
-0.07286962 0.0019405972 0.21756902 -0.5104696 0.067041956 -0.2436402 0.14923686 0.48676765
-0.01919681 0.096742965 0.06523269 -0.4908882 -0.13099924 -0.114864126 -0.104701735 -0.42479607
0.005807609 0.14094839 -0.0365282 -0.50140226 0.084711 0.0057410137 -0.07640531 0.14193216
0.3346887 -0.028966688 -0.09110768 -0.12982541 0.06412616 -0.06421054 -0.06497873 0.25542805

network_body.linear_encoder.seq_layers.2.bias f4 [128]
00000000: 6e49 183c 977b 723c 338e f93b 4409 fe3d
00000010: a999 95bd 4105 d6be 1e44 a93c e5d0 acbe
00000020: ac76 1f3c 0123 cdbc 39eb 9b3d 7b2b bfbe
00000030: 507f 953a 6dfd 7bbe 9b17 e5bd 0767 a53d
00000040: e44b 5bbd 9099 02be a5d8 553d 6ba9 c4be
00000050: 6d26 273d ff9f 97bd ee73 a1bd c2e4 45be
00000060: 8552 60bc e7f7 8b3c b66e eb3c d18d 31bd
00000070: 12e4 a1bc 75ce e83b d3ad 81bc 8f49 8d3d
00000080: 9f52 a1bb d651 81bc c355 b6be 4840 1e3c
00000090: f9ec 393c 36b2 07bd 4dea 913d 125c fdbc
000000a0: d4c3 30bc 1509 cfbd 1306 50bb 28d6 a9be
000000b0: 9184 ffbb d1b0 423c 2846 b5be 422f 6f3c
000000c0: fc14 aabe 81fd d7bc 3fdd a5be d7e9 b93c
000000d0: 44d8 99be dac6 b83b 05b0 9cbe ee91 aebe
000000e0: a909 c5be f7ff 29bd e532 8dbe 87de b1be
000000f0: 07a5 a93c cfe4 72bd 4dd9 8138 a4ee 41bc
00000100: 38a4 96be b379 553c a500 06bd bab7 d0bc
00000110: 5a39 a1be b6a9 05bd ef55 99be 3cab 223d
00000120: 18c6 96ba e574 95bd 05cf a7be bc3a acbe
00000130: 4923 81ba 7f9f a8be 6238 8f3d 0cb1 0bbd
00000140: 12c9 073c fc6b c2bb 545d da3a 4212 2d3d
00000150: db2e c1bc 8305 2fbd 5e69 24bb 7358 2fbd
00000160: e8dd 1bbd fd8d cb3c 62a6 90bc 74fb afbe
00000170: 0c78 403d 6133 06bd 51ca 0e3d 5303 7dbd
00000180: 2101 ba3b e255 e43c 222b c1be b466 adbe
00000190: 8168 9abe 2c53 ec3c 9f45 ee3c 7e81 343d
000001a0: 3678 b1be 74c3 cabe c809 8abe 4a2e ddba
000001b0: b8e6 b2be 81a4 df3c 2493 00bd 0497 b53b
000001c0: 23da 1cbc b699 89be 1514 47bd c4d0 d5bc
000001d0: 2705 c1be c6b7 17bd 4c12 d3bb b98c 90bb
000001e0: 3fa1 1a3d e0d7 24bc 32a1 b0be b0fe 283c
000001f0: 5aff 013c 9402 f63d 4015 f2bc 3468 863c
0.009294851 0.014799974 0.0076158284 0.12404111 -0.07304699 -0.41800883 0.020662364 -0.33753124
0.009732883 -0.025041105 0.076132245 -0.3733786 0.001140574 -0.24608393 -0.11186143 0.080762915
-0.05353917 -0.12753892 0.05220856 -0.38410506 0.04080813 -0.07403564 -0.0788344 -0.19325545
-0.013691549 0.017085982 0.028739315 -0.043348137 -0.019762073 0.0071046897 -0.015829956 0.06898796
-0.0049231793 -0.015786093 -0.35612306 0.0096588805 0.011348003 -0.03312894 0.071247675 -0.030927692
-0.010788877 -0.10109154 -0.0031741902 -0.331712 -0.0077977856 0.011882977 -0.35405087 0.0145986695
-0.33219135 -0.026365997 -0.3239536 0.022694511 -0.3004781 0.0056389393 -0.30603042 -0.3409571
-0.38483933 -0.041503873 -0.27577892 -0.34740087 0.020708574 -0.05930024 6.191675e-05 -0.0118366815
-0.29422164 0.013029504 -0.03271546 -0.025478233 -0.31489068 -0.032632552 -0.29948375 0.039714083
-0.0011503128 -0.072976865 -0.3277513 -0.3363856 -0.0009852435 -0.32934186 0.06993176 -0.034104392
0.008287685 -0.005933283 0.0016659894 0.04225374 -0.023581913 -0.042729866 -0.0025087218 -0.04280896
-0.038053423 0.024847979 -0.017657463 -0.3437153 0.046989486 -0.032763842 0.034860913 -0.06177075
0.005676404 0.027872983 -0.3772822 -0.3386742 -0.30157855 0.028848253 0.029085932 0.044068806
-0.34662026 -0.39602244 -0.26960588 -0.0016874757 -0.3494165 0.027300121 -0.031390324 0.005541684
-0.009573492 -0.26875085 -0.048603136 -0.026100524 -0.37699243 -0.037040494 -0.00644139 -0.0044113067
0.037751433 -0.010061234 -0.34497982 0.0103146285 0.007934416 0.120122105 -0.029551148 0.01640711

network_body.linear_encoder.seq_layers.2.weight f4 [128, 128]
00000000: bb59 e2bd 0624 333d 5637 8e3d 9f73 ab3d
00000010: 913f a5bd f74c 7a3d ccb3 12bc a4af 3a3d
00000020: 86bc 81bd 683f ff3d 2d86 fdbb 8ca6 83bb
00000030: b4ff b2bd d05d ea3d 3108 71be a24c 393d
00000040: e53e b93d eb60 803e fa27 b43d 1892 e73c
00000050: b027 75be 7e61 20bc 34ec 7f3d a3bd 8dbd
00000060: e5c4 92bd cc59 6f3c a90a aa3d 1ad1 6dbe
00000070: c7e4 33be 1176 ab3d b4ba 773c 1865 053d
00000080: a2d6 d53d 29f2 a9bc 69f5 78bc 3ff8 ecbd
00000090: 56a2 87bd 455f cfbc 9d17 063e 5dfe 183e
000000a0: caa8 1f3d ad1e 4bbe cf37 dc3d b40b fc3d
000000b0: c635 00bd af42 e8bd 572f c2bd dcbd 87bc
000000c0: db14 91bd f418 d63d 2e4f 0bbc 7e5c d3bd
000000d0: 0595 45bc 8378 3b3d 3d35 7cbb 7391 a73d
000000e0: 7b25 213e 5c6c 453d bc5e 24bd 8f96 79bd
000000f0: 198b 27be 21cb a1bd e754 e4bd 2991 87bd
00000100: daf9 b93d 9d20 8c3e 6e47 963c 7e99 9a3d
00000110: 704a d03c a99e bebb e081 0bbd d5a0 d63d
00000120: cc86 15bd c1ae 0abe f913 30be 89b5 ac3c
00000130: 28fc 963d 4d1e 30bd ee25 1e3e 8e9d eabc
00000140: dfda 883d 3c9c 48bd 8860 2e3e 48ed 063e
00000150: 27b1 6ebc 0293 e43d 2d18 e63d fabf 20bd
00000160: 0cc8 103d 3ea3 2fbd 2a88 3fbd 1b9a 8bbe
00000170: 92b6 87bd f8e7 9e3b 1a3e e1bd e253 29bd
00000180: f9c6 a93d 4d14 8f3d 3ec3 113e 8e5e 8a3d
00000190: dc9f e1bc 159c 6cbe 99f9 25be aeb9 c7bb
000001a0: 6610 cb3d 655c 22bd 9412 bfbd 3888 fcbc
000001b0: 6efc 8b3d 986c f33d c12f 56bd 1e57 b23d
000001c0: 5898 10be b6cf 0c3d 9def 76bd 3242 0fbe
000001d0: 4a23 c93d b098 443e 2a33 963c eb26 0dbd
000001e0: da66 1c3d 3f24 b03e 62c0 9bbd 39f1 4bba
000001f0: d534 5f3e 724c 7bbd f041 3a3d ed3a 243e
00000200: c60b 7f3e 590e 9d3d 9ed5 b5bd f2a7 433e
00000210: 7183 a3bd 48a0 05be 26f3 933d e75a b6bd
00000220: 2b04 d03d ba7a 1cbd b9ad 73be 4900 1ebd
00000230: 2b37 e33d af22 c83d 8525 1bbe 6ad9 623c
00000240: 1c82 833e 348b 11be db51 60bd 1485 833d
00000250: 8958 84bd 92a1 b83d 954b 9bbd 5ca8 fa3d
00000260: 2859 923d 47c7 efbd 65c1 c53d 0047 453c
00000270: 11c4 273e 6ac5 5f3d 0c23 6b3c eaa3 e73c
00000280: 4de1 243e 02a4 0dbd f4df cabb b3db a6bc
00000290: c2e3 4f3d 346d 70be 40da a23d 83a2 243d
000002a0: b79f c73c 6046 40bc bb20 39be c2bc 0c3e
000002b0: 1395 8cbc 8414 54bc 1156 debb 73fe 043e
000002c0: 8207 83be 82b1 7cbe 602f a33c e52a 1d3d
000002d0: 4294 213c 5416 f53a 3553 b1ba 2a62 38be
000002e0: 57e4 15be 19c6 3c3e 3786 ccbd 2d89 0ebe
000002f0: ba0a b23d 030f ae3b 611a 1f3e e47c 8c3d
00000300: 9e3d 02be 7493 683c a7d6 ff3d 4fc7 593d
00000310: b638 803d 14e5 833d fd9d a23d 2383 093e
00000320: 2830 9fbd f42a 393e eb4a 883d ae7e 86be
00000330: 53bf 8fbd 2b5a 763d cb02 aabd 198d 4b3e
00000340: 7e64 e3bd 86ea 5dbe 9d63 e03d f455 8c3d
00000350: bd19 553d 77a4 c13b a2ef c8bc 7d43 37be
00000360: 4a40 513c 1667 003c 5619 a3bc 6946 b1bd
00000370: dcbd afbe ca77 68bd b10c 4ebd cc1a 653b
00000380: 21db 4fbb 5b04 fd3c 501e 743e e22d 38be
00000390: 33a3 bb3d 2fb8 ab3d a4f0 8ebd 8ee4 8b3c
000003a0: 3563 843d ac49 08be d517 df3d 5ae1 0a3d
000003b0: dc4c aa3b 494d 313e 4541 dcbd f654 b23c
000003c0: 157c 81bd ba56 bbbd 0a87 2dbc a604 afbd
000003d0: eec6 abbe 83b0 f83c 960a 413b b0b0 dabd
000003e0: 7b33 ecbd 11cc c0bd a53f 243c 154c cbbd
000003f0: 3c5f 3d3e 8f81 8e3d d958 32be 8829 153e
-0.11052271 0.043735527 0.06944148 0.08371662 -0.08068765 0.061108556 -0.008954 0.04557766
-0.06334786 0.12463266 -0.0077369423 -0.0040176567 -0.08740178 0.114436746 -0.23538281 0.0452391
0.09045199 0.25073943 0.087966874 0.028267905 -0.23940921 -0.009788869 0.06248112 -0.06920936
-0.07166461 0.014608812 0.083028145 -0.23224297 -0.1756774 0.08372129 0.015120197 0.032567114
0.104413286 -0.020745354 -0.015195229 -0.11570787 -0.0662276 -0.025313983 0.13094945 0.14940782
0.03897933 -0.1983592 0.10752832 0.1230692 -0.031301282 -0.11340844 -0.094816856 -0.016570024
-0.07084056 0.10453978 -0.008502765 -0.10320376 -0.012059455 0.045769226 -0.003848388 0.08182039
0.15736954 0.048199043 -0.04012941 -0.0609346 -0.16361655 -0.07900072 -0.11149006 -0.06619484
0.090808585 0.27368632 0.018344607 0.075488076 0.02542612 -0.0058172536 -0.034059405 0.10479895
-0.036505505 -0.13543226 -0.17195119 0.021082656 0.07372314 -0.042997647 0.15444157 -0.028639581
0.06682371 -0.04897712 0.17029011 0.13176453 -0.014568604 0.11160852 0.1123508 -0.039245583
0.03534703 -0.04288029 -0.046760716 -0.2726601 -0.066266194 0.00484943 -0.10998173 -0.041339763
0.08289904 0.06986294 0.14234635 0.06756316 -0.027542047 -0.23106416 -0.16208495 -0.006095133
0.09915237 -0.039638896 -0.09329715 -0.030826673 0.068352565 0.11885947 -0.052291635 0.087080225
-0.14120615 0.034377776 -0.060287107 -0.13990095 0.09821184 0.1919887 0.018334944 -0.034460943
0.038184024 0.34402654 -0.076050535 -0.00077797804 0.21797498 -0.0613522 0.04547304 0.16038103
0.24906835 0.07668752 -0.08878635 0.19107035 -0.07984055 -0.13049424 0.07224111 -0.08904057
0.10157045 -0.03820298 -0.23796739 -0.03857449 0.11094507 0.0977224 -0.15151031 0.013845781
0.25685203 -0.14213258 -0.054765563 0.06421867 -0.06462199 0.09015192 -0.075827755 0.12239143
0.071459115 -0.11707931 0.09656028 0.0120408535 0.16383387 0.054631628 0.014351618 0.028276403
0.1610157 -0.03458024 -0.006191248 -0.020368433 0.050754316 -0.23479158 0.07951784 0.040194046
0.02436815 -0.011735529 -0.18078892 0.1374388 -0.017160928 -0.012944344 -0.0067851623 0.1298769
-0.25591666 -0.24677089 0.019920051 0.038370986 0.009862008 0.0018698671 -0.0013528826 -0.18006197
-0.14637886 0.18434943 -0.09986537 -0.13919516 0.08693452 0.005311848 0.15537407 0.068597585
-0.12718818 0.014195312 0.124921136 0.05316859 0.06260817 0.064401776 0.0794029 0.13428931
-0.07772857 0.18082792 0.066549145 -0.26268524 -0.07018914 0.060144585 -0.08301314 0.19878043
-0.11103152 -0.21671495 0.109565 0.06852332 0.0520265 0.0059094983 -0.024528328 -0.17896838
0.012771675 0.007837078 -0.019909542 -0.08656008 -0.3432454 -0.056754865 -0.050305072 0.00349586
-0.0031716304 0.030885866 0.23839688 -0.17986253 0.09161987 0.083847396 -0.06979492 0.017076757
0.06464235 -0.13309354 0.108932175 0.03390632 0.0051971506 0.17314638 -0.10754637 0.021769028
-0.06322495 -0.09147401 -0.010591278 -0.085458085 -0.3355021 0.030357605 0.0029455773 -0.10678232
-0.115332566 -0.094139226 0.01002494 -0.09926621 0.1849336 0.06958305 -0.17416705 0.14566624
