Learning/results/test5/KartAgent/KartAgent-1149968.onnx (onnx, 108737 bytes, 7 tensors)

41 f4 [1, 2]
-0.61720514 -1.0492218
00000000: 2801 1ebf e64c 86bf

distribution.mu.bias f4 [2]
0.027087104 0.15495896
00000000: c6e5 dd3c 90ad 1e3e

distribution.mu.weight f4 [2, 128]
-0.0003946443 0.03783851 0.0016846643 -0.008834764 -0.0489386 -0.00044946477 -0.0005938466 -0.0067732977
0.09557818 -0.0038555507 -0.0005359579 -0.0016979708 0.021746784 0.0027600317 -0.0069285845 0.12708959
-0.0011300273 0.12848745 -0.04969352 0.057942558 0.0012548723 0.0023590366 0.061297286 0.0012580426
0.00010851534 0.04214485 -0.1532071 -0.1777963 0.00091018766 -0.064889155 0.003201901 -0.09280096
-0.00034111596 -0.003436666 0.001940509 -0.033217713 -0.0017534454 -0.14554378 0.04892524 -0.0042673806
-0.05947592 -0.1064037 0.1238741 0.0023793497 -0.0005753298 -0.075801745 -0.0002152634 -0.006966177
-0.0015076287 0.0014430557 -0.0021474867 -0.00011106266 0.0027302506 -0.016273431 0.00042429336 0.0044210637
0.16334918 -0.0007988581 -0.0012819303 -0.0073623527 0.08908382 0.18219121 -0.004146754 0.0016558841
-0.0077120042 0.0027570468 0.0043123807 -0.0021746184 0.0005965126 0.00024750596 0.009165351 -0.003234696
-0.00020123145 0.0016574492 -0.0046123397 -0.034206763 -0.0009525456 0.0028182843 -0.06821716 0.0012208261
-0.01747311 0.094549514 0.00040365115 0.070174664 0.017163388 -0.018562347 0.012905061 0.0035137655
-0.11975666 -0.022898348 -0.0012729615 0.038466368 -0.005629314 -0.009021466 0.0035454782 0.0019841222
-0.0023827255 0.0006659928 7.121962e-05 0.0039203153 -0.0022201734 -0.016279558 0.06080987 0.14510971
-0.00083803537 0.000449574 -0.003267035 -0.020006353 -0.002852899 0.0063034566 -0.017562933 -0.0025441456
0.03316948 -0.0006255871 -0.0054202345 0.07714892 -0.01215515 0.00065742474 -0.003378165 0.0028182487
-0.046702605 -0.13471557 -0.01614078 -0.013901085 0.002498777 -0.058715735 -0.00021812532 -0.023232656
-0.00038083672 -0.009872107 -0.12044535 -0.09875902 0.017109448 -0.00941545 0.0019679093 -0.015823266
-0.0027061626 0.0030123107 -0.0012947469 -0.007624818 -0.095616 0.0005703253 -0.15861621 0.025704674
-0.0017723059 0.013701724 -0.00043067828 -0.0061456193 0.0023264661 0.012141053 0.006414285 -0.00179398
-0.1277844 -0.12844108 0.029086929 0.025435813 -0.11665523 0.0099038035 0.001979237 -0.008644776
0.0004017159 -0.0036353576 0.00063656917 -0.15869288 0.0042752563 0.026618559 0.002157441 -0.005778122
-0.023744216 0.013630374 0.0055013346 -0.002128451 -0.106609754 0.020721065 0.0066611012 -0.004637664
-0.0096600335 0.00051360583 -0.12106641 -0.0001466314 -0.15459074 -0.11353388 -0.14051305 -0.0018494038
0.015985709 -0.003956414 -4.3888513e-06 -0.10370211 -0.009763929 0.0397038 0.011693177 0.0008359605
-0.12016613 0.0033626265 -0.0044707013 0.002486936 -0.00045480227 -0.0019029396 -0.002875799 -0.00066348945
-0.0005737764 -0.0032163514 0.0054100817 -0.13357265 -0.0022124625 0.002481016 -0.01097014 0.009219275
-0.12097492 -2.2933791e-05 -0.0006418354 -0.0038578426 -0.15833111 -0.10985327 -0.1010175 -0.0063742055
0.023575667 -0.118167646 -0.002256071 -0.016892305 -0.11808393 -0.11086162 -0.00045303628 0.0012852653
-0.0014893765 0.0030446954 -0.0030683668 -0.01501784 -0.0004307254 -0.1290966 -0.006275848 0.009326143
-0.0020633051 0.0019293482 -0.0011255816 -0.11927351 0.00883571 -0.11379279 -0.14830552 -0.0017719769
-0.021295842 -0.0022197461 0.0086122295 -0.006753662 -0.10830742 0.0028577095 0.000581367 -0.10988089
-0.13111386 0.024354273 -0.118546896 -0.012559028 -4.640229e-06 -0.01417131 0.000930581 -0.14657596
00000000: 43e8 ceb9 8efc 1a3d f4cf dc3a b0bf 10bc
00000010: d773 48bd 24a6 ebb9 5fac 1bba 8af2 ddbb
00000020: 7ebe c33d 68ad 7cbb 877f 0cba 728e deba
00000030: 5026 b23c a6e1 343b 2e09 e3bb c623 023e
00000040: 6d1d 94ba 3792 033e 6f8b 4bbd 2d55 6d3d
00000050: 877a a43a 119a 1a3b dd12 7b3d e8e4 a43a
00000060: bb92 e338 14a0 2c3d 52e2 1cbe 3c10 36be
00000070: a999 6e3a 9be4 84bd fcd6 513b 6e0e bebd
00000080: cfd7 b2b9 b039 61bb ad58 fe3a 4c0f 08bd
00000090: ddd3 e5ba 6e09 15be d565 483d 62d5 8bbb
000000a0: 069d 73bd 2fea d9bd b4b1 fd3d ddee 1b3b
000000b0: bbd1 16ba f23d 9bbd 54b8 61b9 8744 e4bb
000000c0: a09b c5ba ea24 bd3a d9bc 0cbb 50ea e8b8
000000d0: 01ee 323b dc4f 85bc b173 de39 92de 903b
000000e0: 0245 273e 766a 51ba 7106 a8ba e43f f1bb
000000f0: 9471 b63d 5590 3a3e 7ee1 87bb 400a d93a
00000100: fbb4 fcbb 92af 343b df4e 8d3b 0b84 0ebb
00000110: 485f 1c3a b0c3 8139 452a 163c 32fd 53bb
00000120: a801 53b9 c43e d93a 1c23 97bb 641c 0cbd
00000130: 41b4 79ba f7b2 383b 70b5 8bbd 2004 a03a
00000140: c523 8fbc 2da3 c13d 24a1 d339 bcb7 8f3d
00000150: 3c9a 8c3c 1010 98bc c06f 533c 3447 663b
00000160: fb42 f5bd 5195 bbbc 80d9 a6ba e98e 1d3d
00000170: 1c76 b8bb c5ce 13bc 415b 683b 0c08 023b
00000180: 8027 1cbb 0596 2e3a be5b 9538 fd75 803b
00000190: 5480 11bb b55c 85bc c513 793d a497 143e
000001a0: 9aaf 5bba cdb4 eb39 c01b 56bb 5de4 a3bc
000001b0: b4f7 3abb 3a8d ce3b 24e0 8fbc aebb 26bb
000001c0: b8dc 073d 71fe 23ba 399c b1bb 4100 9e3d
000001d0: 6526 47bc 0757 2c3a 3464 5dbb 5eb2 383b
000001e0: 3b4b 3fbd e1f2 09be ab39 84bc 60c1 63bc
000001f0: 85c2 233b e97f 70bd 92b8 64b9 6952 bebc
00000200: 0aab c7b9 9ebe 21bc 0dac f6bd 2b42 cabd
00000210: 1d29 8c3c 4243 1abc 0af8 003b cb9f 81bc
00000220: e059 31bb 306a 453b 7fb4 a9ba 9cd9 f9bb
00000230: 52d2 c3bd e281 153a 4a6c 22be 9c92 d23c
00000240: b84c e8ba 327d 603c a9cc e1b9 3161 c9bb
00000250: a077 183b 44eb 463c ec2e d23b fb23 ebba
00000260: ead9 02be 0f86 03be b647 ee3c c45e d03c
00000270: f0e8 eebd 9043 223c 16b6 013b d2a2 0dbc
00000280: 659d d239 2e3f 6ebb 6fdf 263a 6380 22be
00000290: 7317 8c3b 2a0f da3c db63 0d3b 6756 bdbb
000002a0: 3b83 c2bc ef51 5f3c 8a44 b43b 7b7d 0bbb
000002b0: 3756 dabd 39bf a93c 5e45 da3b 8cf7 97bb
000002c0: 1e45 1ebc 81a3 063a aaf1 f7bd 11c1 19b9
000002d0: 094d 1ebe 7384 e8bd a7e2 0fbe b267 f2ba
000002e0: 76f4 823c cea4 81bb f243 93b6 c661 d4bd
000002f0: e3f8 1fbc 74a0 223d bd94 3f3c 5c24 5b3a
00000300: a919 f6bd 835f 5c3b f67e 92bb ddfb 223b
00000310: 8772 eeb9 0f6c f9ba e777 3cbb 06ee 2dba
00000320: 7b69 16ba 6cc9 52bb 0e47 b13b 45c7 08be
00000330: f6fe 10bb 8b98 223b 1abc 33bc 710c 173c
00000340: b3c1 f7bd f161 c0b7 d840 28ba dcd3 7cbb
00000350: 8d21 22be c0fa e0bd 43e2 cebd b6de d0bb
00000360: c221 c13c e101 f2bd 97da 13bb bb61 8abc
00000370: fdd5 f1bd 6b0b e3bd 8085 edb9 5976 a83a
00000380: 2f37 c3ba 8389 473b a716 49bb 630d 76bc
00000390: fcd2 e1b9 e631 04be a1a5 cdbb aecc 183c
000003a0: 8438 07bb 2fe2 fc3a 4088 93ba ac45 f4bd
000003b0: a7c3 103c 320c e9bd 67dd 17be ae41 e8ba
000003c0: 9e74 aebc 2979 11bb 4f1a 0d3c d34d ddbb
000003d0: 48d0 ddbd 6948 3b3b e166 183a 3b09 e1bd
000003e0: b642 06be 9d82 c73c b7c8 f2bd 62c4 4dbc
000003f0: 43b3 9bb6 c82e 68bc 3cf2 733a 0218 16be

network_body.linear_encoder.seq_layers.0.bias f4 [128]
-0.0515188 -0.011868328 -0.013711131 -0.010959588 -0.04952841 -0.022305638 -0.071838915 -0.021572249
-0.018294461 0.015190723 -0.037742514 0.0025564716 -0.0015486482 -0.0564165 0.040427923 -0.015412803
0.0026628093 0.0020112812 -0.03296084 -0.046391856 -0.011929947 -0.060786545 -0.037063353 0.009683992
-0.007818318 -0.029495068 -0.04873506 0.0034795767 -0.015737109 0.014183666 -0.038116205 0.003738996
0.014810969 -0.024353199 -0.003477641 -0.08285424 -0.001739268 -0.008928312 -0.027749868 -0.017302038
-0.08339428 -0.031350926 -0.0032194436 -0.009176638 0.0017076879 -0.039739918 0.010936672 -0.028928682
0.03810555 0.0061781914 0.0038321903 0.040018898 -0.031446893 -0.005863387 0.006341451 0.031405658
-0.037441146 -0.03253095 0.0031516426 -0.07284914 0.004564832 0.009281424 0.033305712 0.013286548
-0.015131344 -0.046786863 -0.03401703 -0.010994523 0.0034343242 -0.06729747 0.041079026 -0.046149272
-0.04279411 -0.027960824 -0.032823775 -0.027912337 0.04484357 -0.029958924 -0.015555058 -0.022682982
0.011096403 -0.050760414 0.011044135 -0.07816411 -0.00021053589 -0.0153695885 -0.030509615 -0.05098753
-0.010910893 -0.036884733 -0.05110233 -0.017817207 -0.047319446 -0.034907695 -0.07894748 -0.046727534
-0.07940056 -0.05424368 0.0005648645 -0.0046684854 -0.060984835 -0.04108738 0.0040351036 0.013136148
0.008817006 0.020772096 0.0131634725 -0.031553026 -0.025248734 -0.041020863 0.05708002 -0.059423406
-0.056965776 -0.024361605 -0.06227669 -0.07338689 -0.0016440917 0.004201514 -0.03672395 0.011532676
0.0028794296 0.0120926155 0.0010563461 -0.03203977 -0.06642658 -0.06884427 -0.029461483 -0.01758942
00000000: 6105 53bd 6073 42bc a7a4 60bc d88f 33bc
00000010: 4dde 4abd 50ba b6bc 4820 93bd 49b8 b0bc
00000020: 44de 95bc 83e2 783c e597 1abd 7a8a 273b
00000030: 03fc caba fd14 67bd c097 253d fb85 7cbc
00000040: 8782 2e3b b3cf 033b f201 07bd 6305 3ebd
00000050: d375 43bc 50fb 78bd becf 17bd 9ba9 1e3c
00000060: 6718 00bc a49f f1bc 6a9e 47bd 9c09 643b
00000070: 1ceb 80bc 9b62 683c bd1f 1cbd f209 753b
00000080: b5a9 723c 5c80 c7bc 22e9 63bb 7caf a9bd
00000090: 26f8 e3ba 0e48 12bc b153 e3bc 01bd 8dbc
000000a0: 9fca aabd d469 00bd 4dfd 52bb 9c59 16bc
000000b0: 7fd4 df3a 53c6 22bd ba2f 333c d8fb ecbc
000000c0: 9114 1c3d 6d72 ca3b 7c25 7b3b dbea 233d
000000d0: 75ce 00bd a821 c0bb f2cb cf3b 38a3 003d
000000e0: e35b 19bd 2c3f 05bd ca8b 4e3b ee31 95bd
000000f0: 9694 953b 1d11 183c 926b 083d d2af 593c
00000100: 75e9 77bc 95a3 3fbd 7155 0bbd 5f22 34bc
00000110: 6612 613b 42d3 89bd 7b42 283d 0507 3dbd
00000120: e048 2fbd 190e e5bc 3972 06bd 6aa8 e4bc
00000130: e4ad 373d 6b6c f5bc a4da 7ebc a9d1 b9bc
00000140: b0cd 353c 27ea 4fbd 76f2 343c 8114 a0bd
00000150: 4cc3 5cb9 bad0 7bbc 4def f9bc 4dd8 50bd
00000160: 9ac3 32bc 7214 17bd ad50 51bd 64f5 91bc
00000170: 09d2 41bd 5ffb 0ebd 37af a1bd 5f65 3fbd
00000180: c39c a2bd 9f2e 5ebd 6a13 143a 18fa 98bb
00000190: 3ccb 79bd 3e4b 28bd e738 843b 0039 573c
000001a0: 3475 103c 3e2a aa3c 9bab 573c bf3d 01bd
000001b0: 6fd6 cebc 7e05 28bd bdcc 693d f565 73bd
000001c0: f254 69bd fd91 c7bc d815 7fbd de4b 96bd
000001d0: 907e d7ba dbac 893b da6b 16bd 8df3 3c3c
000001e0: d0b4 3c3b 1b20 463c 1875 8a3a 223c 03bd
000001f0: a90a 88bd 3afe 8cbd 3559 f1bc b017 90bc

network_body.linear_encoder.seq_layers.0.weight f4 [128, 77]
-0.20119418 0.016541013 -0.018440563 -0.10879989 -0.089731075 0.036228754 -0.04037888 -0.12967841
-0.13237534 0.072187215 0.05254955 -0.07467602 0.009140885 -0.030518739 0.023356857 -0.20294122
0.04016381 -0.03424449 0.01759035 0.14578968 -0.079053216 0.06403705 0.059075426 -0.1073408
-0.04489228 -0.067353666 -0.08071616 0.010898053 0.16065317 0.11121488 0.007026923 -0.09445796
-0.0065688146 0.11312432 0.15938616 -0.019412078 -0.29705855 0.06717673 0.0019897548 -0.14881578
0.05466915 -0.047401663 0.07299604 -0.24011977 -0.16062003 -0.08802633 -0.2769497 -0.08729882
-0.20664182 -0.034963634 -0.090343416 -0.061961975 -0.055955373 -0.059547886 0.044240184 -0.05351067
0.25425506 0.11792382 -0.2527195 0.0063886633 0.11089472 -0.20179594 -0.05439647 -0.21461187
0.24862173 -0.13429347 0.04797474 -0.09828408 -0.28128037 0.42067656 -0.0314846 -0.02065343
-0.20643306 0.39469644 -0.1663264 -0.09078427 -0.058223244 -0.092573784 -0.09634573 -0.01323454
-0.14332084 0.08694403 0.0036118045 0.05959035 0.29348752 -0.26065537 -0.09237496 -0.035434075
-0.067550704 -0.14195369 0.035327245 -0.0028952416 0.048716687 -0.091420464 -0.1200918 -0.011404829
0.10039291 -0.12238888 0.09733638 0.10991885 -0.013135913 -0.095994435 0.020884158 0.09875271
-0.06354937 -0.07317787 -0.0040161414 0.07312286 -0.14262715 -0.074282214 -0.10960727 0.03978037
-0.0837275 0.08466677 -0.042151652 -0.01887381 0.012487823 0.15986498 0.13461998 -0.007401026
-0.16325246 0.14812233 -0.028864399 -0.07546516 -0.13065296 -0.44107848 0.00955599 0.107014425
0.05409559 0.045007568 -0.10783108 -0.0037473543 -0.04612304 -0.12070806 0.085045636 0.19312072
-0.040720582 0.21195228 0.038062457 0.25219172 0.032604422 -0.047967456 0.15573396 0.020189852
-0.06521052 0.21795367 -0.3277136 0.18047 -0.11962054 0.18113518 -0.34161407 0.1114462
-0.19025116 -0.14590815 -0.15636642 0.24882512 -0.066554576 -0.09949419 -0.067424595 0.070093475
-0.069903925 -0.085630774 0.13893303 -0.1413766 -0.13028196 -0.00954589 0.198065 -0.02799095
0.0054278444 0.15917021 0.074303135 0.1408386 0.01998111 -0.08902398 -0.07349323 0.03783684
0.10869699 -0.049258854 -0.00898204 -0.05511555 -0.05038789 -0.008368785 0.014315115 -0.107400194
-0.061197974 -0.0971168 0.039514355 -0.0129644815 0.03753846 -0.13192321 -0.1084923 -0.0831093
0.3780052 -0.057642873 -0.0045731473 -0.041745897 0.081720725 0.15493049 -0.0043862234 -0.029425513
-0.019298192 0.023330333 -0.040870305 -0.111852065 -0.096168645 0.00897713 0.07971114 -0.041512463
0.10481632 0.23523189 0.099574625 0.0953383 -0.19189198 -0.1414059 -0.14265834 -0.34141457
-0.10606849 0.11530068 0.11051493 0.0022788963 0.13694584 -0.16958027 0.16471612 -0.24925463
0.008705319 -0.18172291 0.11720418 -0.2503131 -0.005764501 0.074351005 -0.041797847 0.008222701
-0.0023976245 -0.05084142 0.03390876 -0.027914194 -0.1706173 0.14783844 0.06216011 -0.12329612
0.061307542 0.15530229 0.058840036 0.18557623 0.036474895 0.07352537 -0.025662003 -0.0037010985
0.16475032 0.0532081 0.034696955 -0.2787551 0.025005538 0.08494702 0.1288867 0.14286612
00000000: d905 4ebe 0581 873c aa10 97bc 7ad2 debd
00000010: edc4 b7bd 9a64 143d 5364 25bd 6bca 04be
00000020: 678d 07be e4d6 933d 323e 573d beef 98bd
00000030: a7c3 153c 6f02 fabc e156 bf3c d3cf 4fbe
00000040: cf82 243d f343 0cbd a319 903c e449 153e
00000050: a7e6 a1bd db25 833d 13f9 713d 7ed5 dbbd
00000060: f8e0 37bd b8f0 89bd 844e a5bd bf8d 323c
00000070: 4482 243e a1c4 e33d 1a42 e63b 2d73 c1bd
00000080: 363f d7bb b9ad e73d 2036 233e 1406 9fbc
00000090: 0f18 98be f493 893d 8c66 023b 2a63 18be
000000a0: c2ec 5f3d 3f28 42bd f37e 953d f5e1 75be
000000b0: 9479 24be 2647 b4bd 5acc 8dbe b9c9 b2bd
000000c0: ea99 53be 0736 0fbd f805 b9bd d7cb 7dbd
000000d0: 7631 65bd 7ce8 73bd 3235 353d 012e 5bbd
000000e0: b82d 823e 0b82 f13d 7364 81be fe57 d13b
000000f0: c51c e33d 98a3 4ebe d5ce 5ebd 37c3 5bbe
00000100: b296 7e3e 3a84 09be 2981 443d 2a49 c9bd
00000110: fb03 90be eb62 d73e fff5 00bd 6231 a9bc
00000120: 3063 53be a715 ca3e 7851 2abe 1aed b9bd
00000130: 7f7b 6ebd 5397 bdbd e950 c5bd afd5 58bc
00000140: b3c2 12be b60f b23d 06b4 6c3b 0315 743d
00000150: ff43 963e 9f74 85be 152f bdbd 5223 11bd
00000160: 0658 8abd 4f5c 11be 4db3 103d 18be 3dbb
00000170: 268b 473d a73a bbbd b1f2 f5bd 52db 3abc
00000180: cc9a cd3d 05a7 fabd 4c58 c73d 221d e13d
00000190: 0338 57bc bb98 c4bd 4115 ab3c dc3e ca3d
000001a0: 2c26 82bd 47de 95bd d699 83bb 70c1 953d
000001b0: da0c 12be 4621 98bd c779 e0bd bef0 223d
000001c0: 5379 abbd c665 ad3d 36a7 2cbd 409d 9abc
000001d0: ba99 4c3c a5b3 233e d2d9 093e 4e84 f2bb
000001e0: a72b 27be 61ad 173e 0875 ecbc 7a8d 9abd
000001f0: e4c9 05be 0ad5 e1be ba90 1c3c 612a db3d
00000200: 5693 5d3d db59 383d 8bd6 dcbd 2c96 75bb
00000210: 83eb 3cbd ca35 f7bd 682c ae3d 70c1 453e
00000220: a0ca 26bd 050a 593e 61e7 1b3d 461f 813e
00000230: 378c 053d 8679 44bd b978 1f3e 3065 a53c
00000240: 188d 85bd 3f2f 5f3e 14ca a7be 21cd 383e
00000250: 9dfb f4bd 807b 393e 0ae8 aebe e83d e43d
00000260: 33d1 42be f268 15be 851e 20be 03cc 7e3e
00000270: c44d 88bd 9cc3 cbbd e815 8abd 2b8d 8f3d
00000280: ca29 8fbd 305f afbd 7644 0e3e 07c5 10be
00000290: a268 05be 5d66 1cbc 8dd1 4a3e 474d e5bc
000002a0: 0fdc b13b 84fd 223e 3e2c 983d fe37 103e
000002b0: 6daf a33c 3452 b6bd 9e83 96bd cdfa 1a3d
000002c0: 879c de3d a7c3 49bd 6829 13bc d8c0 61bd
000002d0: 8863 4ebd 3a1d 09bc f289 6a3c a2f4 dbbd
000002e0: baaa 7abd 2ce5 c6bd ced9 213d fa68 54bc
000002f0: eec1 193d e116 07be 3631 debd 3535 aabd
00000300: e689 c13e ef1a 6cbd 57da 95bb bffd 2abd
00000310: 325d a73d 19a6 1e3e 4fba 8fbb c60d f1bc
00000320: 3e17 9ebc 411f bf3c 9f67 27bd b212 e5bd
00000330: 11f4 c4bd d014 133c 983f a33d f908 2abd
00000340: f0a9 d63d a1e0 703e c8ed cb3d ba40 c33d
00000350: 557f 44be b5cc 10be 0715 12be e4cd aebe
00000360: 703a d9bd c322 ec3d a755 e23d 8959 153b
00000370: 883b 0c3e 73a6 2dbe 58ab 283e 9b3c 7fbe
00000380: c1a0 0e3c 9215 3abe bf08 f03d 0a29 80be
00000390: 24e4 bcbb 5745 983d 3834 2bbd 82b8 063c
000003a0: 7721 1dbb 183f 50bd e9e3 0a3d 4fac e4bc
000003b0: 4db6 2ebe f662 173e 999b 7e3d ad82 fcbd
000003c0: 9e1d 7b3d 9007 1f3e 4002 713d b207 3e3e
000003d0: b366 153d 7894 963d 1f39 d2bc 218e 72bb
000003e0: 4fb4 283e bdf0 593d 651e 0e3d fdb8 8ebe
000003f0: 6ad8 cc3c b4f8 ad3d e0fa 033e 7f4b 123e

network_body.linear_encoder.seq_layers.2.bias f4 [128]
-0.051775627 -0.022725452 -0.12736423 -0.16862823 -0.035998866 -0.016450096 -0.05449441 0.016865445
0.03443322 -0.0023303053 -0.012027128 -0.0150425555 -0.13331258 0.03201881 -0.11700137 0.05844604
0.0044624484 0.074038394 -0.101645835 -0.01111737 -0.013043897 -0.03528136 -0.008544959 -0.030230934
-0.12785958 -0.121197745 0.045770682 0.061046135 -0.1099254 -0.045909334 -0.015755223 -0.07085977
-0.0019633905 -0.028967513 0.022524156 -0.15833463 -0.011190719 0.04310813 -0.018993191 -0.02911627
-0.07390319 -0.0028530385 0.0609845 -0.027487917 -0.15981084 -0.01904441 -0.034833796 0.0012763211
-0.026640974 0.020217562 -0.16576518 -0.010427415 -0.13494352 -0.14706586 -0.1449697 0.009781686
0.119526215 -0.028001174 0.0069052884 -0.19878438 0.024771582 0.13572207 -0.0041601295 0.036922198
-0.15170051 -0.0018169219 -0.017507138 -0.0018892551 -0.02803783 -0.004438328 -0.05750758 0.00019838693
-0.034533724 0.0077590775 -0.0104537755 -0.17757314 -0.012586249 0.005823638 -0.07649023 0.0064728917
-0.15703958 0.02104137 0.021348186 -0.002531389 -0.1393628 -0.15060107 -0.11189159 0.0073111807
0.014670815 -0.15683441 -0.005561298 -0.042021617 -0.13946971 -0.19046932 -0.00327747 0.0058944207
-0.033496723 -0.01877361 0.006770817 -0.029607223 -0.027019458 -0.18940869 0.00322071 0.083056256
-0.028761528 0.014674787 0.021785138 -0.15767291 -0.013431946 -0.10277451 -0.13266188 0.01420096
-0.041189708 0.034320682 0.008289712 -0.0042625205 -0.1478375 -0.015110879 -0.025140343 -0.1776489
-0.18160926 0.035978604 -0.16117495 -0.019482778 0.005687747 -0.088285536 -0.0014547361 -0.14626198
00000000: ae12 54bd ba2a babc c56b 02be e1ac 2cbe
00000010: 8c73 13bd 5ac2 86bc 8835 5fbd 6729 8a3c
00000020: d909 0d3d 09b8 18bb 6e0d 45bc 0d75 76bc
00000030: 1883 08be 2826 033d 6a9e efbd 1d65 6f3d
00000040: bb39 923b 71a1 973d b12b d0bd a125 36bc
00000050: 12b6 55bc 3083 10bd 2800 0cbc dda6 f7bc
00000060: 9fed 02be 8636 f8bd 0a7a 3b3d 830b 7a3d
00000070: 9120 e1bd 6d0b 3cbd 1911 81bc ed1e 91bd
00000080: 3aac 00bb 474d edbc 9484 b83c 7922 22be
00000090: 4759 37bc 2792 303d 9c97 9bbc 3e85 eebc
000000a0: 8e5a 97bd 0bfa 3abb e2ca 793d 572e e1bc
000000b0: 74a5 23be 0603 9cbc e2ad 0ebd 3b4a a73a
000000c0: 2c3e dabc 4d9f a53c 59be 29be c0d7 2abc
000000d0: a22e 0abe 6f98 16be f072 14be 5d43 203c
000000e0: 29ca f43d b862 e5bc c245 e23b 228e 4bbe
000000f0: c6ed ca3c bafa 0a3e b251 88bb bb3b 173d
00000100: 6157 1bbe c825 eeba 216b 8fbc e2a0 f7ba
00000110: 97af e5bc 656f 91bb 118d 6bbd 1606 5039
00000120: 3c73 0dbd dc3f fe3b 5046 2bbc bcd5 35be
00000130: 8e36 4ebc 37d4 be3b e9a6 9cbd 8d1a d43b
00000140: fcce 20be f45e ac3c 64e2 ae3c a9e5 25bb
00000150: 1fb5 0ebe 2b37 1abe 6b27 e5bd a192 ef3b
00000160: dc5d 703c 3399 20be 8d3b b6bb dc1e 2cbd
00000170: 26d1 0ebe 640a 43be d2ca 56bb fc25 c13b
00000180: dc33 09bd 1dcb 99bc bbdd dd3b d98a f2bc
00000190: e957 ddbc 5af4 41be 8c12 533b 6619 aa3d
000001a0: 4c9d ebbc 856e 703c bf76 b23c 0275 21be
000001b0: aa11 5cbc 717b d2bd 84d8 07be 25ab 683c
000001c0: 8ab6 28bd d893 0c3d 92d1 073c 9dac 8bbb
000001d0: b762 17be 9f93 77bc 1ff3 cdbc 98e9 35be
000001e0: c7f7 39be 4d5e 133d 0c0b 25be 599a 9fbc
000001f0: 4860 ba3b 0ccf b4bd d8ac beba b3c5 15be

network_body.linear_encoder.seq_layers.2.weight f4 [128, 128]
0.00855587 -0.05646757 -0.08711367 -0.0059427964 -0.03749469 0.05915075 0.00073998066 0.057989344
0.0668012 0.00349088 -0.0363067 0.0428102 -0.001970135 0.023936924 0.044979427 -0.05987284
0.059754178 -0.067339 -0.100549676 0.091922976 -0.01118339 0.14026108 0.035146784 -0.0038082602
-0.093297414 -0.118028454 -0.01815048 -0.008938445 -0.031645246 -0.12435285 -0.0064596445 -0.067545205
0.009777122 0.06452019 -0.016361654 -0.022726241 -0.039106086 0.07577311 -0.08280073 -0.012984213
-0.03823956 0.078079656 0.010599967 0.08014497 -0.04369926 -0.10449452 0.01662372 -0.012280409
0.007323464 -0.042881366 0.1012363 -0.022082822 -0.10745258 0.049076464 0.0063915513 -0.12217269
0.11534013 0.032844927 0.034895133 -0.1939279 -0.008227881 -0.008174691 -0.084296174 0.02533121
0.1630092 -0.15700237 -0.037742577 0.03439946 -0.07083526 -0.13580331 0.04341482 -0.16218594
-0.0153011 0.10399279 0.106364444 -0.014198074 0.10049657 -0.110172436 0.12345862 0.023881853
0.10158713 0.003575431 0.028190205 -0.08510294 -0.08617871 0.0016569599 -0.018208899 -0.004164273
-0.0065852245 0.15061608 -0.083238326 0.030204333 -0.14296906 0.27158767 -0.007852306 -0.03425988
0.01307362 -0.04325488 0.058140926 -0.07231764 -0.16000503 0.038560774 -0.07722411 -0.000785288
-0.008026222 0.004013349 -0.078240424 -0.003440202 -0.15195663 -0.047810208 0.014035816 -0.014808956
0.02843804 -0.02103736 0.038661126 0.012662269 0.09660484 -0.008569254 0.11883897 0.048313014
0.043201182 0.06759162 0.035611667 0.14909711 0.04365625 -0.02187169 0.09978162 -0.048840154
-0.04615311 -0.02045796 0.050544783 -0.015635857 -0.14370334 -0.11535073 0.050003108 -0.10306129
-0.23446 0.038873415 -0.0058038286 -0.022290317 -0.014882277 -0.09356514 -0.10121776 -0.15589139
-0.21497418 -0.15668066 0.07233702 -0.09159566 -0.06547944 -0.017940937 0.09176209 -0.09126035
0.07539426 -0.24898906 0.19450441 0.013097236 0.061649047 -0.024547813 -0.13266996 -0.010700785
0.15563405 0.083542146 0.09114149 0.15874597 0.115741685 0.10974323 0.020623155 -0.074974336
0.03526326 -0.0049583055 0.040949676 -0.24787682 0.15003446 0.0027554962 0.041817233 0.031356744
-0.06701112 0.093406856 -0.037391648 -0.110377565 0.25751412 0.1277523 0.078723036 -0.096856296
0.07132243 0.11128853 -0.023628084 -0.07135662 -0.030860942 0.046329074 -0.042265322 -0.041613705
0.048902888 -0.048943426 -0.020988192 0.11508991 0.04742088 0.1625995 0.07411068 -0.06283395
0.071356066 0.006760057 -0.074017905 -0.12058536 -0.20257367 0.034126796 0.015204874 -0.04681878
0.16170494 -0.1216253 0.07114205 0.04913405 0.009284639 0.019056994 -0.024536094 -0.030524466
-0.054347992 0.10389556 -0.020036096 -0.27991432 -0.10448116 0.0683111 -0.0076430696 0.04500858
0.119949274 0.06844292 -0.10927649 -0.053024743 0.09906599 -0.076550946 -0.059471626 -0.032921594
-0.10781757 0.07979169 0.06335819 0.10872392 0.06714133 -0.041084174 -0.0267296 -0.011037689
-0.0529846 -0.1813238 0.0058054845 -0.01633539 -0.16388977 -0.10806795 -0.14604832 -0.10148005
0.111489594 -0.11859851 -0.008831895 -0.11372851 -0.034425348 -0.08171612 0.027719978 -0.11027539
00000000: eb2d 0c3c 8a4a 67bd a768 b2bd cabb c2bb
00000010: 0894 19bd 0f48 723d 43fb 413a 3c86 6d3d
00000020: 11cf 883d 3fc7 643b 56b6 14bd c059 2f3d
00000030: 611d 01bb 5e17 c43c 593c 383d 393d 75bd
00000040: ccc0 743d 08e9 89bd fdec cdbd 1d42 bc3d
00000050: 8a3a 37bc 9aa0 0f3e 13f6 0f3d 0194 79bb
00000060: b712 bfbd e7b8 f1bd 51b0 94bc 8e72 12bc
00000070: 729e 01bd b5ac febd 6dab d3bb 2455 8abd
00000080: 3930 203c 2923 843d e008 86bc 622c babc
00000090: b42d 20bd ef2e 9b3d 6e93 a9bd bdbb 54bc
000000a0: 16a1 1cbd 3ae8 9f3d 7cab 2d3c 0c23 a43d
000000b0: fffd 32bd 3901 d6bd 782e 883c c533 49bc
000000c0: abf9 ef3b 5fa4 2fbd fa54 cf3d 09e7 b4bc
000000d0: 1910 dcbd 6704 493d 3870 d13b ad35 fabd
000000e0: 7237 ec3d 6788 063d 33ee 0e3d 0995 46be
000000f0: 3cce 06bc 24ef 05bc 79a3 acbd 6683 cf3c
00000100: e2eb 263e 3bc5 20be f697 1abd 73e6 0c3d
00000110: 1412 91bd 0610 0bbe bdd3 313d 1214 26be
00000120: 77b1 7abc 2cfa d43d 9ad5 d93d 0a9f 68bc
00000130: 25d1 cd3d 16a2 e1bd dfd7 fc3d e0a3 c33c
00000140: ea0c d03d c751 6a3b 25ef e63c 734a aebd
00000150: 777e b0bd 592e d93a d42a 95bc 7474 88bb
00000160: dec8 d7bb 1a3b 1a3e db78 aabd 146f f73c
00000170: 7b66 12be 8a0d 8b3e f5a6 00bc 1754 0cbd
00000180: bd32 563c 072c 31bd 2e25 6e3d 451b 94bd
00000190: 5cd8 23be e7f1 1d3d ad27 9ebd c9db 4dba
000001a0: 6a80 03bc 6982 833b 843c a0bd 0375 61bb
000001b0: 859a 1bbe a3d4 43bd 7bf6 653c 43a1 72bc
000001c0: e4f6 e83c 8b56 acbc 215b 1e3d 6875 4f3c
000001d0: c2d8 c53d 0e66 0cbc d961 f33d dee3 453d
000001e0: b9f3 303d 7a6d 8a3d 8add 113d eaac 183e
000001f0: e5d0 323d 422c b3bc 4e5a cc3d 9d0c 48bd
00000200: 0b0b 3dbd 7497 a7bc 0c08 4f3d c516 80bc
00000210: f826 13be 013d ecbd 0fd0 4c3d cc11 d3bd
00000220: 4816 70be bb39 1f3d 0b2e bebb 2f9a b6bc
00000230: cbd4 73bc 159f bfbd 424b cfbd fea1 1fbe
00000240: 3122 5cbe e570 20be 6e25 943d 8196 bbbd
00000250: 161a 86bd dff8 92bc c3ed bb3d b5e6 babd
00000260: 4e68 9a3d fdf6 7ebe 2a2c 473e ca95 563c
00000270: b683 7c3d 7f18 c9bc a2da 07be 5852 2fbc
00000280: 885e 1f3e 2518 ab3d 64a8 ba3d 4e8e 223e
00000290: fa09 ed3d 0fc1 e03d e4f1 a83c 258c 99bd
000002a0: 3570 103d 4879 a2bb d9ba 273d 6cd3 7dbe
000002b0: a2a2 193e 8e95 343b 8c48 2b3d ee6f 003d
000002c0: 203d 89bd 184c bf3d fc27 19bd a20d e2bd
000002d0: e4d8 833e 80d1 023e 8b39 a13d 985c c6bd
000002e0: 7f11 923d 3eeb e33d af8f c1bc 6b23 92bd
000002f0: 16d0 fcbc 8ec3 3d3d 671e 2dbd 2273 2abd
00000300: 654e 483d e778 48bd 6eef abbc 42b4 eb3d
00000310: 663c 423d 7c80 263e 57c7 973d 16af 80bd
00000320: 2123 923d 7883 dd3b b396 97bd 75f5 f6bd
00000330: 796f 4fbe 8ac8 0b3d dd1d 793c 0dc5 3fbd
00000340: fb95 253e af16 f9bd ecb2 913d c940 493d
00000350: 991e 183c 6a1d 9c3c ebff c8bc 720e fabc
00000360: 009c 5ebd 32c7 d43d bd22 a4bc ee50 8fbe
00000370: 38fa d5bd b1e6 8b3d b772 fabb eb5a 383d
00000380: f7a7 f53d cd2b 8c3d 5acc dfbd 7930 59bd
00000390: 1ce3 ca3d bec6 9cbd 8598 73bd cbd8 06bd
000003a0: 75cf dcbd d369 a33d f0c1 813d a6aa de3d
000003b0: 6581 893d e147 28bd 09f8 dabc 6cd7 34bc
000003c0: 6106 59bd f2ac 39be ef3b be3b ccd1 85bc
000003d0: b8d2 27be bb52 ddbd b18d 15be c6d4 cfbd
000003e0: a854 e43d c7e3 f2bd a7b3 10bc 7eea e8bd
000003f0: 9801 0dbd c85a a7bd 0215 e33c 10d8 e1bd
