Learning/results/test5/KartAgent/KartAgent-1349952.onnx (onnx, 108737 bytes, 7 tensors)

41 f4 [1, 2]
0	0xbf1a65d3	-0.6031162
1	0xbf8e8aca	-1.1136105

distribution.mu.bias f4 [2]
0	0x3cbc2c8e	0.022970464
1	0x3e1f045e	0.1552901

distribution.mu.weight f4 [2, 128]
0	0x39b667c6	0.00034791062
1	0x3c202c42	0.009776177
2	0xb9b0706a	-0.0003365309
3	0xbbca0061	-0.006164596
4	0xbd01787e	-0.03160905
5	0x3bc71a9a	0.006076169
6	0xb970be49	-0.0002295907
7	0x3b0324a9	0.0020010865
8	0x3da796de	0.081830725
9	0x3a84a9ae	0.0010121369
10	0x3b17b5c2	0.0023149108
11	0x3b1af0d7	0.0023642087
12	0x3c8c7d14	0.017149486
13	0x3b72f547	0.0037072466
14	0xbbece4dc	-0.0072294306
15	0x3e017bb2	0.12644842
16	0xba0075d0	-0.0004900368
17	0x3dfc1fc2	0.12310745
18	0xbce90507	-0.02844478
19	0x3d3fe1f8	0.04684636
20	0xbb30d009	-0.0026979467
21	0xb8645804	-5.4441407e-05
22	0x3d16e278	0.03683707
23	0x3afff0aa	0.001952668
24	0xbbada90f	-0.0052996944
25	0x3d04ac82	0.03239108
26	0xbe1b4137	-0.15161596
27	0xbe32968c	-0.17440242
28	0xbacbe8c1	-0.0015557037
29	0xbd44f048	-0.048080713
30	0xb92e1cb0	-0.0001660462
31	0xbda6d9e4	-0.08147028
32	0x3aa52de5	0.0012602179
33	0x3b4cf575	0.0031274233
34	0x3b0e5a62	0.0021721353
35	0xbd0916da	-0.03346906
36	0x3b83ec4e	0.0040259724
37	0xbe0f5823	-0.13998465
38	0x3d291ad6	0.04128536
39	0x3b8e7fa0	0.00434871
40	0xbd28e880	-0.041237354
41	0xbdbfaceb	-0.09359153
42	0x3df7dd29	0.1210273
43	0xbb22e015	-0.0024852802
44	0xbb0e4f1a	-0.0021714629
45	0xbd865791	-0.06559671
46	0x38a42ed0	7.828849e-05
47	0xbada8b6d	-0.0016673632
48	0xba1107bd	-0.0005532464
49	0xbaa45515	-0.0012537563
50	0xbbbb3458	-0.005713027
51	0xbaec457d	-0.001802608
52	0xbb37f5f7	-0.002807019
53	0xbc83b091	-0.016075404
54	0xba6db954	-0.00090684486
55	0xb8b64384	-8.691012e-05
56	0x3e291557	0.16512047
57	0xba89a52d	-0.0010501497
58	0xbb7381f2	-0.003715631
59	0xbc147d98	-0.009063147
60	0x3d91297a	0.07087989
61	0x3e3da884	0.18521315
62	0xbae49477	-0.0017439266
63	0x395fa6bf	0.00021329055
64	0xbbe214ac	-0.006899437
65	0xba8be88f	-0.0010674166
66	0x3b979f3a	0.0046271356
67	0x3b27a8ab	0.0025582712
68	0xb93d2ab7	-0.00018040357
69	0xbb73ed12	-0.0037220162
70	0x3b93e2ca	0.0045131193
71	0x3aad3acf	0.0013216379
72	0x3a992e14	0.0011686706
73	0x3add0e66	0.0016865253
74	0xbbc0b333	-0.005880737
75	0xbce53a72	-0.02798197
76	0xbb2c9d43	-0.0026338852
77	0x3a25b191	0.000632071
78	0xbd569c1e	-0.05239498
79	0xbb200df5	-0.0024422382
80	0xbc6d926e	-0.014500244
81	0x3da66df2	0.08126439
82	0xbb330adb	-0.0027319703
83	0x3d6c8d78	0.057752103
84	0x3c38b5fe	0.011273859
85	0xbc944a1b	-0.018101742
86	0x3c35f76b	0.011106352
87	0x3b511c92	0.0031907898
88	0xbdeb5b90	-0.114920735
89	0xbcb2468d	-0.021762157
90	0x3a877edd	0.0010337491
91	0x3cca9bbb	0.024732461
92	0xbb9a8e67	-0.0047166827
93	0xbc2195e9	-0.0098624015
94	0xbb2028ac	-0.0024438305
95	0x392c0989	0.0001640675
96	0xba4b985c	-0.0007766539
97	0xbb26d4c7	-0.0025456415
98	0x3b0e10e7	0.0021677555
99	0x3b1f7081	0.0024328532
100	0xbab5a567	-0.0013858498
101	0xbc91f762	-0.017818157
102	0x3cec3780	0.028835058
103	0x3e12f789	0.1435224
104	0xbb1513e7	-0.0022747458
105	0xbb8d3fb9	-0.004310575
106	0xba3b05fa	-0.00071343745
107	0xbcac3f82	-0.021026377
108	0xbb5b0767	-0.003342116
109	0x3ba54947	0.0050441357
110	0xbc756cae	-0.014979525
111	0xbb66dab0	-0.0035225563
112	0x3baaaa40	0.0052082837
113	0xba76c53e	-0.00094135466
114	0xbbdfd6f2	-0.0068310434
115	0x3d3b77e3	0.04576863
116	0xbc407a04	-0.011747841
117	0x3a18cdb9	0.0005828995
118	0xbb33b3c4	-0.002742038
119	0x3a864fa1	0.001024712
120	0xbd417404	-0.04722978
121	0xbe040b95	-0.12895043
122	0xbca4423b	-0.020051112
123	0x3a94bc0f	0.001134755
124	0xbb16f366	-0.002303326
125	0xbd2efd81	-0.04272223
126	0x3a3a35d3	0.00071033573
127	0xbc98e959	-0.018665956
128	0x3b606de1	0.003424518
129	0xbbdf6460	-0.0068173856
130	0xbde8913d	-0.11355827
131	0xbdbf3001	-0.09335328
132	0x3b454874	0.0030103
133	0x3ba066ca	0.004895066
134	0xbb1accea	-0.0023620673
135	0x3b9b8dd1	0.0047471304
136	0xbc2f69c6	-0.010706371
137	0x3b1f66e6	0.0024322807
138	0x3ae4fa36	0.0017469588
139	0x3bcdf312	0.0062850798
140	0xbdb6570c	-0.089033216
141	0x3b230e48	0.0024880338
142	0xbe1e3bd6	-0.15452513
143	0x3cb0100c	0.021492027
144	0x3bb2239e	0.005436375
145	0x3c875a34	0.016522504
146	0xbb9182d8	-0.0044406466
147	0xbc389112	-0.011265056
148	0xb9fa3ee0	-0.0004773056
149	0x3af1253d	0.0018397939
150	0x3bc30b3c	0.005952267
151	0x3abae5dd	0.0014259178
152	0xbdfea186	-0.12433152
153	0xbe00aea2	-0.12566617
154	0x3ce0bee4	0.027434774
155	0x3cf6823e	0.030091401
156	0xbddf7a1f	-0.109119646
157	0x3a3220e3	0.00067950616
158	0x3b12aa04	0.002237917
159	0xbcb4f07e	-0.022087332
160	0xbc2166ce	-0.009851171
161	0xba1cfb55	-0.0005988379
162	0xba4cba49	-0.0007809741
163	0xbe1b36b4	-0.15157586
164	0x3ae3ca4c	0.0017379015
165	0x3cf77e9b	0.030211737
166	0x3adcc88b	0.0016844434
167	0x3b1b48d4	0.0023694532
168	0xbce76c86	-0.02824999
169	0x3c10eb1e	0.008845119
170	0x3bc0bbc2	0.0058817575
171	0xbb375243	-0.0027972616
172	0xbdcf0566	-0.101084515
173	0x3c2d982f	0.010595365
174	0xba522f0e	-0.0008017876
175	0xbafdff9d	-0.0019378547
176	0x3a06a29e	0.0005135926
177	0x3984bf61	0.0002531959
178	0xbdf2a7b1	-0.11848391
179	0x3b564e47	0.0032700466
180	0xbe17e357	-0.14832817
181	0xbddf6fde	-0.10910009
182	0xbe0d3144	-0.13788325
183	0xba5cb7ac	-0.0008419703
184	0x3c920f27	0.01782949
185	0x3b54a02d	0.0032444105
186	0x3ad2968b	0.0016066594
187	0xbdcc5197	-0.099764995
188	0xbbcf9549	-0.006334935
189	0x3d2b0b5a	0.041758873
190	0x3a8a842e	0.0010567957
191	0xbaebbf0d	-0.0017986015
192	0xbde8e55a	-0.1137187
193	0xbb78af32	-0.0037946221
194	0x3b6ea3fe	0.0036413665
195	0x3beaf325	0.0071700984
196	0xbb01cab6	-0.0019804663
197	0xbaf0abf5	-0.0018361794
198	0xbb97c165	-0.0046312087
199	0xbb8d3995	-0.004309843
200	0x3ac3c511	0.001493605
201	0x3bbf369a	0.0058353664
202	0xbc2052a5	-0.009785329
203	0xbe0195de	-0.12654826
204	0x3ac5f007	0.0015101441
205	0xb92fc1ed	-0.00016761544
206	0xbc92abb9	-0.01790415
207	0x3b2e0ccd	0.0026557923
208	0xbdebc8b5	-0.11512891
209	0x3c0054b4	0.007832695
210	0xbb3c31a2	-0.0028716107
211	0xbb5d7411	-0.0033791105
212	0xbe1b263a	-0.15151301
213	0xbdcdc96f	-0.10048186
214	0xbdc38795	-0.095473446
215	0xbb003acf	-0.0019566303
216	0x3c876bd2	0.016530905
217	0xbde63179	-0.11239905
218	0xba9fe470	-0.0012198817
219	0xbc0a440f	-0.008439078
220	0xbde4f7e4	-0.11180094
221	0xbdd41f14	-0.1035749
222	0xbb2a304f	-0.0025968736
223	0xba3cc28b	-0.000720062
224	0xbaa7531e	-0.001276586
225	0x39b4577f	0.00034397465
226	0xbb1b4528	-0.0023692343
227	0x3ac42061	0.0014963263
228	0x3b341137	0.002747608
229	0xbdfd18c2	-0.12358238
230	0x3b8473c0	0.004042119
231	0x3c126b8c	0.008936774
232	0x3b11d262	0.0022250642
233	0xb93d60b6	-0.00018060472
234	0x3bd49bb4	0.006488288
235	0xbde8cb83	-0.11366942
236	0xbb8e8fb1	-0.0043506254
237	0xbddd057a	-0.1079206
238	0xbe111255	-0.1416715
239	0xbbff771c	-0.0077961814
240	0xbb896c9a	-0.0041938545
241	0x3b3f4aaa	0.002918879
242	0xbb35f1aa	-0.0027762451
243	0xbbaf6365	-0.005352425
244	0xbdce280f	-0.10066234
245	0xbb52da51	-0.0032173584
246	0x3af4ae1b	0.001866761
247	0xbdd83af6	-0.10558121
248	0xbe0035de	-0.12520549
249	0x3ca4f791	0.02013758
250	0xbde6188a	-0.11235149
251	0x3b726353	0.0036985471
252	0x3a9e2cb8	0.0012067771
253	0xbc5d781d	-0.013517407
254	0x3b46beb4	0.003032607
255	0xbe0fe159	-0.14050807

network_body.linear_encoder.seq_layers.0.bias f4 [128]
0	0xbd7f8e35	-0.06239148
1	0xbbfd3eac	-0.0077284183
2	0xbd037e89	-0.032103095
3	0xbc753758	-0.014966808
4	0xbd4d765d	-0.05016171
5	0xbd194db1	-0.037427608
6	0xbd9078cd	-0.07054291
7	0xbd097337	-0.033557143
8	0xbc98278b	-0.018573543
9	0x3c986d7d	0.018606896
10	0xbcddab3d	-0.027059192
11	0x3c761cfa	0.015021557
12	0xbbbc7b76	-0.0057520224
13	0xbd72c9bb	-0.059274416
14	0x3d03a25e	0.032137267
15	0xbc5a07a5	-0.013307487
16	0x3bd756bb	0.0065716184
17	0xbc020b66	-0.007937288
18	0xbcfcc635	-0.030856231
19	0xbd5b5210	-0.053545058
20	0xba3a1ecf	-0.0007099928
21	0xbd81bad6	-0.06334464
22	0xbd270b8a	-0.04078249
23	0x3a847419	0.00101054
24	0xbc92028a	-0.017823476
25	0xbcd95c9e	-0.026533421
26	0xbd4bbd2e	-0.049740963
27	0x3b84ce04	0.0040528793
28	0xbd037a17	-0.032098856
29	0x3af7656b	0.0018874829
30	0xbd41cd2b	-0.047314804
31	0x3b943144	0.0045224745
32	0x3bd80445	0.006592306
33	0xbd096aca	-0.033549108
34	0xbb9d85f1	-0.004807227
35	0xbd9c8d44	-0.07644132
36	0xbc1d3755	-0.009595712
37	0xbc3e994f	-0.011633231
38	0xbd080dc4	-0.033216253
39	0xbc492850	-0.012277678
40	0xbdb5ccc4	-0.088769466
41	0xbd4760e8	-0.0486764
42	0xbc74cad5	-0.014940937
43	0xbc59685e	-0.013269512
44	0x3bdefe29	0.0068052006
45	0xbd1463a7	-0.03622785
46	0x3c5b1cc2	0.013373556
47	0xbcd8248f	-0.02638462
48	0x3d1bcfe5	0.03804006
49	0x3bc7b6f4	0.0060948078
50	0x3bcca53f	0.006245285
51	0x3cf1813c	0.029480569
52	0xbd254e40	-0.04035783
53	0xbc45a198	-0.012062453
54	0x3c013619	0.007886433
55	0x3c921223	0.017830914
56	0xbd0e7edf	-0.034788962
57	0xbd0e7b0c	-0.034785315
58	0xbbf9282b	-0.0076036653
59	0xbda50c4f	-0.08058988
60	0x3b0edbac	0.0021798415
61	0x3c69d727	0.014272488
62	0x3ce986b5	0.028506616
63	0x3c4c8274	0.012482274
64	0xbccc93b2	-0.02497277
65	0xbd30c3b6	-0.043155394
66	0xbd05a342	-0.032626398
67	0xbc72200a	-0.0147781465
68	0xbb612701	-0.0034355524
69	0xbd9d9677	-0.076947145
70	0x3d06f472	0.032947965
71	0xbd4447bb	-0.04791997
72	0xbd492666	-0.049108885
73	0xbccab54d	-0.024744654
74	0xbd2c95b6	-0.042134963
75	0xbd017230	-0.03160304
76	0x3d555f08	0.052092582
77	0xbceb9557	-0.028757734
78	0xbc832a6f	-0.016011445
79	0xbd0a08f8	-0.03369996
80	0x3c3e4fac	0.011615675
81	0xbd8a6604	-0.06757739
82	0x3c27c899	0.010240697
83	0xbda50503	-0.080575965
84	0xbb28c4b4	-0.002575201
85	0xbca01582	-0.019541506
86	0xbce815eb	-0.028330764
87	0xbd563b39	-0.052302573
88	0xbb297ab6	-0.0025860495
89	0xbd807449	-0.0627218
90	0xbd74014c	-0.05957155
91	0xbc95e4c8	-0.018297568
92	0xbd370797	-0.044684973
93	0xbd38f427	-0.045154717
94	0xbd9f9bff	-0.07793426
95	0xbd4ae33f	-0.049533125
96	0xbda17cdb	-0.078851424
97	0xbd8beaa9	-0.06831867
98	0xbc80919c	-0.015694432
99	0x3b49a82c	0.0030770404
100	0xbd94b4f0	-0.072610736
101	0xbd24709a	-0.040146448
102	0x3c1d8a37	0.0096154725
103	0x3c98d4b2	0.018656109
104	0x3b602022	0.003419884
105	0x3c65f4b1	0.01403539
106	0x3c9d3f93	0.019195354
107	0xbd156330	-0.036471546
108	0xbce866ed	-0.028369391
109	0xbd1e9495	-0.038715918
110	0x3d62f3e3	0.05540837
111	0xbd695e50	-0.05697471
112	0xbd548ece	-0.051894
113	0xbd072f6a	-0.033004202
114	0xbdab1709	-0.08354003
115	0xbd99e38c	-0.07514104
116	0x3ba30d80	0.0049759746
117	0x3c0213a2	0.007939251
118	0xbd27f80d	-0.041008044
119	0x3bdf8727	0.0068215313
120	0x3b4c2a2a	0.0031153061
121	0x3b4acd1c	0.0030945009
122	0x3acbde2f	0.0015553887
123	0xbcda9e99	-0.026686953
124	0xbd7cff54	-0.061766937
125	0xbd832aa3	-0.06404617
126	0xbcc35760	-0.023845375
127	0xbc905f37	-0.017623527

network_body.linear_encoder.seq_layers.0.weight f4 [128, 77]
0	0xbe222e75	-0.15838034
1	0xbca8d870	-0.020611018
2	0xbc9710aa	-0.018440563
3	0xbdb928f1	-0.09041012
4	0xbdaadcf0	-0.08342922
5	0x3c85aeb9	0.016318666
6	0xbd256453	-0.04037888
7	0xbdcffde1	-0.101558454
8	0xbda72803	-0.081619285
9	0x3d075b81	0.03304625
10	0x3d573e32	0.05254955
11	0xbd4176fb	-0.04723261
12	0x3c2f0fcb	0.010684918
13	0xbd46dc8b	-0.04855017
14	0x3cbf56e1	0.023356857
15	0xbe3239d7	-0.17404877
16	0x3c65070b	0.01397873
17	0xbc98653d	-0.018602962
18	0x3c9019a3	0.01759035
19	0x3e2e9b3c	0.17051405
20	0xbda4adb3	-0.08040943
21	0x3d2e42b5	0.042544086
22	0x3d71f913	0.059075426
23	0xbdbe62a9	-0.09296162
24	0xbda4c309	-0.080450125
25	0xbd291f24	-0.041289464
26	0xbda54e84	-0.08071616
27	0x3d511524	0.051045552
28	0x3e206c01	0.156662
29	0x3dcc97e3	0.099899076
30	0x3be6421a	0.007026923
31	0xbde1002f	-0.10986363
32	0xbcc4362b	-0.02395161
33	0x3de88755	0.113539375
34	0x3e233620	0.15938616
35	0x3c8f607a	0.017502058
36	0xbe9c6a04	-0.30549634
37	0x3d4faf4c	0.050704286
38	0x3b02668c	0.0019897548
39	0xbe26476a	-0.1623818
40	0x3d4d7285	0.050158042
41	0xbd79459d	-0.060857404
42	0x3d957ef3	0.07299604
43	0xbe665284	-0.22492415
44	0xbe38d4c5	-0.18049915
45	0xbd85e801	-0.06538392
46	0xbe8dcc5a	-0.2769497
47	0xbda982c7	-0.08276897
48	0xbe65f13d	-0.22455306
49	0xbc0f1b42	-0.008734526
50	0xbdb905f8	-0.090343416
51	0xbd98900a	-0.07449348
52	0xbd87a686	-0.06623559
53	0xbd904318	-0.07044047
54	0x3d353532	0.044240184
55	0xbd4bbb2a	-0.04973904
56	0x3e6ead8c	0.2330839
57	0x3e21030c	0.15723819
58	0xbe816473	-0.2527195
59	0x3cc35b6e	0.023847308
60	0x3dd5a37b	0.10431572
61	0xbe5f4265	-0.21802671
62	0xbd5eced5	-0.05439647
63	0xbe7b3209	-0.24530806
64	0x3e727a37	0.23679434
65	0xbe05cc68	-0.13066256
66	0x3d448129	0.04797474
67	0xbe0516a8	-0.12996924
68	0xbe941b19	-0.28926924
69	0x3ed09b72	0.40743595
70	0xbd00f5ff	-0.0314846
71	0xbd96a167	-0.07355004
72	0xbe5b920c	-0.21442431
73	0x3ec34e2e	0.38145584
74	0xbe2a5178	-0.1663264
75	0xbe1320f2	-0.14368036
76	0xbd6e7b7f	-0.058223244
77	0xbdbe644a	-0.09296472
78	0xbdb49e34	-0.08819237
79	0xbc58d5af	-0.01323454
80	0xbe2b1eac	-0.16710919
81	0x3d49e3db	0.049289566
82	0x3cd568ed	0.02605101
83	0x3d741503	0.05959035
84	0x3e81d62b	0.2535871
85	0xbe8176ad	-0.25285855
86	0xbdbf904d	-0.09353695
87	0xbd112352	-0.035434075
88	0xbd8c156f	-0.06840026
89	0xbe1c438c	-0.15260142
90	0x3d23e317	0.04001149
91	0xbb3dbe18	-0.0028952416
92	0x3c6c9aaf	0.014441176
93	0xbd92f0d0	-0.071748376
94	0xbe037812	-0.12838772
95	0xbc3adb52	-0.011404829
96	0x3df1d711	0.11808599
97	0xbe193a05	-0.14963539
98	0x3dea5a9c	0.114430636
99	0x3de11d22	0.10991885
100	0xbcf48e0b	-0.029852888
101	0xbdc02584	-0.093821555
102	0x3cb50f35	0.022101978
103	0x3dca3edc	0.09875271
104	0xbc2b05fc	-0.0104384385
105	0xbdf4e664	-0.11958006
106	0x3d3be76b	0.045874994
107	0x3d95c170	0.07312286
108	0xbe0b35f6	-0.13594803
109	0xbd9175c4	-0.0710254
110	0xbdee9b66	-0.11650734
111	0x3d22f0be	0.03978037
112	0xbd56b74f	-0.05242091
113	0x3da12734	0.078688055
114	0xbd2e03c1	-0.04248405
115	0xbc9a9d40	-0.01887381
116	0x3c5e8a9d	0.013582853
117	0x3e42897a	0.18997756
118	0x3d91db5e	0.07121919
119	0xbbf2844e	-0.007401026
120	0xbe10195f	-0.14072178
121	0x3e011414	0.12605315
122	0x3c7d4909	0.0154593075
123	0xbd9a8d7a	-0.07546516
124	0xbdd655c6	-0.10465579
125	0xbedd89d4	-0.43269217
126	0xbc11b0c9	-0.0088922465
127	0x3ddb2a61	0.107014425
128	0x3d84a8cb	0.06477507
129	0x3d07bffa	0.033142067
130	0xbd8ea3a5	-0.069648065
131	0xbb75962c	-0.0037473543
132	0xbce7c0f8	-0.028290257
133	0xbde58631	-0.112072356
134	0x3d61c2fd	0.055117596
135	0x3e45c170	0.19312072
136	0xbcf52f1e	-0.029929694
137	0x3e5088cf	0.20364688
138	0x3d8dc7f1	0.069229014
139	0x3e811f46	0.25219172
140	0xbbf53beb	-0.0074839494
141	0xbd0860ae	-0.033295326
142	0x3dc2942c	0.09500918
143	0x3ca56530	0.020189852
144	0xbd9d3812	-0.0767671
145	0x3e6596ba	0.22420779
146	0xbeadde88	-0.3395884
147	0x3e38cd21	0.18047
148	0xbe0517d5	-0.12997372
149	0x3e3fe2fb	0.1873893
150	0xbeb4fc7e	-0.35348886
151	0x3de43de8	0.1114462
152	0xbe4d6b2b	-0.20060413
153	0xbe1568f2	-0.14590815
154	0xbe1c7caf	-0.15281938
155	0x3e62262d	0.22084875
156	0xbd884dc4	-0.066554576
157	0xbdf01ab5	-0.11723844
158	0xbce5ac74	-0.028036334
159	0x3bd9dff8	0.0066490136
160	0xbd8f29ca	-0.069903925
161	0xbdc20ffd	-0.09475706
162	0x3e1a68e7	0.1507908
163	0xbe23666a	-0.15957037
164	0xbe0568a2	-0.13028196
165	0xbd891c5b	-0.066948615
166	0x3e4bde1a	0.19908944
167	0xbd386666	-0.04501953
168	0x3bb1dc0f	0.0054278444
169	0x3e2f0068	0.17089999
170	0x3d49c43d	0.049259413
171	0x3e08cc91	0.13359286
172	0x3ca3af6d	0.01998111
173	0xbe16f11f	-0.14740418
174	0xbd9344db	-0.071908675
175	0x3cb1e15d	0.021713907
176	0x3dde9c87	0.10869699
177	0xbcf584d3	-0.029970562
178	0xbd21e817	-0.03952798
179	0xbd16343f	-0.03667092
180	0xbd4e6388	-0.05038789
181	0xbd8fbe1e	-0.07018684
182	0x3cb4dfb1	0.02207932
183	0xbe18e87c	-0.14932436
184	0xbd7aaaba	-0.061197974
185	0xbdae1e01	-0.085018165
186	0x3c070baf	0.008242532
187	0x3b55700d	0.0032568008
188	0x3d19c1ee	0.03753846
189	0xbe333cc0	-0.17503643
190	0xbe0c0f64	-0.13677746
191	0xbd454041	-0.04815698
192	0x3ec189e6	0.3780052
193	0xbd20f329	-0.039294396
194	0xbd69876d	-0.057013918
195	0x3c349a08	0.011023052
196	0x3da75d32	0.081720725
197	0x3df659b5	0.12028829
198	0xbc8f4146	-0.01748718
199	0xbcfcad50	-0.03084436
200	0xbc9e173e	-0.019298192
201	0x3d4045d9	0.046941612
202	0xbd6a8f9d	-0.057265867
203	0xbdfd66c5	-0.12373117
204	0xbdc4f411	-0.096168645
205	0xbca11cc9	-0.019667046
206	0x3d8103d3	0.062995575
207	0xbd273cf1	-0.040829603
208	0x3dd6a9f0	0.10481632
209	0x3e743daa	0.23851648
210	0x3daf887d	0.08570955
211	0x3dae2fea	0.08505233
212	0xbe447f55	-0.19189198
213	0xbe2c0981	-0.168005
214	0xbe20b8c2	-0.1569548
215	0xbeb9633c	-0.36208522
216	0xbdd93a70	-0.10606849
217	0x3e07aad5	0.13248761
218	0x3db15d56	0.086603805
219	0x3cfb1c23	0.030653065
220	0x3e0c3b88	0.13694584
221	0xbe3bf858	-0.18356454
222	0x3e191e11	0.14952876
223	0xbe7f71a6	-0.24945697
224	0x3c0ea0c1	0.008705319
225	0xbe454837	-0.19265829
226	0x3dd0edf4	0.10201636
227	0xbe804393	-0.25051555
228	0xbbbce424	-0.005764501
229	0x3d81e009	0.063415594
230	0xbd2b3438	-0.041797847
231	0xbbe41c07	-0.006961349
232	0x3aae11e9	0.0013280484
233	0xbd503f18	-0.05084142
234	0x3b58c515	0.0033076454
235	0xbd248997	-0.04017028
236	0xbe18ef10	-0.14934945
237	0x3e1762f6	0.14783844
238	0x3da6950c	0.08133897
239	0xbdc72a03	-0.0972481
240	0x3d0da5f3	0.03458209
241	0x3e1f0790	0.15530229
242	0x3cc5ac66	0.024130058
243	0x3e44e321	0.19227268
244	0x3cbe7c5f	0.023252664
245	0x3d969478	0.07352537
246	0x3a546067	0.0008101523
247	0xbca54f52	-0.020179424
248	0x3e2b4d54	0.16728717
249	0x3d59f0bd	0.0532081
250	0xbc1b4cb7	-0.009478739
251	0xbe893243	-0.2679616
252	0x3be8aa98	0.0071004145
253	0x3dadf8b4	0.08494702
254	0x3e0505e4	0.12990528
255	0x3e12b6eb	0.1432759

network_body.linear_encoder.seq_layers.2.bias f4 [128]
0	0xbd4ce877	-0.050026383
1	0xbd03cd9e	-0.032178514
2	0xbe0f01cb	-0.13965528
3	0xbe3a8550	-0.18214917
4	0xbd5b868d	-0.053595114
5	0xbc82f2b4	-0.01598487
6	0xbd4ade10	-0.04952818
7	0x3c7f5246	0.01558358
8	0x3c50b8d8	0.012739383
9	0xbbea1ada	-0.0071443142
10	0xbc0d55d6	-0.008626422
11	0xbc8df94b	-0.017330786
12	0xbe1ed240	-0.15509892
13	0x3cb0dc7a	0.021589506
14	0xbdefefd4	-0.117156655
15	0x3d496f8c	0.049178645
16	0x3c3002bb	0.0107428385
17	0x3d855d75	0.06511966
18	0xbde24dd7	-0.11050003
19	0xbd00b27a	-0.03142021
20	0xbc0cbfde	-0.008590667
21	0xbcbceb72	-0.023061488
22	0xbca61721	-0.0202747
23	0xbd038cb2	-0.0321166
24	0xbe00c4ca	-0.12575069
25	0xbe00be87	-0.1257268
26	0x3d36e784	0.044654384
27	0x3d7b96b9	0.061423037
28	0xbe00562c	-0.12532872
29	0xbd605492	-0.054768153
30	0xbbba153e	-0.005678802
31	0xbd99a9d2	-0.07503094
32	0xbb2193ee	-0.0024654823
33	0xbd05e534	-0.03268929
34	0x3cb15548	0.02164711
35	0xbe27c38a	-0.16383186
36	0x3b7d89ca	0.0038686865
37	0x3d1d4502	0.03839589
38	0xbce71338	-0.028207406
39	0xbcfcb71f	-0.030849038
40	0xbd99547c	-0.07486817
41	0xbc8da8d0	-0.01729241
42	0x3d3747d7	0.044746246
43	0xbcf1fa18	-0.0295382
44	0xbe208e7f	-0.15679358
45	0xbd0c5a1b	-0.03426562
46	0xbd2046fe	-0.039130203
47	0xba7e795f	-0.0009707417
48	0xbd0e641e	-0.034763448
49	0x3cc8ec54	0.024526753
50	0xbe2b6af1	-0.16740014
51	0xbc111b14	-0.008856554
52	0xbe14011e	-0.14453551
53	0xbe1b7fe5	-0.15185507
54	0xbe158322	-0.14600804
55	0x3c05860b	0.008149634
56	0x3de5dbf3	0.112235926
57	0xbcf06852	-0.029346619
58	0x3bba075a	0.005677146
59	0xbe4e28d4	-0.20132762
60	0xba284a1a	-0.00064197334
61	0x3e092012	0.1339114
62	0xbbefd824	-0.007319467
63	0x3d25bfcd	0.04046612
64	0xbe232233	-0.15931015
65	0xbbf5ab24	-0.007497208
66	0xbc3114bb	-0.010808165
67	0x3af1fccc	0.001846218
68	0xbcf35cba	-0.029707301
69	0xbafd4693	-0.0019323401
70	0xbd6b1428	-0.05739227
71	0x3ac96425	0.0015364928
72	0xbcf627c0	-0.030048251
73	0x3bcbd300	0.0062202215
74	0xbc84b1ee	-0.016198125
75	0xbe359e22	-0.17736104
76	0xbcbf72e5	-0.023370216
77	0x3bd2800d	0.0064239562
78	0xbd9a4714	-0.07533088
79	0x3b4e76ff	0.0031504033
80	0xbe2fe8a5	-0.1717859
81	0xbae1eccb	-0.0017236707
82	0x3c986e18	0.018607184
83	0xbcc7610f	-0.024338273
84	0xbe0ec05d	-0.13940568
85	0xbe263eaf	-0.1623485
86	0xbdfb7f60	-0.12280154
87	0x3c654202	0.013992788
88	0x3bcf1314	0.006319413
89	0xbe26373a	-0.16232005
90	0xbb2f960a	-0.002679231
91	0xbd3b554e	-0.04573565
92	0xbe1e9450	-0.15486264
93	0xbe3ffb1f	-0.18748139
94	0xbb8f106e	-0.0043659722
95	0x3b1a01b2	0.0023499546
96	0xbd479674	-0.048727468
97	0xbc843c89	-0.016142147
98	0x39a8d93d	0.00032205312
99	0xbcd58867	-0.026066018
100	0xbcd50746	-0.026004445
101	0xbe48173a	-0.1954011
102	0xbbf73f10	-0.0075453594
103	0x3d9bbf72	0.07604875
104	0xbcef7aca	-0.029233355
105	0x3cbd44bf	0.02310407
106	0x3c9593e4	0.018258996
107	0xbe2a5372	-0.16633394
108	0xbccdbcb3	-0.025114393
109	0xbde9ba25	-0.114124574
110	0xbe112115	-0.14172776
111	0x3c938bf1	0.018011065
112	0xbd29a66c	-0.041418478
113	0x3d0cc4ef	0.034367498
114	0x3c4cdc27	0.01250366
115	0xbcdd35c4	-0.027003177
116	0xbe207c35	-0.15672381
117	0xbc2fdbb5	-0.010733535
118	0xbcdcbbf4	-0.026945092
119	0xbe3441d7	-0.17603241
120	0xbe360b1c	-0.17777675
121	0x3d010692	0.031500407
122	0xbe27c0eb	-0.16382186
123	0xbbf696cf	-0.007525302
124	0x3c59b582	0.013287904
125	0xbdbde640	-0.09272432
126	0x3a001c65	0.00048870436
127	0xbe1e9893	-0.1548789

network_body.linear_encoder.seq_layers.2.weight f4 [128, 128]
0	0x3cba3e68	0.022734836
1	0xbd85e38e	-0.06537543
2	0xbdc8ce87	-0.09805017
3	0x3d1cca40	0.038278818
4	0xbcde0f85	-0.02710701
5	0x3d6622ab	0.056185406
6	0x3c575834	0.013143588
7	0x3d8507c4	0.06495622
8	0x3d2eb027	0.04264846
9	0x3d292dfd	0.041303623
10	0xba78a180	-0.00094845146
11	0x3ca45c2b	0.02006348
12	0x3b8d82e3	0.0043185814
13	0x3bafb85d	0.005362554
14	0x3d9249fd	0.071430184
15	0xbd47e479	-0.048801873
16	0x3d634652	0.055486985
17	0xbd956a99	-0.072957225
18	0xbda72d4d	-0.08162937
19	0x3dd399bb	0.10332056
20	0x3c39c9c5	0.0113396095
21	0x3e076643	0.13222603
22	0x3d37e64c	0.044897363
23	0x3c7fb546	0.015607184
24	0xbdb71f7c	-0.08941552
25	0xbde75999	-0.11296386
26	0xbbcc0ea6	-0.006227332
27	0x3c9ed3d4	0.019388117
28	0xbce69bfa	-0.028150547
29	0xbdf0471c	-0.11732313
30	0x3b859788	0.004076902
31	0xbd315034	-0.04328938
32	0x3c82b8c2	0.01595724
33	0x3d830878	0.063981
34	0xbb3eabc6	-0.0029094084
35	0xbccd030a	-0.025025863
36	0xbd233535	-0.039845664
37	0x3da112f4	0.07864943
38	0xbdc6fb49	-0.097158976
39	0xbca59f05	-0.020217428
40	0xbd26cb05	-0.04072096
41	0x3d9979cf	0.07493936
42	0x3b56e0b3	0.003278774
43	0x3d8688f9	0.06569094
44	0xbda83070	-0.08212364
45	0xbd87c95c	-0.06630203
46	0x3ceea1d2	0.029129896
47	0xbca5685a	-0.02019136
48	0xbbfd2ee9	-0.0077265394
49	0xbd5314bf	-0.051533457
50	0x3db8dab7	0.090260915
51	0xbc9faa70	-0.01949045
52	0xbdf7c280	-0.12097645
53	0x3d3dfa5e	0.046381347
54	0x3c20e5db	0.009820427
55	0xbdefb6a9	-0.117047615
56	0x3dfca896	0.12336843
57	0x3d868ccb	0.06569823
58	0x3d7e5958	0.062096924
59	0xbe4e6b45	-0.20158108
60	0xbd16fedd	-0.03686415
61	0xbbcfa809	-0.00633717
62	0xbdce7e9a	-0.10082741
63	0x3d21120f	0.039323863
64	0x3e45e46d	0.19325419
65	0xbe38881a	-0.18020669
66	0xbd19956e	-0.037496023
67	0x3caca5de	0.021075185
68	0xbd962ec7	-0.07333141
69	0xbe0af66f	-0.1357057
70	0x3d00d6e0	0.03145492
71	0xbe1dc962	-0.15408853
72	0x3c4b2f0d	0.0124013545
73	0x3dd6275c	0.10456726
74	0x3dd032fc	0.101659745
75	0xbd764ef7	-0.0601339
76	0x3dbeee83	0.09322836
77	0xbde773e8	-0.11301404
78	0x3def8702	0.116956726
79	0x3cbc09a6	0.02295382
80	0x3dbed382	0.09317686
81	0x3c8acbcb	0.01694288
82	0x3b4b3a00	0.0031009912
83	0xbdc2e7f3	-0.09516897
84	0xbdad2468	-0.084542096
85	0x3d8858a2	0.0665753
86	0xbd40eaa8	-0.047098786
87	0x3c30bff3	0.010787952
88	0xbc0c74fb	-0.008572812
89	0x3e296502	0.16542438
90	0xbd9db9b1	-0.077014334
91	0x3cf2c066	0.029632758
92	0xbe1d816c	-0.15381402
93	0x3e8a5e4f	0.27025077
94	0x3c3fc202	0.01170397
95	0xbd55479e	-0.052070253
96	0x3a2512f6	0.0006297076
97	0xbd1d979e	-0.03847467
98	0x3d8319c7	0.06401401
99	0xbdbd53eb	-0.09244522
100	0xbe2cbdff	-0.16869353
101	0x3d7fcb62	0.06244982
102	0xbdb56fa9	-0.08859188
103	0x3cd6ce93	0.02622155
104	0xbccdaed7	-0.025107784
105	0xbc205463	-0.009785744
106	0xbda2288b	-0.07917889
107	0x3d158a73	0.03650899
108	0xbda251fa	-0.07925792
109	0xbd4231f2	-0.047410913
110	0x3c77f34c	0.01513369
111	0xbc20ce00	-0.009814739
112	0x3c7f4d7f	0.015582441
113	0xbd2ad3d5	-0.041705925
114	0x3d446b7c	0.047954068
115	0x3cba3255	0.022729078
116	0x3da6a1cc	0.08136329
117	0xbd44d606	-0.04805567
118	0x3e1b9eb1	0.15197255
119	0x3d6c9bc4	0.057765737
120	0x3d3f160d	0.04665189
121	0x3d8040ff	0.06262397
122	0x3d4a91d8	0.049455494
123	0x3e05dd83	0.13072781
124	0x3ce4c0a3	0.027923888
125	0xbcebaaea	-0.028768022
126	0x3dac4ea7	0.08413439
127	0xbc83713a	-0.016045202
128	0xbd8674e5	-0.065652646
129	0xbbc255ee	-0.005930654
130	0x3db27455	0.08713595
131	0xbc963abc	-0.018338554
132	0xbdf679c8	-0.12034947
133	0xbdecc7a7	-0.11561518
134	0x3d174ca5	0.03693833
135	0xbe13cba5	-0.14433153
136	0xbe4dc8cd	-0.2009613
137	0xbc1806f9	-0.009279006
138	0xbccd48b7	-0.025059087
139	0x3c01e33b	0.007927711
140	0x3b54d176	0.0032473481
141	0xbd51a194	-0.051179484
142	0xbe0281d2	-0.12744835
143	0xbe33869f	-0.17531823
144	0xbe3a374a	-0.18185154
145	0xbdeed16f	-0.1166104
146	0x3d833ea9	0.06408436
147	0xbdfc6bf6	-0.123252794
148	0xbd40d62e	-0.047079258
149	0xbad0b165	-0.0015922008
150	0x3d8dc756	0.06922786
151	0xbdc55152	-0.09634651
152	0x3d374a7c	0.04474877
153	0xbe679b9f	-0.22617958
154	0x3e0fd691	0.14046694
155	0x3cf6785c	0.030086689
156	0xbb617840	-0.003440395
157	0xbd538c53	-0.051647495
158	0xbe1a5fa3	-0.15075545
159	0xbd0acd9d	-0.033887494
160	0x3e284541	0.16432668
161	0x3d99f144	0.07516721
162	0x3dbf9be1	0.093559034
163	0x3e2d3c44	0.16917521
164	0x3dc2cd31	0.095117934
165	0x3e141969	0.14462818
166	0x3d155059	0.03645358
167	0xbd833189	-0.064059325
168	0x3d39d44e	0.045368485
169	0x3c8000ec	0.01562544
170	0x3d8da15e	0.06915544
171	0xbe7af75d	-0.24508424
172	0x3e2d3140	0.16913319
173	0xbbe1b1ca	-0.006887649
174	0x3ccfbc34	0.025358297
175	0x3bf89f34	0.007587338
176	0xbd86997a	-0.06572242
177	0x3dcf55e8	0.10123807
178	0xbdb21727	-0.08695822
179	0xbdc8f0aa	-0.09811528
180	0x3e87ed8a	0.26548415
181	0x3def474c	0.11683521
182	0x3d81db35	0.063406385
183	0xbe025f45	-0.12731655
184	0x3d57a3f2	0.052646585
185	0x3dbfd6cd	0.09367142
186	0xbd754769	-0.059882555
187	0xbd66af36	-0.056319438
188	0xbd3a76e3	-0.045523535
189	0x3d9f567e	0.07780169
190	0xbd6ac5cf	-0.05731755
191	0xbd580a87	-0.052744415
192	0x3d292fc1	0.041305307
193	0xbd50765b	-0.050894123
194	0xbd23e60b	-0.040014308
195	0x3e225d23	0.15855841
196	0x3d7299f2	0.059228845
197	0x3e22435e	0.15846011
198	0x3de08b47	0.10964065
199	0xbd913200	-0.07089615
200	0x3d40b796	0.04705008
201	0x3bcf343d	0.006323366
202	0xbdd7edd4	-0.10543409
203	0xbe024c61	-0.12724449
204	0xbe3c25ca	-0.1837379
205	0x3d0ef9b8	0.03490612
206	0x3c8311a0	0.015999615
207	0xbdb5cbe5	-0.088767804
208	0x3e49d7b6	0.19711193
209	0xbdfdc91d	-0.12391875
210	0x3df83abc	0.12120578
211	0x3d8ba682	0.06818868
212	0x3b339494	0.0027401792
213	0xbd1855f2	-0.03719134
214	0xbb01f640	-0.0019830614
215	0xbd088d85	-0.03333809
216	0xbd485be8	-0.048915774
217	0x3d90e045	0.07074026
218	0xbc16c64d	-0.009202552
219	0xbe8266eb	-0.25469145
220	0xbdb815de	-0.08988546
221	0x3d8ef38f	0.06980049
222	0xbcb3116f	-0.021858899
223	0x3d87161d	0.06596015
224	0x3dff156f	0.1245526
225	0x3d98b08d	0.074555494
226	0xbdaadbe6	-0.083427235
227	0xbcee201d	-0.029068047
228	0x3dca74e8	0.09885579
229	0xbd473b26	-0.048640393
230	0xbdb12e55	-0.08651415
231	0xbd5ca344	-0.05386664
232	0xbdfed20e	-0.124424085
233	0x3daba7da	0.083816245
234	0x3cbed303	0.023293978
235	0x3e082c06	0.13298044
236	0x3d4c1429	0.049823914
237	0xbd53c9e9	-0.05170623
238	0xbd928fba	-0.0715632
239	0xbb5d19db	-0.0033737335
240	0xbcfd615b	-0.030930212
241	0xbe26b456	-0.1627973
242	0x3c78a787	0.01517666
243	0xbd91de00	-0.07122421
244	0xbe1df1d0	-0.15424275
245	0xbd9b58e1	-0.07585312
246	0xbde7388f	-0.112900846
247	0xbd6628ba	-0.056191184
248	0x3dd35897	0.103196315
249	0xbdba97e8	-0.09111005
250	0xbcaa2530	-0.020769686
251	0xbdc91f7b	-0.098204575
252	0xbd1fc4c4	-0.03900601
253	0xbd7aa821	-0.061195496
254	0xbbd0eabd	-0.0063756392
255	0xbdc61cae	-0.09673439
