Learning/results/test5/KartAgent/KartAgent-1299952.onnx (onnx, 108737 bytes, 7 tensors)

41 f4 [1, 2]
-0.5774179 -1.1166557
00000000: a9d1 13bf 93ee 8ebf

distribution.mu.bias f4 [2]
0.023863707 0.15532805
00000000: d27d c33c 510e 1f3e

distribution.mu.weight f4 [2, 128]
0.002286838 0.019949293 -0.0028440135 -0.008405629 -0.03821647 -6.279472e-05 0.00019641982 0.0013132073
0.08274081 3.975641e-05 0.0012255439 0.0057127834 0.015274154 -0.0035243346 -0.00843122 0.12856618
0.00044715547 0.12887138 -0.041425183 0.052311588 -0.0002539651 -0.0013866695 0.04457557 0.0027400912
-0.0030624294 0.034549125 -0.1549296 -0.17908092 -0.0029972307 -0.062431015 0.0008426306 -0.08783532
-0.0037751843 0.0015571412 -0.0029668796 -0.036179874 -0.0024998258 -0.14562416 0.03923244 0.00042653762
-0.05089985 -0.10087971 0.12413632 0.00045112165 -0.0016898357 -0.076085635 -0.0016864837 -0.00044173954
-0.0024389015 -0.0006860066 -0.0036164175 0.002503912 -0.0029457791 -0.019096253 6.0609404e-05 -0.00070481916
0.16926372 -0.00079032825 -0.0045479205 -0.009936328 0.07343808 0.1878372 -0.000145364 0.00029854814
-0.010598939 -0.0018729459 -0.0038887344 -0.0021058512 0.0001314702 -0.0003480198 -0.00033191976 0.00341376
0.0014597538 0.0023998972 0.0025582567 -0.030577501 0.0015202843 -0.00042158898 -0.0633519 -0.0047855577
-0.01664919 0.08289887 -0.001640389 0.06456929 0.014860249 -0.018468061 0.009437273 0.0011641339
-0.12162479 -0.022993583 -0.0013053722 0.024994507 -0.0056844437 -0.011062418 0.00010705386 0.0031949026
-0.0016741394 0.0005780941 0.0027924802 -0.0013828762 -0.0019241354 -0.019248346 0.034447685 0.14650366
-0.0005809562 -0.002645031 0.0012948149 -0.020339828 -0.002508368 0.0043375846 -0.01728501 -0.0006679621
0.017960718 -9.267741e-05 -0.002599929 0.050331775 -0.013135248 -0.0024632297 -0.0020911365 0.0008040818
-0.047974985 -0.13456348 -0.020616507 -0.005874518 -0.00076294004 -0.046920806 -0.001903848 -0.020326816
-0.004028652 -0.00686175 -0.11784015 -0.095806286 0.008435189 -0.0052701924 -0.00014346986 -0.0015939368
-0.0038770924 -0.001501584 -0.00023796469 -0.0017464657 -0.09147858 -0.0021850485 -0.16021876 0.020831397
-0.0025817133 0.011074214 -0.0041601113 -0.012567772 -0.0020699487 0.0016242056 0.0040629376 -0.0015247711
-0.1280051 -0.12676407 0.030104527 0.032448754 -0.112323284 -0.00093159924 5.442045e-05 -0.027211463
0.006552144 3.494554e-05 0.0022964766 -0.15693301 -0.0015769119 0.033196766 0.0017952096 -0.0017778446
-0.041654956 0.008353607 0.005389294 0.001657221 -0.10379888 0.014144071 0.0020474347 0.00020682192
0.00051053305 0.0032636249 -0.12165137 -0.0030522493 -0.15276031 -0.11361733 -0.14196298 5.2320553e-05
0.017592223 -0.00021652687 -0.0016407999 -0.10470813 -0.006078661 0.038935408 -0.0017543429 -0.0005699041
-0.116150446 0.0022534188 -0.005251871 -0.0012581204 0.00086751784 -0.00020719401 0.002056365 -4.4303022e-05
0.0029926724 6.526411e-05 0.002921271 -0.13135776 0.0010561296 -0.001846993 -0.024832314 -0.0019400668
-0.1182961 0.008296546 0.0022956794 -0.00063719443 -0.15709613 -0.10483901 -0.0997418 0.0008672959
0.016177915 -0.11697994 -0.0014007199 -0.006969064 -0.114165016 -0.10996244 0.0011501369 -0.0023474602
0.0037831622 0.00027696262 -0.0022103402 0.0031795716 0.0003266027 -0.12778096 0.010049254 0.00873825
-0.00072314014 -0.00013765426 -4.9450722e-05 -0.118360326 -0.0020940008 -0.11170275 -0.14491482 0.00021579872
-0.00260561 -0.0023181345 0.0062158373 -0.008628827 -0.105807595 0.0028068274 0.0015211089 -0.1098097
-0.1295019 0.021577103 -0.11857044 -0.0028178145 -0.0002561417 -0.023037683 0.0012924438 -0.14280614
00000000: c6de 153b b36c a33c a162 3abb c3b7 09bc
00000010: e088 1cbd a9b0 83b8 0bf6 4d39 ed1f ac3a
00000020: 0474 a93d 1fc0 2638 6ea2 a03a 4d32 bb3b
00000030: 7240 7a3c 86f8 66bb 1a23 0abc daa6 033e
00000040: 3170 ea39 dcf6 033e 74ad 29bd ad44 563d
00000050: 9e26 85b9 e8c0 b5ba df94 363d 1a93 333b
00000060: 0ab3 48bb 6283 0d3d dda5 1ebe fd60 37be
00000070: 306d 44bb aab7 7fbd fbe3 5c3a 01e3 b3bd
00000080: 1569 77bb fd18 cc3a fb6f 42bb 5931 14bd
00000090: 1ed4 23bb 801e 15be 32b2 203d e9a0 df39
000000a0: 5c7c 50bd 059a cebd 2f3b fe3d 8684 ec39
000000b0: 7a7d ddba c9d2 9bbd 010d ddba 4799 e7b9
000000c0: fad5 1fbb 20d5 33ba 6b01 6dbb ac18 243b
000000d0: f90d 41bb bf6f 9cbc da36 7e38 9dc3 38ba
000000e0: 7853 2d3e 082e 4fba b906 95bb fbcb 22bc
000000f0: b466 963d 6558 403e da6c 18b9 7486 9c39
00000100: 2ca7 2dbc a37d f5ba 23da 7ebb 5202 0abb
00000110: 43db 0939 6d76 b6b9 8405 aeb9 64b9 5f3b
00000120: 3655 bf3a 9847 1d3b 6da8 273b ab7d fabc
00000130: 4744 c73a b708 ddb9 a4be 81bd 2bd0 9cbb
00000140: e263 88bc e2c6 a93d 5202 d7ba e73c 843d
00000150: 6778 733c 554a 97bc cb9e 1a3c da95 983a
00000160: 6b16 f9bd 0a5d bcbc 0619 abba 48c1 cc3c
00000170: 9244 babb 253f 35bc 1a82 e038 9261 513b
00000180: cc6e dbba 3d8b 173a 0b02 373b a041 b5ba
00000190: 4533 fcba b5ae 9dbc 0419 0d3d 0e05 163e
000001a0: 504b 18ba 4258 2dbb c7b6 a93a b69f a6bc
000001b0: 6f63 24bb 4c22 8e3b 4b99 8dbc 2d1a 2fba
000001c0: 5b22 933c ce5b c2b8 9263 2abb b128 4e3d
000001d0: 3935 57bc 236e 21bb 730b 09bb 04c9 523a
000001e0: 6b81 44bd 02cb 09be f3e3 a8bc 077f c0bb
000001f0: 0a00 48ba 0830 40bd 8a8a f9ba 6c84 a6bc
00000200: c802 84bb 88d8 e0bb 2d56 f1bd 1636 c4bd
00000210: bf33 0a3c 94b1 acbb 6670 16b9 a5eb d0ba
00000220: d116 7ebb ccd0 c4ba 2986 79b9 aae9 e4ba
00000230: 1f59 bbbd 0833 0fbb 6310 24be 9ba6 aa3c
00000240: f631 29bb 9f70 353c 8b51 88bb 0ee9 4dbc
00000250: faa7 07bb 4ce3 d43a 6422 853b d4da c7ba
00000260: c513 03be 71ce 01be c59d f63c fce8 043d
00000270: c009 e6bd 9136 74ba 8341 6438 93ea debc
00000280: 5eb3 d63b 7d92 1238 7c80 163b 0cb3 20be
00000290: 62b0 ceba 55f9 073d 3d4d eb3a 9106 e9ba
000002a0: 639e 2abd 91dd 083c ad98 b03b 1c37 d93a
000002b0: 8294 d4bd 89bc 673c 412e 063b 56de 5839
000002c0: 4bd5 053a 8ae2 553b 5a24 f9bd 3f08 48bb
000002d0: 336d 1cbe 34b0 e8bd be5e 11be c472 5b38
000002e0: 911d 903c 7d0b 63b9 1c10 d7ba 3771 d6bd
000002f0: 812f c7bb bc7a 1f3d fbf1 e5ba 9e65 15ba
00000300: 49e0 edbd 18ae 133b e317 acbb 84e7 a4ba
00000310: 236a 633a 3842 59b9 14c4 063b 02d2 39b8
00000320: b620 443b 67de 8838 cb72 3f3b a682 06be
00000330: d46d 8a3a cd16 f2ba 236d cbbc d749 feba
00000340: 3a45 f2bd 3cee 073c 1c73 163b 6509 27ba
00000350: cfdd 20be d6b5 d6bd 6e45 ccbd 3e5b 633a
00000360: 8c87 843c 2e93 efbd 5c98 b7ba bf5c e4bb
00000370: 59cf e9bd fd33 e1bd 31c0 963a d9d7 19bb
00000380: eeee 773b 4b35 9139 5bdb 10bb 5c60 503b
00000390: df3b ab39 03d9 02be a0a5 243c e02a 0f3c
000003a0: 1d91 3dba 4957 10b9 4f69 4fb8 e666 f2bd
000003b0: 813b 09bb 69c4 e4bd 8d64 14be 0748 6239
000003c0: e2c2 2abb d8eb 17bb 39ae cb3b ec5f 0dbc
000003d0: a7b1 d8bd c0f2 373b f25f c73a e8e3 e0bd
000003e0: 259c 04be 77c2 b03c 0fd5 f2bd 15ab 38bb
000003f0: c24a 86b9 86b9 bcbc 3867 a93a c63b 12be

network_body.linear_encoder.seq_layers.0.bias f4 [128]
-0.06228564 0.0034537492 -0.035048082 -0.010743805 -0.050825827 -0.021495128 -0.07197964 -0.03170723
-0.021258539 0.020064324 -0.038229816 0.011571835 -0.008475382 -0.05416358 0.038259618 -0.0077857845
0.0042622294 -0.0052898843 -0.027485605 -0.05293594 -0.0067351316 -0.056429762 -0.05220533 -0.004783773
-0.014633654 -0.02419322 -0.04735671 0.004346102 -0.026814902 -0.0017808701 -0.03851018 0.00886668
0.008330992 -0.023819586 -0.0014098135 -0.068492845 -0.014279336 -0.013219546 -0.030602004 -0.0014141846
-0.092682645 -0.045833252 -0.012077035 -0.013469194 0.0015181737 -0.041273143 0.01685795 -0.014679121
0.0377894 0.0040888386 0.0025916216 0.028245762 -0.035704233 -0.0039925496 0.0025899324 0.0193024
-0.031996004 -0.038348734 -0.0083380705 -0.07882348 0.0038283807 0.011005673 0.025965871 0.006937826
-0.018378602 -0.040854435 -0.030561643 -0.01502102 -0.0031892674 -0.08124035 0.035744745 -0.04644323
-0.050063547 -0.016379451 -0.03717083 -0.027454738 0.04893598 -0.022537155 -0.007648283 -0.040343232
0.012544789 -0.07508826 0.0117772315 -0.08205873 0.006867393 -0.017246809 -0.030201105 -0.05143262
0.0015512535 -0.059165906 -0.05479107 -0.018528782 -0.048557762 -0.03938796 -0.078345835 -0.03871512
-0.068276964 -0.05818661 -0.01256189 0.0061493535 -0.0690034 -0.040140584 0.009382548 0.015576374
0.004490765 0.018441558 0.014966747 -0.03747747 -0.032162998 -0.04269753 0.047511753 -0.05656977
-0.037288476 -0.027191183 -0.074730694 -0.077078484 0.009605335 0.017761694 -0.04430462 0.01011836
0.005412739 0.0052127433 0.00097611756 -0.02326169 -0.04689254 -0.060701184 -0.022112017 -0.020842334
00000000: 3a1f 7fbd 4c58 623b 948e 0fbd c906 30bc
00000010: be2e 50bd 8d16 b0bc 106a 93bd 71df 01bd
00000020: 6326 aebc f05d a43c de96 1cbd cb97 3d3c
00000030: 54dc 0abc a1da 5dbd 1eb6 1c3d e51f ffbb
00000040: 2caa 8b3b c456 adbb 7e29 e1bc 5bd3 58bd
00000050: 61b2 dcbb e522 67bd 42d5 55bd 32c1 9cbb
00000060: fec1 6fbc dc30 c6bc 1cf9 41bd bf69 8e3b
00000070: edaa dbbc 166c e9ba dabc 1dbd 8d45 113c
00000080: b77e 083c 4b21 c3bc 7ec9 b8ba fa45 8cbd
00000090: e0f3 69bc cb96 58bc 0eb1 fabc 295c b9ba
000000a0: 66d0 bdbd a6bb 3bbd c2de 45bc e5ad 5cbc
000000b0: 75fd c63a 070e 29bd af19 8a3c b280 70bc
000000c0: 0fc9 1a3d aafb 853b 32d8 293b a863 e73c
000000d0: 9a3e 12bd efd3 82bb dbbb 293b 1120 9e3c
000000e0: 3e0e 03bd 9013 1dbd 679c 08bc 346e a1bd
000000f0: 92e5 7a3b 2351 343c 61b6 d43c b456 e33b
00000100: b98e 96bc fb56 27bd 695c fabc b91a 76bc
00000110: 0703 51bb 5761 a6bd 1569 123d 423b 3ebd
00000120: 6f0f 4dbd 332e 86bc 7140 18bd c2e8 e0bc
00000130: 1871 483d d79f b8bc 739e fabb f23e 25bd
00000140: a988 4d3c e0c7 99bd 4af5 403c 680e a8bd
00000150: de07 e13b 2e49 8dbc 4f68 f7bc 03ab 52bd
00000160: 6e53 cb3a f357 72bd 9a6c 60bd acc9 97bc
00000170: 81e4 46bd 4555 21bd c873 a0bd bf93 1ebd
00000180: cbd4 8bbd 1555 6ebd 63d0 4dbc 8480 c93b
00000190: a851 8dbd 746a 24bd 42b9 193c 0c34 7f3c
000001a0: 4427 933b c012 973c 1637 753c fa81 19bd
000001b0: 59bd 03bd 9be3 2ebd af9b 423d b4b5 67bd
000001c0: cdbb 18bd 0bc0 debc 680c 99bd 53db 9dbd
000001d0: b25f 1d3c f980 913c c378 35bd 7ac7 253c
000001e0: 585d b13b a9cf aa3b 24e2 7f3a 4d8f bebc
000001f0: 6412 40bd cea1 78bd 4324 b5bc 8bbd aabc

network_body.linear_encoder.seq_layers.0.weight f4 [128, 77]
-0.1785286 -0.010038263 -0.018440563 -0.11028786 -0.087952495 0.021672571 -0.04037888 -0.11571457
-0.10382445 0.042350553 0.05254955 -0.070021346 0.021068653 -0.056873485 0.023356857 -0.18238395
0.016196094 -0.022390692 0.01759035 0.15327589 -0.074959755 0.039000057 0.059075426 -0.10089441
-0.081267625 -0.04033294 -0.08071616 0.02240046 0.15593831 0.101683676 0.007026923 -0.108565845
-0.024920715 0.11478142 0.15938616 -0.0039392994 -0.3006713 0.04774163 0.0019897548 -0.16371164
0.049497634 -0.06642772 0.07299604 -0.23647994 -0.17813088 -0.06948778 -0.2769497 -0.09484647
-0.21873197 -0.03186006 -0.090343416 -0.08020381 -0.06765483 -0.06505981 0.044240184 -0.057944953
0.23280643 0.15950748 -0.2527195 0.025271136 0.09817145 -0.20553644 -0.05439647 -0.2372009
0.23835708 -0.1379295 0.04797474 -0.12160905 -0.29162577 0.41242272 -0.0314846 -0.06439726
-0.21677984 0.3864426 -0.1663264 -0.13452756 -0.058223244 -0.08254352 -0.08224466 -0.01323454
-0.16466375 0.07131598 0.02821171 0.05959035 0.2606313 -0.25452304 -0.08198985 -0.035434075
-0.06004324 -0.13486421 0.04589532 -0.0028952416 0.021785967 -0.0592177 -0.12415022 -0.011404829
0.12677923 -0.12626703 0.116403036 0.10991885 -0.022219473 -0.082978986 0.024569593 0.09875271
-0.014621301 -0.10155895 0.04661261 0.07312286 -0.12601669 -0.063627996 -0.10285092 0.03978037
-0.049683418 0.102947325 -0.056485236 -0.01887381 0.023509689 0.20061454 0.07137429 -0.007401026
-0.13063352 0.14225198 0.0066770082 -0.07546516 -0.10136697 -0.42662153 0.007319615 0.107014425
0.07521263 0.043783505 -0.06732145 -0.0037473543 -0.021381447 -0.10132891 0.05531054 0.19312072
-0.015579587 0.2100543 0.082631126 0.25219172 0.013797099 -0.024509754 0.10716765 0.020189852
-0.06812147 0.23061407 -0.3173266 0.18047 -0.1181995 0.19379558 -0.33122706 0.1114462
-0.18882976 -0.14590815 -0.17376596 0.22910817 -0.066554576 -0.1216011 -0.04437182 0.023544103
-0.069903925 -0.09716169 0.12494203 -0.1504696 -0.13028196 -0.07434371 0.19646443 -0.045148697
0.0054278444 0.16546842 0.043276366 0.13442461 0.01998111 -0.15953681 -0.07260604 0.018965289
0.10869699 -0.04333062 -0.03920493 -0.040482838 -0.05038789 -0.074541345 0.018491596 -0.14775874
-0.061197974 -0.097891845 0.009354358 -0.0017548678 0.03753846 -0.17908649 -0.13790153 -0.053601958
0.3780052 -0.054551806 -0.05913553 0.00829902 0.081720725 0.11938388 -0.01689953 -0.041533343
-0.019298192 0.02964653 -0.061894774 -0.118214026 -0.096168645 -0.017568221 0.060368393 -0.041497007
0.10481632 0.22517827 0.07711332 0.113388814 -0.19189198 -0.16939187 -0.14272328 -0.38077283
-0.10606849 0.13320063 0.08491777 0.021841308 0.13694584 -0.17654516 0.15267341 -0.261487
0.008705319 -0.18754171 0.10516113 -0.26254553 -0.005764501 0.068532005 -0.041797847 0.02085045
-0.020013897 -0.05084142 0.027962357 -0.03102303 -0.16060732 0.14783844 0.101514 -0.09750832
0.039520238 0.15530229 0.03594146 0.18872374 0.0368263 0.07352537 0.012917364 -0.013796936
0.16757356 0.0532081 0.0044813138 -0.2669259 0.012609973 0.08494702 0.1342012 0.14191781
00000000: 34d0 36be 8777 24bc aa10 97bc 9ade e1bd
00000010: 7020 b4bd ad8a b13c 5364 25bd c3fb ecbd
00000020: eaa1 d4bd c677 2d3d 323e 573d 5a67 8fbd
00000030: 2b98 ac3c 2cf4 68bd e156 bf3c dcc2 3abe
00000040: acad 843c af6c b7bc a319 903c 5bf4 1c3e
00000050: 8084 99bd 86be 1f3d 13f9 713d baa1 cebd
00000060: a46f a6bd 2734 25bd 844e a5bd 2b81 b73c
00000070: 4bae 1f3e 883f d03d 1a42 e63b c557 debd
00000080: 8726 ccbc 8512 eb3d 2036 233e 3d15 81bb
00000090: 97f1 99be ba8c 433d 8c66 023b 06a4 27be
000000a0: 08be 4a3d 420b 88bd f37e 953d cc27 72be
000000b0: f167 36be 9c4f 8ebd 5acc 8dbe de3e c2bd
000000c0: 46fb 5fbe b27f 02bd f805 b9bd e541 a4bd
000000d0: 9e8e 8abd 143e 85bd 3235 353d b057 6dbd
000000e0: cf64 6e3e ee55 233e 7364 81be 6a05 cf3c
000000f0: 1d0e c93d 2578 52be d5ce 5ebd cbe4 72be
00000100: e113 743e 643d 0dbe 2981 443d 2a0e f9bd
00000110: f94f 95be 1229 d33e fff5 00bd b6e2 83bd
00000120: 89fb 5dbe cedb c53e 7851 2abe 98c1 09be
00000130: 7f7b 6ebd 940c a9bd e36f a8bd afd5 58bc
00000140: 9d9d 28be 1d0e 923d 3e1c e73c 0315 743d
00000150: 7771 853e d850 82be 4bea a7bd 5223 11bd
00000160: e7ef 75bd d819 0abe bbfc 3b3d 18be 3dbb
00000170: 7c78 b23c 428e 72bd 7842 febd 52db 3abc
00000180: 6ad2 013e 254c 01be b764 ee3d 221d e13d
00000190: 9d05 b6bc e3f0 a9bd 2c46 c93c dc3e ca3d
000001a0: 2e8e 6fbc 24fe cfbd ddec 3e3d 70c1 953d
000001b0: 850a 01be 654f 82bd 81a3 d2bd bef0 223d
000001c0: d780 4bbd 0cd6 d23d 105d 67bd 409d 9abc
000001d0: 6497 c03c e66d 4d3e af2c 923d 4e84 f2bb
000001e0: cbc4 05be 81aa 113e ceca da3b 7a8d 9abd
000001f0: 7c99 cfbd 236e dabe 62d9 ef3b 612a db3d
00000200: 1409 9a3d 5556 333d d4df 89bd 2c96 75bb
00000210: 2528 afbc 8885 cfbd 4e8d 623d 70c1 453e
00000220: 8641 7fbc 7918 573e 823a a93d 461f 813e
00000230: 3a0d 623c aec8 c8bc b67a db3d 3065 a53c
00000240: 4583 8bbd 1826 6c3e a278 a2be 21cd 383e
00000250: 9412 f2bd 5972 463e 9896 a9be e83d e43d
00000260: 975c 41be f268 15be b4ef 31be 559b 6a3e
00000270: c44d 88bd ff09 f9bd 3abf 35bd 90df c03c
00000280: ca29 8fbd b5fc c6bd 9be1 ff3d b414 1abe
00000290: a268 05be 8441 98bd f92d 493e d7ed 38bd
000002a0: 0fdc b13b 8e70 293e 8f42 313d 9ba6 093e
000002b0: 6daf a33c 9e5d 23be 7ab2 94bd 185d 9b3c
000002c0: 879c de3d 737b 31bd 5995 20bd 55d1 25bd
000002d0: 8863 4ebd 22a9 98bd b07b 973c 114e 17be
000002e0: baaa 7abd 857b c8bd 0543 193c 9803 e6ba
000002f0: eec1 193d 7362 37be 0f36 0dbe ba8d 5bbd
00000300: e689 c13e b771 5fbd 1938 72bd 9df8 073c
00000310: 325d a73d 897f f43d e270 8abc de1e 2abd
00000320: 3e17 9ebc 48dd f23c 6085 7dbd 321a f2bd
00000330: 11f4 c4bd 3beb 8fbc d944 773d c4f8 29bd
00000340: f0a9 d63d 2295 663e 97ed 9d3d 6538 e83d
00000350: 557f 44be 1075 2dbe 0d26 12be a8f4 c2be
00000360: 703a d9bd bf65 083e 5ee9 ad3d 8bec b23c
00000370: 883b 0c3e 41c8 34be 6b56 1c3e a0e1 85be
00000380: c1a0 0e3c ef0a 40be b85e d73d 5e6c 86be
00000390: 24e4 bcbb 825a 8c3d 3834 2bbd 90ce aa3c
000003a0: 2ff4 a3bc 183f 50bd 5011 e53c 0224 febc
000003b0: 3f76 24be f662 173e 92e6 cf3d 71b2 c7bd
000003c0: f9df 213d 9007 1f3e 5a37 133d cc40 413e
000003d0: 2dd7 163d 7894 963d 5aa3 533c 8b0c 62bc
000003e0: 6798 2b3e bdf0 593d fcd7 923b 83aa 88be
000003f0: 0f9a 4e3c b4f8 ad3d 0a6c 093e e752 113e

network_body.linear_encoder.seq_layers.2.bias f4 [128]
-0.050120655 -0.03299174 -0.13194165 -0.17756845 -0.048718467 -0.016732339 -0.049857672 0.0119731305
0.018354863 -0.014508038 -0.0014911802 -0.013111606 -0.15370646 0.020301197 -0.113475665 0.05421286
0.0119119845 0.06956825 -0.10490587 -0.023979776 -0.014669261 -0.016421687 -0.018306252 -0.032796595
-0.12056604 -0.12613808 0.049231425 0.0648089 -0.12096925 -0.04927827 -0.010932842 -0.069229335
-0.002767413 -0.037513923 0.025511004 -0.16526097 -5.7852118e-05 0.04294621 -0.029275687 -0.035299946
-0.0685934 -0.010855637 0.051219836 -0.0353758 -0.15277943 -0.027789902 -0.03457671 -0.0019401151
-0.034759715 0.030933484 -0.16584173 -0.0007319982 -0.1360174 -0.14612772 -0.13800108 0.004145867
0.116268836 -0.019505123 0.0083733825 -0.19397274 0.006444279 0.13570853 -0.009052428 0.04523728
-0.15861827 -0.009871999 -0.008897738 0.006109136 -0.029368209 -0.007199589 -0.052849345 -0.0067486204
-0.028821945 0.004991946 -0.018198747 -0.16978414 -0.016313575 0.004434389 -0.06880499 0.0044935113
-0.168561 0.0054560914 0.018261885 -0.01771442 -0.13641654 -0.15621129 -0.11975908 0.010632952
0.011617544 -0.15836917 -0.009283154 -0.04696403 -0.15556315 -0.18144235 -0.0052229986 -0.00074795366
-0.045475625 -0.0059293765 -0.012313993 -0.014606512 -0.024249004 -0.1904395 -0.008980469 0.08038952
-0.028313573 0.022535847 0.027548593 -0.16042326 -0.030794954 -0.11358654 -0.13808832 0.012716646
-0.047634464 0.032700278 0.011246385 -0.02183278 -0.14850996 -0.015086977 -0.018544415 -0.17408122
-0.17214563 0.036603928 -0.1562134 -0.0032254343 0.007480311 -0.08746344 0.010031608 -0.1546712
00000000: 514b 4dbd 5922 07bd b61b 07be 81d4 35be
00000010: 048d 47bd 4212 89bc 8f37 4cbd f32a 443c
00000020: f05c 963c 1fb3 6dbc b473 c3ba 10d2 56bc
00000030: 3a65 1dbe b24e a63c ee65 e8bd 4e0e 5e3d
00000040: 7c2a 433c cc79 8e3d e4d8 d6bd 3c71 c4bc
00000050: 5757 70bc c686 86bc fef6 95bc b955 06bd
00000060: 54eb f6bd 572a 01be e4a6 493d 87ba 843d
00000070: babe f7bd 03d8 49bd aa1f 33bc 1cc8 8dbd
00000080: 7c5d 35bb 33a8 19bd 74fc d03c 2c3a 29be
00000090: 3da6 72b8 5de8 2f3d 91d3 efbc ad96 10bd
000000a0: b27a 8cbd d7db 31bc e4cb 513d 37e6 10bd
000000b0: 3672 1cbe a6a7 e3bc 4fa0 0dbd 764b feba
000000c0: 3460 0ebd 3868 fd3c 6ad2 29be 91e3 3fba
000000d0: 2548 0bbe 81a2 15be 2850 0dbe 0eda 873b
000000e0: 5b1e ee3d 35c9 9fbc 8330 093c caa0 46be
000000f0: 882a d33b 2df7 0a3e a350 14bc ba4a 393d
00000100: d46c 22be 2abe 21bc d1c7 11bc 262f c83b
00000110: 9995 f0bc 88ea ebbb 8e78 58bd 8823 ddbb
00000120: 001c ecbc 7a93 a33b 8a15 95bc e5db 2dbe
00000130: 0ca4 85bc 5a4e 913b a1e9 8cbd 4e3e 933b
00000140: 419b 2cbe 03c9 b23b f399 953c d51d 91bc
00000150: c7b0 0bbe daf5 1fbe 4044 f5bd d535 2e3c
00000160: 8357 3e3c 872b 22be 5f18 18bc 5b5d 40bd
00000170: f24b 1fbe 06cc 39be b025 abbb 5212 44ba
00000180: a644 3abd 374b c2bb a1c0 49bc 2750 6fbc
00000190: d9a5 c6bc 9302 43be d122 13bc 43a3 a43d
000001a0: def1 e7bc 199d b83c 96ad e13c ff45 24be
000001b0: b345 fcbc 0fa0 e8bd 0667 0dbe 7b59 503c
000001c0: 5b1c 43bd baf0 053d c242 383c a9da b2bc
000001d0: ff12 18be 5e2f 77bc 75ea 97bc 5942 32be
000001e0: f246 30be 00ee 153d 68f6 1fbe cf61 53bb
000001f0: 661d f53b 0820 b3bd 9d5b 243c 2162 1ebe

network_body.linear_encoder.seq_layers.2.weight f4 [128, 128]
0.00960111 -0.061097223 -0.10395346 0.029173737 -0.018263327 0.060830966 0.012097214 0.05880508
0.048473593 0.024202751 -0.028965093 0.028877376 -0.01273194 -0.0062965555 0.047614053 -0.019621996
0.06050832 -0.078760505 -0.0896131 0.09854807 0.013496794 0.1355802 0.04136063 -7.6612596e-05
-0.097628035 -0.10206543 0.022664232 -0.0018546594 -0.023624549 -0.12024491 -0.0015217157 -0.055798974
6.17246e-05 0.06565121 -0.008515086 -0.025694272 -0.05015419 0.05817675 -0.09587399 -0.024276406
-0.040591333 0.08465022 -0.011202453 0.08084623 -0.05416734 -0.048451692 0.043020103 -0.020749824
-0.0049732393 -0.046445087 0.10533126 -0.029868867 -0.124249026 0.04691146 0.026656495 -0.12229301
0.12407977 0.07058748 0.05770557 -0.20283954 -0.029977262 -0.019746732 -0.088888764 0.024668029
0.17541328 -0.17929089 -0.015206318 -0.0038385675 -0.08540215 -0.13839222 0.03208109 -0.15983847
0.0005372828 0.11072686 0.10577392 -0.063943475 0.096464545 -0.11435545 0.12702738 0.026894208
0.07558396 0.013370724 -0.012002208 -0.094905026 -0.07815806 0.05254179 -0.029853608 0.021870168
-0.013445018 0.16258292 -0.07210472 0.034389235 -0.13822845 0.26771125 0.004505867 -0.04716746
-0.00481992 -0.040929183 0.07266348 -0.092219986 -0.16732737 0.07027274 -0.09682187 0.0071916278
-0.009526248 -0.020173863 -0.07383976 0.013327894 -0.1002905 -0.047437035 0.020323867 -0.012453281
0.023852773 -0.03360495 0.04581537 0.035918195 0.089717075 -0.054243505 0.13856071 0.026711278
0.036335588 0.05407448 0.04780469 0.13524449 0.025921918 -0.030862967 0.09121994 -0.008026814
-0.059525877 -0.008064341 0.070472226 -0.007451588 -0.12525757 -0.11765968 0.047044627 -0.13957784
-0.22013865 0.01109756 -0.003730024 -0.009988206 -0.01047883 -0.053106077 -0.10222502 -0.15421295
-0.20088659 -0.14261478 0.07187906 -0.10041373 -0.043842193 -0.0052091554 0.09097765 -0.08194917
0.05345282 -0.24571623 0.17264374 0.049854733 0.0071506747 -0.048153434 -0.14412199 -0.011373557
0.16440058 0.0795715 0.09023321 0.16913204 0.10669944 0.14340638 0.030951736 -0.06006821
0.045693323 0.00403903 0.0640978 -0.25918764 0.13858178 0.015961021 0.04308377 0.0039734156
-0.069559164 0.09763043 -0.09516442 -0.11341562 0.26475114 0.12309394 0.074028485 -0.11251701
0.079450406 0.10150656 -0.04396228 -0.060791727 -0.06851528 0.054430217 -0.06619947 -0.048709363
0.031852793 -0.07274487 -0.038802173 0.13914108 0.056174356 0.14652076 0.098589405 -0.06863412
0.06600904 0.0073508 -0.09395567 -0.12745742 -0.19504121 0.034764677 0.013334175 -0.06828725
0.17780776 -0.10780495 0.09816221 0.06171713 0.0047783474 -0.0071466523 -0.02500005 -0.023069637
-0.046916366 0.08774711 -0.025593773 -0.26180595 -0.10410944 0.07050616 -0.011161812 0.058557905
0.1292681 0.08130136 -0.095627934 -0.036076516 0.098051295 -0.051909074 -0.087932535 -0.020662004
-0.0937827 0.06444347 0.038162727 0.14395182 0.08879575 -0.04547064 -0.048589844 -0.0056532132
-0.03790226 -0.1723792 0.010192369 -0.053761132 -0.14427766 -0.08500224 -0.10841711 -0.05758732
0.104598895 -0.10874134 0.0047934446 -0.10614774 -0.032335583 -0.07097494 0.001308201 -0.08632849
00000000: f94d 1d3c 1541 7abd 8de5 d4bd c3fd ee3c
00000010: f99c 95bc e429 793d 6533 463c 98dd 703d
00000020: 3f8c 463d d944 c63c 3448 edbc 3f90 ec3c
00000030: a099 50bc 5653 cebb f406 433d 4fbe a0bc
00000040: 92d7 773d 304d a1bd 1387 b7bd 92d3 c93d
00000050: a821 5d3c 89d5 0a3e c469 293d 13ab a0b8
00000060: 35f1 c7bd ae07 d1bd 57aa b93c 0b18 f3ba
00000070: 4588 c1bc f742 f6bd 4e74 c7ba 778d 64bd
00000080: 2472 8138 2474 863d dc82 0bbc cb7c d2bc
00000090: 7b6e 4dbd be4a 6e3d 9559 c4bd 50df c6bc
000000a0: 1943 26bd 185d ad3d 7e8a 37bc b592 a53d
000000b0: 93de 5dbd 4875 46bd d935 303d 89fb a9bc
000000c0: 8ef6 a2bb 343d 3ebd eab7 d73d 8eaf f4bc
000000d0: 4676 febd 3b26 403d b95e da3c c274 fabd
000000e0: 891d fe3d 2b90 903d ad5c 6c3d 2bb5 4fbe
000000f0: e092 f5bc e6c3 a1bc 500b b6bd 9b14 ca3c
00000100: 8a9f 333e 0898 37be ec23 79bc 7a90 7bbb
00000110: 53e7 aebd b1b6 0dbe 7667 033d b2ac 23be
00000120: 70d8 0c3a c4c4 e23d ff9f d83d ccf4 82bd
00000130: 348f c53d 3133 eabd 7713 023e 3e51 dc3c
00000140: c3cb 9a3d e210 5b3c e9a4 44bc 915d c2bd
00000150: 5511 a0bd 0f36 573d 8e8f f4bc 1129 b33c
00000160: 7e48 5cbc 237c 263e a4ab 93bd badb 0c3d
00000170: c28b 0dbe 7311 893e f4a5 933b ab32 41bd
00000180: 6bf0 9dbb 5ca5 27bd 97d0 943d d5dd bcbd
00000190: de57 2bbe 28eb 8f3d 8b4a c6bd bfa7 eb3b
000001a0: fb13 1cbc a843 a5bc 4d39 97bd 3d5d 5a3c
000001b0: 1b65 cdbd 564d 42bd 3d7e a63c d908 4cbc
000001c0: e466 c33c 58a5 09bd e6a8 3b3d f51e 133d
000001d0: 96bd b73d 702e 5ebd dce2 0d3e 9cd1 da3c
000001e0: a0d4 143d 347d 5d3d dace 433d 887d 0a3e
000001f0: 345a d43c 55d4 fcbc 85d1 ba3d e682 03bc
00000200: 68d1 73bd 4c20 04bc be53 903d 732c f4bb
00000210: 8543 00be 8ff7 f0bd deb1 403d 7eed 0ebe
00000220: 076c 61be 8ad2 353c 6b73 74bb 93a5 23bc
00000230: 66af 2bbc c285 59bd 5a5b d1bd 00ea 1dbe
00000240: 37b5 4dbe 9c09 12be 5435 933d b7a5 cdbd
00000250: df93 33bd 90b1 aabb 7d52 ba3d f7d4 a7bd
00000260: 58f1 5a3d 099d 7bbe 85c9 303e 7a34 4c3d
00000270: 3550 ea3b 893c 45bd b794 13be 2858 3abc
00000280: a058 283e 62f6 a23d 30cc b83d f330 2d3e
00000290: 3c85 da3d 1fd9 123e 7f8e fd3c 150a 76bd
000002a0: ec28 3b3d d759 843b b545 833d 3eb4 84be
000002b0: 62e8 0d3e b0c0 823c 9b78 303d 6d33 823b
000002c0: 0975 8ebd 76f2 c73d 90e5 c2bd 7346 e8bd
000002d0: 768d 873e ad18 fc3d 3f9c 973d 516f e6bd
000002e0: e5b6 a23d ace2 cf3d cb11 34bd bf00 79bd
000002f0: bd51 8cbd 38f2 5e3d 9693 87bd 7883 47bd
00000300: 1378 023d 43fb 94bd 07ef 1ebd 007b 0e3e
00000310: 1517 663d 8a09 163e 3ee9 c93d 0c90 8cbd
00000320: bf2f 873d fbde f03b d56b c0bd 3384 02be
00000330: e2b8 47be 6865 0e3d 9577 5a3c 30da 8bbd
00000340: 3d13 363e d7c8 dcbd 4509 c93d 1acb 7c3d
00000350: af93 9c3b 772e eabb e8cc ccbc 89fc bcbc
00000360: 602b 40bd c2b4 b33d 08aa d1bc 6e0b 86be
00000370: 5537 d5bd 8965 903d 08e0 36bc 6ada 6f3d
00000380: db5e 043e 5481 a63d 94d8 c3bd f8c4 13bd
00000390: 1ecf c83d 9c9e 54bd f915 b4bd 5d43 a9bc
000003a0: 2511 c0bd f0fa 833d 8550 1c3d 1b68 133e
000003b0: 8cda b53d 6c3f 3abd 2506 47bd 973e b9bb
000003c0: 663f 1bbd 2c84 30be e5fd 263c a234 5cbd
000003d0: 86bd 13be a815 aebd ca09 debd afe0 6bbd
000003e0: f237 d63d c8b3 debd 5412 9d3b fc63 d9bd
000003f0: 5172 04bd 4f5b 91bd f177 ab3a fecc b0bd
