Learning/results/test5/KartAgent/KartAgent-1399952.onnx (onnx, 108737 bytes, 7 tensors)

41 f4 [1, 2]
00000000: 3bde 1dbf 333f 90bf
-0.6166722 -1.1269287

distribution.mu.bias f4 [2]
00000000: f41a df3c a7f3 223e
0.027234532 0.15913258

distribution.mu.weight f4 [2, 128]
00000000: 997a 92ba 9c59 013c 7434 363b ac73 ebbb
00000010: f01e acbc c876 f23b 4d94 80b9 ede5 25bb
00000020: d5f9 a33d 483a 873a 6f4f acba 7855 39ba
00000030: 4791 9b3c 7ae1 b93a 1ba0 aabb 2776 053e
00000040: e36d caba f1c0 023e 1bc9 efbc 3eb5 433d
00000050: a503 82ba 5275 083b 2e5d f23c 181a 8eba
00000060: 8f1e 16bb 26c0 233d 2593 1cbe 4c05 34be
00000070: 912b 05bb e9c3 48bd 8330 9539 d51f bdbd
00000080: a587 c539 2224 5cbb 9a88 043b 774c f9bc
00000090: da83 2bb8 5cc9 0fbe c305 213d bee0 71b7
000000a0: b4f5 33bd dda5 bdbd 188f ff3d d3ee ee39
000000b0: b713 92bb d4f3 81bd 1430 60b9 7f20 d03a
000000c0: e214 f6ba 9df6 9039 1b49 f7ba 2a05 6e39
000000d0: 46d8 873a da11 5ebc e6aa 453b cdb6 7bba
000000e0: 744e 2d3e 8158 21ba 5e83 caba 5f86 05bc
000000f0: 9016 913d f43d 443e 50d2 79bb f3bb a0bb
00000100: 376f 86bb 1fc4 8eb9 ec67 e438 6e0f 843b
00000110: f9d8 a43a 81b0 14bb 7dd5 723b ac25 a539
00000120: 6176 09bb 7099 50bb 94ab 13ba 7991 09bd
00000130: f01d 19ba ad51 3c3a 08e1 6abd 911f b1ba
00000140: c43a 71bc c82b 9c3d c5ab e7b9 cc44 5f3d
00000150: b9fe 883c dc8b 8ebc a010 aa3c b8bf 67bb
00000160: 77d1 e9bd 535d a6bc f966 a73a 788c b33c
00000170: c779 9cbb 6e5e d8bb 1e72 853b 08c1 0dbb
00000180: 48c5 393b c94e 323b 3be0 99bb c852 a239
00000190: ba16 cc39 5315 87bc 247c 573c 2c1d 153e
000001a0: e009 923b 7ad6 57b9 ec03 11bb 4d73 b3bc
000001b0: be0f bb3a caa8 243c d8db 60bc 9fc7 a53a
000001c0: 998a 023c f7c4 5abb 4b3f ba3b e6a2 353d
000001d0: 0e39 3cbc d727 5e3a 4061 ca39 436a 2c3b
000001e0: b4a6 42bd 92e7 06be 495d 91bc 0deb 1bbb
000001f0: e0a4 5eb9 d6fb 16bd 3378 5db9 29c0 a1bc
00000200: dc72 073a 8a8c c1bb 69ed edbd a11f c6bd
00000210: 3a41 b8b8 c780 8dbb 8745 1a3b 3cef 83ba
00000220: 10dd 53bc 5c3a ed3a 3991 523b 68bb 253b
00000230: b059 bcbd 78da 4eba 74e8 20be 8c04 b13c
00000240: ef0b da3a 37e0 823c 663b dbbb 608f 2abc
00000250: fcee 4bbb 8863 cb3b 9721 c93b ea11 d1b8
00000260: 9c49 01be 3efd 00be 8a33 f33c 38e5 0c3d
00000270: c0f2 e4bd e2b1 013a 91a4 de3a 9c96 05bd
00000280: 09d5 9a39 a734 843b ce5f 27ba de9b 1cbe
00000290: 8101 0bba 5ddb 0b3d 6c3f 193a 3e17 0ebb
000002a0: 3e67 1dbd b89a 203c 9700 df3b c383 ca3a
000002b0: 2586 d7bd 8ee0 453c c6b3 8eba e2f7 84bb
000002c0: 2c2b f43a b43d feb9 2f37 f9bd 53ee 603b
000002d0: bd62 1cbe 04f7 e5bd 7ec2 10be 071d 993a
000002e0: d5b5 a03c 3bb4 ed39 e5bd 0ebb 264e d6bd
000002f0: 5444 3cbc 0497 2a3d f837 8e3b 3614 bc39
00000300: d58c eebd bb50 86b8 bc62 ff3a cec2 13bb
00000310: 11a0 0a3b b217 583a 77fa 033b 111a 823a
00000320: 2aaf cc3a cbfb ff3a 71ff 02ba 8c65 07be
00000330: 4ba7 493b 91c1 573b 5fe7 bfbc e2f9 25bb
00000340: 5086 f1bd 74d7 a93b 1d08 893a 9a79 09bb
00000350: eb51 1ebe d465 d4bd 72c0 c6bd d48a 913b
00000360: efaa 993c 3555 eebd fd60 65b8 1000 e6bb
00000370: e1bd e8bd f19b dabd 4872 1dbb 16f7 b73b
00000380: 901a 17bb 5d65 a63a 0581 0e3b 4e46 5dbb
00000390: b27f 46b9 7b22 01be 42b8 7a3b 0147 433c
000003a0: 23c9 acba b0a2 2abb e5a0 633b a765 f1bd
000003b0: 4797 74b9 ef1a e0bd c819 13be 35a3 a13a
000003c0: 7189 4bbc 7a59 003b b684 31ba 8f5e 2cbc
000003d0: bc26 d4bd 16cb 16bb 24bf a2bb a981 debd
000003e0: e1ff 03be 49a8 a63c 3379 edbd 78c7 f2bb
000003f0: 1a62 4aba 3938 a8bc 6f99 043a fd52 12be
-0.0011175453 0.0078949 0.002780226 -0.00718542 -0.021010846 0.0073994137 -0.00024524555 -0.0025314048
0.08006636 0.0010317052 -0.0013146232 -0.0007069926 0.018990172 0.0014181577 -0.0052070743 0.13033353
-0.0015444126 0.12768914 -0.0292707 0.047780268 -0.0009919299 0.0020821881 0.029585447 -0.0010841517
-0.0022906398 0.03997817 -0.15290506 -0.17580146 -0.0020320157 -0.04901496 0.0002845564 -0.09234587
0.0003767583 -0.0033590873 0.0020223022 -0.03043197 -4.0892373e-05 -0.14041656 0.039312135 -1.4417046e-05
-0.043935493 -0.092601515 0.12478465 0.00045572835 -0.0044579166 -0.06345335 -0.00021380215 0.0015878825
-0.0018774534 0.00027649562 -0.0018866392 0.00022699372 0.0010364137 -0.013554061 0.0030161678 -0.00096021296
0.16924459 -0.00061548507 -0.0015450527 -0.008149712 0.070843816 0.19164258 -0.003811974 -0.004905218
-0.0041026133 -0.00027230472 0.00010891244 0.0040301597 0.001257687 -0.0022688212 0.0037053518 0.0003149932
-0.00209751 -0.0031829737 -0.0005633172 -0.033586 -0.0005840948 0.00071838015 -0.057343513 -0.0013513436
-0.0147234835 0.07625538 -0.00044187732 0.05450897 0.016723024 -0.017400675 0.02075988 -0.0035362076
-0.114169054 -0.020308172 0.0012771777 0.021917567 -0.004775259 -0.006603054 0.0040724417 -0.0021629948
0.0028346349 0.0027207604 -0.00469592 0.00030960725 0.00038926845 -0.01648966 0.013152156 0.1456191
0.0044567436 -0.00020583897 -0.0022127582 -0.021905566 0.0014271659 0.010050008 -0.01372429 0.0012647993
0.007967615 -0.003338156 0.0056838146 0.044344805 -0.011488212 0.00084745645 0.000386009 0.0026308454
-0.04752226 -0.13174275 -0.017744677 -0.0023791224 -0.0002123299 -0.036861263 -0.0002112098 -0.01974495
0.00051669567 -0.005906646 -0.11617548 -0.096740015 -8.785953e-05 -0.00431833 0.0023539977 -0.0010065804
-0.012931123 0.0018099057 0.0032130016 0.0025288705 -0.09196794 -0.0007890831 -0.15713674 0.021608613
0.0016635637 0.015976055 -0.0066904305 -0.01041016 -0.0031117788 0.0062069334 0.0061380374 -9.969233e-05
-0.12625736 -0.12596604 0.029687662 0.034398288 -0.111791134 0.0004947466 0.00169863 -0.032614335
0.00029531893 0.004034597 -0.00063848204 -0.15293834 -0.00053026533 0.034144748 0.00058459374 -0.0021681334
-0.038428538 0.009802513 0.0068054902 0.0015450645 -0.10523633 0.012077464 -0.0010887317 -0.0040578702
0.0018628589 -0.00048492628 -0.121687286 0.003432174 -0.1527204 -0.11228755 -0.14136693 0.0011681624
0.019617954 0.00045338445 -0.0021780666 -0.104641244 -0.0114909 0.041647926 0.004340168 0.00035873213
-0.11647955 -6.404655e-05 0.0019484381 -0.0022546533 0.0021152536 0.0008243277 0.0020138302 0.0009925981
0.0015616168 0.0019529996 -0.000499717 -0.13222331 0.003076988 0.003292177 -0.023425756 -0.0025325944
-0.11793196 0.0051831547 0.0010454688 -0.0020977021 -0.15460937 -0.10370985 -0.09704675 0.0044415984
0.018758265 -0.11637346 -5.4688182e-05 -0.0070190504 -0.113643415 -0.10674275 -0.0024024416 0.0056141717
-0.0023056604 0.0012695004 0.0021744382 -0.0033763829 -0.00018930322 -0.1261081 0.00382568 0.011918784
-0.0013182502 -0.002603691 0.0034733352 -0.11786967 -0.00023326009 -0.10942637 -0.14365304 0.0012331965
-0.012422905 0.0019584582 -0.00067717896 -0.010520591 -0.103589505 -0.0023009232 -0.0049666334 -0.108645745
-0.12890579 0.020343916 -0.115953825 -0.0074090324 -0.0007720307 -0.020534622 0.0005058264 -0.1428947

network_body.linear_encoder.seq_layers.0.bias f4 [128]
00000000: d48b 91bd ea8e a5bb 4f77 cdbc f35a 66bc
00000010: 7150 5dbd 8b20 02bd d1e9 89bd 4d73 0dbd
00000020: 287e 8cbc dc26 943c 2e65 f9bc aee8 6b3c
00000030: 8e54 b0bb 5b06 62bd c8d8 1c3d e763 1cbc
00000040: 20f7 253b e884 4dbc f231 e0bc 56ad 5bbd
00000050: 6151 81bb 8258 7ebd 8630 1fbd 8596 aab9
00000060: c024 a2bc fafa cbbc 914a 47bd 83ef ee3b
00000070: 3028 f2bc 09fb e63b dc9f 22bd 9114 893b
00000080: be1f 4c3b 136b 33bd 6e1e 21bb 26b3 98bd
00000090: a369 07bc fd81 4fbc 3f98 10bd 15e5 85bc
000000a0: 11de bfbd f08e 6ebd 9526 f4bb 5abb 47bc
000000b0: c2dc a23b 5b75 1dbd e8b1 503c 54a3 bcbc
000000c0: 79a3 153d 4524 123c e728 903b 17c5 c93c
000000d0: 159c 11bd 759e 4dbc acc5 b23b 3797 0b3d
000000e0: 4c20 dbbc b6b6 08bd 8eb6 0ebc 859c 9fbd
000000f0: e5e4 00bb 2ba1 863c 804a e83c 5fb3 143c
00000100: 5d6d b4bc f22a 22bd 3c7f 11bd f8c7 87bc
00000110: 19ba a2ba 3805 96bd 4fd8 e43c 705b 58bd
00000120: ab1c 5bbd cac9 d7bc aa2b 04bd 9e8a ddbc
00000130: 1cdc 513d 73ac 02bd e87b 92bc bee6 e6bc
00000140: 009c 383c dca7 8cbd bd27 5f3c 28e3 a6bd
00000150: 03c5 a9bb 82ac b6bc a41e f2bc 5ae2 47bd
00000160: 3ca2 ffbb 1510 5cbd faa0 88bd ee9a ccbc
00000170: 8be1 3ebd 116a 63bd 0e01 9bbd dda4 3cbd
00000180: e811 8abd 7730 a7bd ae75 b8bc ea07 a139
00000190: 3184 92bd 5046 23bd d75b 6a3c 34b9 7a3c
000001a0: aeb0 973b 4c6c 9b3c 2ef4 c93c ec80 27bd
000001b0: 95e9 0cbd 1eb0 1bbd b08c 573d c5d8 5fbd
000001c0: f58a 5fbd d72e 13bd 0805 a1bd 6795 9abd
000001d0: 5812 133c 5daf 763c 968e 3bbd f6e1 243c
000001e0: 1b3a d73b 746e cb3b 8963 9e3a f10a fbbc
000001f0: 340d 67bd 9822 81bd ff1e cabc 4795 80bc
-0.07106748 -0.005052437 -0.025081305 -0.01405977 -0.054031793 -0.031769317 -0.0673405 -0.034533788
-0.01715 0.018084936 -0.030443754 0.014398737 -0.0053811735 -0.055181842 0.038292676 -0.009545303
0.00253243 -0.012543894 -0.027367566 -0.053632103 -0.0039464687 -0.062096126 -0.038864635 -0.00032537073
-0.019792914 -0.024899948 -0.048655096 0.0072917356 -0.029560179 0.0070489687 -0.039703235 0.00418336
0.003114685 -0.043803286 -0.0024584788 -0.07456045 -0.008264932 -0.012665269 -0.035301443 -0.016344586
-0.09368528 -0.058241785 -0.0074508884 -0.012190664 0.004970164 -0.038441997 0.012737729 -0.0230271
0.036532853 0.00891978 0.004399407 0.024630113 -0.035549242 -0.012549986 0.005455693 0.034079757
-0.026748799 -0.03337737 -0.008710517 -0.077935256 -0.0019667682 0.016434273 0.028355837 0.0090759685
-0.022024805 -0.039591737 -0.03552173 -0.016574845 -0.001241508 -0.07325214 0.027935175 -0.052821577
-0.053494137 -0.026341338 -0.032268204 -0.027043637 0.051235303 -0.03190274 -0.017881349 -0.028186198
0.011267662 -0.06867954 0.013620314 -0.08148795 -0.0051809563 -0.022299055 -0.029555626 -0.04879985
-0.0078013223 -0.053726275 -0.06671329 -0.02497622 -0.046601813 -0.055521075 -0.075685605 -0.046055663
-0.067416966 -0.08163541 -0.022517052 0.0003071421 -0.0715412 -0.039861977 0.014304123 0.015302945
0.004629216 0.018972538 0.024652567 -0.040894434 -0.03440245 -0.038009755 0.052624404 -0.054650087
-0.05457588 -0.03593334 -0.07862288 -0.075480275 0.008976541 0.015056458 -0.045790277 0.010063639
0.006568206 0.0062082354 0.0012084107 -0.030644866 -0.056409076 -0.06305426 -0.024672983 -0.015696181

network_body.linear_encoder.seq_layers.0.weight f4 [128, 77]
00000000: f67a 22be 70c2 f4bc aa10 97bc 5b47 dcbd
00000010: 0f72 dcbd aca0 e13c 5364 25bd 08d1 e0bd
00000020: 4234 a2bd 3cef bc3c 323e 573d 8c0b 84bd
00000030: b618 92bc c0f3 dbbc e156 bf3c fe8e 37be
00000040: 2d0a 193b 243e b3bc a319 903c 0edb 2c3e
00000050: fc05 debd 4452 953d 13f9 713d 1e70 bdbd
00000060: 1691 8fbd 8a9c 70bd 844e a5bd f8ce 8f3d
00000070: 1285 083e e35a 043e 1a42 e63b 9539 dcbd
00000080: 6bc2 45bc bd99 bf3d 2036 233e b09d fa3c
00000090: 509d a0be 77ef 473d 8c66 023b 78eb 22be
000000a0: c1ee 643d b226 9bbd f37e 953d 8c80 6abe
000000b0: ca61 41be 699b 88bd 5acc 8dbe e599 bcbd
000000c0: a711 69be 640b b3bc f805 b9bd 7e08 90bd
000000d0: 6da8 83bd a023 c5bd 3235 353d 061a 85bd
000000e0: a986 653e 315e 213e 7364 81be 74b6 273d
000000f0: 0db1 b83d 3568 5abe d5ce 5ebd 1a09 8bbe
00000100: 2cac 673e 3c85 fbbd 2981 443d d272 13be
00000110: fc82 94be 63b6 c83e fff5 00bd bcf6 c4bd
00000120: 1862 5cbe 1f69 bb3e 7851 2abe 974b 2abe
00000130: 7f7b 6ebd ceba 94bd ef8e bfbd afd5 58bc
00000140: 3693 36be 8c84 803d 4e8f c53c 0315 743d
00000150: ff2b 733e c923 81be f56b b9bd 5223 11bd
00000160: a6f4 95bd 54b9 0abe dd7b 123d 18be 3dbb
00000170: d725 51ba 7b90 99bd 0773 fabd 52db 3abc
00000180: 0f3f e13d 8b36 0abe 3c94 df3d 221d e13d
00000190: 4b81 3bbd 4384 d5bd 9f72 3a3d dc3e ca3d
000001a0: f57c 5abc b8a2 f5bd b699 473d 70c1 953d
000001b0: f236 17be 3c98 a1bd d1ce c5bd bef0 223d
000001c0: e6ea 69bd a86a ad3d df56 6dbd 409d 9abc
000001d0: f2ec 2d3c adf7 403e ade0 ab3d 4e84 f2bb
000001e0: c7ec 12be 71a4 053e 3e0b f43b 7a8d 9abd
000001f0: aa95 d7bd 47fc dfbe 1231 503c 612a db3d
00000200: 3a79 7d3d fa62 103d 3622 8abd 2c96 75bb
00000210: b02e 88bc 164d d9bd fe49 333d 70c1 453e
00000220: 2d2a 0ebd 48f7 493e e41b b43d 461f 813e
00000230: 28b2 e43b 2e89 e8bc fa89 ab3d 3065 a53c
00000240: ce28 91bd 8338 6a3e b8f1 b0be 21cd 383e
00000250: fabf e0bd c484 443e ae0f b8be e83d e43d
00000260: 5ab3 38be f268 15be 08ff 20be 53a1 6c3e
00000270: c44d 88bd 347d e2bd 6846 a9bb 8253 68bc
00000280: ca29 8fbd 7e92 d7bd 7369 2c3e 19e8 22be
00000290: a268 05be ec69 2abd 6e00 563e 19fd 69bd
000002a0: 0fdc b13b 2042 1d3e e90d fe3c 4a36 1b3e
000002b0: 6daf a33c c620 ddbd d9dc 8abd 88db ec3c
000002c0: 879c de3d 4e32 57bd 4ea2 09bd 6399 ebbc
000002d0: 8863 4ebd f030 02bd 1c05 cf3c e626 fdbd
000002e0: baaa 7abd 20be cebd eacd 983c 2d4d 203c
000002f0: eec1 193d 1562 06be 46d1 03be 8b00 79bd
00000300: e689 c13e 8502 47bd cee1 79bd 24b8 c03c
00000310: 325d a73d 4fd3 2e3e 49ea 2abc 4fe4 fcbc
00000320: 3e17 9ebc a384 2c3d 0dce 18bd ca06 2fbe
00000330: 11f4 c4bd 0944 4e3c 6441 8f3d 7a57 24bd
00000340: f0a9 d63d fe38 7d3e b5c5 c23d ff0e 8e3d
00000350: 557f 44be 6f5a 17be e911 1dbe e4e9 b4be
00000360: 703a d9bd 8503 0c3e c465 bd3d 5589 1f3d
00000370: 883b 0c3e fb2c 31be 6255 273e 25ec 7dbe
00000380: c1a0 0e3c 939a 40be 8b5c ed3d a001 7fbe
00000390: 24e4 bcbb 463b 8b3d 3834 2bbd 73f5 89bc
000003a0: c071 4e3c 183f 50bd fbbe 8f3b c721 3fbd
000003b0: a279 07be f662 173e acda ce3d ec72 d2bd
000003c0: e8e0 1e3d 9007 1f3e 6ecd 0a3d 241e 443e
000003d0: 4683 f33c 7894 963d 1847 933c 8ba2 2e3b
000003e0: bb43 233e bdf0 593d 6c61 dabb 23a1 84be
000003f0: e430 51bc b4f8 ad3d 506c 133e 9e1a 193e
-0.15867218 -0.029877871 -0.018440563 -0.107557975 -0.107639425 0.027542435 -0.04037888 -0.109773695
-0.07920124 0.023063295 0.05254955 -0.06447515 -0.017834049 -0.026849627 0.023356857 -0.17925641
0.0023352013 -0.021880217 0.01759035 0.16880438 -0.10840985 0.072910815 0.059075426 -0.092499
-0.07010095 -0.058743037 -0.08071616 0.07021898 0.13332012 0.12925296 0.007026923 -0.107531704
-0.012070279 0.09355495 0.15938616 0.03059277 -0.3137002 0.048812356 0.0019897548 -0.15910137
0.055891756 -0.0757574 0.07299604 -0.22900599 -0.1888496 -0.06670267 -0.2769497 -0.092090406
-0.2276064 -0.021856017 -0.090343416 -0.0703287 -0.06428609 -0.096259356 0.044240184 -0.06499104
0.2241465 0.15758587 -0.2527195 0.040945485 0.09018145 -0.21328814 -0.05439647 -0.2715538
0.22624272 -0.12281272 0.04797474 -0.14399269 -0.29006183 0.3920165 -0.0314846 -0.09617373
-0.21521795 0.3660364 -0.1663264 -0.16630398 -0.058223244 -0.07262193 -0.09353434 -0.01323454
-0.17829594 0.06275281 0.024116185 0.05959035 0.23747252 -0.25222614 -0.09053794 -0.035434075
-0.073220536 -0.1354726 0.035762656 -0.0028952416 -0.0007978356 -0.074982606 -0.12228971 -0.011404829
0.109983556 -0.13497369 0.10916945 0.10991885 -0.0457776 -0.104256175 0.045519467 0.09875271
-0.013335456 -0.11993927 0.048730575 0.07312286 -0.14767054 -0.078903645 -0.09658588 0.03978037
-0.057108782 0.08467609 -0.057944175 -0.01887381 0.010615574 0.18844481 0.08392463 -0.007401026
-0.14348136 0.1305101 0.0074476292 -0.07546516 -0.10526593 -0.4374716 0.012707012 0.107014425
0.06188319 0.03525064 -0.067448065 -0.0037473543 -0.016623825 -0.10610406 0.043771736 0.19312072
-0.03470819 0.19723237 0.08794382 0.25219172 0.0069792457 -0.028385725 0.08375926 0.020189852
-0.07087861 0.2287312 -0.34559417 0.18047 -0.109741166 0.19191271 -0.35949463 0.1114462
-0.18037167 -0.14590815 -0.15722287 0.23108415 -0.066554576 -0.11059037 -0.005165864 -0.014180066
-0.069903925 -0.10525988 0.168371 -0.1590885 -0.13028196 -0.04160492 0.20898601 -0.05712614
0.0054278444 0.15357256 0.031012492 0.15157428 0.01998111 -0.10797267 -0.067804046 0.028913274
0.10869699 -0.05253821 -0.03360205 -0.028759664 -0.05038789 -0.03178495 0.025270991 -0.12360935
-0.061197974 -0.10094857 0.018652875 0.009784025 0.03753846 -0.13123353 -0.128728 -0.060791533
0.3780052 -0.048586387 -0.06100636 0.023525305 0.081720725 0.17072795 -0.0104318345 -0.030870585
-0.019298192 0.04211868 -0.03730588 -0.17092434 -0.096168645 0.012589463 0.06994894 -0.040122487
0.10481632 0.24728772 0.09510366 0.06936454 -0.19189198 -0.14780591 -0.15338863 -0.35334694
-0.10606849 0.13673218 0.09247926 0.03894933 0.13694584 -0.17302315 0.16341165 -0.24797113
0.008705319 -0.18808965 0.11589917 -0.24902964 -0.005764501 0.06798415 -0.041797847 -0.016840672
0.012600362 -0.05084142 0.0043867803 -0.046663072 -0.13229993 0.14783844 0.10100302 -0.10275826
0.038788706 0.15530229 0.03388732 0.19152123 0.029725682 0.07352537 0.017978236 0.0026647176
0.15943806 0.0532081 -0.0066644456 -0.25904188 -0.012768004 0.08494702 0.14396787 0.1495156

network_body.linear_encoder.seq_layers.2.bias f4 [128]
00000000: d9d9 3ebd c1bc d5bc 3921 13be d8ba 47be
00000010: 79a0 74bd afaf 82bc bce1 45bd 3965 7a3c
00000020: bcde 6e3c c221 08bc 0542 1cbc ab00 82bc
00000030: ba77 1dbe 756e c93c e24e ffbd 6609 543d
00000040: 969a 583c 0f39 8c3d 818a ebbd 44dc dbbc
00000050: 95d4 60bc 6fe1 9ebc 1bef 3abc 146b 10bd
00000060: 4b3d 05be 275a 03be 8014 373d 4cab 7d3d
00000070: 31b0 0cbe e10f 6bbd cb63 babb 0baf 9cbd
00000080: 10f3 d5bb 1fd4 1bbd 2b58 9e3c d65a 2fbe
00000090: b3e2 133b 3fb1 203d df6d a0bc e396 f4bc
000000a0: 898f 9fbd 7904 b4bc 2fee 463d 2dc7 07bd
000000b0: a83c 20be ac02 20bd bde7 23bd 0441 abbb
000000c0: 4cd3 0bbd bdd2 ad3c 0ce5 2abe d3e3 08bb
000000d0: ccc3 0fbe 6c51 21be f6f9 17be a4a1 123c
000000e0: 8dd4 ed3d b982 e8bc d15a da3a 0910 50be
000000f0: 1742 493b 0f08 0d3e 85d5 b9ba b10f 183d
00000100: fb90 24be 6f66 66bc 6ab0 4fbc f344 9c3b
00000110: fc8d 01bd a473 98bb ae1d 63bd 4309 ba3a
00000120: f170 f1bc 73cf 333c 6d8e 91bc e714 34be
00000130: e6b4 aebc cc7d f43b c50a a1bd 86d9 183c
00000140: a285 35be 7043 72ba 91ac 683c 439d 9dbc
00000150: 833d 10be cd5f 29be 259d fabd 81f6 1e3c
00000160: 1bde 553b 9548 29be 893a 81bb 7e5b 18bd
00000170: 658f 2fbe 47cc 47be 514d a3bb efe2 dc3a
00000180: 0d34 46bd d886 27bc 540f b0bb c12a f1bc
00000190: 788a d2bc 8efd 50be 7926 873b e853 a53d
000001a0: 6b31 e6bc 25c7 de3c 9049 b93c 658f 29be
000001b0: 3907 cfbc cacf febd 8587 1bbe 28a9 803c
000001c0: fa59 fcbc 4ace 053d 4497 423c ecb1 a9bc
000001d0: 81e5 2abe 9a0e 2ebc 405a e1bc a931 37be
000001e0: 848b 45be 5823 f83c 6ed9 2cbe 7a2c e9bb
000001f0: 099e 793c c292 cbbd 2ec6 613b 3cf9 24be
-0.046594474 -0.026090981 -0.14368142 -0.19504869 -0.05972335 -0.015952913 -0.04831098 0.015282922
0.014579471 -0.00830883 -0.009537225 -0.01586946 -0.15377703 0.024588803 -0.124662176 0.051766776
0.01322045 0.068468206 -0.11501027 -0.02683843 -0.0137225585 -0.019394604 -0.011409546 -0.035258368
-0.13011663 -0.12827359 0.044697285 0.06193094 -0.13739087 -0.05738819 -0.005688166 -0.07650574
-0.0065292194 -0.03804409 0.019329151 -0.17124495 0.0022565543 0.039231535 -0.01958364 -0.029857105
-0.07791049 -0.021974789 0.048566993 -0.033148933 -0.15648139 -0.039065048 -0.040015925 -0.0052262563
-0.034137055 0.021218652 -0.16688937 -0.0020887747 -0.14039534 -0.15753716 -0.14841446 0.008949671
0.116128065 -0.028382646 0.0016659145 -0.20318617 0.0030709559 0.13772605 -0.0014178014 0.03712434
-0.1607093 -0.014062508 -0.012676338 0.0047689616 -0.031629547 -0.0046524573 -0.055448227 0.0014193434
-0.0294728 0.010974753 -0.01776811 -0.17586099 -0.021326493 0.007461285 -0.07863382 0.009329205
-0.17726758 -0.00092416164 0.014201299 -0.019240027 -0.14085965 -0.16540451 -0.12237004 0.009702326
0.0032633606 -0.16531594 -0.0039437455 -0.03719663 -0.17144544 -0.1951152 -0.004983582 0.00168523
-0.048389483 -0.01022502 -0.005372921 -0.029439332 -0.025700793 -0.20409223 0.0041244593 0.080726445
-0.028099736 0.027194569 0.022618085 -0.16558607 -0.025271999 -0.12441976 -0.15188415 0.01570566
-0.030804623 0.032667436 0.011876885 -0.020714723 -0.16689111 -0.0106235985 -0.027508855 -0.17890038
-0.19291502 0.03029029 -0.16879818 -0.0071158977 0.015235432 -0.09940101 0.00344504 -0.161107

network_body.linear_encoder.seq_layers.2.weight f4 [128, 128]
00000000: 3a09 133c 2513 82bd 6d9c bbbd 6a56 b23c
00000010: 0065 12bd 2868 613d b14b a53c 16db 8e3d
00000020: 4265 583d f099 263d a98a 94bc e771 ba3c
00000030: 8886 253c aa16 9a3c 8554 673d cdbb 67bd
00000040: 68ab 6f3d a6b0 4bbd d9b0 9ebd bf72 b73d
00000050: 9c90 553b af58 033e d16f fa3c de61 2e3c
00000060: 4674 c7bd 6e82 f0bd 6885 74bc 576d a23c
00000070: 8f89 0fbd 3c40 e1bd bc57 e1bb 22d8 6dbd
00000080: 76ce 1a3c 553e 793d f6b8 18bc c72f e4bc
00000090: ca25 2abd 41fc 963d b072 c9bd 5751 cbbc
000000a0: 9053 32bd b328 953d 4e98 9e3c a0a4 8f3d
000000b0: af2a 5cbd 688a b5bd daa0 1a3c fc61 a0bc
000000c0: 864f d73b 74ab 21bd 0924 bf3d d297 09bc
000000d0: db6e f0bd 5d62 393d a2d9 283b 7661 fdbd
000000e0: bf6f cc3d 24ba 813d bd3b 783d 5c44 47be
000000f0: 25c2 bcbc 8d28 c13b ea34 bdbd b584 423d
00000100: 8ac9 423e 8b27 31be c3e9 bbbc bd5f fd3c
00000110: 4b84 8fbd 9dc8 09be e036 0b3d 51d8 28be
00000120: b434 aa3a adee d43d 01de d23d e3ec 66bd
00000130: 6c5a c13d 350b e9bd ad39 f63d b7ae 423c
00000140: 6399 c33d 2125 493c b15c 853c 88e1 b7bd
00000150: a6f6 aebd 11ff 5d3d b2ea 27bd 0068 c23b
00000160: 65f8 aebb f05e 253e 1ef2 84bd f548 df3c
00000170: c77f 1bbe 0198 883e e24c eab9 cade 27bd
00000180: 8f34 f03a e252 3cbd dd5d 653d 26bb b2bd
00000190: 104a 2bbe 57e3 823d 9e4d b7bd 76bb 823b
000001a0: 8db7 41bd 7b4c 833c ffdc bcbd aa75 cb3c
000001b0: d4cd c0bd fa1b 3dbd 1294 393c fd36 40bc
000001c0: 525e 863c 94fd 29bd a844 463d 4bf1 2d3c
000001d0: e5e3 973d 62d0 2dbd 54f1 143e 91dc 783d
000001e0: 472b 4b3d 13fe 953d 2325 253d 96c8 103e
000001f0: 5594 083d 540f b4bc 5a6d 9c3d e661 c4bc
00000200: 3420 a0bd abc3 0ebb f827 b03d 0e95 51bc
00000210: bb09 f4bd 294a e2bd dd28 403d 8065 11be
00000220: d55c 49be b563 48bc bce5 5abc f7a2 debb
00000230: 489d 12bb f2a1 4ebd 0f1f 0fbe 4575 34be
00000240: 47f5 2dbe e87b d7bd ba92 843d 532d 01be
00000250: 302a 34bd b4dd 69bb a280 5e3d a29f cabd
00000260: 8062 383d 68e4 63be 446b 293e 370c ad3c
00000270: db1f 2c3c b5d0 46bd f725 21be 5fa2 cdbc
00000280: 39ca 2a3e 74e1 8b3d 766d c03d fd59 283e
00000290: daa8 a43d 1889 153e 3257 1a3d ab15 7cbd
000002a0: d191 213d fbfe 673c 9fe1 783d 5359 7ebe
000002b0: af2b 3e3e 7ae6 f03b fba9 143d ba26 b53b
000002c0: ae62 9fbd c612 af3d 8c01 bebd 334b d3bd
000002d0: 7ede 863e 8815 e93d 3c75 973d 0c89 12be
000002e0: f19a 243d 311c c43d f83b 52bd 4e3b 66bd
000002f0: 6da4 2abd d835 673d 080b 5cbd e37a 14bd
00000300: b8ff 4e3d 0bb4 90bd 461a 01bd 170d 1a3e
00000310: f65f 6c3d 4e37 213e bee1 f83d dbc0 acbd
00000320: 7a1e 4b3d 1a60 673c 983a efbd ec8a 1cbe
00000330: 1d7d 36be 2bcb 093d 4d9f a73c 40bb c0bd
00000340: 38a9 403e bec0 03be abe9 c73d 83b4 8c3d
00000350: 284b 203c 38db f6bc 4a28 9a3b c463 efbc
00000360: 8dd7 4dbd 1b0c 8c3d 692b a2bb aa30 7fbe
00000370: e5fd afbd 8940 7f3d 6c94 91bc bb26 523d
00000380: 889c ff3d 17cb 883d 41f0 a3bd d20e b5bc
00000390: 92ac cc3d 1748 f9bc bba9 c8bd 1346 70bd
000003a0: 023e d0bd 4064 bd3d 890b 273c 9caf 063e
000003b0: 8004 833d 47b9 56bd 1e74 86bd 9091 f1ba
000003c0: 5a0d b5bc d8c3 24be 55a3 7d3c 5cbb 86bd
000003d0: e4d2 23be f28a dbbd 8aaf dbbd adf0 a4bd
000003e0: 1762 d83d bc17 afbd 2b80 3d38 b63d bcbd
000003f0: b695 12bd f5c9 80bd 3a9f cebc d84e bbbd
0.008974368 -0.06351308 -0.09160695 0.021769721 -0.035740852 0.05503097 0.020177694 0.06975381
0.052830942 0.04067415 -0.018132525 0.022759391 0.0101028755 0.018809635 0.05647709 -0.056575585
0.058513075 -0.049729012 -0.07748575 0.08957433 0.0032587415 0.12826799 0.030570896 0.010643451
-0.09738974 -0.117436275 -0.014924385 0.019827528 -0.035043295 -0.1099858 -0.006876914 -0.05806745
0.009448638 0.06085046 -0.009321442 -0.027854813 -0.041539945 0.07372332 -0.09836328 -0.02481906
-0.043536723 0.072831534 0.019359734 0.070138216 -0.053751644 -0.088642895 0.009437764 -0.019577973
0.006570759 -0.03947015 0.09333045 -0.008398013 -0.11739894 0.045259822 0.0025764485 -0.12372105
0.099822514 0.06334332 0.060603846 -0.19459671 -0.023041794 0.0058947266 -0.09238608 0.04748984
0.19022194 -0.1730024 -0.022938615 0.03092944 -0.07007655 -0.13455434 0.03398788 -0.16488768
0.0012985677 0.10397086 0.1029625 -0.056378257 0.09441075 -0.11379091 0.120227195 0.011882476
0.095507406 0.012276919 0.01627955 -0.089785635 -0.08543138 0.05419833 -0.040995307 0.005932808
-0.0053396695 0.16149497 -0.06491493 0.027256468 -0.15185462 0.2667847 -0.0004468924 -0.040983953
0.001832621 -0.04597748 0.055997718 -0.08727102 -0.16727471 0.06391018 -0.08950351 0.0039896322
-0.04729419 0.01602768 -0.09221839 0.02483638 -0.094142586 -0.04616926 0.011326807 -0.01173186
0.016402397 -0.041501597 0.04840532 0.010616611 0.07416514 -0.042435057 0.14545184 0.060757224
0.04960182 0.073238514 0.04031862 0.14139017 0.033344585 -0.021979965 0.07638045 -0.023972463
-0.07818642 -0.0021784108 0.086013734 -0.012791885 -0.119159184 -0.11049301 0.04691397 -0.14198875
-0.19664319 -0.012230803 -0.013360437 -0.0067943293 -0.002237158 -0.05044741 -0.13976692 -0.1762286
-0.16988097 -0.1052168 0.06473298 -0.12614946 -0.043985546 -0.0035685124 0.054321893 -0.09893729
0.045015812 -0.22255099 0.16544825 0.021123989 0.010505642 -0.048538882 -0.15737139 -0.025101839
0.16678704 0.06830111 0.09395878 0.16440578 0.080400184 0.14603078 0.037680812 -0.0615441
0.039445702 0.014159913 0.060762044 -0.24838762 0.18571351 0.0073516937 0.03629492 0.005528298
-0.077824935 0.085485026 -0.09277639 -0.103170775 0.26341623 0.1138106 0.073954076 -0.14310092
0.040186826 0.095756896 -0.051326722 -0.0562089 -0.041660715 0.056447834 -0.053721458 -0.036250006
0.05053684 -0.070655905 -0.031519197 0.15044056 0.057708703 0.15743753 0.12152432 -0.08435222
0.04958961 0.0141220335 -0.11681098 -0.1528737 -0.17821164 0.03364102 0.020461703 -0.09410715
0.18814552 -0.12866494 0.097613655 0.068703674 0.009783544 -0.030133829 0.00470451 -0.029222377
-0.050254393 0.068382464 -0.0049490226 -0.24920908 -0.085933484 0.062317405 -0.017770968 0.051306468
0.12481028 0.06679361 -0.08004809 -0.022101793 0.09993853 -0.030429883 -0.097979985 -0.058660578
-0.10168077 0.09247637 0.010195621 0.13152927 0.06397343 -0.052422788 -0.06565116 -0.0018430222
-0.022101093 -0.16090333 0.015480836 -0.06578705 -0.15998417 -0.10719861 -0.10726841 -0.08053718
0.10565584 -0.08549449 4.5180477e-05 -0.09191458 -0.035787307 -0.0628852 -0.02522241 -0.091458976
