Learning/results/test5/KartAgent/KartAgent-1256240.onnx (onnx, 108737 bytes, 7 tensors)

41 f4 [1, 2]
0	0xbf15170f	-0.5823831
1	0xbf8c6950	-1.0969639

distribution.mu.bias f4 [2]
0	0x3cc026c8	0.023455992
1	0x3e2130f9	0.15741338

distribution.mu.weight f4 [2, 128]
0	0xbbd2298a	-0.0064136432
1	0x3ce9abf9	0.028524386
2	0xbb442223	-0.0029927574
3	0xbc051cb8	-0.008124523
4	0xbd2aa3cb	-0.04166011
5	0xbbd082f7	-0.0063632685
6	0x3aa32103	0.0012445751
7	0xbc8ee94f	-0.017445235
8	0x3db70946	0.08937316
9	0x3ab38323	0.0013695698
10	0xb9b3e621	-0.00034313
11	0xbc186f2a	-0.009303847
12	0x3c82c9a5	0.015965292
13	0x3a9513d9	0.0011373713
14	0xbc06588c	-0.008199822
15	0x3e0381a5	0.12842424
16	0xbb957db5	-0.0045621046
17	0x3e03641d	0.12831159
18	0xbd349ba3	-0.04409374
19	0x3d661807	0.056175258
20	0xb9cc6b78	-0.00038989983
21	0x3aef67f4	0.0018265233
22	0x3d564140	0.05230832
23	0xbbae0883	-0.0053110733
24	0xbb7b5b80	-0.0038354099
25	0x3d0b73f7	0.03404614
26	0xbe1c552a	-0.15266863
27	0xbe3602a5	-0.17774446
28	0xbb17dac7	-0.0023171173
29	0xbd8f4d31	-0.06997145
30	0x3b12ea7c	0.0022417596
31	0xbdb8f59f	-0.090312235
32	0x3c52d16a	0.012867311
33	0x3b261e9c	0.0025347834
34	0x3b0ff98c	0.002196881
35	0xbd119ffb	-0.03555296
36	0xba87f281	-0.0010371954
37	0xbe133afc	-0.1437797
38	0x3d32ca29	0.043649826
39	0xbb962276	-0.004581745
40	0xbd5fdfe0	-0.054656863
41	0xbdd2df71	-0.10296524
42	0x3dfcac29	0.123375244
43	0x39b10132	0.0003376096
44	0xb8c3b5bc	-9.332175e-05
45	0xbd9fea14	-0.07808319
46	0x3bbacac9	0.0057004434
47	0x3b4c2ef0	0.0031155907
48	0xbb2ba1d0	-0.0026188977
49	0x3a9aa1d7	0.00117975
50	0xbbb660b0	-0.0055657253
51	0xbb683d0f	-0.0035436784
52	0xbaf180a4	-0.0018425179
53	0xbc9b657b	-0.018969288
54	0xba30078b	-0.0006714991
55	0x3aa1aaf0	0.0012334269
56	0x3e2b1f77	0.16711222
57	0xbb127b65	-0.002235138
58	0xbb366ed8	-0.0027837064
59	0xbc0ac4a7	-0.008469737
60	0x3d9bc1fb	0.07605358
61	0x3e3da608	0.18520367
62	0x3ba00ec2	0.004884572
63	0x38c5a772	9.424881e-05
64	0xbc377adb	-0.011198725
65	0x3bdb35c3	0.0066897585
66	0xbcbb8b12	-0.022893462
67	0xbb25bf2b	-0.0025290947
68	0x3b3f6e86	0.0029210164
69	0xba55f49f	-0.00081617566
70	0x3a8a01ea	0.0010529135
71	0x3bbfc62b	0.005852481
72	0xba2cca0f	-0.00065913884
73	0xbaf368d9	-0.0018570676
74	0x3c34214d	0.010994268
75	0xbd02125d	-0.031755794
76	0x3a0fe2f2	0.00054888346
77	0x3b3658f1	0.002782401
78	0xbd82b73a	-0.06382604
79	0xbb38a743	-0.0028175868
80	0xbc8f74d2	-0.017511759
81	0x3dadfb38	0.08495182
82	0x3bd52956	0.006505172
83	0x3d8a5c04	0.06755832
84	0x3c81e426	0.01585586
85	0xbc93cafa	-0.018041123
86	0x3baa1f0c	0.0051916894
87	0xb92fd272	-0.00016767698
88	0xbdfa1fe0	-0.12213111
89	0xbcbf6b28	-0.023366526
90	0x39ec3552	0.00045053154
91	0x3cf3fece	0.029784586
92	0xbbbc06fc	-0.0057381373
93	0xbbfcfa4d	-0.007720268
94	0x3bd57e01	0.006515265
95	0xba800996	-0.0009768482
96	0x3a97e2c5	0.0011587968
97	0xbb1d7624	-0.0024026716
98	0xb9e28cad	-0.0004321089
99	0xbb093028	-0.0020933244
100	0x3bab46d2	0.0052269483
101	0xbc9c0e9c	-0.019049935
102	0x3d271cd2	0.04079897
103	0x3e1569b0	0.14591098
104	0xbb30bfb6	-0.0026969737
105	0x3b853ce2	0.0040660957
106	0xbc048fff	-0.008090972
107	0xbc94a968	-0.018147185
108	0x3c1e2f15	0.00965478
109	0x3b9f36ce	0.004858828
110	0xbc97c65b	-0.0185272
111	0x3b22ded4	0.0024852054
112	0x3ca7b977	0.020474179
113	0xbc051bbf	-0.008124291
114	0x3c22f57f	0.009946226
115	0x3d77d284	0.060503498
116	0xbc38969d	-0.011266378
117	0x3bd2542f	0.006418727
118	0xbaf7be49	-0.0018901314
119	0x3af636fc	0.0018784697
120	0xbd3eabf5	-0.04655071
121	0xbe0a33b3	-0.13496284
122	0xbc9e202c	-0.01930245
123	0xbcd41422	-0.025888506
124	0xbb96c89a	-0.0046015503
125	0xbd4bf2c4	-0.049792066
126	0x3b43db26	0.0029885261
127	0xbca82d91	-0.02052954
128	0x3b7446d0	0.0037273653
129	0xbc3769fc	-0.011194702
130	0xbdf5bfa9	-0.11999447
131	0xbdca119e	-0.098666415
132	0x3c6917ea	0.014226893
133	0x3962ef35	0.00021642151
134	0xb8e4f1cc	-0.000109169254
135	0x3be0b83c	0.0068579
136	0x39a268b2	0.00030977052
137	0x39d2f56b	0.00040237172
138	0x38fee638	0.000121545454
139	0x3ad85e23	0.0016507547
140	0xbdc2a6c8	-0.09504467
141	0xbaa46efe	-0.0012545285
142	0xbe25b5e1	-0.16182663
143	0x3ccbed8a	0.02489354
144	0xba9ff62e	-0.0012204105
145	0x3c57b90d	0.013166678
146	0xbb701479	-0.0036633296
147	0xbca28200	-0.01983738
148	0xba32bbb0	-0.0006818129
149	0xb9d79994	-0.0004112242
150	0xbbea3c80	-0.0071483254
151	0x3aa466f4	0.001254289
152	0xbe05f8bf	-0.1308317
153	0xbe058605	-0.13039406
154	0x3d046b36	0.032328807
155	0x3d0b19ff	0.03396034
156	0xbded5b02	-0.11589624
157	0xba4320d6	-0.00074435526
158	0x3b177ad1	0.0023113976
159	0xbcd66eda	-0.026175905
160	0x3bc9557b	0.0061442233
161	0x3b93e2ed	0.0045131356
162	0x391064ec	0.00013770506
163	0xbe23601f	-0.15954636
164	0x3abf1e7e	0.0014581231
165	0x3d0c71af	0.034288105
166	0xbaeb336b	-0.0017944401
167	0x3b3175f3	0.002707836
168	0xbd38894d	-0.045052815
169	0x3c2d0d09	0.01056219
170	0x3c102936	0.008798888
171	0x3a2e924d	0.0006659374
172	0xbddc735c	-0.107641906
173	0x3c86b8d4	0.016445555
174	0x3b84127a	0.004030523
175	0x3b0bc65f	0.0021327955
176	0xbb2a4b18	-0.00259847
177	0x3b3b55fd	0.0028585189
178	0xbdffdd62	-0.12493397
179	0xbb9fb591	-0.0048739393
180	0xbe1ead3f	-0.15495776
181	0xbdece5d3	-0.11567273
182	0xbe145687	-0.14486133
183	0x3b8b28e2	0.004246817
184	0x3c98474e	0.018588688
185	0x3b95131e	0.004549398
186	0xbb261775	-0.0025343571
187	0xbddaa727	-0.10676413
188	0xbb4078e5	-0.0029368934
189	0x3d2cf1e5	0.042222876
190	0x3b5a6486	0.0033324077
191	0xb9967d9e	-0.00028703822
192	0xbdf51346	-0.11966567
193	0x3a77533f	0.0009434707
194	0xbb80b313	-0.0039275973
195	0x3ab686fb	0.0013925725
196	0x3abbe73f	0.0014335884
197	0xbae653a9	-0.001757254
198	0xbb925685	-0.0044658803
199	0x3b70a293	0.0036717996
200	0x3b6f1709	0.0036482236
201	0x3a9df6b8	0.0012051677
202	0x3b491167	0.0030680539
203	0xbe0b910a	-0.13629547
204	0x3b529492	0.0032132012
205	0xbb223a31	-0.0024753923
206	0xbcf289e8	-0.029606774
207	0xbafd726f	-0.0019336472
208	0xbdf79a07	-0.12089925
209	0x3bfa1754	0.0076321755
210	0xbad32844	-0.0016110023
211	0xbc0c561d	-0.008565453
212	0xbe234fb1	-0.15948369
213	0xbddd7cf9	-0.10814852
214	0xbdcf455e	-0.101206526
215	0x387f98db	6.0939095e-05
216	0x3c9b8f1f	0.018989144
217	0xbdf562ce	-0.11981736
218	0xb94f7c74	-0.00019787421
219	0xbc53d9e5	-0.012930368
220	0xbdf179df	-0.11790823
221	0xbde45d77	-0.111506395
222	0xb90ac57e	-0.00013234277
223	0x39aae916	0.0003259859
224	0x3a8328a0	0.0010006614
225	0xbb315dcb	-0.0027063962
226	0x3b0da9bf	0.002161607
227	0x3a0b588d	0.00053156243
228	0xbaf55e7d	-0.0018720176
229	0xbe0549a9	-0.1301638
230	0x3bee5585	0.0072733783
231	0x3c41a6bd	0.011819539
232	0xbaebafd7	-0.0017981482
233	0xbb55dc9f	-0.003263272
234	0x3a0fa576	0.00054796727
235	0xbdf96044	-0.12176564
236	0x399f7b74	0.00030418823
237	0xbdea4c4e	-0.11440335
238	0xbe1762cf	-0.14783786
239	0xbab99fab	-0.0014161965
240	0xbbfbea20	-0.007687822
241	0xba957bdf	-0.0011404714
242	0xb9d1f241	-0.0004004408
243	0xbc2658fd	-0.010153052
244	0xbddec95a	-0.108782485
245	0x3a9f0a61	0.001213383
246	0xbb87ed22	-0.0041481415
247	0xbde61dd6	-0.112361595
248	0xbe07139e	-0.13191077
249	0x3cbe3094	0.023216523
250	0xbdf7114c	-0.12063846
251	0xbc04e50e	-0.0081112515
252	0xbb7dbe5e	-0.0038718204
253	0xbcf0bb32	-0.029386137
254	0x3a537694	0.0008066681
255	0xbe168229	-0.1469809

network_body.linear_encoder.seq_layers.0.bias f4 [128]
0	0xbd85cc84	-0.06533149
1	0xbb35fbd6	-0.0027768514
2	0xbcfa4f44	-0.030555375
3	0xbc0e3639	-0.00867992
4	0xbd5a9f47	-0.053374555
5	0xbcef95cb	-0.029246232
6	0xbd968cda	-0.07351084
7	0xbd032748	-0.032019883
8	0xbcb0396d	-0.021511758
9	0x3cafe0d9	0.02146952
10	0xbd1cbe36	-0.038267337
11	0x3c178a68	0.009249307
12	0xbba3c4f9	-0.004997846
13	0xbd60dd68	-0.05489865
14	0x3d21e63f	0.03952622
15	0xbbd7abb4	-0.006581748
16	0x3ba62491	0.005070277
17	0xbbaac757	-0.0052117514
18	0xbcdce55f	-0.026964841
19	0xbd5b74e5	-0.053578276
20	0xbc19d826	-0.009389913
21	0xbd89678d	-0.06709204
22	0xbd4dc87c	-0.050240025
23	0xbb29ba19	-0.0025898276
24	0xbc958d7b	-0.01825594
25	0xbce162d7	-0.02751295
26	0xbd48f5cc	-0.049062535
27	0x3a8929c0	0.0010464713
28	0xbd02b2f3	-0.03190894
29	0x3bb2299c	0.005437089
30	0xbd2c0cb2	-0.042004295
31	0x3c50da26	0.012747323
32	0x3c279f56	0.01023086
33	0xbce65492	-0.028116498
34	0x3972cb4d	0.00023154654
35	0xbd93b7e7	-0.07212811
36	0xbc207369	-0.009793141
37	0xbc3fb31c	-0.011700418
38	0xbce107f9	-0.027469622
39	0xbc07d930	-0.008291528
40	0xbdc4f6bc	-0.09617373
41	0xbd3bb0a2	-0.045822747
42	0xbc688dfd	-0.014194009
43	0xbc50fc87	-0.01275552
44	0x39d6457e	0.00040869036
45	0xbd1ae5e8	-0.037816912
46	0x3c905d24	0.017622538
47	0xbc4d672f	-0.012536808
48	0x3d1b3df1	0.03790087
49	0x3bb062de	0.0053828796
50	0x3b078bf5	0.0020682786
51	0x3cd1b1b8	0.025597438
52	0xbd10734f	-0.035266217
53	0xbb852eb4	-0.0040644053
54	0x3b8a5347	0.004221353
55	0x3ca89a69	0.020581441
56	0xbd143b19	-0.036189172
57	0xbd104f62	-0.035231955
58	0xbc37a26b	-0.011208157
59	0xbda70018	-0.08154315
60	0x3b93a8c7	0.004506204
61	0x3c0c31b0	0.008556768
62	0x3cd72c1c	0.02626615
63	0x3c3abc5f	0.01139745
64	0xbcbb6c98	-0.02287893
65	0xbd199c3b	-0.03750251
66	0xbd0bdcc7	-0.034146097
67	0xbc7085a4	-0.0146803
68	0x3a23d2da	0.0006249376
69	0xbdaf7f2e	-0.085691795
70	0x3d23897a	0.03992603
71	0xbd429b5c	-0.047511443
72	0xbd471a6c	-0.048609182
73	0xbc9fa199	-0.019486235
74	0xbd255818	-0.040367216
75	0xbcf65240	-0.030068517
76	0x3d4ed390	0.05049473
77	0xbcdeba28	-0.027188376
78	0xbc3da260	-0.011574358
79	0xbd150f4c	-0.03639154
80	0x3c0ddc6f	0.0086585125
81	0xbd8931ce	-0.066989526
82	0x3c351876	0.011053195
83	0xbdacce1d	-0.084377505
84	0x3b8b0e5a	0.004243654
85	0xbca1a029	-0.01972969
86	0xbd003435	-0.03129979
87	0xbd3e5712	-0.046469755
88	0xbb4fd8b5	-0.003171486
89	0xbd633c11	-0.055477206
90	0xbd6035b4	-0.054738715
91	0xbc8652dd	-0.016396934
92	0xbd4367b0	-0.047706306
93	0xbd290579	-0.041264985
94	0xbd9aec4c	-0.07564601
95	0xbd08cd0a	-0.033398665
96	0xbd992a81	-0.0747881
97	0xbd77785a	-0.06041751
98	0xbc43d4b2	-0.011952566
99	0x3ab5a386	0.0013857938
100	0xbd84f4c7	-0.06492
101	0xbd180194	-0.03711088
102	0x3c4e1863	0.012579056
103	0x3c9e7c85	0.019346485
104	0x3badf211	0.0053083976
105	0x3c827636	0.015925508
106	0x3ba6b644	0.0050876457
107	0xbd1ae55e	-0.037816398
108	0xbd0116cd	-0.031515885
109	0xbd2c4103	-0.042054188
110	0x3d454b16	0.04816731
111	0xbd70930e	-0.058733992
112	0xbd37490d	-0.0447474
113	0xbc9641a2	-0.018341843
114	0xbd95490e	-0.07289325
115	0xbd9f492a	-0.07777627
116	0x3c6aa6de	0.014322011
117	0x3c7ef202	0.015560629
118	0xbd3395a3	-0.043843877
119	0x3c023a7c	0.007948514
120	0x3b866757	0.0041016745
121	0x3c3066c0	0.010766685
122	0x3b4b221a	0.0030995668
123	0xbcdd068d	-0.026980663
124	0xbd600dd1	-0.054700676
125	0xbd82facf	-0.06395494
126	0xbcda1753	-0.02662245
127	0xbc58946a	-0.013218978

network_body.linear_encoder.seq_layers.0.weight f4 [128, 77]
0	0xbe4a79fb	-0.19773094
1	0xbb75d7db	-0.0037512693
2	0xbc9710aa	-0.018440563
3	0xbdf23886	-0.11827187
4	0xbdc49e7e	-0.096005425
5	0x3cbe47fe	0.023227688
6	0xbd256453	-0.04037888
7	0xbdfd6f97	-0.123748
8	0xbde2c313	-0.11072364
9	0x3d2b5e07	0.04183772
10	0x3d573e32	0.05254955
11	0xbdc014ff	-0.09379005
12	0x3cbdcd69	0.023169236
13	0xbd7f8191	-0.062379424
14	0x3cbf56e1	0.023356857
15	0xbe409d76	-0.18810067
16	0x3d0beb52	0.034159966
17	0xbd290320	-0.041262746
18	0x3c9019a3	0.01759035
19	0x3e08f60f	0.13375114
20	0xbdaa51cf	-0.08316385
21	0x3d30a567	0.04312649
22	0x3d71f913	0.059075426
23	0xbdcdca34	-0.10048333
24	0xbd8689d5	-0.06569258
25	0xbd8f83f0	-0.07007587
26	0xbda54e84	-0.08071616
27	0x3b34863c	0.002754583
28	0x3e1c0745	0.15237148
29	0x3dcd3a0a	0.10020836
30	0x3be6421a	0.007026923
31	0xbdc662c2	-0.09686805
32	0xbcb1f5f9	-0.021723734
33	0x3dce279c	0.10066149
34	0x3e233620	0.15938616
35	0xbcc4548e	-0.0239661
36	0xbe9c03b8	-0.30471587
37	0x3d4a4ca7	0.049389508
38	0x3b02668c	0.0019897548
39	0xbe14dd29	-0.14537491
40	0x3d530d99	0.05152664
41	0xbd9fdd40	-0.07805872
42	0x3d957ef3	0.07299604
43	0xbe7e7bb9	-0.24851884
44	0xbe3a7c18	-0.182114
45	0xbd9387cc	-0.072036356
46	0xbe8dcc5a	-0.2769497
47	0xbdb13c1f	-0.08654045
48	0xbe63df63	-0.22253184
49	0xbcf97364	-0.03045053
50	0xbdb905f8	-0.090343416
51	0xbd9dd293	-0.077061795
52	0xbd9b8c38	-0.07595104
53	0xbd630fbf	-0.05543494
54	0x3d353532	0.044240184
55	0xbd67c98c	-0.056588694
56	0x3e6dd555	0.23225911
57	0x3e1a711e	0.15082213
58	0xbe816473	-0.2527195
59	0x3bce9406	0.006304267
60	0x3dc0edc1	0.09420348
61	0xbe51d6b2	-0.20492056
62	0xbd5eced5	-0.05439647
63	0xbe6f48eb	-0.2336766
64	0x3e7185ba	0.23586169
65	0xbe1043db	-0.14088385
66	0x3d448129	0.04797474
67	0xbe036008	-0.12829602
68	0xbe9728e0	-0.29523373
69	0x3ed49b1f	0.41524598
70	0xbd00f5ff	-0.0314846
71	0xbd56acdc	-0.052410945
72	0xbe61ad36	-0.22038731
73	0x3ec74ddb	0.38926587
74	0xbe2a5178	-0.1663264
75	0xbdfaf712	-0.12254156
76	0xbd6e7b7f	-0.058223244
77	0xbdad3b39	-0.084585615
78	0xbdb45223	-0.08804729
79	0xbc58d5af	-0.01323454
80	0xbe1c90aa	-0.1528956
81	0x3d9321b4	0.07184163
82	0x3cb16bfe	0.02165794
83	0x3d741503	0.05959035
84	0x3e8f41a2	0.2797976
85	0xbe8401c2	-0.2578259
86	0xbdb2dd3c	-0.08733603
87	0xbd112352	-0.035434075
88	0xbd7f50f4	-0.062333062
89	0xbe119647	-0.14217483
90	0x3d2d1957	0.042260494
91	0xbb3dbe18	-0.0028952416
92	0x3d105f5e	0.0352472
93	0xbd9b45bf	-0.075816624
94	0xbdfdc04d	-0.12390194
95	0xbc3adb52	-0.011404829
96	0x3df2f3a4	0.11862877
97	0xbe0178eb	-0.12643783
98	0x3de0cca9	0.10976536
99	0x3de11d22	0.10991885
100	0xbc9d130f	-0.019174127
101	0xbdb9a03f	-0.09063768
102	0x3cdd5dce	0.027022269
103	0x3dca3edc	0.09875271
104	0xbccff764	-0.02538652
105	0xbdc3a559	-0.09553022
106	0x3d0a92f1	0.03383154
107	0x3d95c170	0.07312286
108	0xbe0d7a35	-0.1381615
109	0xbd96cf9c	-0.07363817
110	0xbdbdc02f	-0.09265172
111	0x3d22f0be	0.03978037
112	0xbd74a9cc	-0.059732243
113	0x3db33cda	0.08751841
114	0xbd1fba44	-0.038995996
115	0xbc9a9d40	-0.01887381
116	0x3cc57faf	0.024108736
117	0x3e3e9d14	0.18614608
118	0x3dc0b782	0.09410001
119	0xbbf2844e	-0.007401026
120	0xbe1019dc	-0.14072365
121	0x3e1354a0	0.1438775
122	0xbc6d2560	-0.014474243
123	0xbd9a8d7a	-0.07546516
124	0xbdd81848	-0.10551506
125	0xbede3519	-0.43399885
126	0x3c24ce00	0.01005888
127	0x3ddb2a61	0.107014425
128	0x3d749a20	0.059717298
129	0x3d18d795	0.03731497
130	0xbd89271b	-0.06696912
131	0xbb75962c	-0.0037473543
132	0xbd0409f7	-0.032236066
133	0xbde4c4d0	-0.111703515
134	0x3d9343dc	0.071906775
135	0x3e45c170	0.19312072
136	0xbcdb6c70	-0.026785105
137	0x3e58159f	0.21101998
138	0x3d84bbaf	0.0648111
139	0x3e811f46	0.25219172
140	0x3c6e3ee6	0.014541363
141	0xbd067017	-0.03282174
142	0x3df015a2	0.11722876
143	0x3ca56530	0.020189852
144	0xbd8d6524	-0.06904057
145	0x3e66cf22	0.22539952
146	0xbea55e1e	-0.32298368
147	0x3e38cd21	0.18047
148	0xbddba2a3	-0.1072438
149	0x3e411b63	0.18858103
150	0xbeac7c14	-0.33688414
151	0x3de43de8	0.1114462
152	0xbe3624a6	-0.17787418
153	0xbe1568f2	-0.14590815
154	0xbe35a8e0	-0.17740202
155	0x3e71e511	0.23622538
156	0xbd884dc4	-0.066554576
157	0xbdec1871	-0.11528099
158	0xbd2e87ae	-0.042609863
159	0x3ce8a8cb	0.0284008
160	0xbd8f29ca	-0.069903925
161	0xbdcaef51	-0.09908927
162	0x3e0c94f4	0.13728696
163	0xbe1a50ee	-0.15069935
164	0xbe0568a2	-0.13028196
165	0xbd332482	-0.04373599
166	0x3e4c9980	0.1998043
167	0xbd28cfc1	-0.041213755
168	0x3bb1dc0f	0.0054278444
169	0x3e219f20	0.15783358
170	0x3d82a980	0.06379986
171	0x3e04ebf3	0.12980632
172	0x3ca3af6d	0.01998111
173	0xbe032dd9	-0.12810458
174	0xbd937454	-0.07199922
175	0x3ccdac83	0.025106674
176	0x3dde9c87	0.10869699
177	0xbd425c15	-0.047451098
178	0xbce90110	-0.02844289
179	0xbd3b07e4	-0.045661822
180	0xbd4e6388	-0.05038789
181	0xbd682b5c	-0.056681976
182	0x3ca8f104	0.020622738
183	0xbe11d80f	-0.14242576
184	0xbd7aaaba	-0.061197974
185	0xbdd3e16e	-0.10345732
186	0x3cdb3099	0.026756572
187	0xbc7a7eb8	-0.015289001
188	0x3d19c1ee	0.03753846
189	0xbe2ccb26	-0.1687437
190	0xbe017959	-0.12643947
191	0xbd9f7d27	-0.07787543
192	0x3ec189e6	0.3780052
193	0xbd8355c7	-0.06412845
194	0xbd3b706c	-0.04576151
195	0xbaa34126	-0.0012455329
196	0x3da75d32	0.081720725
197	0x3e03ff48	0.12890351
198	0xbca14a70	-0.019688815
199	0xbc517db4	-0.012786318
200	0xbc9e173e	-0.019298192
201	0x3c9f76e6	0.019465875
202	0xbd5efefb	-0.054442387
203	0xbdffc597	-0.12488859
204	0xbdc4f411	-0.096168645
205	0xbb29bd98	-0.002590036
206	0x3d887ead	0.066647865
207	0xbd339ea0	-0.04385245
208	0x3dd6a9f0	0.10481632
209	0x3e65e024	0.22448784
210	0x3dad1f82	0.08453275
211	0x3dc7a77b	0.09748741
212	0xbe447f55	-0.19189198
213	0xbe2d4a55	-0.16922887
214	0xbe1fb9a3	-0.15598159
215	0xbeb792e3	-0.35854253
216	0xbdd93a70	-0.10606849
217	0x3e0b9f69	0.13635029
218	0x3dbfeae6	0.09370975
219	0xbbd6a97c	-0.006550966
220	0x3e0c3b88	0.13694584
221	0xbe385f5f	-0.18005131
222	0x3e1f9322	0.1558347
223	0xbe8412bf	-0.25795552
224	0x3c0ea0c1	0.008705319
225	0xbe34b977	-0.17648874
226	0x3dddd829	0.10832245
227	0xbe849d7d	-0.25901404
228	0xbbbce424	-0.005764501
229	0x3da2fd6b	0.07958492
230	0xbd2b3438	-0.041797847
231	0x3cc78d00	0.024359226
232	0xbcb4f753	-0.02209059
233	0xbd503f18	-0.05084142
234	0x3d1bb799	0.03801689
235	0xbcefaf99	-0.029258536
236	0xbe24cc89	-0.16093649
237	0x3e1762f6	0.14783844
238	0x3dd51c58	0.10405797
239	0xbdc43ff6	-0.09582512
240	0x3d276fc4	0.040878072
241	0x3e1f0790	0.15530229
242	0x3d60e932	0.054909892
243	0x3e3c5666	0.18392333
244	0x3d33e363	0.043918025
245	0x3d969478	0.07352537
246	0x3baa0483	0.005188526
247	0xbbab132d	-0.005220792
248	0x3e29b8a6	0.16574344
249	0x3d59f0bd	0.0532081
250	0x3c910f02	0.017707352
251	0xbe8ea127	-0.27857324
252	0x3cf67431	0.030084701
253	0x3dadf8b4	0.08494702
254	0x3e115f19	0.14196433
255	0x3e1aa2df	0.15101193

network_body.linear_encoder.seq_layers.2.bias f4 [128]
0	0xbd3d6309	-0.046237025
1	0xbd02758b	-0.03185038
2	0xbe082f66	-0.13299331
3	0xbe31d381	-0.17365839
4	0xbd3917f2	-0.04518885
5	0xbc5b1238	-0.013371043
6	0xbd449118	-0.047989935
7	0x3c861015	0.01636509
8	0x3cbc83ec	0.023012124
9	0xbbddd54f	-0.006769813
10	0xbb066c13	-0.0020511195
11	0xbbb795e9	-0.0056025875
12	0xbe1831d9	-0.14862765
13	0x3cb69a32	0.022290323
14	0xbdf14830	-0.11781347
15	0x3d632047	0.055450704
16	0x3c4c4971	0.012468682
17	0x3d90a42f	0.070625655
18	0xbdd43b23	-0.10362842
19	0xbca2b1b2	-0.019860122
20	0xbc63e89f	-0.013910442
21	0xbcaa9906	-0.02082492
22	0xbc89144e	-0.016733315
23	0xbce60bc4	-0.028081782
24	0xbdff9451	-0.12479461
25	0xbe00e8f0	-0.12588859
26	0x3d4bfc7a	0.049801327
27	0x3d840e75	0.0644807
28	0xbdf405c4	-0.11915162
29	0xbd3b6fdf	-0.045760985
30	0xbb9fda39	-0.004878309
31	0xbd8c76cd	-0.06858597
32	0xbb425e0f	-0.0029658114
33	0xbd0ca5d9	-0.034337852
34	0x3cb332c3	0.021874791
35	0xbe28a381	-0.16468622
36	0xbb59ea89	-0.0033251366
37	0x3d3266b4	0.043554977
38	0xbce18b03	-0.027532106
39	0xbcfe5edb	-0.03105109
40	0xbd87f9ae	-0.066394195
41	0xbc071d6d	-0.008246762
42	0x3d593ba2	0.053035386
43	0xbcf53803	-0.029933935
44	0xbe1e51fd	-0.15460964
45	0xbccb111e	-0.024788436
46	0xbd0fc7cf	-0.03510266
47	0xbb741fe9	-0.0037250465
48	0xbd11083c	-0.035408244
49	0x3cffe67b	0.031237831
50	0xbe275616	-0.16341433
51	0xba3f9ec1	-0.0007309728
52	0xbe0adc34	-0.13560563
53	0xbe169e4b	-0.14708821
54	0xbe0ea0f4	-0.13928586
55	0x3c2e90df	0.010654657
56	0x3dee5135	0.11636583
57	0xbca51899	-0.02015333
58	0x3b9c1b33	0.0047639846
59	0xbe480bf9	-0.19535817
60	0x3c182b95	0.0092877345
61	0x3e0af340	0.13569355
62	0xbb7aefdf	-0.0038289947
63	0x3d2f5fd7	0.04281601
64	0xbe1e893a	-0.15482035
65	0xbc503ce0	-0.012709826
66	0xbbfbef1e	-0.007688417
67	0x3ae20cd1	0.0017246251
68	0xbcdce5f2	-0.026965115
69	0xbbda06db	-0.0066536493
70	0xbd70d4cb	-0.058796685
71	0xbb28d0cf	-0.0025759225
72	0xbcd29e82	-0.025710348
73	0x3c378971	0.011202202
74	0xbc9d7537	-0.019220931
75	0xbe2c8f1b	-0.16851465
76	0xbc2693e1	-0.010167093
77	0xbb12f87e	-0.0022425945
78	0xbd8e6b00	-0.069540024
79	0x3afdf9d3	0.0019376822
80	0xbe2cb1f6	-0.16864762
81	0x3c0d89ea	0.008638838
82	0x3c4b5d14	0.012412328
83	0xbc654474	-0.013993371
84	0xbe0c8a93	-0.13724737
85	0xbe1da434	-0.1539467
86	0xbdf80f27	-0.12112265
87	0x3c23d81b	0.010000254
88	0x3c5322b0	0.012886688
89	0xbe1fb82a	-0.15597597
90	0xbb12292d	-0.0022302375
91	0xbd3efdbc	-0.0466287
92	0xbe19d389	-0.150221
93	0xbe3c73c1	-0.18403532
94	0xbbbcf8d6	-0.0057669682
95	0x3be1d80b	0.0068922094
96	0xbd3fbac9	-0.04680899
97	0xbbbd6cfc	-0.005780814
98	0xbb6e5f4a	-0.0036372715
99	0xbcacb60b	-0.021082899
100	0xbcec9a79	-0.028882252
101	0xbe44045d	-0.1914229
102	0xbc10cf97	-0.008838556
103	0x3da438e0	0.080186605
104	0xbcedc6ae	-0.029025402
105	0x3c6107b2	0.013734745
106	0x3cb4138d	0.021981979
107	0xbe24d3a9	-0.16096367
108	0xbceae130	-0.02867183
109	0xbde0d290	-0.109776616
110	0xbe0ef5c2	-0.13960937
111	0x3c336ae1	0.010950775
112	0xbd4b7dcd	-0.04968052
113	0x3d1bb9cb	0.038018983
114	0x3bd814e4	0.006594287
115	0xbca00201	-0.019532206
116	0xbe193889	-0.14962973
117	0xbcac5c8d	-0.021040225
118	0xbcc78301	-0.02435446
119	0xbe363c14	-0.17796355
120	0xbe2ce40d	-0.1688387
121	0x3d18d57f	0.03731298
122	0xbe2011cd	-0.1563179
123	0xbb70a078	-0.003671674
124	0x3c3371c0	0.010952413
125	0xbdb23cf4	-0.08703032
126	0x3c12e99c	0.00896683
127	0xbe1e1805	-0.1543885

network_body.linear_encoder.seq_layers.2.weight f4 [128, 128]
0	0x3c165a1c	0.009176757
1	0xbd7e5a12	-0.062097616
2	0xbddf2c2d	-0.10897098
3	0x3d0d9032	0.034561343
4	0xbc897b6a	-0.016782481
5	0x3d68a827	0.056800988
6	0x3cc619eb	0.02418228
7	0x3d52e503	0.051487934
8	0x3d34c4ad	0.044132877
9	0x3c8ac2ad	0.016938532
10	0xbcba5acb	-0.022748372
11	0x3d19acba	0.03751824
12	0xbbe831b7	-0.0070860046
13	0x3c235ee3	0.009971353
14	0x3d6589cd	0.05603962
15	0xbc45b1c8	-0.012066312
16	0x3d6d43e7	0.057926085
17	0xbd8854ec	-0.066568226
18	0xbdb08b2f	-0.08620297
19	0x3dccb96f	0.09996306
20	0x3bb668a9	0.0055666757
21	0x3e08252f	0.13295434
22	0x3d1f6d2d	0.038922478
23	0x3c137511	0.009000079
24	0xbdc60a03	-0.09669878
25	0xbdd4311c	-0.10360929
26	0x3ceff578	0.029291853
27	0xbb8b9787	-0.004260007
28	0xbcca010e	-0.024658706
29	0xbdef0c7e	-0.116723046
30	0xbb681db0	-0.0035418086
31	0xbd312eae	-0.043257408
32	0x39d76673	0.00041084326
33	0x3d6a6267	0.05722275
34	0xbc7475e5	-0.014920686
35	0xbceee6d6	-0.029162806
36	0xbd45aaef	-0.048258718
37	0x3d5e945a	0.054340698
38	0xbdc989e6	-0.09840755
39	0xbcbb2159	-0.02284305
40	0xbd35676d	-0.044288088
41	0x3da6d96d	0.081469394
42	0xbb4993d1	-0.0030758271
43	0x3d9dcc44	0.07704976
44	0xbd4a28eb	-0.04935543
45	0xbd636cfb	-0.055523854
46	0x3d55d55f	0.05220544
47	0xbc1cdc2b	-0.0095739765
48	0xba463984	-0.0007561671
49	0xbd702ab6	-0.058634482
50	0x3dc6aac7	0.09700542
51	0xbcca2030	-0.024673551
52	0xbdf92e98	-0.1216709
53	0x3d2bbcdf	0.04192817
54	0x3c421cc8	0.011847682
55	0xbe04fc5c	-0.12986892
56	0x3e07395a	0.13205472
57	0x3d6df67e	0.0580964
58	0x3d82080c	0.06349191
59	0xbe5033de	-0.20332286
60	0xbc9c4e93	-0.019080436
61	0xbd0474d7	-0.03233799
62	0xbdabe094	-0.08392444
63	0x3d1d9831	0.03847522
64	0x3e398e7e	0.18120763
65	0xbe47a1ae	-0.1949527
66	0xbc412677	-0.011788956
67	0xbc02fc94	-0.00799479
68	0xbdbf990f	-0.093553655
69	0xbe182d94	-0.14861137
70	0x3d042ca6	0.032269143
71	0xbe21424a	-0.15747944
72	0x39a16080	0.0003078021
73	0x3df355a2	0.118815675
74	0x3dd75b13	0.10515418
75	0xbd807cd9	-0.06273813
76	0x3dc52de8	0.096278965
77	0xbde4e995	-0.11177365
78	0x3e0927c7	0.1339408
79	0x3cfefd16	0.03112654
80	0x3d57980d	0.05263524
81	0x3bc3e559	0.005978268
82	0xbc99cdb6	-0.018774848
83	0xbdc1eb18	-0.09468669
84	0xbd8e8ff3	-0.0696105
85	0x3d071757	0.032981243
86	0xbc9b7ab1	-0.018979402
87	0x3c69aac7	0.014261908
88	0xbc2a1b3a	-0.010382468
89	0x3e18834c	0.14893836
90	0xbd94b22c	-0.07260546
91	0x3d051e1c	0.032499418
92	0xbe13c304	-0.14429861
93	0x3e87bd00	0.26511383
94	0xbaa0d90b	-0.0012271715
95	0xbd3a26a4	-0.045447007
96	0xba09b516	-0.0005253119
97	0xbd38e89d	-0.045143712
98	0x3d8bd2f8	0.068273485
99	0xbdca9089	-0.09890849
100	0xbe2ffbc5	-0.17185886
101	0x3d9dfdce	0.07714425
102	0xbdbd317e	-0.092379555
103	0x3c5e5c9d	0.013571885
104	0x3a039322	0.0005019178
105	0xbc8fdae7	-0.017560435
106	0xbda37e25	-0.079830445
107	0x3984b7ff	0.0002531409
108	0xbddd3558	-0.1080119
109	0xbd39f0f8	-0.04539582
110	0x3cd7dfd7	0.026351852
111	0xbc458115	-0.012054701
112	0x3cc6618b	0.024216434
113	0xbd0edcf4	-0.034878686
114	0x3d442f75	0.04789682
115	0x3cc99a62	0.024609748
116	0x3dc812b6	0.09769194
117	0xbd565bbb	-0.052333575
118	0x3e055bc9	0.13023295
119	0x3cc8dc1d	0.02451902
120	0x3d33c686	0.0438905
121	0x3d6298d0	0.055321515
122	0x3d38f5bd	0.04515623
123	0x3e062203	0.13098912
124	0x3ce27c07	0.027647031
125	0xbcf5f823	-0.030025547
126	0x3dbb9de6	0.09160976
127	0xbc3d09b6	-0.01153796
128	0xbd344df2	-0.044019647
129	0xbc51ef73	-0.012813437
130	0x3d81d1c9	0.063388415
131	0xbc3154f2	-0.010823475
132	0xbe039a35	-0.12851794
133	0xbdf5191d	-0.119676806
134	0x3d16115d	0.036637653
135	0xbe03f82b	-0.12887637
136	0xbe69a278	-0.22815883
137	0x3cf135c7	0.029444588
138	0xbb338a4b	-0.0027395661
139	0xbc8adee3	-0.016951984
140	0xbc093986	-0.008375531
141	0xbd5d937a	-0.054095723
142	0xbdc255b6	-0.09489004
143	0xbe1c7319	-0.15278281
144	0xbe552bcf	-0.20817493
145	0xbe2b7a2f	-0.16745828
146	0x3d990044	0.07470754
147	0xbdc544e5	-0.09632281
148	0xbd164026	-0.03668227
149	0xbbeb3df8	-0.007179018
150	0x3dd399f9	0.10332102
151	0xbda11fce	-0.078673944
152	0x3d6f90df	0.05848777
153	0xbe798144	-0.24365717
154	0x3e34d80c	0.1766054
155	0x3d4e94ec	0.05043499
156	0x3c88e0be	0.016708728
157	0xbd402649	-0.04691151
158	0xbe029642	-0.12752631
159	0xbc6aaa90	-0.014322892
160	0x3e2cea9a	0.16886368
161	0x3dad6894	0.08467212
162	0x3dbb3460	0.09140849
163	0x3e2bed13	0.16789655
164	0x3dee4c1c	0.116356105
165	0x3e140aab	0.14457195
166	0x3ce535bb	0.027979722
167	0xbd8379b9	-0.06419701
168	0x3d341bf4	0.04397197
169	0xbb8cd307	-0.0042976174
170	0x3d614a7a	0.055002667
171	0xbe857e91	-0.26073125
172	0x3dec074f	0.115248315
173	0x3c6540d9	0.013992512
174	0x3d099283	0.03358699
175	0xbba16478	-0.004925307
176	0xbd916cf3	-0.071008585
177	0x3db5db05	0.08879665
178	0xbdb0aae7	-0.08626347
179	0xbe097513	-0.13423567
180	0x3e84ed95	0.2596251
181	0x3e00b508	0.12569058
182	0x3d9e59a2	0.0773194
183	0xbdbe8676	-0.0930299
184	0x3da3097b	0.07960793
185	0x3dbdda0b	0.09270104
186	0xbd295cf9	-0.04134843
187	0xbd85ea77	-0.06538861
188	0xbdc58b41	-0.09645701
189	0x3d7761a7	0.060395863
190	0xbd92b292	-0.07162966
191	0xbd955787	-0.07292085
192	0x3cdf36c1	0.027247788
193	0xbd7c6349	-0.061618123
194	0xbd6fe978	-0.058572263
195	0x3e0a6a32	0.13517073
196	0x3d720a69	0.05909196
197	0x3e1c4057	0.15258919
198	0x3db6747e	0.08908938
199	0xbd7c91d9	-0.06166253
200	0x3d850b95	0.0649635
201	0x3bbbb547	0.005728397
202	0xbdb22457	-0.086983375
203	0xbdf279bf	-0.118396275
204	0xbe4aa37f	-0.19788931
205	0x3d12519b	0.035722356
206	0x3c029378	0.00796973
207	0xbd78a5ca	-0.060704984
208	0x3e4ac62c	0.19802159
209	0xbdd2445f	-0.10266947
210	0x3dd4efec	0.10397324
211	0x3d6fdad1	0.05855829
212	0x3b2aa01d	0.0026035376
213	0x3beb74c2	0.0071855495
214	0xbd16f145	-0.036851186
215	0xbcb5ac0b	-0.022176763
216	0xbd50473b	-0.05084918
217	0x3dcc0f3d	0.09963844
218	0xbd0595e0	-0.032613635
219	0xbe8a4dab	-0.2701238
220	0xbdd9eb3c	-0.106405705
221	0x3d8bef92	0.06832804
222	0x3b109008	0.0022058506
223	0x3d5ce75e	0.053931586
224	0x3e011c42	0.12608436
225	0x3da3d086	0.07998757
226	0xbdcd5a4a	-0.10026987
227	0xbd4334c9	-0.04765776
228	0x3dcb7861	0.0993507
229	0xbd80c715	-0.06287972
230	0xbdbaf61c	-0.09128973
231	0xbc8b9f33	-0.017043686
232	0xbdaf9143	-0.08572628
233	0x3d6e5621	0.058187608
234	0x3d562f3c	0.05229114
235	0x3e10fc79	0.1415881
236	0x3da11cff	0.07866859
237	0xbd2f3211	-0.042772356
238	0xbd33c8c4	-0.043892637
239	0xbc31e608	-0.010858066
240	0xbd3c133f	-0.045916792
241	0xbe34743f	-0.1762247
242	0x3b2774e0	0.002555184
243	0xbd597bd2	-0.0530966
244	0xbe15bab6	-0.14622006
245	0xbda61db2	-0.08111133
246	0xbdf77930	-0.120836616
247	0xbd5b2f6b	-0.05351202
248	0x3dd67ecb	0.104734026
249	0xbdf1a2aa	-0.11798604
250	0xbbda580c	-0.006663328
251	0xbddf6c69	-0.109093495
252	0xbd050d2e	-0.032483272
253	0xbd9ea84d	-0.077469446
254	0x3b42ac2a	0.0029704669
255	0xbdca9775	-0.098921694
