Learning/results/test5/KartAgent/KartAgent-1199968.onnx (onnx, 108737 bytes, 7 tensors)

41 f4 [1, 2]
000000 fd ed 1b bf c9 4d 8a bf
       -0.60910016 -1.0804988

distribution.mu.bias f4 [2]
000000 fc f3 e0 3c 1d 5b 20 3e
       0.02746009 0.15659757

distribution.mu.weight f4 [2, 128]
000000 6c ed 7e 3a 97 91 d7 3c f3 d6 74 bb db b3 3a bc
       0.00097247097 0.02631454 -0.0037359565 -0.01139542
000010 de f1 39 bd 09 0f a3 bb 16 e2 07 ba f8 32 88 3b
       -0.04539668 -0.0049761576 -0.0005183531 0.0041564666
000020 95 82 be 3d c8 ba 09 ba 13 42 d9 ba a8 09 8f 3b
       0.0930225 -0.0005253968 -0.0016575478 0.004365165
000030 d1 02 74 3c af 49 9b 38 91 29 3b bc 8d 69 05 3e
       0.01489325 7.4047006e-05 -0.011423484 0.13028546
000040 81 b9 43 ba 87 c8 04 3e 39 cd 39 bd f5 fa 73 3d
       -0.0007466302 0.1296712 -0.04536173 0.059565503
000050 00 da aa ba 07 e9 77 3a d4 32 68 3d 45 a4 53 3a
       -0.001303494 0.0009457026 0.0566891 0.00080734893
000060 c8 d7 97 bb 6c 45 0c 3d 49 69 1a be a0 f4 32 be
       -0.0046338774 0.034245893 -0.15079226 -0.1747613
000070 aa 5d 8d bb 7a 52 83 bd 91 1e 34 39 57 0d bb bd
       -0.004314144 -0.064122155 0.00017177525 -0.09133404
000080 48 41 4c bb 65 51 f1 b9 53 53 5c bb 26 72 1c bd
       -0.003116684 -0.00046027746 -0.0033619 -0.038194798
000090 fa bb 38 bb 50 3a 11 be e0 51 50 3d 42 5c 4a 39
       -0.0028188215 -0.141824 0.050859332 0.0001929859
0000a0 2a a2 6f bd 8e 74 d4 bd 6b 90 00 3e 64 05 8a 3b
       -0.05850426 -0.103737935 0.12555091 0.0042120684
0000b0 94 17 9a bb 50 6f 9c bd 99 e0 93 3a 9b 3e 31 3a
       -0.0047025178 -0.07638419 0.0011282145 0.0006761343
0000c0 6e 4b fc 3a ff 69 10 ba 52 0e 02 bc 0b b3 40 3b
       0.0019248554 -0.0005508959 -0.007937985 0.0029403593
0000d0 f8 ff 22 bb 54 29 a9 bc b9 62 92 bb 06 1b 6d 39
       -0.0024871808 -0.02064959 -0.004467335 0.00022612148
0000e0 cd a7 29 3e 84 5e 59 3b 89 06 0d ba 4c ee 32 bc
       0.16567917 0.0033167908 -0.0005379697 -0.010921072
0000f0 c8 ed ab 3d 37 83 3c 3e 1d 6f 58 ba d0 ca 08 bb
       0.083949625 0.1840943 -0.0008256303 -0.0020872839
000100 77 d0 3d bc 5a 12 19 bb 23 1a 69 bb 8a 92 d6 ba
       -0.011585346 -0.0023356886 -0.0035568557 -0.0016370576
000110 c2 55 2f 3b 97 f2 dd ba 0c 17 37 ba e2 02 10 bb
       0.0026753996 -0.0016933259 -0.000698433 -0.0021974375
000120 92 da 6c ba f1 aa 21 3b 11 95 3e 39 6c 77 14 bd
       -0.0009035255 0.002466854 0.00018175344 -0.036246702
000130 b1 a2 43 3a ed 91 40 bb 9a af 8e bd 34 e4 c9 3a
       0.00074629026 -0.0029383854 -0.06967087 0.0015403093
000140 78 fc a1 bc c7 5a be 3d 84 b5 17 bb 8d a1 89 3d
       -0.019773707 0.09294658 -0.0023148963 0.067202665
000150 b0 b4 49 3c ac 81 bf bc 42 b8 cb 3b 4c 1b af 39
       0.012311146 -0.023377262 0.0062170336 0.0003339894
000160 1c c6 f1 bd 7e 39 e4 bc d2 a1 1e ba e1 df f5 3c
       -0.118053645 -0.027859446 -0.0006051335 0.03001398
000170 20 3e 09 bc 9b b7 5b bc 93 09 63 38 1d 44 70 3a
       -0.008376628 -0.013410474 5.4129934e-05 0.0009165423
000180 98 a3 b7 3a e0 9d 76 ba 7c a5 2f bb 2b 62 b9 3a
       0.0014010547 -0.00094076805 -0.0026801517 0.0014143636
000190 7e 8d 75 3a 34 09 a4 bc af 2e 48 3d 0a e8 15 3e
       0.0009367092 -0.02002392 0.048872646 0.14639297
0001a0 7e 47 1f bb c0 f9 52 b9 e1 7e 5b 3b 39 61 be bc
       -0.0024304087 -0.000201202 0.0033492374 -0.023239719
0001b0 69 d8 a3 bb 59 dc 17 3b e9 f8 ad bc dc 6a a3 bb
       -0.0050001633 0.002317211 -0.021236854 -0.004987104
0001c0 ff 18 e1 3c 7c a1 2d 3a 03 bf 1e ba 6f ec 8e 3d
       0.02747774 0.00066234893 -0.00060556846 0.0697869
0001d0 6a 94 7f bc 33 d2 54 bb 9c 8b ef 38 ad 8d df ba
       -0.0155993495 -0.0032473921 0.00011422412 -0.0017055772
0001e0 7c 9f 4c bd 81 63 07 be 3d ff a8 bc 56 6d 2e bc
       -0.049956784 -0.13221551 -0.02062952 -0.010646185
0001f0 9e 38 7f b9 d1 50 71 bd f2 8a 93 ba 2e a0 ce bc
       -0.00024339787 -0.058914963 -0.0011256619 -0.025222864
000200 17 5b 0e bb 65 19 81 bc a3 61 f3 bd 6e 3b cb bd
       -0.0021721774 -0.01575918 -0.11883857 -0.09923445
000210 40 57 92 3c 35 02 a7 3b 35 72 d7 39 71 e8 ca bb
       0.01786387 0.0050966986 0.00041093086 -0.00619226
000220 e7 76 00 3b c8 ef d7 ba aa 7b aa b7 0e f5 a9 ba
       0.0019602121 -0.0016474659 -2.0323165e-05 -0.0012966709
000230 28 42 c2 bd ac 44 1a 3b 1e 86 23 be 09 59 cc 3c
       -0.094852746 0.0023539467 -0.1596913 0.024944799
000240 9e 4c 83 ba 73 d2 6d 3c 21 4b 7e ba 27 9a 60 bc
       -0.001001734 0.014515507 -0.0009700526 -0.013708628
000250 3d 45 c2 3b 9e c4 ef 3a f3 bc 82 3a 87 14 6f ba
       0.005928664 0.0018292849 0.0009974524 -0.0009120185
000260 99 fe 03 be d0 91 04 be 10 23 fe 3c 4c fa f6 3c
       -0.1289009 -0.12946248 0.031022578 0.030148648
000270 0e 8e ee bd 29 30 0a 3c d2 da bd 3a 08 ed 81 bc
       -0.116481885 0.008434334 0.0014484769 -0.015860096
000280 de 96 4b 3a d6 92 2d bb 47 dc 50 3b 61 58 22 be
       0.00077663164 -0.0026485226 0.0031869577 -0.15854026
000290 0c 3a dd ba cb d5 fe 3c 9d 34 9a 39 81 4b d7 bb
       -0.0016878261 0.031107804 0.0002941237 -0.00657028
0002a0 20 71 fb bc dd d6 55 3c 31 5e d4 3b 77 ce 34 bb
       -0.03069359 0.013051716 0.006480955 -0.0027588883
0002b0 7e 18 db bd 0a 95 a0 3c 7e 0b a3 b9 bf 43 10 bb
       -0.10698031 0.019602317 -0.00031098345 -0.0022013036
0002c0 1b 44 9b bb 5a 7b 9a 3a 86 ac fa bd da 1f 08 3b
       -0.0047383434 0.0011786029 -0.122399375 0.0020770938
0002d0 6f 29 1e be 0a f0 e8 bd 65 5d 12 be e3 1e 92 bb
       -0.15445493 -0.11373909 -0.1429344 -0.0044592484
0002e0 9d a1 95 3c 24 76 12 bb dd c9 8c bb 7e 83 d7 bd
       0.01826554 -0.002234825 -0.004296525 -0.10523127
0002f0 4f 1e 89 bb a4 94 23 3d 9d ec 24 bb 49 38 2c 3b
       -0.0041845213 0.039936677 -0.0025165447 0.0026278666
000300 58 66 f4 bd fd 6c d3 3a 5b 60 42 3b 9e e3 45 bb
       -0.11933583 0.0016130503 0.0029659483 -0.0030195485
000310 6d eb ad 3a 70 8b cf b9 42 7a ef 3b 35 62 9a 3b
       0.0013269015 -0.00039586006 0.0073082754 0.004711414
000320 52 6c 06 bb 17 f6 0f bb 54 c8 0c bb 1c f1 09 be
       -0.0020511341 -0.002196675 -0.002148171 -0.13470882
000330 f3 23 b6 bb b3 9d 8f 3b 00 dc 87 bc a4 ca 44 3a
       -0.0055584847 0.004382813 -0.016584396 0.00075070024
000340 25 3e f7 bd 72 67 07 3c 03 38 14 3b 7e 32 1e bc
       -0.120724 0.008264409 0.0022616393 -0.009655593
000350 7c f9 22 be bf ff dc bd 74 06 c8 bd 5f e4 1c 3b
       -0.15915483 -0.10790967 -0.09766856 0.002393983
000360 bb ad c4 3c e5 44 f3 bd 93 74 b8 ba dc d4 1c bc
       0.024008622 -0.11878375 -0.0014072828 -0.009572234
000370 36 b7 f2 bd 18 eb e1 bd bf ed b2 3b 2e e4 33 bb
       -0.11851351 -0.11031169 0.0054604704 -0.0027449238
000380 9a d5 80 3b bb 61 6a 3a de 02 df ba 48 5c b5 3a
       0.0039317133 0.00089409546 -0.0017014404 0.0013836706
000390 21 aa 05 3b c8 bc 04 be f3 fd b3 3b 42 76 5b 3c
       0.0020395594 -0.1296264 0.0054929196 0.013394894
0003a0 28 35 38 3b c6 a1 81 3b d2 7a 4a bc cd 55 f6 bd
       0.0028107855 0.0039560525 -0.012358384 -0.12028084
0003b0 b8 ce 12 bb f0 18 ea bd 4e 55 17 be 31 90 05 3c
       -0.0022401046 -0.11430538 -0.14778635 0.008152054
0003c0 81 24 83 bc 04 c5 46 ba 78 81 06 3a 5e 0b 92 bb
       -0.016008617 -0.0007582458 0.00051309867 -0.0044569215
0003d0 2d 16 df bd d3 43 58 3a a3 d8 32 3b 78 f1 e3 bd
       -0.108929016 0.00082498527 0.002728977 -0.11130041
0003e0 72 34 07 be 66 5b cd 3c ec e7 f3 bd 52 83 8b bb
       -0.132036 0.025067996 -0.1190947 -0.004257598
0003f0 88 58 65 3a 4f 3b 86 bc a7 6f eb ba 77 17 16 be
       0.0008748849 -0.016385702 -0.0017962352 -0.14657389

network_body.linear_encoder.seq_layers.0.bias f4 [128]
000000 5c 78 83 bd 26 e9 2c bc 07 8c b8 bc b8 05 3a bc
       -0.06419441 -0.010553634 -0.022527708 -0.0113539025
000010 2d 45 54 bd 17 91 d9 bc 0b e4 8b bd 06 7a b7 bc
       -0.051823784 -0.026558442 -0.06830605 -0.022397052
000020 db f6 a8 bc 68 af 82 3c 21 0b 2d bd a9 c8 1f 3b
       -0.020625522 0.01595278 -0.04224694 0.0024381077
000030 bd 60 ab bb 86 bb 66 bd aa d5 2f 3d 90 51 51 bc
       -0.005230038 -0.05633118 0.042928375 -0.012775794
000040 7d c8 a5 3b 77 ff 89 bb ed 37 cc bc 5c 3e 5d bd
       0.0050593005 -0.004211362 -0.024929011 -0.05401455
000050 47 7c 24 bc 06 dd 7b bd 48 7c 43 bd 5b 7c d0 3b
       -0.010039396 -0.06149008 -0.047725946 0.0063624806
000060 a6 49 72 bc 9a 83 e9 bc 9c 93 52 bd fe 95 4c 3b
       -0.014788067 -0.028505135 -0.051410303 0.0031217332
000070 21 b6 e8 bc 6d 80 8b 3c 2b 12 37 bd 43 1d 83 3c
       -0.028407158 0.017029012 -0.04469506 0.016005164
000080 e5 3e 43 3c 13 22 b7 bc 38 d8 af b9 5a e7 97 bd
       0.011916851 -0.022355115 -0.00033539697 -0.07417174
000090 fb 22 5d bb 2c fc 2f bc 7b 11 c5 bc d8 10 5c bc
       -0.0033742774 -0.010741275 -0.024056187 -0.01343175
0000a0 41 f3 d0 bd 6f ba 1c bd d1 3f 61 bc 53 cd 3c bc
       -0.10202647 -0.038263734 -0.013748125 -0.0115235625
0000b0 09 08 1c 3b fe 60 31 bd 72 ed 31 3c 6c cf bf bc
       0.00238085 -0.04330539 0.010859834 -0.023414336
0000c0 83 c3 20 3d e1 46 b2 3b 2a 2f 53 3b 62 36 d1 3c
       0.039248955 0.0054405783 0.0032224157 0.025538627
0000d0 f0 c1 16 bd 42 ad 9b bb 54 44 ee 3b 8d 11 aa 3c
       -0.036806047 -0.0047508786 0.007271329 0.020760322
0000e0 44 44 0a bd 0a 1f 19 bd b9 ab b2 3b 9f 85 a6 bd
       -0.03375651 -0.037383117 0.0054526 -0.08130955
0000f0 f4 44 56 3b e3 1e 23 3c cf 97 e7 3c 00 ab e0 3b
       0.0032694908 0.009956094 0.02827063 0.0068563223
000100 9d 9f bf bc 0d d2 3c bd e1 c9 26 bd e4 8a 04 bc
       -0.02339154 -0.046098758 -0.04071987 -0.008089755
000110 d6 15 a1 bb 61 de 9b bd 92 cc 2c 3d a0 d4 3c bd
       -0.004915933 -0.07610775 0.04218728 -0.046101213
000120 ea 80 4e bd 66 fb c7 bc 7f be d9 bc e7 c8 00 bd
       -0.05041591 -0.024411868 -0.026580093 -0.031441595
000130 a3 6e 4c 3d ea 8b fb bc 06 82 88 bc cc 6b e8 bc
       0.0499102 -0.030706365 -0.016663563 -0.028371714
000140 d2 59 38 3c 6b a1 86 bd fa 9e 3b 3c 15 3e a9 bd
       0.011251884 -0.06573757 0.011451477 -0.08263794
000150 3e 9b 96 39 37 0b a2 bc 66 2e 03 bd d0 05 57 bd
       0.00028725894 -0.019780738 -0.03202667 -0.052495778
000160 96 fb bb bb 40 9e 48 bd fb c8 67 bd b4 8a 8c bc
       -0.0057367785 -0.048979044 -0.056588154 -0.017155983
000170 94 83 3f bd 34 c8 1f bd d9 cf 94 bd 79 86 26 bd
       -0.046756342 -0.039009288 -0.07266206 -0.040655587
000180 22 90 a0 bd 5b 48 66 bd 2b 0d 18 bc 2d ce 8c bb
       -0.07839991 -0.056221347 -0.009280483 -0.004297039
000190 18 41 84 bd b1 2f 29 bd 53 52 04 3c d2 e5 8b 3c
       -0.06457728 -0.041305248 0.008076268 0.01707736
0001a0 b2 21 3d 3c 05 93 ad 3c 89 14 9c 3c 8d 94 18 bd
       0.011543678 0.021188268 0.01905276 -0.037251044
0001b0 ab eb c9 bc ac 45 1d bd 86 e8 71 3d 2c 0b 82 bd
       -0.024648508 -0.038396522 0.059059642 -0.06349787
0001c0 4c a2 37 bd 6a fd cb bc 10 22 86 bd 56 b3 a0 bd
       -0.044832513 -0.02490111 -0.06549466 -0.078467056
0001d0 ac a3 b9 3b 49 a5 ee 3b c4 f0 18 bd 45 fc 44 3c
       0.005665263 0.007282887 -0.037338987 0.012023036
0001e0 89 2b 04 3c 91 1b 40 3c c7 26 dd 3a 7d 6a 02 bd
       0.00806702 0.011725322 0.0016872518 -0.031839836
0001f0 11 2c 80 bd cd 62 84 bd 1d ff f3 bc b1 db 87 bc
       -0.06258405 -0.06464157 -0.029784733 -0.01658425

network_body.linear_encoder.seq_layers.0.weight f4 [128, 77]
000000 6d 84 48 be e4 c2 4a bb aa 10 97 bc d8 23 f0 bd
       -0.19581766 -0.0030938918 -0.018440563 -0.11725587
000010 7a 4e c5 bd 16 a1 d5 3c 53 64 25 bd 1b 03 01 be
       -0.09634109 0.026077788 -0.04037888 -0.12598841
000020 23 e7 00 be 4b 02 50 3d 32 3e 57 3d 56 7f 95 bd
       -0.12588172 0.050783437 0.05254955 -0.07299678
000030 94 87 ff 3b f6 88 3b bd e1 56 bf 3c 46 41 46 be
       0.0077981446 -0.045784913 0.023356857 -0.19360837
000040 23 ae 02 3d a3 52 1b bd a3 19 90 3c 11 77 14 3e
       0.03190435 -0.037920605 0.01759035 0.14498545
000050 b1 e5 aa bd 25 c7 4c 3d 13 f9 71 3d 41 bd c8 bd
       -0.083445914 0.049994607 0.059075426 -0.09801722
000060 f6 3d 6d bd df d9 99 bd 84 4e a5 bd b7 d7 02 3c
       -0.05792042 -0.07512259 -0.08071616 0.007986001
000070 60 55 1e 3e 10 27 d0 3d 1a 42 e6 3b b5 9c c6 bd
       0.15462255 0.101637006 0.007026923 -0.09697858
000080 59 df 53 bc ec 1f bf 3d 20 36 23 3e c0 8f ae bc
       -0.012931668 0.093322605 0.15938616 -0.02130878
000090 bf 43 9e be 17 47 83 3d 8c 66 02 3b fa 6d 18 be
       -0.3091106 0.06410044 0.0019897548 -0.14885703
0000a0 13 b7 50 3d 8a 07 94 bd f3 7e 95 3d bb ab 7e be
       0.050955843 -0.072280005 0.07299604 -0.24870197
0000b0 55 b9 32 be 20 c7 b8 bd 5a cc 8d be b3 0a c4 bd
       -0.17453511 -0.09022355 -0.2769497 -0.09572353
0000c0 be cd 5d be 34 f9 48 bd f8 05 b9 bd c8 bb 97 bd
       -0.21660516 -0.049065784 -0.090343416 -0.07408863
0000d0 48 f5 95 bd 9d 17 5c bd 32 35 35 3d aa a2 8b bd
       -0.07322174 -0.053733457 0.044240184 -0.06818135
0000e0 ab e3 6f 3e 81 f6 14 3e 73 64 81 be 65 fa 12 3c
       0.23426692 0.14547159 -0.2527195 0.0089708315
0000f0 5c 6e d6 3d 83 31 5c be d5 ce 5e bd 29 0c 6d be
       0.10470268 -0.21503262 -0.05439647 -0.2314917
000100 32 23 71 3e 33 6a 0b be 29 81 44 3d 60 47 db bd
       0.23548582 -0.1361473 0.04797474 -0.10706973
000110 1f 0e 95 be fd b4 d3 3e ff f5 00 bd 57 57 37 bd
       -0.29112336 0.4134902 -0.0314846 -0.04476103
000120 8d 77 5d be b9 67 c6 3e 78 51 2a be 53 4c eb bd
       -0.21627636 0.3875101 -0.1663264 -0.11489167
000130 7f 7b 6e bd 67 00 cf bd c9 08 b4 bd af d5 58 bc
       -0.058223244 -0.101074986 -0.08790738 -0.01323454
000140 29 43 14 be 43 61 9d 3d 13 94 58 3c 03 15 74 3d
       -0.14478745 0.07684567 0.013218897 0.05959035
000150 73 a5 93 3e 34 8f 84 be 61 bc bd bd 52 23 11 bd
       0.28837165 -0.25890505 -0.09264446 -0.035434075
000160 c7 9a 89 bd 54 c1 0f be 6c 6c 12 3d 18 be 3d bb
       -0.067189746 -0.14038593 0.03574793 -0.0028952416
000170 29 b2 0b 3d 21 38 a5 bd 11 8d 03 be 52 db 3a bc
       0.034105454 -0.08067346 -0.12846781 -0.011404829
000180 9c ff e8 3d 15 d9 0a be 92 f9 da 3d 22 1d e1 3d
       0.113768786 -0.13559373 0.10692133 0.10991885
000190 92 75 08 bd c2 e1 bd bd 6d 57 81 3c dc 3e ca 3d
       -0.03331525 -0.092715755 0.015788758 0.09875271
0001a0 fd 49 07 bd b5 7a b8 bd f8 e0 8b 3c 70 c1 95 3d
       -0.033029545 -0.090077795 0.017075047 0.07312286
0001b0 ae ee 19 be 42 37 98 bd 99 a4 da bd be f0 22 3d
       -0.15032455 -0.074324146 -0.10675926 0.03978037
0001c0 3b 20 84 bd 4d c5 a9 3d 0c e7 1c bd 40 9d 9a bc
       -0.0645146 0.08289585 -0.03830628 -0.01887381
0001d0 57 95 15 3c e1 3a 30 3e b8 0d dd 3d 4e 84 f2 bb
       0.009129844 0.1720996 0.10793632 -0.007401026
0001e0 58 68 16 be 8e f7 11 3e a8 85 90 bc 7a 8d 9a bd
       -0.14688241 0.14254591 -0.017641857 -0.07546516
0001f0 c3 8c 06 be 96 5a de be cf 5d c3 bb 61 2a db 3d
       -0.13139634 -0.43428487 -0.0059621106 0.107014425
000200 1a ee 7a 3d c2 73 08 3d f6 ce a0 bd 2c 96 75 bb
       0.061262228 0.03331352 -0.07851975 -0.0037473543
000210 59 c7 5e bd 09 da e9 bd e6 cc 7a 3d 70 c1 45 3e
       -0.05438933 -0.1141854 0.061230563 0.19312072
000220 b8 c6 b5 bc c8 b5 5e 3e 80 fe fa 3c 46 1f 81 3e
       -0.022189483 0.21749032 0.030638933 0.25219172
000230 9a 6b 92 3c d7 7a 1a bd 5f ba e1 3d 30 65 a5 3c
       0.017873574 -0.037714805 0.110218756 0.020189852
000240 62 bf 71 bd 40 cf 62 3e 57 c0 ab be 21 cd 38 3e
       -0.059020407 0.22149372 -0.3354518 0.18047
000250 a3 2f fd bd 81 1b 3d 3e 4d de b2 be e8 3d e4 3d
       -0.123626016 0.18467523 -0.34935227 0.1114462
000260 47 eb 46 be f2 68 15 be b5 07 1e be 80 86 71 3e
       -0.19425689 -0.14590815 -0.15432627 0.23586464
000270 c4 4d 88 bd 9a 51 da bd fd ce 66 bd 45 87 3f 3d
       -0.066554576 -0.106600955 -0.056349743 0.046759862
000280 ca 29 8f bd 94 99 d2 bd 62 00 06 3e b8 55 12 be
       -0.069903925 -0.10283199 0.13086084 -0.14290512
000290 a2 68 05 be 2e eb db bc c1 1b 41 3e f2 b2 02 bd
       -0.13028196 -0.02684554 0.18858244 -0.031908937
0002a0 0f dc b1 3b 9c 16 19 3e d4 44 85 3d 5e 96 0e 3e
       0.0054278444 0.14950031 0.065072685 0.13924548
0002b0 6d af a3 3c ea e6 c9 bd c0 ec 95 bd 19 01 c3 3c
       0.01998111 -0.098584965 -0.07320547 0.023804234
0002c0 87 9c de 3d 58 ac 52 bd ce 1d e8 bc fb 05 31 bd
       0.10869699 -0.05143389 -0.028334524 -0.043218594
0002d0 88 63 4e bd 5e cb e6 bc 0a 6a 0b 3c 1c 68 f4 bd
       -0.05038789 -0.028173145 0.008509168 -0.1193392
0002e0 ba aa 7a bd ec bd d1 bd ca f4 eb 3c 1a e5 78 bc
       -0.061197974 -0.10241303 0.028803248 -0.015191341
0002f0 ee c1 19 3d ce 44 18 be 42 07 f7 bd e8 e2 a9 bd
       0.03753846 -0.14869997 -0.12061931 -0.08295232
000300 e6 89 c1 3e de db 7b bd 86 a9 c9 bc 7b 51 ce bc
       0.3780052 -0.06148898 -0.024616968 -0.025185337
000310 32 5d a7 3d bb 78 0f 3e 72 e7 24 bc 0b 2d 13 bd
       0.081720725 0.14010899 -0.0100649465 -0.03593163
000320 3e 17 9e bc 9e 47 cf 3c 54 17 4a bd 23 52 ea bd
       -0.019298192 0.025302704 -0.049338654 -0.114414476
000330 11 f4 c4 bd 81 3c 03 bb a5 e9 9f 3d b0 23 6b bd
       -0.096168645 -0.0020025077 0.07808236 -0.05740708
000340 f0 a9 d6 3d a1 00 76 3e b7 f8 c3 3d 81 35 97 3d
       0.10481632 0.24023677 0.09568923 0.07383252
000350 55 7f 44 be 65 66 2b be fa 92 1e be ce fd ae be
       -0.19189198 -0.16738279 -0.15485755 -0.34178013
000360 70 3a d9 bd d1 ef e5 3d 0a f2 ce 3d c7 17 64 3b
       -0.10606849 0.11227382 0.10104759 0.0034804211
000370 88 3b 0c 3e 34 21 39 be 8b 01 27 3e 17 d8 84 be
       0.13694584 -0.18079072 0.16309182 -0.25946113
000380 c1 a0 0e 3c 80 11 39 be 24 b5 ec 3d d5 62 85 be
       0.008705319 -0.18073082 0.11557987 -0.26051965
000390 24 e4 bc bb 8a 4d 9a 3d 38 34 2b bd d8 63 b5 3c
       -0.005764501 0.07534321 -0.041797847 0.022142336
0003a0 80 22 ae bc 18 3f 50 bd 21 0d 2e 3d ce 6f 00 bd
       -0.021256685 -0.05084142 0.04249299 -0.031356625
0003b0 a5 ec 2a be f6 62 17 3e ab 87 9b 3d b0 65 e1 bd
       -0.16691835 0.14783844 0.07594236 -0.110057235
0003c0 fb 06 42 3d 90 07 1f 3e 46 72 a2 3d d0 06 3f 3e
       0.04736994 0.15530229 0.07931952 0.18654943
0003d0 0e ba 10 3d 78 94 96 3d e3 67 cb bc 0f 41 15 bb
       0.035333686 0.07352537 -0.02482981 -0.0022774374
0003e0 a7 d6 24 3e bd f0 59 3d 38 8e 6d 3d 32 31 8f be
       0.16097508 0.0532081 0.05799696 -0.2796722
0003f0 27 7f c7 3c b4 f8 ad 3d 38 e5 ec 3d 6a 69 19 3e
       0.024352623 0.08494702 0.115671575 0.14981619

network_body.linear_encoder.seq_layers.2.bias f4 [128]
000000 55 7b 55 bd 61 64 d5 bc 50 28 0e be 89 84 2e be
       -0.05211957 -0.026048841 -0.13882565 -0.17042746
000010 9f 3e 27 bd 7f 39 83 bc 61 75 54 bd b2 26 88 3c
       -0.040831205 -0.016018627 -0.051869754 0.016620014
000020 96 46 f8 3c 5e af 69 bb 4c f3 01 bc c1 f2 13 bc
       0.030307095 -0.0035657506 -0.007931542 -0.009030045
000030 f5 31 12 be d3 9e eb 3c 50 3b fc bd 72 71 70 3d
       -0.1427687 0.028762257 -0.123160005 0.05870194
000040 2c ea 8a 3b 2a 11 98 3d df ae d6 bd a1 95 5d bc
       0.0042393412 0.07425149 -0.10482573 -0.013524444
000050 94 35 15 bc bb 99 10 bd 49 e9 3f bc e3 1f 06 bd
       -0.009107012 -0.03530286 -0.011713334 -0.032745253
000060 f7 24 04 be 59 5e fd bd 23 a1 3e 3d 0a 7e 7b 3d
       -0.12904726 -0.12371511 0.04654039 0.061399497
000070 1d 24 ed bd 09 52 43 bd 01 36 6c bc f7 3c 94 bd
       -0.11579154 -0.047685657 -0.014417172 -0.072381906
000080 29 79 0a 3b d0 34 f0 bc 6e fb ae 3c 94 6b 2a be
       0.0021129346 -0.029322058 0.021360125 -0.166426
000090 e8 13 a6 bb 7f 36 2d 3d 3e 48 9e bc cf cd 03 bd
       -0.005068291 0.0422883 -0.019321557 -0.032178696
0000a0 2f 69 97 bd 6a 4b e6 bb bb d7 6f 3d 52 04 cb bc
       -0.07393109 -0.007028033 0.058555346 -0.024782334
0000b0 f6 55 25 be ae ef b8 bc 86 b8 0f bd c6 86 7e 3b
       -0.16146073 -0.022575226 -0.035088085 0.0038837655
0000c0 23 23 e6 bc 66 b5 ea 3c ff 76 2a be 5a 4d 2c bc
       -0.028092926 0.02865095 -0.16646956 -0.010516489
0000d0 19 9f 0a be 9e 83 1f be 12 da 10 be 72 47 2a 3c
       -0.13537253 -0.15577552 -0.14145687 0.01039301
0000e0 67 bf f4 3d fb 33 ec bc 26 17 2a 3c 05 44 51 be
       0.119505696 -0.02883338 0.010381496 -0.20436104
0000f0 0d 77 98 3c 84 2d 0d 3e 6d 95 22 bc 87 f1 1a 3d
       0.018611455 0.13786894 -0.009923321 0.037827995
000100 ba 4a 1d be ee a6 c2 bb c2 fd a2 bc ec 4f da 3a
       -0.15360537 -0.0059403097 -0.019896392 0.0016655899
000110 4e f5 b5 bc 83 f0 07 bc 2b 54 6e bd c9 be 83 3b
       -0.022211697 -0.008297089 -0.058185738 0.004020546
000120 ce 2f 13 bd de 0d c1 3b e7 c1 38 bc 88 d6 3a be
       -0.035934262 0.0058915457 -0.011276699 -0.182459
000130 e5 2e 9f bc 43 09 72 3a e2 bd 99 bd 1c c7 7d b9
       -0.01943154 0.00092329475 -0.075069204 -0.00024202134
000140 bd 58 2e be bc c7 8c 3c 48 c2 b4 3c 8a a2 df bb
       -0.17026038 0.017185085 0.022065297 -0.006824796
000150 63 c6 0c be 0d 7d 22 be c2 d7 fc bd 94 f2 36 3c
       -0.13747554 -0.15868016 -0.1234584 0.011166234
000160 c7 dc 51 3c 0b f5 23 be 39 6a 7c bb d5 fd 34 bd
       0.012808985 -0.16011445 -0.0038515462 -0.044187386
000170 8a 97 11 be bf a3 47 be 67 de 1a bb cb 83 d4 3b
       -0.14217964 -0.19496058 -0.0023631097 0.0064854375
000180 aa f9 13 bd a3 11 91 bc fa c9 04 3c ec 56 d9 bc
       -0.03612677 -0.017708605 0.008104796 -0.026530705
000190 7c f8 d8 bc a0 92 4a be bb 1b 43 bb e5 ae aa 3d
       -0.026485674 -0.19782495 -0.0029771167 0.0833414
0001a0 ad b1 df bc 38 e3 38 3c f7 7a 99 3c 3c 01 2b be
       -0.027306402 0.011284642 0.018735392 -0.1669969
0001b0 73 61 bf bc d7 37 e0 bd cd 47 0d be 79 68 6d 3c
       -0.023361897 -0.109481506 -0.13796921 0.01449024
0001c0 b2 b2 33 bd 6d fc 04 3d f0 98 fe 3b 53 dc 27 bc
       -0.04387159 0.032467294 0.0077696964 -0.0102454005
0001d0 48 11 1b be 7d 8e 80 bc 2f 4e cb bc 40 7e 3c be
       -0.15143311 -0.015692944 -0.024817554 -0.18407536
0001e0 4a bb 32 be 37 72 10 3d 93 db 25 be c3 9f 7a bc
       -0.17454258 0.035265174 -0.16197042 -0.015296879
0001f0 82 f3 bd 3b e6 2f b8 bd a7 71 5a bb d4 9e 1f be
       0.0057968507 -0.08993511 -0.0033331902 -0.15587932

network_body.linear_encoder.seq_layers.2.weight f4 [128, 128]
000000 df 42 36 3c 9d 93 5b bd e1 3f 9e bd 78 67 c3 3c
       0.011124342 -0.053607572 -0.07727028 0.023853049
000010 0f 77 20 bd 6a 57 9d 3d 12 b0 6c bc 7a 28 64 3d
       -0.039176043 0.076826885 -0.014446275 0.055702664
000020 77 ee 79 3d c3 c1 84 3c 0c 50 cb bc a8 39 29 3d
       0.061018433 0.016205674 -0.024818443 0.04131475
000030 a3 4a 45 3b 3d 89 10 3d df 34 40 3d 6e 5b 67 bd
       0.0030104301 0.03528713 0.04692542 -0.05648368
000040 05 9e 6a 3d 5e a5 9b bd 72 ca b0 bd 5c 11 c2 3d
       0.057279605 -0.07599901 -0.086323634 0.09475967
000050 be e9 9d 3c 16 fc 0b 3e 24 85 2d 3d 9a 52 14 ba
       0.019276496 0.13670382 0.0423633 -0.00056580605
000060 e1 6c bf bd d6 84 eb bd cf 4a 89 3c 87 aa c3 b9
       -0.09346939 -0.11499946 0.016759304 -0.0003732035
000070 91 57 d4 bc ce 14 00 be 8c 71 d3 3a 73 fc 25 bd
       -0.025920661 -0.12507936 0.0016131862 -0.040523957
000080 e3 fe b7 3c 0b 8b 7e 3d e3 26 d2 bc 0e 44 b5 bc
       0.022460407 0.06214432 -0.025653308 -0.022127178
000090 e3 3b 31 bd 33 e3 94 3d 08 39 b0 bd b2 b7 c4 bc
       -0.043270003 0.07269897 -0.08604628 -0.024013374
0000a0 fc ed 1d bd e6 93 bd 3d 3c 8e 37 bb 73 71 a8 3d
       -0.038557038 0.09256725 -0.0028008362 0.08224764
0000b0 5f 15 4d bd 75 3b a1 bd 28 52 3b bb e5 51 5d bc
       -0.05006921 -0.07872669 -0.0028582904 -0.013508295
0000c0 b2 c0 cc bb 51 92 03 bd 1b 05 b8 3d 55 05 2d bc
       -0.006248557 -0.03212196 0.08985349 -0.010560353
0000d0 37 ca ea bd 80 73 4d 3d f3 6a 17 3d c4 49 02 be
       -0.11464351 0.050158978 0.03696723 -0.12723452
0000e0 8a f0 04 3e de d0 fc 3c 73 2e 3d 3d 44 3c 4b be
       0.12982383 0.030861314 0.046186876 -0.19847208
0000f0 16 42 7b bc 2a ac 17 3b d2 be c2 bd d3 f3 26 bb
       -0.01533558 0.002314339 -0.09509052 -0.002547492
000100 c8 07 29 3e a2 57 1f be 25 ef 38 bd dd 76 ec 3c
       0.16506875 -0.15560773 -0.04514994 0.028865272
000110 3f 6c 7e bd f5 16 fb bd e3 b6 00 3d f8 78 23 be
       -0.06211495 -0.12260238 0.031424414 -0.15964115
000120 fb 2f 0d bc 06 cc ee 3d fe 3a d2 3d a8 40 b2 bc
       -0.0086173965 0.11660008 0.10265158 -0.021759346
000130 b4 2c c6 3d cb 60 dc bd 32 57 0f 3e ca c5 bb 3c
       0.09676495 -0.10760649 0.13998106 0.022921462
000140 fc 9a c5 3d 7a 4d 08 3c 4a df 0b 3d cc f4 a4 bd
       0.096487015 0.008319253 0.034148492 -0.08054504
000150 66 f6 92 bd e8 f2 a2 3c 95 97 1c bd b5 ca 59 bc
       -0.07175903 0.019891217 -0.038230497 -0.013292958
000160 8f 14 e4 38 cd 15 1b 3e 37 05 8d bd 55 20 32 3c
       0.000108757165 0.15145035 -0.0688576 0.010871966
000170 3a 11 0e be e4 57 8a 3e 72 99 26 3c 9b 18 2e bd
       -0.13873759 0.2702018 0.01016842 -0.042503934
000180 cc 4d 06 3c d1 97 30 bd 6c f1 88 3d b4 e6 b5 bd
       0.008197259 -0.043113533 0.066866726 -0.08881894
000190 4b b0 2c be 38 62 51 3d 52 42 ad bd bf 29 b0 3b
       -0.16864125 0.05111906 -0.08459915 0.0053760703
0001a0 8f e9 60 3c d9 2b 10 bc 67 c7 97 bd c4 98 ff 3b
       0.01372756 -0.008799517 -0.0741108 0.0078001935
0001b0 ea 54 0e be f5 fa 64 bd 10 75 b4 3c ff 1d 61 bc
       -0.1389958 -0.055903394 0.022028476 -0.013740062
0001c0 22 e1 0d 3d 59 1a 09 bd 65 59 61 3d 6b b3 9d ba
       0.03463853 -0.033472393 0.055016894 -0.001203162
0001d0 5a 99 85 3d 49 d1 a5 bc 94 26 19 3e 4a ab 35 3d
       0.0652339 -0.020241397 0.14956123 0.044352807
0001e0 ce f0 1e 3d 36 8e 6a 3d 46 96 f7 3c 57 34 11 3e
       0.038803868 0.05726453 0.030223023 0.14180122
0001f0 33 8f 1c 3d 11 6f 79 bc 49 22 b9 3d d0 e0 36 bd
       0.038222503 -0.015224234 0.090397425 -0.04464799
000200 44 05 3e bd 48 65 97 bc a7 a0 56 3d ab f4 f2 3b
       -0.04639174 -0.018480912 0.052399304 0.0074144206
000210 82 82 06 be a1 c1 f7 bd 2a 68 09 3d 54 d5 ee bd
       -0.13135722 -0.12097479 0.033546604 -0.11661783
000220 1c e2 68 be 68 48 c1 3c 45 5b bd bb 69 21 78 bb
       -0.22742504 0.023594096 -0.0057787024 -0.003786171
000230 b8 1c 89 bc 61 9f 91 bd f4 c2 c7 bd d3 25 28 be
       -0.016737327 -0.07110477 -0.09753981 -0.16420679
000240 5a 43 5b be e5 b2 0d be 3b ff 9c 3d 28 08 ba bd
       -0.21412411 -0.13837774 0.07665869 -0.09083587
000250 bc ab 23 bd 8b 1f 8b bc 18 07 a7 3d 02 10 aa bd
       -0.0399587 -0.016982814 0.0815565 -0.083038345
000260 b1 7c 98 3d 29 c4 7b be bd a0 41 3e 27 08 da 3c
       0.07445658 -0.24586548 0.18908973 0.026615215
000270 d8 d7 22 3d 6a 9b 17 bd 89 be f4 bd 8f 86 b5 ba
       0.039756626 -0.03701345 -0.11950404 -0.0013849306
000280 5b 25 2c 3e 93 a1 a4 3d 68 5a ce 3d 89 0f 26 3e
       0.16811125 0.0803863 0.100758374 0.16216864
000290 16 d8 e1 3d 26 cc 0e 3e 3f fb ad 3c f1 4d 93 bd
       0.11027543 0.13945064 0.021237968 -0.071926005
0002a0 df 4c 20 3d f6 81 f3 bb 7b 20 0d 3d f2 70 7e be
       0.03913581 -0.007431264 0.034454804 -0.24847773
0002b0 96 6d 29 3e 57 35 dc ba 7a 71 eb 3c 80 c1 14 3d
       0.1654571 -0.0016800564 0.028740633 0.03631735
0002c0 4a a0 8d bd 66 bc b8 3d ab bb 7c bd 01 d0 fc bd
       -0.06915338 0.09020309 -0.06170241 -0.12344361
0002d0 1b e8 82 3e 42 0c fa 3d d8 d9 9d 3d 45 2e ce bd
       0.25567707 0.12209369 0.07707566 -0.10067419
0002e0 dc 15 a5 3d 0b c6 b9 3d 93 5e 0a bd f6 12 89 bd
       0.0806081 0.09070977 -0.0337816 -0.0669307
0002f0 24 0b 64 bd c8 95 80 3d 35 e5 58 bd b0 68 78 bd
       -0.055674687 0.062785685 -0.052952964 -0.060646713
000300 f8 1e 1f 3d 85 7a 79 bd 77 4d 3b bd ea 1a 04 3e
       0.038847893 -0.06090786 -0.045728173 0.12900892
000310 86 dc 80 3d 40 de 14 3e 79 9e 9b 3d 82 2b 54 bd
       0.062920615 0.14537907 0.07598586 -0.051799305
000320 08 72 6f 3d c4 37 a6 3a 05 51 9c bd f8 7c fd bd
       0.058458358 0.0012681414 -0.07632641 -0.123773515
000330 81 66 52 be 7c b6 fb 3c b2 8f 87 3b 50 e7 8c bd
       -0.20546915 0.030726664 0.004137003 -0.06880057
000340 73 76 2f 3e fa 20 e6 bd 2f 5b cd 3d c2 2a 50 3d
       0.17135029 -0.112367585 0.100271575 0.050822027
000350 ac 92 71 ba c7 f4 61 bc c5 d7 56 bc d3 73 14 bd
       -0.0009215276 -0.01379127 -0.013112967 -0.03624327
000360 90 04 72 bd ed 92 be 3d e8 9d 04 bd 19 f2 8d be
       -0.059086382 0.093053676 -0.032377154 -0.27723768
000370 80 d3 d0 bd d0 99 86 3d ad 84 80 3a af 0f 65 3d
       -0.101965904 0.06572306 0.0009805165 0.05592316
000380 05 a5 f3 3d a3 d3 93 3d b7 ce de bd 73 be 51 bd
       0.11896709 0.07218101 -0.108792715 -0.051207017
000390 8d 95 c8 3d 93 f6 86 bd e9 7f 9b bd 1a 74 0a bd
       0.097941495 -0.06589999 -0.07592756 -0.03380213
0003a0 da 9c bc bd a7 fe ac 3d a0 5c 6f 3d 20 53 e2 3d
       -0.092096046 0.084470086 0.058437943 0.11051011
0003b0 c3 a2 5c 3d 48 2b 43 bd 65 c8 e6 bc fb f3 6a bc
       0.05386616 -0.047648698 -0.028171727 -0.014340396
0003c0 12 a0 56 bd 0a 0a 39 be 01 e2 c4 ba 13 e7 77 bd
       -0.05239875 -0.18070236 -0.0015020968 -0.060523104
0003d0 71 35 2b be 52 99 ac bd 21 68 16 be cd d6 88 bd
       -0.16719605 -0.08427681 -0.1468816 -0.06681595
0003e0 34 ac ec 3d 6a 0b fe bd 3a 4a e2 bc 80 b8 e7 bd
       0.11556283 -0.12404521 -0.027623285 -0.113144875
0003f0 72 11 15 bd 7e 28 aa bd 8f 83 3c 3c c8 41 f4 bd
       -0.03639359 -0.083085045 0.011505975 -0.11926609
