Learning/results/test5/KartAgent/KartAgent-4096.onnx (onnx, 116929 bytes, 7 tensors)

41 f4 [1, 2]
-0.5749232 -0.9932455
00000000: 2b2e 13bf 5645 7ebf

distribution.mu.bias f4 [2]
0.023230063 0.15281326
00000000: f94c be3c 147b 1c3e

distribution.mu.weight f4 [2, 128]
-0.0009514309 0.064670146 -0.0012097317 -0.0075048595 -0.06826068 -0.0002974817 0.0007736541 -0.000833881
0.107525595 0.0004063265 -0.00096303865 -0.0013069778 0.02429061 0.0010347591 -0.0051440517 0.13057159
0.00045840684 0.12998442 -0.064975016 0.07672236 0.0013184788 -0.0013710738 0.07770381 -0.00083695084
0.003722391 0.05047585 -0.15791254 -0.18365899 0.004601389 -0.07679339 0.00041927482 -0.0990104
0.008221043 -0.00031942275 0.0011550372 -0.035205573 -0.0006350695 -0.14963065 0.06259649 -0.020461742
-0.062175795 -0.115729466 0.1281149 -4.2831965e-05 0.0016422208 -0.08936891 0.00016493967 0.00095024897
0.0008128208 -0.00054130494 0.000106253865 -0.002463303 -0.0017108383 -0.01660089 -0.0020362758 0.00039533435
0.16471423 -0.00033514507 0.028718386 -0.008349111 0.103584416 0.1808936 0.00011404305 -0.0002165898
-0.0060863453 0.0006583249 0.00039537778 -0.0009524795 0.0009852631 0.00015161597 -0.00043042746 3.0295374e-05
-0.00016726041 0.0011862754 -0.0010627551 -0.03471474 0.0011224932 0.00017688678 -0.071819305 0.001398678
-0.018080194 0.099706784 -3.7622183e-05 0.08822475 0.01778794 -0.016525175 0.013176278 0.001095353
-0.12634176 -0.0221903 0.0004201151 0.046400756 -0.0003462184 -0.0094762435 -0.000861532 -0.0005279912
0.0006777949 -0.0017909408 0.00012115549 0.00088322087 0.0020557346 -0.01392124 0.06929748 0.14558846
-0.00024034882 0.0010066972 -0.00063275354 -0.018655544 -0.00076992053 0.007990523 -0.012599218 -0.0005920086
0.051745582 0.00039914614 5.9237886e-05 0.08023313 -0.010132202 0.0011336978 -0.0013391377 0.0027134414
-0.044418555 -0.14013146 -0.013127494 -0.03930527 0.00026991166 -0.06395368 0.00070313085 -0.019043198
-0.00044635386 -0.0022908072 -0.12639508 -0.10280868 0.015103775 -0.0012993305 0.001158724 -0.0009179863
0.0013285318 0.0016527921 -0.0023890894 -0.0028617906 -0.09769463 2.0751091e-05 -0.16372697 0.026662966
0.0007810979 0.013636519 0.0002142646 -0.0018550676 0.002438475 -0.0024148445 0.001525172 -0.00079539977
-0.13481462 -0.13130794 0.033258572 0.024663534 -0.124877 0.0109455 1.1856743e-05 0.005460752
-0.00090701523 -0.00048820116 0.0011683418 -0.1634705 -0.001223051 0.027701335 0.003351957 0.0023319717
-0.013506079 0.019243566 0.0070593636 -0.00037079453 -0.11178035 0.020365395 0.00059787807 0.0006374363
0.0015655209 -0.0005521153 -0.12890807 -0.0029380461 -0.16020955 -0.11953513 -0.14516577 0.00016568338
0.014111905 -0.00045631273 -0.0009018993 -0.10811232 0.00041061104 0.039768755 0.0006580855 -0.00078526407
-0.12457399 0.001962034 0.0007796076 -0.0023128393 0.0009332937 0.0020067508 0.0025184245 -0.00023236862
-0.001176213 0.0009599886 -0.0005033408 -0.13811488 0.0025303715 0.00094958965 0.0019793594 0.0008698132
-0.124532625 0.009711703 0.00015745057 -0.0041886074 -0.164548 -0.11531783 -0.105788775 0.0016267506
0.026949378 -0.12368676 0.00015168756 -0.012766156 -0.1283953 -0.120583035 -0.0020376449 -0.0016599731
0.0019835916 -0.0023204389 9.2217204e-05 0.0017442995 0.0028214098 -0.13449329 0.009985017 0.00941487
0.001788677 0.000837261 -0.0009979613 -0.121418 0.00051442295 -0.12072536 -0.15425125 -0.00022688993
-0.006432542 0.0011406153 -0.00053174124 0.0029901231 -0.114346854 0.002496902 -0.00037375788 -0.11698801
-0.13483459 0.03080564 -0.12288414 0.0061699925 0.00033766625 0.0017037978 0.0009897063 -0.14949955
00000000: 7269 79ba c871 843d dc8f 9eba 53eb f5bb
00000010: 41cc 8bbd 51f7 9bb9 0ccf 4a3a ce98 5aba
00000020: 6136 dc3d 3808 d539 6e74 7cba e64e abba
00000030: 1afd c63c c1a0 873a 6f8f a8bb 8fb4 053e
00000040: 5356 f039 a31a 053e 9f11 85bd 9d20 9d3d
00000050: cfd0 ac3a 9ab5 b3ba 2d23 9f3d d266 5bba
00000060: 5cf3 733b c4bf 4e3d d3b3 21be 1a11 3cbe
00000070: 40c7 963b da45 9dbd 1dd2 db39 f7c5 cabd
00000080: 8eb1 063c 3278 a7b9 9e64 973a b833 10bd
00000090: cb7a 26ba c738 19be 9732 803d 629f a7bc
000000a0: 0cac 7ebd 9203 edbd 8d30 033e 79a6 33b8
000000b0: c93f d73a 0c07 b7bd a8f3 2c39 211a 793a
000000c0: 7b13 553a 5ce6 0dba 9cd4 de38 5e6f 21bb
000000d0: 353e e0ba 97fe 87bc 0a73 05bb e144 cf39
000000e0: d9aa 283e 69b6 afb9 d242 eb3c b6ca 08bc
000000f0: 1124 d43d 2c3c 393e 652a ef38 621c 63b9
00000100: f76f c7bb 7093 2c3a b54a cf39 d1af 79ba
00000110: f223 813a 1afb 1e39 ffaa e1b9 d222 fe37
00000120: a062 2fb9 cc7c 9b3a 254c 8bba 0b31 0ebd
00000130: 9f20 933a af7a 3939 0016 93bd d953 b73a
00000140: ea1c 94bc 1233 cc3d 83cc 1db8 2daf b43d
00000150: 04b8 913c ce5f 87bc 51e1 573c f391 8f3a
00000160: bc5f 01be 6fc8 b5bc e542 dc39 b80e 3e3d
00000170: a684 b5b9 3f42 1bbc 6fd8 61ba e468 0aba
00000180: 0cae 313a 00be eaba dc14 fe38 f387 673a
00000190: 81b9 063b ea15 64bc d6eb 8d3d 2415 153e
000001a0: 2506 7cb9 27f3 833a 5fdf 25ba 83d3 98bc
000001b0: 7ed4 49ba afea 023c f36c 4ebc 0631 1bba
000001c0: 2df3 533d 7d44 d139 3276 7838 4451 a43d
000001d0: 8901 26bc 9698 943a 0186 afba fed3 313b
000001e0: 3bf0 35bd 9f7e 0fbe b314 57bc 90fe 20bd
000001f0: ee82 8d39 26fa 82bd 5052 383a 7b00 9cbc
00000200: 9a04 eab9 5e21 16bb b66d 01be 5b8d d2bd
00000210: d375 773c 4c4e aaba 53e0 973a 05a5 70ba
00000220: 2122 ae3a 80a2 d83a 4592 1cbb e18c 3bbb
00000230: 1f14 c8bd a112 ae37 0ba8 27be 4b6c da3c
00000240: 98c2 4c3a b56b 5f3c 37ac 6039 bd25 f3ba
00000250: d2ce 1f3b 5e42 1ebb 48e8 c73a 6082 50ba
00000260: d80c 0abe 9775 06be 243a 083d 2e0b ca3c
00000270: 83bf ffbd c154 333c 53ec 4637 1cf0 b23b
00000280: c3c4 6dba 40f5 ffb9 0c23 993a d064 27be
00000290: c84e a0ba e9ed e23c 82ac 5b3b fed3 183b
000002a0: 9a48 5dbc afa4 9d3c 3c52 e73b 3367 c2b9
000002b0: 19ed e4bd 54d5 a63c ebba 1c3a a019 273a
000002c0: 2a32 cd3a d5bb 10ba 7a00 04be 3c8c 40bb
000002d0: f90d 24be d6ce f4bd 56a6 14be 4bbb 2d39
000002e0: 9f35 673c 423d efb9 706d 6cba fe69 ddbd
000002f0: 4847 d739 90e4 223d 5f83 2c3a 2eda 4dba
00000300: a620 ffbd 7895 003b 955e 4c3a 0193 17bb
00000310: 48a8 743a b183 033b 270c 253b faa7 73b9
00000320: 292b 9aba bfa7 7b3a a1f2 03ba fd6d 0dbe
00000330: 97d4 253b e2ed 783a 24b8 013b 2d04 643a
00000340: f60a ffbd d61d 1f3c 5119 2539 9640 89bb
00000350: 457f 28be c12b ecbd c9a7 d8bd b138 d53a
00000360: f1c4 dc3c 7c4f fdbd 520e 1f39 2429 51bc
00000370: 0f7a 03be 3df4 f6bd 028a 05bb 7493 d9ba
00000380: 25ff 013b 8112 18bb bc64 c138 fba0 e43a
00000390: 67e7 383b 9cb8 09be 3298 233c d440 1a3c
000003a0: 0a72 ea3a a27b 5b3a 06ce 82ba 00aa f8bd
000003b0: 57da 063a dc3e f7bd 0af4 1dbe 4de9 6db9
000003c0: 13c8 d2bb b380 953a 8d64 0bba f1f5 433b
000003d0: af2e eabd 10a3 233b eff4 c3b9 6997 efbd
000003e0: 1412 0abe 1c5c fc3c aeaa fbbd a62d ca3b
000003f0: cc08 b139 f851 df3a 08b9 813a 6916 19be

network_body.linear_encoder.seq_layers.0.bias f4 [128]
-0.03394101 -0.016855545 -0.012417518 0.007202651 -0.045395996 -0.03072223 -0.06693987 -0.008164871
-0.018970069 0.029416712 -0.0149246855 0.0022010112 0.005916975 -0.03019325 0.052771043 -0.0013081635
0.0061865086 -0.037923705 -0.028266387 -0.023788437 -0.023043001 -0.063271366 -0.023359772 0.015159614
-0.0042783907 -0.026414433 -0.04001402 0.02881141 -0.013390448 0.014149619 -0.020364773 0.009387321
0.040912226 -0.020393638 -0.012372964 -0.05999323 -0.0006641698 0.0027065626 -0.013919337 -0.01238437
-0.06025699 -0.05508835 -0.015457017 -0.0054881885 -0.023408828 -0.035068594 0.017898256 -0.013802881
0.031823914 -0.0016860025 0.00829953 0.022626737 -0.018571818 0.0067292643 0.020272579 0.049502205
-0.035053123 -0.049173847 0.006023278 -0.0933764 0.0004290145 0.021678085 0.026865955 -0.0048251073
-0.017604707 -0.022684434 -0.03505101 -0.008248528 0.0069391597 -0.060493127 0.044724327 -0.03649345
-0.02075203 -0.021177858 -0.029974984 -0.011017165 0.045572214 -0.030711962 -0.0035033913 -0.018391937
0.03344183 -0.019944498 -0.0030478311 -0.06277896 0.006979864 0.020146491 -0.032671686 -0.05589519
-0.0028706677 -0.012635007 -0.039991807 -0.008394656 -0.04559658 -0.023106506 -0.07604223 -0.028900903
-0.062765464 -0.03766581 -0.0014812169 -0.017766954 -0.04402605 -0.02927986 0.010449764 0.022652516
0.015049629 0.032664955 0.018339641 -0.042647153 -0.007587859 -0.033741858 0.0545563 -0.053113107
-0.06442 -0.017403828 -0.067963906 -0.07233562 0.020848492 0.03191889 -0.024411742 -0.0057829567
0.0053836955 0.013389325 0.027617792 -0.030680953 -0.063074954 -0.043062072 -0.019890219 -0.026911769
00000000: ba05 0bbd a414 8abc d872 4bbc 3704 ec3b
00000010: 27f1 39bd 30ad fbbc c517 89bd f3c5 05bc
00000020: 1e67 9bbc 51fb f03c ab86 74bc d73e 103b
00000030: 2fe3 c13b d657 f7bc 7326 583d af76 abba
00000040: 32b8 ca3b e355 1bbd e98e e7bc f8df c2bc
00000050: adc4 bcbc 6b94 81bd fe5c bfbc 0860 783c
00000060: be31 8cbb 1563 d8bc bee5 23bd e805 ec3c
00000070: 9c63 5bbc ced3 673c 06d4 a6bc 47cd 193c
00000080: 9493 273d 8f10 a7bc f9b7 4abc 76bb 75bd
00000090: ae1b 2eba 9660 313b ee0d 64bc d0e7 4abc
000000a0: 09d0 76bd 52a4 61bd 6e3f 7dbc 43d6 b3bb
000000b0: dfc3 bfbc 16a4 0fbd 5d9f 923c 7b25 62bc
000000c0: cb59 023d dbfc dcba c0fa 073c b55b b93c
000000d0: ed23 98bc 2981 dc3b ae12 a63c d3c2 4a3d
000000e0: dd93 0fbd 846a 49bd eb5e c53b 203c bfbd
000000f0: 5aed e039 3d96 b13c fe15 dc3c ef1b 9ebb
00000100: bf37 90bc b5d4 b9bc a691 0fbd d624 07bc
00000110: e461 e33b a4c7 77bd db30 373d 287a 15bd
00000120: 2900 aabc 307d adbc 198e f5bc 5781 34bc
00000130: eea9 3a3d a797 fbbc 2799 65bb b0aa 96bc
00000140: 4dfa 083d a562 a3bc 1fbe 47bb 4192 80bd
00000150: 58b7 e43b 410a a53c bfd2 05bd 5bf2 64bd
00000160: d021 3cbb 0f03 4fbc 73ce 23bd bd89 09bc
00000170: 7bc3 3abd db49 bdbc 07bc 9bbd 96c1 ecbc
00000180: 2e8b 80bd 7747 1abd 6425 c2ba 018c 91bc
00000190: a954 34bd 51dc efbc 7d35 2b3c c591 b93c
000001a0: b892 763c b0cb 053d 043d 963c c8ae 2ebd
000001b0: 93a3 f8bb e734 0abd 6d76 5f3d 218d 59bd
000001c0: a2ee 83bd 7992 8ebc a930 8bbd b324 94bd
000001d0: 75ca aa3c 62bd 023d 22fb c7bc f57e bdbb
000001e0: b669 b03b e65e 5b3c b53e e23c 9f56 fbbc
000001f0: 712d 81bd db61 30bd d0f0 a2bc 1276 dcbc

network_body.linear_encoder.seq_layers.0.weight f4 [128, 93]
0.04397969 0.0699297 -0.09406629 0.22424082 0.07292907 0.110905096 0.097672865 0.17787383
-0.038664933 -0.1217498 0.012220403 0.06512794 -0.018135238 -0.096415095 -0.10982691 -0.024945768
0.03469569 -0.03373599 -0.11188742 -0.07693442 -0.085527085 0.024157012 -0.020969825 0.12672319
-0.0114716645 -0.00057958 -0.038905825 0.04751339 0.23644666 -0.0017578021 0.11060804 0.15598789
-0.087253064 -0.0327754 0.1680355 0.011827486 -0.09481612 0.0009741886 0.045643408 0.13898607
-0.113751404 -0.14091766 -0.05642284 0.27500632 0.008360707 0.15933727 0.022590695 -0.17001277
-0.098404415 -0.12220265 -0.13861884 0.2326612 -0.062057655 -0.055472936 0.08662059 -0.13040118
-0.017555315 0.06628697 -0.06559937 -0.068829395 -0.026672948 0.13877608 -0.22986422 0.056623273
-0.05663065 0.026466526 0.009381642 0.14706968 0.14364211 -0.1652259 -0.08990683 0.06930891
-0.066539004 -0.019061932 -0.0067592403 -0.033932574 0.034287803 0.20480837 0.022534497 -0.14419588
-0.0047412324 0.10513235 -0.06022388 -0.089023605 -0.08445081 -0.14090587 -0.03727093 0.19584015
0.16012616 -0.004912408 0.13496935 0.18646741 0.10618519 -0.1376059 -0.013867901 0.064684466
0.08802589 0.083541654 -0.011870375 0.03373393 -0.006576655 0.26872295 0.020632979 0.08285896
0.013330007 -0.13063487 0.06483056 -0.16458715 -0.10632039 0.0888207 0.05524645 0.030216573
-0.03923802 -0.03481057 -0.1009591 0.03161763 0.09232493 0.30192506 -0.052494068 0.17675202
0.15531395 0.027581645 -0.19865099 -0.08706533 0.04002544 0.06905622 -0.060391963 -0.09906225
-0.010130382 -0.09377738 -0.020246146 0.09081285 -0.042342026 0.037804265 0.0073903683 0.06650312
0.03411424 0.020211292 0.11680256 0.04706589 0.16975303 -0.020973992 -0.036977336 -0.1198331
0.09263494 0.022362864 -0.034454968 -0.07168558 0.058672972 0.22493432 0.07414103 -0.03280925
0.186845 -0.07602873 -0.11477414 0.10700794 -0.26424065 0.02930533 -0.19656214 -0.03804023
0.03478455 0.120489344 0.021953812 -0.052094985 0.047436073 -0.102386 -0.048635513 0.07017436
-0.15232836 0.009187921 -0.022720763 0.09662542 0.04736254 -0.11001916 0.20843942 -0.1253296
-0.14434163 0.059733655 -0.034197375 0.22216125 0.039397646 0.1029199 -0.029181989 -0.03997706
-0.1106091 0.06339387 0.061680224 -0.18489182 -0.08178648 -0.19251877 0.06576119 0.09441828
0.064172246 0.04704687 0.05658808 -0.08755837 -0.13415079 -0.006743638 -0.124113254 0.24751137
0.04905808 -0.11233523 0.03582585 -0.032733 -0.015218951 0.15252703 -0.031364147 -0.22714064
0.004772296 -0.15531458 -0.1968103 0.015761605 0.075353235 -0.05328006 0.03908016 0.10840371
0.16474774 -0.15610932 0.0873079 0.05108614 0.1321521 0.22448955 0.0037794106 -0.034079827
0.08192562 -0.06314863 -0.016665192 0.019326737 0.08886308 -0.13912149 -0.06417942 -0.094434306
0.056168508 -0.050486185 0.11004574 0.008936028 -0.06032016 0.019733168 0.05704953 0.10507093
0.06317398 -0.1277881 -0.17798042 0.10909389 -0.25070062 0.038881306 0.023675255 -0.04244481
0.078753226 -0.12452879 -0.009547345 0.07845127 -0.100297995 0.03377374 0.062424332 -0.0016198163
00000000: 0c24 343d 4d37 8f3d d4a5 c0bd 639f 653e
00000010: d65b 953d 3622 e33d b608 c83d 8f24 363e
00000020: 1f5f 1ebd f657 f9bd 1638 483c cc61 853d
00000030: 5a90 94bc 4775 c5bd eeec e0bd 115b ccbc
00000040: 111d 0e3d c02e 0abd 3b25 e5bd cb8f 9dbd
00000050: d328 afbd ede4 c53c e9c8 abbc b9c3 013e
00000060: a6f3 3bbc f5ee 17ba b75b 1fbd 679d 423d
00000070: 131f 723e 0d66 e6ba 7886 e23d 4abb 1f3e
00000080: bcb1 b2bd 7f3f 06bd 8011 2c3e 12c8 413c
00000090: f42e c2bd b160 7f3a 95f4 3a3d 5d52 0e3e
000000a0: 7ff6 e8bd b84c 10be a31b 67bd a1cd 8c3e
000000b0: 59fb 083c 4f29 233e 1f10 b93c d417 2ebe
000000c0: 4188 c9bd 6245 fabd 19f2 0dbe bd3e 6e3e
000000d0: 2b30 7ebd 9737 63bd 2366 b13d e387 05be
000000e0: 2ad0 8fbc 77c1 873d f658 86bd 6df6 8cbd
000000f0: 3a81 dabc 511b 0e3e 8761 6bbe ceed 673d
00000100: 8af5 67bd 54d0 d83c 75b5 193c 6f99 163e
00000110: eb16 133e fa30 29be 1221 b8bd d4f1 8d3d
00000120: 9a45 88bd c527 9cbc 9e7c ddbb e2fc 0abd
00000130: 5e71 0c3d 49b9 513e 449a b83c 16a8 13be
00000140: 575c 9bbb a14f d73d 51ad 76bd 0252 b6bd
00000150: 8cf4 acbd a149 10be 67a9 18bd 528a 483e
00000160: 1df8 233e 44f8 a0bb 6835 0a3e 50f1 3e3e
00000170: 9f77 d93d 90e8 0cbe 3136 63bc 4a79 843d
00000180: eb46 b43d e317 ab3d f67b 42bc 972c 0a3d
00000190: fb80 d7bb 0e96 893e 7e06 a93c f5b1 a93d
000001a0: 1a66 5a3c 26c5 05be e2c5 843d 8989 28be
000001b0: 81be d9bd a1e7 b53d 1a4a 623d bf88 f73c
000001c0: 0cb8 20bd 8795 0ebd a5c3 cebd 7d81 013d
000001d0: da14 bd3d ec95 9a3e 0504 57bd 7bfe 343e
000001e0: 9f0a 1f3e e7f2 e13c 2a6b 4bbe 4f4f b2bd
000001f0: b7f1 233d 596d 8d3d 905d 77bd 26e1 cabd
00000200: e7f9 25bc 5b0e c0bd 3fdb a5bc 16fc b93d
00000210: d56e 2dbd a5d8 1a3d e72a f23b ca32 883d
00000220: 60bb 0b3d 2792 a53c 2e36 ef3d 2ac8 403d
00000230: bdd3 2d3e a6d1 abbc 8c75 17bd 0e6b f5bd
00000240: 63b7 bd3d 5332 b73c a720 0dbd e4cf 92bd
00000250: 1253 703d 2f55 663e 41d7 973d fe62 06bd
00000260: 4c54 3f3e f3b4 9bbd b40e ebbd fb26 db3d
00000270: 8d4a 87be bb11 f03c 9647 49be 12d0 1bbd
00000280: 3f7a 0e3d 1ec3 f63d 7bd8 b33c 8d61 55bd
00000290: 544c 423d c0af d1bd 0836 47bd 93b7 8f3d
000002a0: f7fb 1bbe ef88 163c e520 babc 8ce3 c53d
000002b0: 39ff 413d ba51 e1bd 2571 553e 6756 00be
000002c0: 4bce 13be 47ab 743d 8c12 0cbd 3d7e 633e
000002d0: 6d5f 213d abc7 d23d 110f efbc fcbe 23bd
000002e0: 0687 e2bd a5d4 813d 67a4 7c3d 4854 3dbe
000002f0: ac7f a7bd a423 45be cead 863d 5f5e c13d
00000300: bd6c 833d 38b4 403d e7c8 673d cd51 b3bd
00000310: d35e 09be bcf9 dcbb 172f febd 9f73 7d3e
00000320: 20f1 483d 0310 e6bd 20be 123d 0a13 06bd
00000330: e858 79bc 0c30 1c3e b177 00bd 8e97 68be
00000340: ec60 9c3b c90a 1fbe a488 49be 7b1e 813c
00000350: cc52 9a3d 313c 5abd 8512 203d c402 de3d
00000360: a2b3 283e 1fdb 1fbe 7cce b23d b33f 513d
00000370: e152 073e 97e0 653e fdaf 773b 4a97 0bbd
00000380: 9fc8 a73d 1254 81bd 7185 88bc 1b53 9e3c
00000390: d9fd b53d dd75 0ebe 8070 83bd c666 c1bd
000003a0: f310 663d 9aca 4ebd a95f e13d 6b68 123c
000003b0: 4612 77bd 74a7 a13c c5ac 693d 6e2f d73d
000003c0: 5c61 813d e2da 02be 8040 36be 9e6c df3d
000003d0: d55b 80be 0142 1f3d 9cf2 c13c 9cda 2dbd
000003e0: 5f49 a13d f308 ffbd 786c 1cbc 0fab a03d
000003f0: 0969 cdbd 5556 0a3d a8b0 7f3d 0450 d4ba

network_body.linear_encoder.seq_layers.2.bias f4 [128]
-0.042318318 -0.012588027 -0.12875448 -0.15462707 -0.018987766 -0.018902477 -0.039958082 0.015691858
0.042916436 0.014057248 0.00047892897 -0.01860544 -0.14398001 0.016651649 -0.1068767 0.060101803
0.008688338 0.07447923 -0.086977474 -0.00023031558 -0.005096888 -0.040134717 0.0019700264 -0.027365113
-0.122961655 -0.12667227 0.04798597 0.062452853 -0.092082836 -0.031877127 -0.0067171827 -0.06061277
0.0037551522 -0.034883928 0.013642925 -0.15830411 -0.026733214 0.047940776 -0.0101006115 -0.03527086
-0.06630458 0.008343597 0.066579625 0.014425887 -0.15429214 -0.005714599 -0.04277392 0.002678117
-0.014529257 0.029474715 -0.1632214 -0.0058034975 -0.13807082 -0.14373785 -0.1415004 0.011710166
0.11931588 -0.030519057 -0.0077300146 -0.18303743 0.035263322 0.13171181 -0.00062837376 0.03950809
-0.15409961 0.0020651305 -0.016261503 -0.0097571 -0.01887041 0.024367677 -0.0558902 0.023599425
-0.027619721 -0.004993631 0.006547095 -0.16494556 -0.006528045 0.0016497612 -0.07080873 0.001951355
-0.15495075 0.028822407 0.01576059 0.008665617 -0.13587698 -0.1488786 -0.116487525 0.01694101
0.021912318 -0.14865795 0.011924939 -0.040479284 -0.12478492 -0.1746534 -0.0031370418 -0.005426756
-0.022533404 -0.013427509 0.024607683 -0.018521149 -0.01923056 -0.17705359 0.012533343 0.083708
-0.0018534374 -0.0016675891 -0.0049513644 -0.14110701 -0.01069645 -0.09782806 -0.12384994 0.021976871
-0.032949254 0.032892853 0.027651275 0.0026040305 -0.13314772 -0.02205597 -0.0074565234 -0.17510639
-0.15169865 0.040737074 -0.15330856 -0.013821286 0.024151627 -0.080232546 -0.009152528 -0.1391993
00000000: f955 2dbd 033e 4ebc 37d8 03be 8f56 1ebe
00000010: 3b8c 9bbc 5ed9 9abc 16ab 23bd 368c 803c
00000020: 25c9 2f3d 5f50 663c c218 fb39 706a 98bc
00000030: 7f6f 13be 0a69 883c 2ce2 dabd 4f2d 763d
00000040: 8859 0e3c 9188 983d 3f21 b2bd de80 71b9
00000050: cc03 a7bb 4d64 24bd 8f1b 013b cd2c e0bc
00000060: 52d3 fbbd 60b6 01be f08c 443d 90ce 7f3d
00000070: ed95 bcbd 9791 02bd d01b dcbb 1945 78bd
00000080: 0019 763b 73e2 0ebd 9386 5f3c 791a 22be
00000090: 9dff dabc 8c5d 443d 097d 25bc 2d78 10bd
000000a0: b2ca 87bd 95b3 083c e65a 883d 8e5a 6c3c
000000b0: c2fe 1dbe 8841 bbbb b533 2fbd 5983 2f3b
000000c0: 1f0c 6ebc f574 f13c 8323 27be 442b bebb
000000d0: 7062 0dbe 0430 13be 7be5 10be ffdb 3f3c
000000e0: e25b f43d 1a03 fabc 104c fdbb 2a6e 3bbe
000000f0: 4670 103d 76df 063e 73b9 24ba 3cd3 213d
00000100: 4acc 1dbe 2457 073b d836 85bc 3edc 1fbc
00000110: 1e96 9abc b99e c73c 1fed 64bd 9553 c13c
00000120: c142 e2bc 9da1 a3bb 0389 d63b 7de7 28be
00000130: 36e9 d5bb cd3c d83a 2b04 91bd 9cc4 ff3a
00000140: 69ab 1ebe f81c ec3c 5a1c 813c 3bfa 0d3c
00000150: 5623 0bbe a273 18be 0391 eebd dfc7 8a3c
00000160: 7681 b33c ca39 18be d260 433c 9bcd 25bd
00000170: 3c8f ffbd 57d8 32be d496 4dbb eed2 b1bb
00000180: f997 b8bc 0eff 5bbc 0d96 c93c aab9 97bc
00000190: 6889 9dbc 894d 35be a758 4d3c 1a6f ab3d
000001a0: 0aef f2ba 0193 daba 0e3f a2bb 5b7e 10be
000001b0: 2a40 2fbc 145a c8bd 0aa5 fdbd d708 b43c
000001c0: ccf5 06bd a8ba 063d ed84 e23c 62a8 2a3b
000001d0: e057 08be b9ae b4bc da55 f4bb 174f 33be
000001e0: e456 1bbe ebdb 263d ebfc 1cbe ad72 62bc
000001f0: a2d9 c53c f650 a4bd 7cf4 15bc 438a 0ebe

network_body.linear_encoder.seq_layers.2.weight f4 [128, 128]
-0.008924758 -0.06395067 -0.10624613 0.022770287 -0.05169988 0.059853043 0.046063043 0.0600062
0.054173004 -0.022609506 -0.05591178 0.033053335 -0.08212505 -0.010254916 0.038552392 -0.050501257
0.06664739 -0.041965906 -0.097560965 0.08869484 -0.035080805 0.12525535 0.020033503 -0.025974568
-0.10934627 -0.13377056 -0.018880932 0.0044623255 -0.024068758 -0.12759955 -0.017280744 -0.060326975
0.011103988 0.06622651 -0.046514712 -0.027849846 -0.052488502 0.013994527 -0.10808675 -0.016408784
-0.047140334 0.06702001 0.035631657 0.08057685 -0.017558632 -0.08304828 0.025121192 0.01604048
-0.050235536 -0.0147422245 0.12080452 -0.00842773 -0.12665297 0.04322552 0.030481568 -0.10045893
0.15149207 0.06888152 0.04694298 -0.20338577 0.03450271 0.017380472 -0.046423916 0.016435571
0.13240157 -0.171917 0.04657509 0.0062153037 -0.0706159 -0.17106491 0.056549527 -0.14223388
-0.03373627 0.105868295 0.11988223 0.0073632845 0.101780474 -0.12244311 0.12459777 0.022956977
0.02255386 -0.014336142 0.007524211 -0.111732855 -0.08660393 -0.031943046 0.03633892 0.020253861
-0.011383279 0.1452444 -0.090491354 0.044657137 -0.14304939 0.259983 -0.023700576 -0.0389895
-0.014961611 -0.050393317 0.0469438 -0.07228691 -0.1494552 0.03994205 -0.079673015 0.0049067955
0.024955457 0.024166547 -0.06678972 -0.02390582 -0.12585267 -0.055582304 0.03575297 -0.01728899
0.03927078 -0.023287637 0.009425382 0.036595605 0.063284546 -0.021196779 0.12309217 0.05270099
0.047779646 0.037836637 0.06428045 0.15438543 0.035176244 7.794758e-05 0.113302566 0.02150472
-0.06197688 -0.03573836 0.057885528 -0.011571529 -0.15174416 -0.12802163 0.049729366 -0.07429044
-0.23841251 0.03414936 -0.015973296 -0.022501126 -0.025528355 -0.0838494 -0.07557031 -0.15400048
-0.2286209 -0.16423436 0.106603876 -0.112353206 -0.05292562 -0.03071187 0.077291645 -0.0703399
0.04336736 -0.25730187 0.16044945 0.05028687 0.05122896 -0.0051443437 -0.13760528 -0.00079932564
0.13624273 0.07413781 0.08551972 0.14914632 0.13751598 0.12105403 0.0051942714 -0.090385295
0.024070462 -0.011021588 0.04183566 -0.24337448 0.1409253 -0.0057657165 0.037748106 0.052061975
-0.07604315 0.106137305 -0.030477768 -0.12324179 0.25457585 0.114013836 0.07624045 -0.08387348
0.05291046 0.10925504 -0.010912269 -0.07107902 -0.045613874 0.039569773 -0.1004986 -0.056775764
0.021863488 -0.034964252 -0.011159994 0.102050744 0.092451714 0.14278308 0.068245165 -0.105376795
0.07097395 -0.0009073639 -0.046785057 -0.10298026 -0.2054497 0.019067096 -0.003092697 -0.058575585
0.16684805 -0.107828714 0.09544914 0.037562564 -0.0013390717 0.01758885 -0.050442938 -0.010982622
-0.05177917 0.11098195 -0.025439387 -0.29221916 -0.114597686 0.06507595 0.0014737794 0.060598698
0.109501384 0.058115344 -0.12882008 -0.06481936 0.090176135 -0.06695672 -0.04035272 -0.056492195
-0.14305952 0.06782611 0.06931743 0.08610416 0.10103237 -0.03007515 -0.01621217 -0.022036282
-0.0701311 -0.19587272 0.0021614449 -0.013645672 -0.15443936 -0.07382892 -0.101436846 -0.09612579
0.13433816 -0.121967144 0.0021233102 -0.11955543 -0.04838585 -0.08507052 -0.013298507 -0.10577137
00000000: 2639 12bc 92f8 82bd 9297 d9bd c188 ba3c
00000010: 41c3 53bd 7728 753d 9aac 3c3d 10c9 753d
00000020: 83e4 5d3d 9237 b9bc c003 65bd ef62 073d
00000030: 2e31 a8bd 3c04 28bc 1de9 1d3d 68da 4ebd
00000040: 6d7e 883d 71e4 2bbd 0bce c7bd a4a5 b53d
00000050: e4b0 0fbd f042 003e 4d1d a43c 9ec8 d4bc
00000060: f0f0 dfbd 26fb 08be 2fac 9abc b338 923b
00000070: d82b c5bc 75a9 02be 5990 8dbc 6b19 77bd
00000080: 80ed 353c c4a1 873d 3686 3ebd 5c25 e4bc
00000090: 2ffe 56bd 4d49 653c 965c ddbd b76b 86bc
000000a0: 3916 41bd c941 893d 80f2 113d 7a05 a53d
000000b0: 1fd7 8fbc 3715 aabd f5ca cd3c 5367 833c
000000c0: c7c3 4dbd 5f89 71bc 5c68 f73d 7614 0abc
000000d0: 51b1 01be 3e0d 313d 7bb4 f93c 69bd cdbd
000000e0: bd20 1b3e c111 8d3d 4847 403d 5c44 50be
000000f0: b752 0d3d 7e61 8e3c 0127 3ebd e4a3 863c
00000100: 4794 073e 030b 30be 86c5 3e3d bfa9 cb3b
00000110: 129f 90bd a42b 2fbe 7aa0 673d c2a5 11be
00000120: 0b2f 0abd 7ad1 d83d d184 f53d b547 f13b
00000130: 4872 d03d 74c3 fabd 1e2d ff3d 4510 bc3c
00000140: dfc2 b83c 23e2 6abc a88d f63b 32d4 e4bd
00000150: 675d b1bd b6d6 02bd 1fd8 143d 6deb a53c
00000160: ef80 3abc f3ba 143e 8853 b9bd 67ea 363d
00000170: 8a7b 12be 7e1c 853e b627 c2bc 74b3 1fbd
00000180: 8b21 75bc 3969 4ebd 2448 403d 290b 94bd
00000190: c90a 19be 469a 233d 9b2b a3bd 2fc9 a03b
000001a0: 636f cc3c ecf8 c53c 0cc9 88bd 23d6 c3bc
000001b0: 86df 00be 45aa 63bd b571 123d a4a1 8dbc
000001c0: 66da 203d b7c5 bebc eb6c 1a3c 46e5 153d
000001d0: 549b 813d dea4 adbc bf17 fc3d fedc 573d
000001e0: 97b4 433d 97fa 1a3d 78a5 833d 3717 1e3e
000001f0: f714 103d ca77 a338 2d0b e83d ab2a b03c
00000200: 78db 7dbd 6362 12bd 6019 6d3d 8396 3dbc
00000210: d262 1bbe 1a18 03be 05b1 4b3d 9625 98bd
00000220: 6922 74be 33e0 0b3d 6eda 82bc 4854 b8bc
00000230: d720 d1bc 3cb9 abbd 9bc4 9abd 4db2 1dbe
00000240: 991b 6abe 0d2d 28be 2253 da3d 7019 e6bd
00000250: 89c8 58bd 7697 fbbc 154b 9e3d 5e0e 90bd
00000260: f9a1 313d 12bd 83be dc4c 243e 9bf9 4d3d
00000270: 75d5 513d e291 a8bb 66e8 0cbe d689 51ba
00000280: 3783 0b3e 90d5 973d f724 af3d d0b9 183e
00000290: fdd0 0c3e 2deb f73d b534 aa3b ed1b b9bd
000002a0: 6b2f c53c e493 34bc de5b 2b3d 2937 79be
000002b0: b94e 103e 56ee bcbb c29d 1a3d f03e 553d
000002c0: 83bc 9bbd 845e d93d 83ac f9bc 3166 fcbd
000002d0: c457 823e 1680 e93d f423 9c3d dcc5 abbd
000002e0: a3b8 583d 1bc1 df3d 60c9 32bc e191 91bd
000002f0: 9dd5 3abd ea13 223d 36d2 cdbd b48d 68bd
00000300: 0f1b b33c ad36 0fbd 68d8 36bc fbff d03d
00000310: 5357 bd3d ba35 123e 1fc4 8b3d cacf d7bd
00000320: ca5a 913d 29dc 6dba b0a1 3fbd 51e7 d2bd
00000330: 6861 52be 9932 9c3c d8ae 4abb f4ec 6fbd
00000340: 37da 2a3e 4dd5 dcbd d77a c33d 34db 193d
00000350: ca83 afba 7e16 903c 419d 4ebd 75f0 33bc
00000360: 6516 54bd 814a e33d 4366 d0bc c09d 95be
00000370: 31b2 eabd 8a46 853d d52b c13a 5736 783d
00000380: 4342 e03d 5b0a 6e3d 69e9 03be 03c0 84bd
00000390: 44ae b83d 9b20 89bd e548 25bd 5c64 67bd
000003a0: 327e 12be 6ae8 8a3d 4cf6 8d3d 6157 b03d
000003b0: 0fea ce3d 2960 f6bc 62cf 84bc 6f85 b4bc
000003c0: e5a0 8fbd dc92 48be 07a7 0d3b 1992 5fbc
000003d0: 5a25 1ebe 9e33 97bd 1fbe cfbd 99dd c4bd
000003e0: f18f 093e e9c9 f9bd 3c27 0b3b 7ad9 f4bd
000003f0: 3e30 46bd 7439 aebd fbe1 59bc a99e d8bd
