Learning/results/test5/KartAgent/KartAgent-1422384.onnx (onnx, 108737 bytes, 7 tensors)

41 f4 [1, 2]
000000 3a 34 22 bf 70 b1 92 bf
       -0.6336094 -1.14604

distribution.mu.bias f4 [2]
000000 ae 48 d7 3c 1b 84 22 3e
       0.026279774 0.15870707

distribution.mu.weight f4 [2, 128]
000000 55 a7 f5 b8 d1 43 12 3c e0 99 6d 3b 0b 59 d1 bb
       -0.000117136784 0.0089273015 0.0036255047 -0.0063887886
000010 66 6b 8d bc 1f 10 b0 ba ea 4e 9f ba 08 ec 17 bb
       -0.017263126 -0.0013432539 -0.0012154256 -0.0023181457
000020 8a 90 a4 3d 2a 4e c6 b9 fe 31 77 ba 64 0c 9a 39
       0.08035381 -0.0003782374 -0.00094297517 0.000293824
000030 ec 91 a4 3c 63 a4 63 ba 10 50 88 bb b6 bc 06 3e
       0.020089112 -0.00086838583 -0.004159935 0.13157925
000040 35 d1 ce ba ad 4e 03 3e c6 30 e6 bc b4 b7 45 3d
       -0.0015778901 0.12822981 -0.028099429 0.048270896
000050 53 1d 5e b7 36 cf 05 bb 0e ec e1 3c dd 74 a8 ba
       -1.3239059e-05 -0.0020417697 0.02757838 -0.0012852211
000060 21 d8 16 ba e4 c2 28 3d d3 e9 1d be 0a 64 34 be
       -0.00057542516 0.041201487 -0.15421228 -0.17616287
000070 1f 47 94 ba cd 6b 38 bd 9e 54 c3 ba ad 7d bc bd
       -0.00113127 -0.04502468 -0.0014902537 -0.09203658
000080 d9 1f 62 ba e9 7c 19 3b 3c d4 22 ba 17 c9 f6 bc
       -0.00086259615 0.00234204 -0.0006211435 -0.030125184
000090 96 8d ae ba 6b 1f 10 be d7 ee 1c 3d 56 ba 60 3a
       -0.0013317342 -0.14074485 0.038313713 0.0008572688
0000a0 31 6c 2c bd 91 37 bd bd 69 1e 01 3e 0b f3 3c bb
       -0.042095367 -0.09239114 0.12609257 -0.0028831388
0000b0 42 8a 5d bb 7d 12 7a bd d7 34 92 ba df 4a 3d 3a
       -0.0033804332 -0.061052788 -0.0011154664 0.00072209345
0000c0 4f fd e2 38 d9 c3 d0 bb 4f e6 af ba c0 a0 2b bb
       0.00010823702 -0.006371003 -0.0013420078 -0.0026188344
0000d0 f9 aa 5a 3b da 71 52 bc e5 04 98 3b e8 2e 22 bb
       0.0033366068 -0.012844527 0.0046392553 -0.0024747197
0000e0 9b 61 2f 3e d2 0d 45 ba 07 ea 13 3a f8 50 d4 bb
       0.17127077 -0.0007517013 0.0005642478 -0.006479379
0000f0 07 69 90 3d cb 61 46 3e 7f 2c c5 36 71 c9 44 ba
       0.070512824 0.19373243 5.8762375e-06 -0.0007506824
000100 bd 1f c2 ba 4b b4 1c bb 88 6b fa b9 8d 1f ba ba
       -0.0014810484 -0.0023911174 -0.00047763833 -0.0014200077
000110 2a 43 36 3a a5 9d d4 3a fb 23 43 3b eb 49 db 3a
       0.0006952757 0.0016221298 0.0029776085 0.0016730403
000120 98 1d 08 bb 31 44 75 ba 2f 22 8f 3a f7 a4 04 bd
       -0.0020769592 -0.00093561696 0.0010920222 -0.032383885
000130 0f b3 ec 3a c8 f1 21 3b ad 32 6a bd 42 25 92 ba
       0.0018058735 0.0024710763 -0.057177234 -0.001115002
000140 27 8a 6d bc 81 4f 96 3d 88 de 94 ba 71 9e 5e 3d
       -0.01449827 0.07339383 -0.0011357823 0.05435032
000150 49 55 96 3c 0d 62 87 bc 7d 9f aa 3c 5f 99 40 b9
       0.018351214 -0.016526246 0.020828003 -0.00018367682
000160 1a e0 e6 bd 34 1e 9c bc dc 0e d1 3a 8a ae b6 3c
       -0.11273213 -0.01905737 0.0015949863 0.022300024
000170 d0 da 7b bb 96 29 bd bb d8 32 0c 39 b9 1d 3f 3a
       -0.0038429983 -0.0057727797 0.00013370381 0.0007290501
000180 da 79 59 39 7f 02 0f ba cd 7c 9e 3a f1 95 06 ba
       0.00020740126 -0.0005455389 0.0012091637 -0.00051340373
000190 33 cc df b9 1d 1c 80 bc 21 f1 d2 3b 34 03 16 3e
       -0.00042686015 -0.015638405 0.006437436 0.1464966
0001a0 2b 2a 7f bb f0 ea 8d 3a de db 57 3b 39 b4 a9 bc
       -0.0038935046 0.0010827463 0.0032937448 -0.02071582
0001b0 72 c4 1e bb 8d f4 33 3c 3b 63 5c bc f9 3e 01 3b
       -0.0024225977 0.010983598 -0.013451393 0.0019721373
0001c0 20 71 3d 3b 7f 7e 85 ba ff 16 0c 3a 61 16 40 3d
       0.002890654 -0.0010184794 0.0005344003 0.046896342
0001d0 4d 89 24 bc 60 01 0b 3b da f9 b7 b9 2a be 7a 3b
       -0.010042501 0.0021210536 -0.00035090634 0.003826032
0001e0 34 2e 3d bd 07 35 07 be ef d4 84 bc 1c ed 1f bb
       -0.04618664 -0.13203822 -0.016214816 -0.0024402803
0001f0 2b 70 1f 3a 11 a6 1b bd 46 18 82 ba 81 c9 9d bc
       0.0006082083 -0.03800017 -0.0009925447 -0.019261124
000200 54 ba 00 b9 23 c4 8e bc c4 87 ed bd 38 be c4 bd
       -0.00012276444 -0.01742751 -0.11598161 -0.09606594
000210 02 b2 80 b9 fe 9d 53 ba 5a d4 1a ba a0 fd 97 bb
       -0.0002454669 -0.0008072554 -0.00059062766 -0.0046383888
000220 97 3c 8e bc 07 ba 63 bb 8f ed 3f 3b aa 91 a8 ba
       -0.017362876 -0.0034748332 0.0029285883 -0.0012860794
000230 b2 a9 be bd a2 0b 48 ba 2f 76 20 be 5f 35 b5 3c
       -0.093097106 -0.0007631128 -0.15670083 0.022120176
000240 df fa ef 3a b4 1e 85 3c 76 ed 4e bb 27 78 37 bc
       0.0018309018 0.016249992 -0.0031574643 -0.01119808
000250 00 07 b5 3a 49 c8 0f 3c 94 9d 9c 3b 75 b8 95 3b
       0.001381129 0.008775779 0.004779527 0.004569108
000260 e2 24 01 be dd 5d 01 be bb c3 ed 3c ec 0f 0b 3d
       -0.12611726 -0.12633462 0.029023996 0.03395073
000270 b2 84 e3 bd 84 29 b9 3b d5 ad 13 3b eb 78 e9 bc
       -0.11109294 0.005650701 0.0022534032 -0.028500041
000280 68 2b 0c bb a3 a0 0d bb 64 68 20 bb c0 3a 1c be
       -0.0021388177 -0.002161064 -0.0024476284 -0.15256786
000290 c2 8d fe bb 07 61 08 3d b2 c0 dc 3a 7c f8 e2 ba
       -0.0077683637 0.033295657 0.0016842096 -0.0017316486
0002a0 63 a8 08 bd 06 03 2a 3c c6 28 03 3c 5e a6 0c ba
       -0.03336371 0.010376697 0.008005327 -0.0005365367
0002b0 fa 99 d5 bd 00 7b 48 3c 10 43 fb 3a 00 04 f8 bb
       -0.10429759 0.012236357 0.0019169766 -0.007568836
0002c0 d5 d7 16 b8 f6 35 b6 3b a5 18 f9 bd 1a 89 ba 3b
       -3.5963796e-05 0.005560632 -0.12162904 0.0056926133
0002d0 a1 8a 1d be e1 ff e4 bd 2a ec 10 be c5 06 26 3b
       -0.15384914 -0.111816175 -0.1415259 0.0025333625
0002e0 70 34 a5 3c 4a b7 11 3a 07 4d 6d bb 5c 4b d7 bd
       0.020166606 0.0005558623 -0.0036209242 -0.105124205
0002f0 40 56 42 bc 30 da 2d 3d 56 d4 7f 3a cb 2b b6 3b
       -0.011861384 0.042444408 0.00097591185 0.0055594197
000300 89 4b f2 bd 72 5b 13 3b ea 27 80 3b a5 80 83 bb
       -0.118308134 0.0022484926 0.003911008 -0.0040131384
000310 d4 5b d0 ba fb e5 21 3b c7 26 db 3a 95 99 28 bb
       -0.0015896508 0.002470373 0.001671993 -0.0025726308
000320 af a2 0e 3a 32 83 f3 3a 52 4f 44 bb a2 56 05 be
       0.0005441112 0.0018578528 -0.0029954505 -0.13021329
000330 21 91 d6 ba 6d c5 ae ba 2c a8 90 bc 1c 6a 05 bb
       -0.0016370156 -0.0013333984 -0.017658316 -0.0020357436
000340 04 d4 ef bd 31 ed 78 3b e4 72 8e 3a d3 08 fb ba
       -0.11710361 0.0037983174 0.001086798 -0.001915241
000350 0c 61 1f be e0 28 d2 bd e9 fb c6 bd cc 60 08 3c
       -0.15564364 -0.102617025 -0.09716017 0.008323859
000360 bd 9b 95 3c 7a 02 ed bd 7c 9e 68 bb e5 00 4f bc
       0.018262738 -0.11572738 -0.0035494855 -0.012634491
000370 e1 6a e7 bd 32 64 da bd a4 f1 1f 3a db 8d 47 bb
       -0.112996824 -0.10663642 0.0006101376 -0.0030449543
000380 4e 01 39 ba 4e bd 3f ba d6 2f 18 bb cc 1b 36 3a
       -0.00070573844 -0.00073142804 -0.0023221872 0.0006946891
000390 f9 97 b1 ba d8 c4 00 be 03 cd 93 3a 07 62 4c 3c
       -0.001354932 -0.1257509 0.0011276308 0.012474543
0003a0 35 f5 ed bb 79 3b bb ba e6 af a4 ba c3 67 f0 bd
       -0.007261897 -0.0014284692 -0.0012564629 -0.11738541
0003b0 01 a4 3e 3a 7d 66 e0 bd a0 93 12 be 3a 1f 21 3a
       0.00072723633 -0.10957048 -0.14314127 0.0006146316
0003c0 51 02 93 bc 1c 14 b1 3b bc d7 1a bb f7 92 88 bc
       -0.01794544 0.0054040086 -0.0023627123 -0.01667164
0003d0 6d f7 d2 bd e4 d0 8f bb 22 16 1c 3b b5 5f de bd
       -0.10301099 -0.0043889154 0.0023816903 -0.108580984
0003e0 9a 5c 03 be c2 26 a3 3c d9 02 ee bd fd 85 56 3a
       -0.12828293 0.019915942 -0.11621637 0.0008183418
0003f0 c5 92 1a bb d6 62 96 bc af 31 33 3a ac bc 10 be
       -0.0023586017 -0.018357676 0.00068357115 -0.14134473

network_body.linear_encoder.seq_layers.0.bias f4 [128]
000000 2e 21 9b bd c3 32 b2 ba e7 38 f2 bc c9 d9 53 bc
       -0.07574688 -0.001359545 -0.029568149 -0.012930342
000010 08 84 62 bd 5e 40 0c bd 84 55 8e bd 42 00 1d bd
       -0.055301696 -0.034241073 -0.069499046 -0.038330324
000020 5c 06 76 bc b0 5e ac 3c ff 1d 0d bd f6 e2 40 3c
       -0.015016165 0.021041244 -0.034452435 0.011772862
000030 84 93 6a ba 79 5d 66 bd aa b5 15 3d 26 69 33 bc
       -0.0008948373 -0.056241486 0.0365502 -0.010950362
000040 93 dc 66 3b 69 df 21 bc d7 c6 d4 bc 5f 0a 5f bd
       0.0035226687 -0.009879925 -0.02597372 -0.05445325
000050 aa a8 5f 39 45 c4 82 bd d0 7c 25 bd 71 42 f0 38
       0.0002132977 -0.06385092 -0.040402234 0.000114564675
000060 ed 2f 9a bc 04 47 ba bc 14 a3 4b bd dc 27 81 3b
       -0.01882168 -0.022738941 -0.04971607 0.003941519
000070 e5 37 08 bd cc 8f 92 3b 65 c6 1d bd 8a 12 f1 ba
       -0.03325643 0.0044727083 -0.038519282 -0.0018392366
000080 28 52 6e 3b 5a a7 35 bd c0 36 03 bb 38 66 8c bd
       0.0036364887 -0.044349052 -0.0020021647 -0.06855434
000090 2d 13 17 bc c6 2d 32 bc 91 57 11 bd 00 db 7d bc
       -0.00922088 -0.010875171 -0.0354839 -0.015494108
0000a0 9f 41 ba bd 7e 19 86 bd 55 21 2d bc 8a 14 53 bc
       -0.090945475 -0.06547831 -0.010567029 -0.012883315
0000b0 02 f4 3c 3b 34 ca 31 bd c7 90 05 3c a9 09 e2 bc
       0.0028831963 -0.043405727 0.008152193 -0.027592497
0000c0 d1 ed 20 3d 42 ef da 3b 46 21 36 bb 02 de ed 3c
       0.0392893 0.006681354 -0.0027790829 0.029036526
0000d0 b0 1a 1d bd 24 45 20 bc 70 cb f6 3b c9 27 00 3d
       -0.03835553 -0.009782109 0.007531576 0.031287942
0000e0 b6 e8 da bc 65 61 1f bd e0 7e 23 bc c1 07 a8 bd
       -0.026722293 -0.038911242 -0.00997898 -0.08204604
0000f0 7a d3 74 3b 1f 63 82 3c 32 13 e2 3c c3 08 be 3b
       0.0037357495 0.015916405 0.027597044 0.0057993843
000100 43 9b aa bc 2a ad 24 bd f0 2b 17 bd d8 a5 3b bc
       -0.020825988 -0.040204205 -0.036907136 -0.011453114
000110 77 d1 26 3b be c7 9a bd 03 58 e7 3c 75 0d 66 bd
       0.002545444 -0.07557629 0.02824021 -0.056165177
000120 31 bb 4d bd 1f 31 d2 bc 4f d0 02 bd 9a ab ea bc
       -0.050227348 -0.025658188 -0.03193694 -0.02864628
000130 b0 22 57 3d 6e 14 eb bc b3 43 89 bc 46 8c fb bc
       0.052523315 -0.028696265 -0.016755914 -0.030706536
000140 a3 db 44 3c 61 6c 89 bd ff 1b 71 3c 50 73 b0 bd
       0.012015256 -0.06710125 0.014716147 -0.08615744
000150 5e ee a9 bb 21 e1 a4 bc 06 25 11 bd 44 15 63 bd
       -0.0051858863 -0.020126881 -0.0354357 -0.055440202
000160 8d 75 f8 bb f2 10 74 bd e4 d3 86 bd db 7a c8 bc
       -0.0075823725 -0.059586473 -0.06583384 -0.024472645
000170 7e 70 3c bd 77 f9 68 bd 59 65 95 bd 44 98 33 bd
       -0.04600572 -0.056878533 -0.07294721 -0.043846384
000180 2c a5 88 bd cf 52 af bd 2a 14 c6 bc 18 88 c7 3b
       -0.06672129 -0.08560716 -0.024179537 0.0060892217
000190 96 4d 8d bd 6d 5e 28 bd 30 d2 9f 3b 7e b6 89 3c
       -0.06899564 -0.041105676 0.004877351 0.016810652
0001a0 45 07 48 3b 35 93 8a 3c 9c 9c c6 3c 58 47 20 bd
       0.003052191 0.016915897 0.024244599 -0.03913054
0001b0 b8 17 05 bd e7 15 15 bd 6e c6 51 3d db 3c 59 bd
       -0.032493323 -0.03639784 0.051214628 -0.053036552
0001c0 e1 80 64 bd bd a8 0f bd ed 03 b2 bd 16 ae 9e bd
       -0.05578697 -0.03507303 -0.08692155 -0.07748048
0001d0 0f 4c 2e 3b d8 a3 61 3c 8d fb 38 bd fe c7 2c 3c
       0.0026595627 0.013771974 -0.045161773 0.010545729
0001e0 40 d9 81 3b 9d 45 4a 3b d3 86 97 bb c5 0f d7 bc
       0.003962666 0.0030864247 -0.0046242266 -0.026252637
0001f0 69 b4 4a bd 44 d7 7c bd 5b 81 e9 bc 16 4d b0 bc
       -0.04948846 -0.06172873 -0.028504064 -0.021521132

network_body.linear_encoder.seq_layers.0.weight f4 [128, 77]
000000 ea 5a 16 be 71 31 20 bd aa 10 97 bc cf 27 dc bd
       -0.14683118 -0.03910965 -0.018440563 -0.107497804
000010 5f 47 e3 bd 5b 1c bf 3c 53 64 25 bd d5 4c db bd
       -0.11097597 0.02332895 -0.04037888 -0.10708014
000020 2a d1 ae bd 1c 1a a7 3c 32 3e 57 3d fe f4 8f bd
       -0.08535989 0.020398192 0.05254955 -0.070291504
000030 58 55 e6 bc 1c 39 cc bc e1 56 bf 3c c3 e1 32 be
       -0.028116867 -0.024929576 0.023356857 -0.17468934
000040 42 d6 75 3c 72 a5 f6 bc a3 19 90 3c a8 d5 30 3e
       0.015004696 -0.030108187 0.01759035 0.17269003
000050 ae d8 f5 bd 37 22 9f 3d 13 f9 71 3d ec 2f ca bd
       -0.12004219 0.07770198 0.059075426 -0.098724216
000060 73 e8 89 bd 0e f7 8d bd 84 4e a5 bd 09 34 9c 3d
       -0.06733789 -0.069318876 -0.08071616 0.076271124
000070 a3 ee f5 3d 05 e1 0e 3e 1a 42 e6 3b 1b b1 e8 bd
       0.12008407 0.13953026 0.007026923 -0.11361905
000080 62 88 1b bc 46 90 a9 3d 20 36 23 3e e0 f6 ff 3c
       -0.009492965 0.08279471 0.15938616 0.031245649
000090 df 28 a1 be 43 6a 1d 3d 8c 66 02 3b c8 31 2a be
       -0.31476495 0.038431417 0.0019897548 -0.16620553
0000a0 9c 4c 68 3d 3c 97 ab bd f3 7e 95 3d 8f fe 70 be
       0.056713685 -0.08378455 0.07299604 -0.23534606
0000b0 33 aa 4a be d7 55 2b bd 5a cc 8d be 06 60 cb bd
       -0.19791488 -0.04182991 -0.2769497 -0.099304244
0000c0 d1 51 69 be b0 b6 14 bd f8 05 b9 bd a4 c9 85 bd
       -0.22785117 -0.036307037 -0.090343416 -0.065326005
0000d0 16 c0 83 bd 51 5f dc bd 32 35 35 3d 35 3b 98 bd
       -0.06433122 -0.10760368 0.044240184 -0.07433168
0000e0 ea 1b 5e 3e 3d 6a 30 3e 73 64 81 be 66 44 41 3d
       0.21690336 0.17228027 -0.2527195 0.04718437
0000f0 b0 63 b6 3d 20 d7 60 be d5 ce 5e bd df 31 92 be
       0.08905733 -0.21957064 -0.05439647 -0.28553674
000100 5b a5 62 3e 05 61 fc bd 29 81 44 3d af af 17 be
       0.2213339 -0.123231925 0.04797474 -0.14813112
000110 42 1c 97 be 76 c5 c8 3e ff f5 00 bd c2 df df bd
       -0.29513747 0.3921315 -0.0314846 -0.1093135
000120 d8 94 61 be 32 78 bb 3e 78 51 2a be 28 c0 37 be
       -0.22029436 0.3661514 -0.1663264 -0.17944396
000130 7f 7b 6e bd 8d 2f 94 bd 9d 3d b6 bd af d5 58 bc
       -0.058223244 -0.07235632 -0.088984706 -0.01323454
000140 b3 c7 3b be 14 3d 83 3d ee 9c e2 3c 03 15 74 3d
       -0.18337898 0.06408134 0.02766272 0.05959035
000150 47 65 72 3e e1 b2 6b be ac f9 bd bd 52 23 11 bd
       0.23671447 -0.23017456 -0.09276137 -0.035434075
000160 f3 e1 9b bd 2c 50 11 be 9b f4 33 3d 18 be 3d bb
       -0.07611456 -0.1419074 0.043934446 -0.0028952416
000170 47 cb 14 3b ec be 97 bd fa 3b f4 bd 52 db 3a bc
       0.002270417 -0.07409462 -0.11925502 -0.011404829
000180 50 af db 3d 6e cc 06 be 3e 89 e3 3d 22 1d e1 3d
       0.107267976 -0.13163921 0.11110161 0.10991885
000190 c6 d5 15 bd c5 be d0 bd 0d 77 48 3d dc 3e ca 3d
       -0.036580823 -0.101926364 0.04894166 0.09875271
0001a0 f2 90 e7 bb 5e 61 01 be 1e 34 79 3d 70 c1 95 3d
       -0.0070668394 -0.12634799 0.06084072 0.07312286
0001b0 23 1f 10 be 31 81 a0 bd a4 cc b9 bd be f0 22 3d
       -0.14074378 -0.07837141 -0.09072235 0.03978037
0001c0 fb 7f 62 bd 2b 2a bd 3d de d2 99 bd 40 9d 9a bc
       -0.055297833 0.092365585 -0.07510923 -0.01887381
0001d0 11 c8 9a 3c 44 76 42 3e d0 35 b5 3d 4e 84 f2 bb
       0.018894227 0.18990427 0.088481545 -0.007401026
0001e0 32 d7 17 be 7e ee 04 3e ba 24 e8 3c 7a 8d 9a bd
       -0.14828184 0.12981603 0.028337825 -0.07546516
0001f0 85 2b d0 bd 7b f5 df be 3a f3 9f 3c 61 2a db 3d
       -0.10164551 -0.43741974 0.01952516 0.107014425
000200 bc b3 80 3d 4e 6f 1d 3d 46 48 85 bd 2c 96 75 bb
       0.062842816 0.038436227 -0.06507926 -0.0037473543
000210 4b 26 13 bc 5a e2 d4 bd 25 2b 54 3d 70 c1 45 3e
       -0.008981298 -0.10394736 0.05179896 0.19312072
000220 2f d6 0f bd 2a ce 4c 3e 0c 02 b9 3d 46 1f 81 3e
       -0.03511637 0.2000052 0.090335935 0.25219172
000230 c1 d9 ac 3c 5e df dc bc cb 0d c8 3d 30 65 a5 3c
       0.021099927 -0.026961979 0.09768256 0.020189852
000240 35 99 9a bd 3e e5 6b 3e 60 50 ac be 21 cd 38 3e
       -0.07548753 0.23036668 -0.3365507 0.18047
000250 9a 05 d8 bd 7f 31 46 3e 56 6e b3 be e8 3d e4 3d
       -0.105479434 0.19354819 -0.35045117 0.1114462
000260 38 56 34 be f2 68 15 be 53 e2 19 be 40 b4 62 3e
       -0.17611015 -0.14590815 -0.15027742 0.22139072
000270 c4 4d 88 bd 94 67 f1 bd d9 43 06 bc 31 eb 97 bc
       -0.066554576 -0.11787334 -0.008194887 -0.018544765
000280 ca 29 8f bd 2d 7e fa bd 33 f9 2c 3e de 2f 28 be
       -0.069903925 -0.12231097 0.16891937 -0.1642451
000290 a2 68 05 be 6c fd 25 bd f5 5c 52 3e de 6c 81 bd
       -0.13028196 -0.040524885 0.20543273 -0.06319593
0002a0 0f dc b1 3b 98 e5 0f 3e 23 33 d5 3c f2 2c 18 3e
       0.0054278444 0.14052427 0.02602536 0.14860895
0002b0 6d af a3 3c 44 6a c0 bd 0b 3b 96 bd 03 2a 15 3d
       0.01998111 -0.093952686 -0.0733548 0.03641702
0002c0 87 9c de 3d af 91 89 bd 2d fc 39 bd b1 1d f3 bc
       0.10869699 -0.0671724 -0.04540651 -0.029677244
0002d0 88 63 4e bd b7 86 d8 bc e1 24 af 3c 66 e3 05 be
       -0.05038789 -0.026431425 0.02137989 -0.13075027
0002e0 ba aa 7a bd 28 a2 ed bd 93 a5 7e 3b 47 80 24 3c
       -0.061197974 -0.116031945 0.0038856014 0.010040349
0002f0 ee c1 19 3d 42 9e e5 bd da 30 08 be cb 8d 83 bd
       0.03753846 -0.11211826 -0.13299885 -0.06423529
000300 e6 89 c1 3e 2b 77 7d bd 73 be bb bd c8 9a f5 3c
       0.3780052 -0.061881226 -0.09167185 0.029981032
000310 32 5d a7 3d bf 5d 40 3e 87 91 60 bc 1b 46 2c bd
       0.081720725 0.18785761 -0.013706571 -0.042059045
000320 3e 17 9e bc a1 cb 14 3d b1 a9 30 bd 86 a6 2b be
       -0.019298192 0.03632701 -0.04313058 -0.16762742
000330 11 f4 c4 bd ad 71 64 3c e8 d2 80 3d 7a 15 12 bd
       -0.096168645 0.013943118 0.06290227 -0.035665013
000340 f0 a9 d6 3d 77 f9 78 3e cf 53 be 3d af 61 4a 3d
       0.10481632 0.24313913 0.09293329 0.049409565
000350 55 7f 44 be d8 a3 15 be a0 91 31 be 75 d9 b0 be
       -0.19189198 -0.14613283 -0.17340708 -0.34540907
000360 70 3a d9 bd 35 58 02 3e f6 86 b8 3d 27 a9 c6 3c
       -0.10606849 0.12728961 0.09010117 0.02425058
000370 88 3b 0c 3e 2c 2f 33 be 28 ca 24 3e 2c c1 80 be
       0.13694584 -0.17498463 0.16092741 -0.25147378
000380 c1 a0 0e 3c 24 7b 4a be 2f 46 e8 3d f2 4b 81 be
       0.008705319 -0.19773537 0.113415115 -0.25253254
000390 24 e4 bc bb 2e f4 6e 3d 38 34 2b bd 75 e4 ce bc
       -0.005764501 0.058338337 -0.041797847 -0.025255421
0003a0 9c d8 9f 3c 18 3f 50 bd bb 62 22 3c 2d c7 4b bd
       0.019512467 -0.05084142 0.0099112345 -0.049750496
0003b0 6e c9 02 be f6 62 17 3e 7a 7d e3 3d a7 26 f4 bd
       -0.12772152 0.14783844 0.11107917 -0.11921435
0003c0 13 9f 3d 3d 90 07 1f 3e b0 a3 34 3d 2e 6a 45 3e
       0.046294283 0.15530229 0.044101417 0.19278786
0003d0 52 5c f2 3c 78 94 96 3d a5 4e dd 3c f6 52 9a 3b
       0.029585037 0.07352537 0.02701504 0.0047095967
0003e0 a7 94 24 3e bd f0 59 3d 96 0b b1 bb 10 10 83 be
       0.16072331 0.0532081 -0.0054029925 -0.25598192
0003f0 75 76 62 bc b4 f8 ad 3d dc 80 1f 3e b9 ec 1a 3e
       -0.013822188 0.08494702 0.155765 0.15129365

network_body.linear_encoder.seq_layers.2.bias f4 [128]
000000 ed bb 41 bd 50 17 7c bc 85 ac 12 be 20 64 43 be
       -0.04729836 -0.0153864175 -0.14323623 -0.19081163
000010 c2 9f 67 bd 77 bb 70 bc fc 7a 4a bd 20 4b 98 3c
       -0.05654884 -0.014693133 -0.049433693 0.01859051
000020 b0 f3 4c 3c 6c e0 22 bb 3d e2 61 bc 45 b8 a1 bc
       0.0125092715 -0.0024853004 -0.01378685 -0.019741187
000030 1e 70 11 be e9 4a c9 3c ca 4a 01 be b7 0a 54 3d
       -0.14202926 0.024571853 -0.12626186 0.05176803
000040 f5 87 25 3c 12 a5 8c 3d 06 7b e8 bd 4a 61 ea bc
       0.010103215 0.06867422 -0.1135159 -0.028610844
000050 b6 a8 46 bc e9 03 b9 bc 22 7c 32 bc 05 f2 14 bd
       -0.012125185 -0.022584872 -0.010893853 -0.03636362
000060 e0 e1 04 be 29 a4 02 be 38 da 3d 3d 88 ab 82 3d
       -0.1297679 -0.12757935 0.046350688 0.06380373
000070 c3 51 0c be 66 2f 65 bd 95 78 01 bc 23 35 9d bd
       -0.13703065 -0.055953406 -0.007902284 -0.07676151
000080 15 2c d3 bb 97 97 0e bd ab 50 c2 3c 6e 9a 2b be
       -0.006444464 -0.034812536 0.023720106 -0.16758129
000090 3a 7b cb 3b 32 0e 26 3d 22 c1 ab bc 3f ea 11 bd
       0.006209758 0.04054088 -0.020966116 -0.035623785
0000a0 8c f2 a3 bd 5f b3 ba bc c3 9b 41 3d cc 0d f8 bc
       -0.080052465 -0.022790609 0.047267687 -0.030280016
0000b0 22 6c 24 be f7 80 25 bd 64 ab 31 bd d5 14 56 bb
       -0.16056874 -0.040406194 -0.04337634 -0.0032666225
0000c0 7f da 0a bd 0c c5 a5 3c 37 f2 2b be 37 82 bb bb
       -0.03389978 0.02023556 -0.16791616 -0.00572231
0000d0 8c fb 06 be 03 f4 22 be 6c a5 18 be ce 71 d9 3b
       -0.13181895 -0.15913396 -0.14906853 0.006635881
0000e0 19 12 ef 3d 39 fa f5 bc 36 f7 5e 3b ff e7 56 be
       0.11673374 -0.030026542 0.003402186 -0.20986937
0000f0 84 dc 8c 3a e4 c2 0e 3e 94 ec 49 bb 54 16 13 3d
       0.0010746871 0.13941532 -0.0030811178 0.035909966
000100 42 3f 1a be 31 dc 32 bc fa 43 61 bc 5a 9a a9 3b
       -0.15063193 -0.010916756 -0.013749117 0.005175871
000110 69 f1 ea bc 5e 5a 6a bb 16 5b 65 bd bd 72 21 3b
       -0.028679566 -0.003575943 -0.05599507 0.002463504
000120 b5 40 01 bd 7c 29 11 3c 82 ac 91 bc 7d 4b 3a be
       -0.03155585 0.008859988 -0.017782453 -0.18192859
000130 0f 25 9f bc 7d 8c 2a 3c df 85 a0 bd c8 55 39 3c
       -0.01942685 0.010409472 -0.07838034 0.011311956
000140 56 1a 38 be 5f a2 9f bb 2b b7 97 3c 30 e0 ab bc
       -0.17978796 -0.004871651 0.018519958 -0.020980924
000150 03 be 0d be a4 e7 2a be a2 ac f7 bd 1b b0 2b 3c
       -0.13842015 -0.16689926 -0.12093474 0.010478999
000160 f5 79 2f 3b e0 91 2b be f4 82 32 bb 1a 7f 03 bd
       0.0026775573 -0.16754866 -0.0027238699 -0.032103635
000170 10 29 2a be 62 29 4a be c5 fc b9 bb 79 ae 6e 3b
       -0.16617227 -0.19742349 -0.0056758844 0.0036419912
000180 de e8 4f bd f5 9a 40 bc fd 1e ec ba e4 ba 00 bd
       -0.05075919 -0.011755695 -0.0018014606 -0.031428233
000190 01 ed ac bc 00 7b 52 be 76 10 2e 3c 54 87 a5 3d
       -0.021109106 -0.20554733 0.010624042 0.080824524
0001a0 e4 db d9 bc 7a 35 df 3c e2 12 ba 3c 89 0a 2d be
       -0.02659411 0.02724718 0.022714082 -0.1689855
0001b0 d9 ee d6 bc 55 c8 f9 bd e7 b9 19 be 66 ab a0 3c
       -0.026236938 -0.121964134 -0.15012322 0.01961298
0001c0 01 e0 b6 bc 8d ae 03 3d 87 61 57 3c 3f 0b 9a bc
       -0.02232361 0.032148886 0.013145811 -0.01880419
0001d0 5d b5 32 be e0 b1 03 bc 73 62 01 bd 5f c9 39 be
       -0.17451997 -0.008038014 -0.03158803 -0.18143223
0001e0 3d 9d 43 be 67 d5 ff 3c 4a 49 2f be 1c 6b a9 bb
       -0.1910295 0.031229688 -0.17117801 -0.005170239
0001f0 69 71 83 3c b6 f7 c8 bd b6 9e 68 3a f1 1e 29 be
       0.01604529 -0.09812872 0.00088737474 -0.1651571

network_body.linear_encoder.seq_layers.2.weight f4 [128, 128]
000000 fc 66 3e 3c 46 3e 84 bd 1c 40 af bd 6b 6c 92 3c
       0.011621233 -0.0645719 -0.0855715 0.017873963
000010 88 d2 20 bd ff 0d 7f 3d 79 ac f2 3c 46 49 83 3d
       -0.03926328 0.062269207 0.029623257 0.0641046
000020 ce 3a 76 3d c0 14 b2 3c 61 4c 79 bc ce 88 cb 3c
       0.060114674 0.02173841 -0.015215964 0.024845507
000030 26 59 be 3c 73 7a 16 3d 96 87 62 3d 8e 3e 8f bd
       0.023235869 0.03673787 0.055305086 -0.06994353
000040 58 c1 6e 3d 06 71 25 bd a8 d5 9e bd 40 a1 b8 3d
       0.058289856 -0.04039099 -0.077555954 0.09015131
000050 17 6b 6a 3a 4e 75 01 3e 76 09 01 3d 5d 08 01 3c
       0.0008942349 0.12642404 0.031503163 0.007875529
000060 eb a2 c8 bd 3f 9a f1 bd 23 02 0f bd 53 12 dd 3b
       -0.09796699 -0.11796998 -0.034914147 0.006746569
000070 ec 34 29 bd ec 01 eb bd 53 1a a8 bb 1a 5f 5b bd
       -0.041310236 -0.11474976 -0.005130091 -0.053557493
000080 25 30 a1 3c 39 8d 78 3d 9f 8f 0a bd e5 8c e1 bc
       0.019676277 0.060681555 -0.033828374 -0.027533004
000090 67 f1 3b bd 33 87 9a 3d f2 c5 bf bd 99 d2 9f bc
       -0.045884516 0.075453185 -0.09363927 -0.0195096
0000a0 a6 90 2f bd 69 6f 98 3d b4 db 13 3d 85 11 92 3d
       -0.042862557 0.07443125 0.036098197 0.07132248
0000b0 38 f4 34 bd 38 c1 b4 bd 41 cc fe 3a 01 59 94 bc
       -0.044178218 -0.08825916 0.0019439535 -0.018108847
0000c0 67 9e 69 3c f3 b8 0c bd ee 76 b2 3d 4c bc 28 3c
       0.0142589575 -0.03435607 0.0871409 0.0102988
0000d0 1d 40 ec bd 1c 97 4a 3d 37 0f e0 3b 1b 84 fe bd
       -0.11535666 0.049460515 0.0068377513 -0.12427541
0000e0 62 1a d5 3d 93 ad 59 3d 1c b2 74 3d 0a f4 43 be
       0.10405423 0.05314405 0.05974017 -0.19136062
0000f0 ad 9a ab bc 78 a5 c3 3c 74 cf c1 bd 29 c4 3d 3d
       -0.020947779 0.023882613 -0.09463397 0.04632965
000100 e8 54 43 3e a3 9a 34 be 66 d3 b8 bc 72 e9 2f 3d
       0.19075358 -0.17637114 -0.02256174 0.04294724
000110 39 a2 87 bd 13 41 07 be 3c a3 21 3d 3a 35 25 be
       -0.066227384 -0.13208418 0.039462313 -0.16133586
000120 88 dd b8 bb b5 18 dd 3d 45 9a d0 3d df 21 42 bd
       -0.005641643 0.10795728 0.101856746 -0.047395583
000130 b1 a5 bf 3d fb 68 eb bd fe 14 f1 3d 3f 5a f6 3b
       0.09357775 -0.11494633 0.11771582 0.0075180824
000140 6c 57 9d 3d 33 f7 37 3c 57 78 c2 3c f5 f0 b5 bd
       0.0768269 0.0112283705 0.023739023 -0.088838495
000150 9d 2d b4 bd 95 14 ee 3c 59 6d e0 bc 5d 06 60 3c
       -0.087977625 0.029062549 -0.027395891 0.013673392
000160 89 68 bf bb d2 0e 23 3e 2f 20 90 bd bd 21 01 3d
       -0.005841319 0.15923622 -0.070373885 0.031526316
000170 eb ab 19 be c8 ce 88 3e 53 82 74 ba 76 99 30 bd
       -0.15006988 0.26720262 -0.0009327281 -0.0431151
000180 de 5d 42 3c 40 5f 40 bd 75 c7 68 3d 10 ca 9f bd
       0.0118632 -0.046965837 0.056830842 -0.07802212
000190 f2 6c 28 be 51 60 4c 3d 54 d8 b6 bd da bd 65 3c
       -0.1644781 0.049896542 -0.0892798 0.014022315
0001a0 58 04 59 bd a4 3b 12 3c b2 71 be bd e2 e3 4d 3c
       -0.05298266 0.008925352 -0.092990294 0.0125665385
0001b0 cd 3d ea bd 2b 8e 4d bd 72 04 e9 3b 35 75 55 bc
       -0.11437569 -0.05018441 0.0071111256 -0.013028433
0001c0 5f ef 8f 3c 28 c3 19 bd 16 3b 45 3d 87 b0 6d bc
       0.017570196 -0.03753963 0.048152052 -0.014507419
0001d0 9b 33 8c 3d cd d3 b8 bc ab 45 0a 3e e7 f2 b3 3d
       0.068457805 -0.022561932 0.13503139 0.08786564
0001e0 3c c7 51 3d 6d 6e 92 3d 7d 6e 1d 3d 31 85 0f 3e
       0.051215395 0.07149968 0.038435448 0.14015652
0001f0 e8 82 25 3d ff 0d 8c bc 35 3a 9f 3d 4a c2 ae bc
       0.040408045 -0.017096518 0.07774774 -0.021332879
000200 b7 88 aa bd 02 bb 6b bc e6 b7 a5 3d 85 8e dc bb
       -0.083268575 -0.014387848 0.080917165 -0.006730857
000210 88 27 f2 bd 9e 8f f2 bd b3 8c 57 3d 09 ba 0b be
       -0.11823946 -0.11843799 0.052624416 -0.13645186
000220 fd 35 4f be 31 13 a7 bc 5e 42 7e 3a d5 79 b7 bb
       -0.20235439 -0.020394893 0.00096992205 -0.0055992403
000230 37 64 bf 3c 4b 3c 6c bd 27 66 0e be 5c 0c 4b be
       0.023363216 -0.057674687 -0.13906156 -0.19828933
000240 05 cc 28 be f1 ae cf bd 03 37 9b 3d 73 b9 0a be
       -0.16484077 -0.10140789 0.07578852 -0.13547306
000250 c6 cf 1b bd ba 91 34 bc 04 02 25 3d cb 57 b8 bd
       -0.038039945 -0.011021072 0.040285125 -0.0900112
000260 a4 6c 3c 3d af 62 6b be 49 8d 2c 3e fc b9 0c bc
       0.046002045 -0.22986864 0.16850771 -0.008589264
000270 29 b6 b8 3c 80 ee 1f bd 8f 8e 2a be 2d 1e c7 bc
       0.022547798 -0.03904581 -0.16655944 -0.024306381
000280 b6 69 3e 3e 6a 77 6e 3d 8f e3 a6 3d e2 c0 1d 3e
       0.18595013 0.05821935 0.08148872 0.1540561
000290 27 49 a9 3d 35 21 29 3e a5 96 ef 3c a5 2d 89 bd
       0.08265906 0.16516574 0.029246638 -0.06698159
0002a0 4d 7c e9 3c 03 8b e9 3b df 00 53 3d f9 c5 7f be
       0.028501654 0.007127167 0.051514503 -0.24977864
0002b0 38 5e 47 3e 37 9b 25 3c 01 0f e0 3c cf c1 19 bc
       0.19469535 0.010107807 0.027350904 -0.0093845865
0002c0 e2 96 8a bd a2 fc ad 3d 82 22 d7 bd 8a c8 bd bd
       -0.0676706 0.084954515 -0.10504629 -0.092667654
0002d0 93 08 83 3e 93 43 d1 3d 8e c5 a9 3d fb 3c 17 be
       0.2559248 0.10217967 0.08289634 -0.14769356
0002e0 9f 5a fc 3c 38 cf b2 3d 51 85 24 bd 82 75 86 bd
       0.03080493 0.0873093 -0.040166203 -0.065653816
0002f0 7c 86 10 bd 32 c2 81 3d ef 09 77 bd 56 d3 23 bd
       -0.035284504 0.06335868 -0.060312208 -0.039996468
000300 cd 55 6c 3d cb c4 51 bd 99 54 3c bd 69 c8 1a 3e
       0.057699014 -0.051213067 -0.045979116 0.15115513
000310 09 57 8d 3d bd 7c 2a 3e 80 d5 00 3e 8a 0b b3 bd
       0.06901366 0.16649146 0.12581444 -0.08742435
000320 32 a4 5b 3d bb 0f fb 3b 72 f4 01 be ac e4 3f be
       0.053623386 0.0076617873 -0.12690905 -0.18739575
000330 21 00 33 be 61 e4 c7 3c 87 79 2d 3c a1 f2 bf bd
       -0.17480518 0.024400892 0.010588056 -0.0937245
000340 af 3b 46 3e 1d 7f 10 be 84 ce 8f 3d 29 b4 72 3d
       0.19358705 -0.1411099 0.070218116 0.059253845
000350 4c 8b ca 3b fe e8 87 bc 9b 47 40 3c 57 d1 f4 bc
       0.0061811563 -0.016590592 0.011735822 -0.029884977
000360 6c 3e 78 bd d8 bb 84 3d c4 61 9d bc fd 2e 7e be
       -0.060606405 0.06481141 -0.019211657 -0.24822612
000370 d6 32 af bd 54 72 52 3d 45 a4 9d bb 7a e3 1e 3d
       -0.08554618 0.051378563 -0.004810842 0.038791157
000380 eb 45 f0 3d 70 62 65 3d 69 b9 ac bd 2b 3d e5 bc
       0.11732086 0.05600208 -0.08433802 -0.027983269
000390 62 29 be 3d 11 9c 24 bd ab c0 d6 bd cb c3 56 bd
       0.09285237 -0.0401879 -0.10485967 -0.052432816
0003a0 53 ca e0 bd e7 78 de 3d 12 1a d7 3a d3 24 0e 3e
       -0.1097609 0.10862904 0.0016410968 0.13881235
0003b0 00 59 3e 3d f1 4b 4f bd f3 2e 67 bd 90 47 5f bc
       0.046471596 -0.050609533 -0.05644126 -0.013627902
0003c0 23 8d fd bc 02 a5 25 be c9 db 16 3c db 0b 97 bd
       -0.030951088 -0.16176227 0.009207674 -0.07375308
0003d0 61 eb 2c be da b0 00 be b9 85 d9 bd 08 62 b7 bd
       -0.16886665 -0.12567464 -0.10621209 -0.08954245
0003e0 c4 78 00 3e b3 2e a7 bd 62 2f 28 bb 20 69 d4 bd
       0.12546068 -0.08163204 -0.0025663008 -0.103716135
0003f0 07 07 2f bd fa 69 9c bd 0d 2f 30 bd db dc ed bd
       -0.04273131 -0.07637401 -0.04301362 -0.116143905
