Learning/results/test5/KartAgent/KartAgent-1099968.onnx (onnx, 108737 bytes, 7 tensors)

41 f4 [1, 2]
00000000: 0881 18bf ba55 86bf
-0.59571886 -1.0494912

distribution.mu.bias f4 [2]
00000000: 5ff1 d53c 8d9b 1e3e
0.026116071 0.15489025

distribution.mu.weight f4 [2, 128]
00000000: 42fe 263b ff56 3e3d 55ae 673b 13f0 0abc
00000010: e1bb 6cbd 46af c63b 46de cb3a 77ed 2f3c
00000020: fed1 cb3d c17a 2ebb 04e2 b13b 846a 893c
00000030: 6e10 c23c 7d25 343b d9ed c3bb 3d89 033e
00000040: 53e8 063a 46d1 033e 072a 5bbd 28a7 863d
00000050: b16c adb9 a903 08bc fe87 823d a533 853b
00000060: 35c6 2b3b 9549 3a3d 6ff3 1cbe 9573 36be
00000070: a17d 6f3b cf9f 91bd 5cbe c6ba 3fc0 c1bd
00000080: 6f9c 11ba 8964 113c b7e8 c43a 181a 0cbd
00000090: 99c9 943b 4285 15be c435 683d 3c7a 93ba
000000a0: de23 74bd c09b debd f78a 013e 382a 153b
000000b0: caa2 843a c626 a9bd 4fd2 b3bb d64f 1dbb
000000c0: a239 5b3b b751 913b 5824 2dbb 507e 19bb
000000d0: 2590 a63a 3552 71bc d945 e2ba 17bf 74b9
000000e0: 70b5 263e 7fa0 8e3a 0fdb af3b e0b7 d3bb
000000f0: 517b c23d cc4f 393e 98c3 f1bb b8b4 5eba
00000100: 025f b4bb 1c5d 0cbb 09e8 8f3b 07a1 163c
00000110: d8e0 253b 8c13 edba f39f c438 dfb8 ba3b
00000120: d7d8 313b c8dd 24ba c8f8 adba d5b9 08bd
00000130: e7b8 b9bb bebb c1b9 31d5 93bd 3746 bebb
00000140: 8ab1 94bc c141 c43d 5cdc 6b3b 00d0 973d
00000150: 4ea5 7f3c 8185 91bc bf46 443c 9b6f 9c3b
00000160: b77a f9bd fbe0 b8bc 0110 dc3a ce17 2b3d
00000170: 967d a6bb 54ca eebb 3747 3e3a 619f 713a
00000180: a19e 333b 84b4 fdba f574 dd3a ff0e 0d3b
00000190: 4bbb 7139 9762 75bc 9456 833d a74e 143e
000001a0: 98be 2c3b e09d c8bb 4ac9 84ba 7199 a4bc
000001b0: 5e1c 18bb ecec ea3b d85b 81bc 36ea d0ba
000001c0: f9e2 2c3d 4b95 2c39 f60b 05bc a969 993d
000001d0: 437a 39bc 37a9 acbb e153 65bb d76d 3e3b
000001e0: 7f7d 3abd f213 0abe 0a3d 6cbc 747b c6bc
000001f0: 450b faba 6a45 79bd 635b 81bb 7ab9 aebc
00000200: 003a 89bb d59a bbba 2aea fcbd 288e cebd
00000210: 3f96 4c3c 348b 39bb a3d7 ee3a 03ec 9abb
00000220: 567a 84ba acf2 893a 886f 6b3a ed7c 6eba
00000230: 8890 c7bd 1318 983b f848 25be 924d d83c
00000240: 93f5 1abb 5d24 513c affc c43a 07c3 86bb
00000250: fd12 c539 d6e0 34bb 4084 dcba 7934 8fba
00000260: 5c5f 05be ddf1 04be bdb5 f93c 304c c63c
00000270: 2c34 f7bd d78f d73b 8029 60ba ba7b e3bb
00000280: acec 0dba fd3d 2839 730b fe3a 86f5 24be
00000290: 80b9 d239 5447 df3c 5dd3 b73b 712c a1ba
000002a0: b7cb b3bc 279a 633c 9ad2 cb3b 2ac5 19bb
000002b0: 8ac5 debd 96d1 9b3c af3d 8dba f00b 10bb
000002c0: 390f 163b fc57 f0b9 f3bc ffbd 18be e33a
000002d0: ed9e 20be 8df7 f0bd 2d78 12be c588 3bba
000002e0: 571c 763c d691 07bb 6791 ae39 929b d9bd
000002f0: 22d6 a4bb 0cca 233d 2ec5 523b 5f3d 40b9
00000300: 1870 fabd ad5c 16bb d21c 6d3a 2be1 cdbb
00000310: d754 9d3a 8761 1e3b 3e82 b33b 9d02 153a
00000320: 94a5 d0ba 4fd0 f138 91d9 b339 1ac8 0abe
00000330: cf07 403a bf20 9f3a 40d1 97bb 60b5 183b
00000340: 652d fcbd b577 c53b e52e c63a 19f7 b6bb
00000350: 480d 24be 7a7e e5bd c743 cfbd c4f5 303a
00000360: 60c4 c53c 32b7 f8bd f64a 5dba 3bb6 91bc
00000370: 1176 f9bd c12e f0bd 990a 1d3b 0166 f739
00000380: 47e7 3a3b a2ea 253b 1b1c 753a d3cd 4fbb
00000390: a2d6 713a b3e3 06be 7810 c53a 55f8 0a3c
000003a0: 428d 033b 5940 003b 51f0 a5ba 940e f6bd
000003b0: e86d 0b3c 9ec0 eebd 3f40 1bbe 493f f23a
000003c0: d240 78bc 0e9c 31bb 1124 223b 777b c5bb
000003d0: 164a e4bd a997 43ba 49e4 c3ba dc7e e8bd
000003e0: 624b 08be 441e d43c 35bd f7bd a413 8ebb
000003f0: 0e7f df3a 5acc 33bc 67c5 87ba 364c 18be
0.002548114 0.046469685 0.0035351713 -0.00848009 -0.057796363 0.0060633747 0.0015553914 0.010737768
0.09952162 -0.002662346 0.0054285545 0.016774423 0.023689475 0.0027488165 -0.0059792814 0.12845321
0.00051463133 0.128728 -0.053506877 0.06574851 -0.00033078113 -0.008301654 0.06373595 0.0040649944
0.002621067 0.04548033 -0.15327238 -0.17817529 0.0036543387 -0.07110559 -0.0015162933 -0.09460496
-0.00055546215 0.008874067 0.0015022968 -0.034204572 0.004540634 -0.14601615 0.0566919 -0.0011251639
-0.059604518 -0.10869551 0.12650667 0.002276076 0.0010119316 -0.082593486 -0.005487717 -0.0024003885
0.00334511 0.00443479 -0.0026419368 -0.0023421235 0.0012707753 -0.014729072 -0.0017263248 -0.0002334084
0.1628015 0.0010881572 0.00536669 -0.0064611286 0.09496177 0.18096846 -0.007378053 -0.0008495557
-0.00550449 -0.0021417802 0.0043916744 0.009193665 0.002531102 -0.001808749 9.375801e-05 0.005698308
0.0027137303 -0.00062891515 -0.0013272995 -0.03338035 -0.005667794 -0.00036951707 -0.072183974 -0.00580671
-0.018151063 0.09582854 0.0035989499 0.0741272 0.015603377 -0.017763855 0.011979758 0.0047740466
-0.12181609 -0.022568217 0.0016789438 0.04177075 -0.005080889 -0.007287303 0.00072585366 0.000921717
0.0027407783 -0.0019356166 0.0016895818 0.002152383 0.00023053323 -0.014977119 0.06412998 0.14483128
0.002635872 -0.006122336 -0.001013079 -0.020092698 -0.0023210268 0.0071693566 -0.015790865 -0.0015938941
0.042208645 0.00016458814 -0.0081205275 0.07490856 -0.011320653 -0.0052691954 -0.0034992623 0.002905717
-0.04552984 -0.13484171 -0.01441885 -0.024228789 -0.0019076845 -0.060857214 -0.0039476617 -0.021328676
-0.0041878223 -0.0014313111 -0.12349351 -0.10085708 0.012486993 -0.0028311731 0.0018222224 -0.004727842
-0.001010726 0.0010524592 0.0008981158 -0.0009097595 -0.09744364 0.0046415417 -0.16141117 0.026404176
-0.0023644909 0.012765017 0.0015028919 -0.0041126045 0.00037588915 -0.0027599833 -0.0016824082 -0.0010925672
-0.13024658 -0.12982889 0.030482167 0.02420625 -0.12070498 0.0065784263 -0.0008551106 -0.0069422396
-0.000541399 0.00016044821 0.0019382074 -0.16109285 0.0004019253 0.027255692 0.0056099133 -0.001229657
-0.021947725 0.013891733 0.006220174 -0.0023463466 -0.10877521 0.019020837 -0.001077583 -0.0021979772
0.0022897257 -0.0004584192 -0.12487211 0.0017375378 -0.15685625 -0.117659666 -0.14303656 -0.0007153864
0.015021405 -0.002068629 0.000332962 -0.10625376 -0.0050304094 0.03998761 0.0032160985 -0.0001833341
-0.122284114 -0.0022943423 0.0009045127 -0.0062829456 0.0012003434 0.0024167018 0.0054781726 0.00056842883
-0.0015918487 0.00011530576 0.0003430364 -0.13552895 0.00073253823 0.0012140496 -0.004633099 0.0023301467
-0.12313346 0.006026233 0.0015120177 -0.0055836556 -0.16020691 -0.11205764 -0.101203494 0.0006750489
0.02414149 -0.12144317 -0.0008441651 -0.01778709 -0.121807225 -0.117276676 0.0023962616 0.0004718751
0.00285192 0.0025316854 0.00093501963 -0.0031708374 0.0009225403 -0.13172798 0.0015034815 0.0084820585
0.002007321 0.0019569604 -0.0012660121 -0.12014499 0.00851009 -0.116578326 -0.15161227 0.0018481995
-0.015152173 -0.0027101072 0.0024740736 -0.006026681 -0.11146943 -0.0007461259 -0.0014945354 -0.113523215
-0.13310006 0.025893338 -0.12096635 -0.0043358374 0.0017051415 -0.010974014 -0.0010358513 -0.14872822

network_body.linear_encoder.seq_layers.0.bias f4 [128]
00000000: 24bd 2fbd b113 a9bc b4bd 8abc c726 4ebc
00000010: ffaf 3abd 07b7 b6bc bee5 8cbd 01bc 95bc
00000020: 3d22 b0bc 8ef7 773c 3377 1abd 105f 113c
00000030: 2c0f 5dbb 8275 65bd bd68 373d e76b 54bc
00000040: b1ae 2d3b 0cf5 2a3b 28b4 edbc f5b1 30bd
00000050: cdab 82bc bd27 7dbd 55d6 0fbd 98fb 0d3c
00000060: 6c0b f7bb d3bf cfbc 7add 4ebd e783 bc3b
00000070: 9ea4 c2bc 46fc 663c 205b 07bd 41cc fd3b
00000080: 8df0 723c 62d0 bebc d337 90ba 6d3d 8bbd
00000090: dac3 baba 514d 12bc dc7e a8bc 7583 9dbc
000000a0: 135f 99bd f17d 24bd 1cf4 83bb 68a9 a8bb
000000b0: de20 813b 4d2c 2fbd 9b9a 463c 33df b6bc
000000c0: 6216 173d 5e8a b43b 69fe 333b e781 fe3c
000000d0: 2701 09bd 3579 70bb 9bb1 543b cf40 0e3d
000000e0: c733 1ebd b0a0 01bd d6a4 6c3b 0dc0 9fbd
000000f0: bd6f 033c aa61 e03b e569 fc3c e161 7f3c
00000100: 8856 50bc 7fdf 40bd bb10 1cbd 8c84 11bc
00000110: a6e6 5d3a 5874 8dbd 4d02 1f3d 96ec 20bd
00000120: 6e8a 3bbd d35d d2bc 12c1 fcbc 6d6e fabc
00000130: 2f5c 433d 7c77 ecbc d522 5cbc d65c e6bc
00000140: a816 643c 6332 31bd aa8b 0f3c 926d a9bd
00000150: b936 3bba bdf0 6ebc 3e1f e9bc 0da9 4bbd
00000160: d0d2 03bc fb5f fdbc 50a4 4ebd 6a21 64bc
00000170: c5df 37bd 1462 f0bc 4e3a a4bd 9f60 f5bc
00000180: 6d54 96bd d904 2bbd 9016 a03b be21 4ebc
00000190: 514b 70bd 227d 16bd 8832 033c 618b 003c
000001a0: 7eb5 0c3c c2ad bf3c 01fc 713c 92c1 f6bc
000001b0: 2f1f aebc cf72 18bd 6d3c 4f3d 7b65 7ebd
000001c0: 8ad7 66bd 9816 94bc 94e7 78bd 6aa2 9abd
000001d0: c1a9 903a 2e37 533b a620 0dbd 3f5c 583c
000001e0: e763 913b 5ce8 733c 1bf5 103b 4e3a 12bd
000001f0: b6c3 88bd 01b5 7ebd 9c03 d2bc ef8a 99bc
-0.042904988 -0.020639272 -0.01693616 -0.012582487 -0.045578 -0.022304071 -0.06879757 -0.018278124
-0.021500701 0.015134705 -0.037711333 0.008872762 -0.0033730967 -0.056020267 0.04477762 -0.012965179
0.002650183 0.0026086 -0.02901657 -0.043138463 -0.015951062 -0.061805476 -0.035116512 0.008665942
-0.0075392034 -0.025360024 -0.050504185 0.0057530287 -0.023760136 0.014098233 -0.033045888 0.007745296
0.01482786 -0.023292724 -0.0011002965 -0.067988254 -0.0014249042 -0.0089295665 -0.020568304 -0.019227723
-0.07488837 -0.04015917 -0.004026903 -0.005147148 0.0039406857 -0.042766858 0.012121822 -0.022323227
0.03688658 0.0055096587 0.0027464873 0.031067802 -0.033448365 -0.0036693339 0.0032454494 0.034729775
-0.038623597 -0.031647384 0.0036108992 -0.07800303 0.008022246 0.00684758 0.030812213 0.015587301
-0.012715943 -0.047088142 -0.038101893 -0.008881699 0.000846485 -0.069069564 0.038820554 -0.039288126
-0.045786314 -0.025679504 -0.030853782 -0.030570233 0.047695335 -0.028865568 -0.013436039 -0.02812044
0.013921417 -0.043260943 0.008761326 -0.08272852 -0.0007141638 -0.014583764 -0.02845728 -0.049721766
-0.008045867 -0.030929556 -0.05044967 -0.013923982 -0.044891138 -0.029343642 -0.08018933 -0.0299533
-0.07340322 -0.04175267 0.004885502 -0.012581287 -0.058665577 -0.03674043 0.008007653 0.0078457305
0.008588193 0.023398284 0.014769555 -0.030121598 -0.021255104 -0.037218865 0.050594736 -0.062108498
-0.056357898 -0.01807718 -0.060767725 -0.07550509 0.0011036919 0.0032228935 -0.034454964 0.013205587
0.004436958 0.014886942 0.002211875 -0.035700135 -0.06677954 -0.062184338 -0.025636487 -0.018743007

network_body.linear_encoder.seq_layers.0.weight f4 [128, 77]
00000000: 7bf2 4fbe 02fa ef3c aa10 97bc 141e 3abd
00000010: 609b c7bd e4c8 4d3d 5364 25bd 22b5 cebd
00000020: bc70 f4bd a634 923d 323e 573d bec5 5ebd
00000030: 0235 223d e8bd 21bd e156 bf3c 92b9 51be
00000040: 2fbc 6a3d 935f 38bd a319 903c 0e5a 153e
00000050: 9dd8 9dbd e6d7 923d 13f9 713d ff20 08be
00000060: 8fc8 0cbd a1af 92bd 844e a5bd 7f42 b13c
00000070: 759a 2a3e b22d ee3d 1a42 e63b e804 d2bd
00000080: 6bbf 913b 6e7a dc3d 2036 233e 75a4 47bb
00000090: bce3 99be 0fa8 a33d 8c66 023b 3ee8 1dbe
000000a0: 0dc6 7e3d 6bbc 2fbd f37e 953d d57f 69be
000000b0: c094 19be 49ec b2bd 5acc 8dbe d45c a4bd
000000c0: cac5 4abe 7870 07bd f805 b9bd 4813 5fbd
000000d0: 68c0 23bd 7d9b 86bd 3235 353d c6d6 4ebd
000000e0: 861d 843e 84ef 0b3e 7364 81be cdda 793c
000000f0: 4391 f73d 22f7 4ebe d5ce 5ebd 176b 64be
00000100: 621f 853e edd6 11be 2981 443d e399 b0bd
00000110: 4dbe 8abe 4d35 d73e fff5 00bd 19cf efbc
00000120: f0d7 48be 09e8 c93e 7851 2abe 8a94 cbbd
00000130: 7f7b 6ebd 2106 ebbd 500a b8bd afd5 58bc
00000140: b33e e0bd 8725 8b3d 4447 c73b 0315 743d
00000150: 8064 ab3e 27ea 83be 7c88 dfbd 5223 11bd
00000160: 2934 b9bd b5cc 1dbe 5a52 023d 18be 3dbb
00000170: 2577 a63d a2e9 c4bd eada 05be 52db 3abc
00000180: a8aa 713d 803c f7bd 6526 b03d 221d e13d
00000190: 16dd 303c a221 d3bd c1d7 763c dc3e ca3d
000001a0: 5abf a9bd 6e65 a9bd 5f18 e7bb 70c1 953d
000001b0: ccef f8bd 4627 a6bd 9587 eebd bef0 223d
000001c0: 2399 d0bd fc94 983d b4e2 3fbd 409d 9abc
000001d0: 1d62 db3c 621a 223e 24df e33d 4e84 f2bb
000001e0: 6559 38be 0f6c 133e fe0a 21bd 7a8d 9abd
000001f0: 03ed 00be 9513 e2be 337a aabc 612a db3d
00000200: 9ada 373d f52d 4a3d 49cd 09be 2c96 75bb
00000210: 7412 2cbd 9bc3 03be ebb2 993d 70c1 453e
00000220: 04df 3fbd f300 583e 2f3c b63c 461f 813e
00000230: bc58 ee3c c77d 5fbd 3f6c 143e 3065 a53c
00000240: 191b 93bd f946 583e b908 abbe 21cd 383e
00000250: 439d 0bbe 3a93 323e af26 b2be e83d e43d
00000260: c3f0 53be f268 15be 6cd7 1fbe 3740 793e
00000270: c44d 88bd 392f 0fbe 9fb5 3abd 0308 293d
00000280: ca29 8fbd 1dc2 07be 6471 003e 9807 05be
00000290: a268 05be 57fa 803b 28c4 493e 4c98 06bd
000002a0: 0fdc b13b c1ff f73d 4f12 9f3d 77fa 083e
000002b0: 6daf a33c 12ed 78bd 3893 8cbd 2620 ba3c
000002c0: 879c de3d c219 a3bd 8866 38bc 3dbd 6bbd
000002d0: 8863 4ebd b97d c73a b929 7c3c b510 f4bd
000002e0: baaa 7abd bfcc ffbd ec43 ea3c e9b2 acba
000002f0: eec1 193d c9fc fcbd 690a d5bd 70b5 bcbd
00000300: e689 c13e 081f b1bd 4db3 92bb 86a2 52bd
00000310: 325d a73d df74 223e 1a4b 2fbc fb15 b3bc
00000320: 3e17 9ebc 47ba e5bb 4bbb 55bd 4d11 98bd
00000330: 11f4 c4bd 6af8 af3c da8d 9d3d 3c9c 31bd
00000340: f0a9 d63d 90e6 513e d6f7 c93d fd97 b43d
00000350: 557f 44be ab19 0cbe 2cfd 07be 7cc6 b4be
00000360: 703a d9bd d4b9 ee3d a046 e13d 98dd 84bb
00000370: 883b 0c3e 6b13 1fbe 9fd9 2a3e 6955 83be
00000380: c1a0 0e3c 471b 1cbe 5565 f43d 23e0 83be
00000390: 24e4 bcbb 223a d43d 3834 2bbd 4d43 3b3c
000003a0: efbc 20bc 183f 50bd 3076 203d 269e f2bc
000003b0: d01a 2fbe f662 173e f340 483d 0ff0 f0bd
000003c0: f0f9 583d 9007 1f3e 6464 623d 6f91 3b3e
000003d0: b558 1b3d 7894 963d 9f06 fbbc 8294 3fbc
000003e0: f59a 2e3e bdf0 593d c75d 033d 6545 93be
000003f0: d407 0c3d b4f8 ad3d 316b fe3d b7f7 0b3e
-0.20307343 0.029294018 -0.018440563 -0.04543884 -0.09746432 0.050240412 -0.04037888 -0.10093142
-0.11935565 0.07138948 0.05254955 -0.0543878 0.039601333 -0.03948775 0.023356857 -0.20480946
0.057308372 -0.04501302 0.01759035 0.14585134 -0.07707331 0.071700856 0.059075426 -0.13293837
-0.034370955 -0.07162405 -0.08071616 0.021638153 0.16660483 0.116298094 0.007026923 -0.10254842
0.0044478676 0.10765539 0.15938616 -0.0030463014 -0.3005656 0.07991039 0.0019897548 -0.15420625
0.062200595 -0.0429043 0.07299604 -0.2280267 -0.1499815 -0.08736474 -0.2769497 -0.08025518
-0.19802013 -0.033066243 -0.090343416 -0.054461747 -0.039978415 -0.06572626 0.044240184 -0.050497793
0.25803775 0.13665587 -0.2527195 0.01524992 0.12088253 -0.20211461 -0.05439647 -0.22306477
0.26000506 -0.14242144 0.04797474 -0.086231016 -0.27098313 0.42032853 -0.0314846 -0.029273557
-0.19613624 0.3943484 -0.1663264 -0.09940441 -0.058223244 -0.11475778 -0.08986342 -0.01323454
-0.10949459 0.06794267 0.0060814936 0.05959035 0.33475113 -0.25764582 -0.10914704 -0.035434075
-0.09043152 -0.15410121 0.031816818 -0.0028952416 0.08128194 -0.096148744 -0.1307179 -0.011404829
0.05900064 -0.12072086 0.08601073 0.10991885 0.0107948985 -0.10309149 0.015066088 0.09875271
-0.082884505 -0.08271299 -0.007052466 0.07312286 -0.121551126 -0.081129596 -0.11646954 0.03978037
-0.101854585 0.074502915 -0.04684706 -0.01887381 0.026780182 0.15830377 0.11126545 -0.007401026
-0.18002851 0.1439669 -0.039317124 -0.07546516 -0.12590413 -0.44155565 -0.020810222 0.107014425
0.04488621 0.049360234 -0.13457216 -0.0037473543 -0.042009786 -0.12867586 0.07504829 0.19312072
-0.046843544 0.21094112 0.022245495 0.25219172 0.029095046 -0.05456331 0.14494418 0.020189852
-0.07182903 0.21120824 -0.33405092 0.18047 -0.1363421 0.17438975 -0.34795138 0.1114462
-0.20697312 -0.14590815 -0.1560952 0.24340902 -0.066554576 -0.13982858 -0.045583364 0.041267406
-0.069903925 -0.13257642 0.12543255 -0.12991178 -0.13028196 0.003936093 0.19703734 -0.032860085
0.0054278444 0.12109328 0.07767164 0.13376795 0.01998111 -0.060772963 -0.06864017 0.022720408
0.10869699 -0.07963897 -0.011254914 -0.05755352 -0.05038789 0.0015219963 0.015390807 -0.11917249
-0.061197974 -0.12490224 0.02859684 -0.0013175878 0.03753846 -0.123529024 -0.10402376 -0.09214294
0.3780052 -0.08648497 -0.0044769407 -0.051424526 0.081720725 0.15864895 -0.010699058 -0.021861067
-0.019298192 -0.0070107314 -0.05218057 -0.07425175 -0.096168645 0.021480758 0.07693072 -0.043361887
0.10481632 0.20498109 0.09861724 0.08818052 -0.19189198 -0.13681667 -0.13280171 -0.35307682
-0.10606849 0.11656538 0.10999799 -0.0040547363 0.13694584 -0.15534751 0.16684578 -0.256511
0.008705319 -0.1524478 0.1193339 -0.2575694 -0.005764501 0.103626505 -0.041797847 0.01142962
-0.00981067 -0.05084142 0.039175212 -0.029616427 -0.17100072 0.14783844 0.048890065 -0.117645375
0.052972734 0.15530229 0.05527152 0.18317197 0.037926394 0.07352537 -0.030642806 -0.011693122
0.17051299 0.0532081 0.032071855 -0.2876388 0.034187153 0.08494702 0.12422789 0.13668714

network_body.linear_encoder.seq_layers.2.bias f4 [128]
00000000: 2e4f 57bd 1fbe a6bc c120 04be 5144 27be
00000010: 1660 f2bc e32f 68bc 91c6 44bd 0e78 823c
00000020: 6051 1b3d 9a81 c23b a6e8 14bc 13a9 2fbc
00000030: ae31 0cbe a088 193d e98e ecbd 80d8 723d
00000040: 3b8c 9f3b e1db 963d 870e c9bd 17a7 01bc
00000050: eae6 84bc 2487 1ebd cfb7 b0bb 27c4 0bbd
00000060: 6d86 00be 28fc fbbd f693 3c3d 1cff 7a3d
00000070: 9f69 d3bd 2966 27bd 957f 2bbc 5eb2 8bbd
00000080: cb93 aebb 8efd 07bd 695f c93c 885a 26be
00000090: a3ec 93bc 5925 383d 198d 84bc dc12 e6bc
000000a0: eb80 95bd 6e00 4c3a c07a 803d 6b0e acbc
000000b0: 404a 22be abc4 5bbc b5b2 07bd c1b9 ad37
000000c0: ebb9 d5bc 9a44 703c c53b 29be ce7a d6bb
000000d0: a182 0dbe 8f3d 14be 9d5e 0fbe 9cd5 763b
000000e0: 02a8 f33d e760 eebc 4c78 12bb e47f 43be
000000f0: d9f4 eb3c 0c29 0a3e 6801 b6ba c500 243d
00000100: b891 1ebe a766 643b d988 5cbc 5a11 08bb
00000110: a5b9 ebbc 4c44 97bb 436a 6ebd 6269 ea3a
00000120: f4c6 05bd 80bd 13bb 18a0 d6bb 8db6 30be
00000130: 72b0 83bc 0e5d 9a3b 94e7 98bd d419 623b
00000140: c3cd 21be 5c99 c13c e090 df3c 665f 8f3a
00000150: f574 0cbe 38ee 19be ab66 f5bd d320 213b
00000160: cbf1 8b3c 08b4 1cbe fca2 83bb b97a 2cbd
00000170: 37f5 07be dc13 35be 4e09 b3bb 86c5 cabb
00000180: 2023 f0bc d718 6abc 7e3f 0e3b 04c3 10bd
00000190: a19d 96bc fa4e 3fbe aaa3 cf3b 5a52 aa3d
000001a0: f71b b6bc f988 673c 8f6a 9c3c 2aa6 21be
000001b0: b2df 0fbc 5d11 d2bd 0d06 04be 0ef7 753c
000001c0: e727 21bd d3a4 213d 98c0 333c b5ae 31bb
000001d0: f8d7 0fbe b97a 9ebc ab0d ccbc 143a 32be
000001e0: 226a 2abe 52df 173d c9a9 23be 4c46 b5bc
000001f0: bc7c 413b 631f b2bd a264 cf3a 34f1 16be
-0.052565746 -0.020354329 -0.1290312 -0.16334654 -0.029586833 -0.014171573 -0.04804093 0.015926387
0.037919402 0.00593586 -0.009088671 -0.010721463 -0.13690826 0.03748381 -0.115506954 0.0592885
0.0048690117 0.07366157 -0.09817224 -0.0079133725 -0.01622339 -0.0387031 -0.0053930054 -0.034122612
-0.1255128 -0.12303954 0.046039544 0.061278448 -0.1032288 -0.040868912 -0.01046743 -0.0682113
-0.005327677 -0.033200793 0.024581628 -0.16245472 -0.018057173 0.044957493 -0.016180562 -0.028085165
-0.0729998 0.00077820465 0.06273413 -0.021002969 -0.15848637 -0.0134135885 -0.033129413 2.0709705e-05
-0.02608963 0.014664793 -0.16526707 -0.006545401 -0.13819362 -0.14476608 -0.14000936 0.0037663942
0.11897279 -0.029098941 -0.0022349535 -0.19091755 0.028803276 0.1349222 -0.0013885917 0.040039796
-0.15485275 0.0034851225 -0.013460361 -0.0020762295 -0.028775046 -0.004616296 -0.058206808 0.001788419
-0.03266044 -0.002254337 -0.0065498464 -0.17257138 -0.016075347 0.0047108 -0.07466045 0.0034500258
-0.15801148 0.023632698 0.027290761 0.0010938465 -0.1371649 -0.1503228 -0.11982473 0.0024586215
0.01708307 -0.15303051 -0.004017232 -0.042109225 -0.13277136 -0.17683357 -0.0054637557 -0.0061880974
-0.029313624 -0.014288149 0.0021705325 -0.03534223 -0.01838571 -0.18682471 0.006336649 0.083164886
-0.022230132 0.014131778 0.01909378 -0.15786043 -0.00878136 -0.10257218 -0.12892933 0.015012516
-0.039344694 0.03946383 0.010971211 -0.002711219 -0.1404723 -0.019345628 -0.024908861 -0.17404968
-0.16642049 0.03707821 -0.15982737 -0.022128247 0.002952381 -0.08697393 0.0015822838 -0.14740449

network_body.linear_encoder.seq_layers.2.weight f4 [128, 128]
00000000: 06bf ce3b 52ad 5fbd 59d4 b8bd 4dab 91bc
00000010: bf00 3abd 742e 793d dc68 0c3d 3a6f 823d
00000020: ab70 803d 235a 9ebc d0a8 0cbd ad55 303d
00000030: f4bc 38bc 3e56 803c 8114 333d 9978 9bbd
00000040: 9630 7f3d 2744 73bd d152 d4bd 413e bc3d
00000050: 4571 04bd 8efa 123e 44eb 203d 5de7 05bc
00000060: 3957 cabd 5582 00be 812c 08bd 57df 62bc
00000070: 9777 ccbc e8ae fbbd e288 3cbc b6b8 9fbd
00000080: 4a95 4b3c a332 8c3d cb99 b4bc b09e acbc
00000090: 4aaa 2fbd 4a72 943d 601e aabd 2c07 1bbc
000000a0: f84f 1cbd 4a2d 9c3d 5dae 1e3d 6900 923d
000000b0: 0d15 20bd 7d1f f0bd ca58 043d 9294 6abb
000000c0: fe08 d53b 9293 53bd a8e6 cb3d 9c9e 67bc
000000d0: dba7 ddbd c169 533d 6e79 5ebc 7a99 e2bd
000000e0: e154 e43d ec97 193d 056c 153d 1747 47be
000000f0: 9672 bf3a cc1b 6cbc 2b16 a4bd ddc9 3a3d
00000100: 1dbe 263e 7cff 2fbe eb31 dfbc 7f8b fe3c
00000110: 0c66 91bd d87d 14be a957 5c3d 1d0c 2abe
00000120: b08d d3bc 9b65 e13d fb35 d63d de23 99bc
00000130: 5193 ce3d ab4a dfbd 7787 f53d f6c8 183d
00000140: e7cd aa3d 5910 8b3b c940 d03b a71c c0bd
00000150: cd60 b6bd 374a f2bb a4e2 7fbb 8f46 eb3b
00000160: f7a5 9abb 1c16 1a3e dcf4 bebd ba0e 373d
00000170: 1f25 10be 54cb 8b3e 5570 71bc 1554 b5bc
00000180: 0392 643c c664 2fbd 18d5 723d a46a 73bd
00000190: 949c 1ebe 5540 ef3c 62c6 96bd 4018 b13b
000001a0: e639 febb 3ebc fa3c 1a09 b1bd ebcd 4abc
000001b0: 5e5f 19be 5f41 3bbd b05c 593c cbb0 61bc
000001c0: e052 253d 3005 30bc 600f f53c a46e 843c
000001d0: 9a5f d63d 05d5 2fbc e96e d23d ad1b 8a3d
000001e0: cfc6 423d 9761 843d 9cee 6f3d 66e8 1a3e
000001f0: 9d2a 453d c8ce 3cbc 1bca cd3d efd6 33bd
00000200: 5617 37bd b3ce c0bc 0c0c 763d 6791 49bc
00000210: eae8 18be e8e3 edbd e360 7c3d 6ebb b5bd
00000220: dadb 6fbe 81ed e03c 3e20 9d3b 53aa afbc
00000230: fdc6 e7bc 90d0 b2bd d06a b8bd 2238 1fbe
00000240: 1867 5ebe baae 26be 9268 ad3d e195 c9bd
00000250: 77f4 7ebd 7aaa b8bc 88ee cd3d 2a9d acbd
00000260: ed88 863d a339 81be 8cb8 313e 0e98 653d
00000270: 05c9 823d e60f 83bc 6e5d 0dbe 0532 193a
00000280: 8c25 123e 14bb a83d 02d2 a93d 0b22 223e
00000290: c6a6 fd3d 7617 ed3d b4c4 6e3c 10b6 9ebd
000002a0: e903 083d fe48 caba 3098 4c3d 4752 82be
000002b0: 7df7 163e d973 b6bb d848 453d 4138 4f3d
000002c0: cc62 9abd 0efb cf3d aa38 20bd 880f f2bd
000002d0: fbd0 833e 7b3b f33d 85b8 953d 490d a6bd
000002e0: 6483 7f3d 60ec db3d cbe3 aebc 3105 81bd
000002f0: 7ee5 13bd cd61 023d e117 9dbd 7b68 38bd
00000300: 7167 3a3d 837d 50bd e743 5cbc 368b e43d
00000310: f032 8d3d 00af 193e 73bd 9e3d a2e1 9cbd
00000320: 2869 a63d 4f87 ee3b ce62 86bd a7ac e6bd
00000330: 1161 51be 6431 133d 4631 ab3b f99e 28bd
00000340: 41b6 243e 620e e1bd c15f ae3d e0aa 483d
00000350: 1083 0f3c 75a1 c03c 2a0d f2bc 5384 dbbc
00000360: 1052 49bd 7ae7 cf3d f7ca 92bc 0df8 90be
00000370: 16cc dfbd d3d6 8e3d 3563 36bc 28bd 763d
00000380: 22ca e43d 1070 863d d222 eabd 7acb 61bd
00000390: 4189 ba3d f084 82bd 3606 4bbd 2455 23bd
000003a0: 9736 06be 7090 983d 7b9c 7d3d c87d bb3d
000003b0: fd82 d43d c228 29bd ff22 a4bc 7456 4abc
000003c0: fc33 67bd 3c23 45be 8e03 fa3b 0031 99bb
000003d0: 39d4 1cbe aba5 aebd 1812 f4bd 68b7 cdbd
000003e0: c10d f43d 6bac f7bd 632e 353b fba3 edbd
000003f0: 19f3 33bd 45d0 abbd a131 803c 91fb c9bd
0.006309393 -0.05460865 -0.09024877 -0.017781878 -0.045410868 0.060835317 0.03427969 0.06368871
0.0627149 -0.01933009 -0.03434068 0.043050457 -0.011275519 0.015666123 0.043720726 -0.075913616
0.062302195 -0.059391167 -0.103673585 0.091915615 -0.032334585 0.14353392 0.039286867 -0.008172837
-0.09879918 -0.12549718 -0.033245567 -0.013847194 -0.024959369 -0.1228922 -0.011507245 -0.07798903
0.01242573 0.06845596 -0.02204599 -0.021071762 -0.04288701 0.072483614 -0.08306575 -0.009462159
-0.0381622 0.07625826 0.038740505 0.071289845 -0.039082576 -0.11724756 0.03231124 -0.0035794121
0.006501316 -0.051654406 0.099561036 -0.0141369365 -0.108230315 0.051614527 -0.013578756 -0.110644296
0.11149002 0.0374984 0.03647997 -0.19460712 0.0014606293 -0.014410924 -0.08012041 0.045602668
0.1628346 -0.17187303 -0.027245482 0.031072376 -0.07099542 -0.1450113 0.053794537 -0.16606183
-0.025824398 0.11005708 0.10459515 -0.01869386 0.10086692 -0.10902914 0.119887285 0.037301026
0.08340054 0.004243892 0.0063553792 -0.09380465 -0.08905182 -0.007394101 -0.0039045 0.007180042
-0.0047194916 0.15047497 -0.09324047 0.04469178 -0.1407666 0.27303565 -0.014736255 -0.02213482
0.0139508275 -0.042820714 0.059285253 -0.059427872 -0.15489417 0.02920548 -0.07362057 0.005404502
-0.007758367 0.030607339 -0.08644314 -0.012378196 -0.14977786 -0.04571664 0.013266727 -0.013775061
0.04036224 -0.010743424 0.029914558 0.016166039 0.10467453 -0.01073194 0.10275061 0.0674356
0.04755288 0.06463926 0.058577165 0.15127715 0.048136342 -0.01152391 0.10048314 -0.04390615
-0.04469999 -0.023536062 0.060070083 -0.012302733 -0.149326 -0.11615735 0.061615836 -0.0887364
-0.2342371 0.027457 0.0047951033 -0.021443522 -0.028293127 -0.087311864 -0.09004748 -0.15548757
-0.21719015 -0.1627759 0.08467211 -0.0984304 -0.06224486 -0.022542227 0.10055262 -0.08428414
0.06569085 -0.25239286 0.17355555 0.056053214 0.06385998 -0.015998792 -0.13805172 0.00058439403
0.14272135 0.08238807 0.08292009 0.15833299 0.12385325 0.115767404 0.014573265 -0.077495694
0.033206854 -0.001543313 0.049949825 -0.25453398 0.14742847 -0.0055680093 0.048165172 0.050590757
-0.07538375 0.10155307 -0.03911654 -0.118193686 0.25745377 0.118765794 0.07310585 -0.08108003
0.062381163 0.10738444 -0.021348855 -0.06299818 -0.036107533 0.03183155 -0.0767057 -0.045021515
0.045508806 -0.050900947 -0.013443924 0.11159365 0.06894481 0.15008163 0.07750978 -0.076602235
0.08125526 0.0072793136 -0.06561814 -0.112633996 -0.20447184 0.035935774 0.0052243797 -0.041167233
0.1608515 -0.109890714 0.08514357 0.048991084 0.008759275 0.023514489 -0.029547293 -0.026796496
-0.049150527 0.101515725 -0.017919047 -0.28314248 -0.10927598 0.06974568 -0.011132051 0.060238987
0.11171366 0.06564343 -0.11432423 -0.05512569 0.0910821 -0.06373012 -0.04956647 -0.03987612
-0.13106762 0.07449424 0.06191681 0.0915485 0.103765465 -0.041298635 -0.020036219 -0.012349714
-0.05644606 -0.19251722 0.0076298183 -0.0046750307 -0.15315332 -0.085276924 -0.119175136 -0.100447476
0.11916686 -0.12093433 0.0027646057 -0.116035424 -0.043933008 -0.08389334 0.015648665 -0.098624356
