Learning/results/test5/KartAgent/KartAgent-1792.onnx (onnx, 108737 bytes, 7 tensors)

41 f4 [1, 2]
000000 16 ef 22 bf 7f cd 85 bf
       -0.63646066 -1.0453337

distribution.mu.bias f4 [2]
000000 db 5f a9 3c ac 9d 2a 3e
       0.02067559 0.1666171

distribution.mu.weight f4 [2, 128]
000000 e1 35 47 39 35 5d 48 3d e0 00 1d 3b 2d c2 82 bb
       0.0001899819 0.048917014 0.002395682 -0.0039904327
000010 8d 90 75 bd 29 61 c8 ba 64 9c bd 3a 18 c7 e4 ba
       -0.059952307 -0.0015287745 0.0014466164 -0.0017454354
000020 24 f6 d1 3d 65 8e 2e bb a0 ce 67 39 7c f3 23 3b
       0.10252026 -0.0026635167 0.0002210685 0.0025016954
000030 6b 15 ee 3c 8a 80 b5 b9 48 6c 2b bb 38 73 09 3e
       0.029062947 -0.0003461878 -0.002615707 0.13422859
000040 ab 69 25 3a 01 d3 07 3e 79 51 89 bd c9 ea 9b 3d
       0.0006309996 0.13264085 -0.06704993 0.07613141
000050 0a 31 14 3b 80 d1 23 3b 52 4e 90 3d 8e 1f d0 ba
       0.0022612237 0.0024996698 0.070461884 -0.0015878545
000060 f0 df 17 3c 51 ce 62 3d 42 98 2e be 25 f8 46 be
       0.009269699 0.05537254 -0.17050269 -0.19430597
000070 bf 46 0d 3c dc fe 8e bd 0f 67 21 bb 42 ed c3 bd
       0.008622824 -0.06982204 -0.0024628078 -0.09566738
000080 ed 76 60 3a 54 b2 4e 3b 98 c4 91 3a 5f cd f9 bc
       0.0008562643 0.0031539397 0.0011121212 -0.030493436
000090 36 e7 23 3b b4 56 24 be fe 8a 69 3d d4 be e7 ba
       0.0025009639 -0.160487 0.05701732 -0.0017680773
0000a0 fb 51 74 bd 9f b6 f5 bd 96 2e 08 3e 40 3e 39 b9
       -0.059648495 -0.11997723 0.13299021 -0.00017666165
0000b0 54 57 f0 3b d4 ba b4 bd ba f1 3f 3b 10 9c 51 bb
       0.007334629 -0.08824697 0.0029288367 -0.003198389
0000c0 f9 be 9e bb e7 c8 3e 3b f5 31 e4 3b aa 3b 46 3b
       -0.004844543 0.0029111446 0.006963963 0.0030247965
0000d0 19 3c 1d 3b 74 89 3e bc 76 21 ad 3b a5 3b 3e ba
       0.002399212 -0.011629451 0.00528353 -0.00072568125
0000e0 48 96 2e 3e a5 82 77 b9 2e a1 91 3c fd 50 62 bb
       0.17049515 -0.00023604424 0.017777052 -0.0034533136
0000f0 b3 c9 ce 3d e2 3f 3f 3e 48 07 01 b8 ee 40 1f b9
       0.10097065 0.18676713 -3.0762778e-05 -0.0001518761
000100 93 17 5f bb d2 21 25 3b 06 d8 7d 3a a3 ec c7 b8
       -0.003404115 0.002519716 0.0009683374 -9.5331365e-05
000110 2a 3a 2c bb e8 cf 25 bb 0e 7a a8 ba da 83 a7 3b
       -0.0026279786 -0.0025300924 -0.0012853758 0.0051121535
000120 2b 93 93 3a fd ba 26 bb f0 42 10 3b 7c 1c 02 bd
       0.001125907 -0.0025441044 0.0022012554 -0.031765446
000130 cb 27 66 bb 42 e5 55 39 db 82 94 bd fc df e4 b9
       -0.0035118933 0.00020398668 -0.07251521 -0.0004365443
000140 63 ea 3d bc e3 70 cc 3d c2 42 c9 3a 84 40 9d 3d
       -0.011591527 0.09982469 0.0015354978 0.07678321
000150 f3 b2 b4 3c e3 19 64 bc 74 49 9f 3c c0 72 42 3b
       0.022057986 -0.0139221875 0.019444205 0.0029670447
000160 7c 6b 08 be fa bc 98 bc ae 6c d7 b9 9e 92 31 3d
       -0.13322252 -0.018644799 -0.00041088968 0.043352716
000170 df a1 ab 3b cf f0 b5 bb e3 ec c4 ba f4 35 e9 3a
       0.0052378024 -0.0055523883 -0.0015024211 0.0017792569
000180 04 48 23 3b f3 e9 bb bb 02 91 d4 b9 79 c8 2d bb
       0.002491475 -0.005734676 -0.0004054383 -0.0026517196
000190 61 2b 05 3b 3b 9f 18 bc 69 79 48 3d 5e 6a 18 3e
       0.0020320045 -0.009315307 0.04894391 0.14884326
0001a0 98 c6 22 ba 40 4f 8b 3b 1b 1e 92 ba 02 a7 74 bc
       -0.00062094023 0.0042513907 -0.0011147888 -0.014932396
0001b0 53 cc d7 39 97 5e 38 3c 3b aa 06 bc e9 13 e4 39
       0.0004116023 0.011253021 -0.008219297 0.00043502383
0001c0 fa 96 32 3d 77 1a dd b9 e2 e9 ce 39 5c cb 8e 3d
       0.043601014 -0.00042172123 0.00039465638 0.069723815
0001d0 6e 24 a7 bb b9 48 22 3b 6e cd 60 39 c6 7c aa 3b
       -0.0051007783 0.0024762584 0.00021438833 0.0052028624
0001e0 80 ea 25 bd 89 e9 19 be a4 23 1d bc c1 f2 f1 bc
       -0.04050684 -0.15030493 -0.009591017 -0.0295347
0001f0 9c 83 16 bb 95 a8 88 bd a7 3e 19 3a 66 c0 6b bc
       -0.002296663 -0.066727795 0.0005845823 -0.014389133
000200 13 fa ef ba 7f 8b b7 3c e4 c6 0b be 51 93 e9 bd
       -0.0018308781 0.022405384 -0.1365009 -0.114050515
000210 48 94 97 3c 9c 59 b2 3b a9 fd bd 38 c0 da 2b 3c
       0.018503323 0.005442811 9.05947e-05 0.010489166
000220 57 56 d5 3c d1 23 83 3b d0 7b a9 3a c5 c0 35 3c
       0.026042147 0.0040020724 0.0012930576 0.011093323
000230 92 b9 dd bd 0e 55 fe 39 6d f7 32 be 17 c1 5d 3d
       -0.1082641 0.00048510026 -0.17477198 0.054139223
000240 52 39 d8 bb 9c 4b 25 3d 6b 94 53 bc f0 05 cf 3c
       -0.00659863 0.04035531 -0.012913804 0.025271386
000250 2e 36 34 bc fe 7b 3b bb 3b d3 8f 3c 97 f2 db 3a
       -0.010999246 -0.002860784 0.017556777 0.0016780671
000260 1a 5f 17 be c1 e5 12 be d9 92 bb 3c f5 4e 75 3c
       -0.14782372 -0.14345457 0.02289717 0.014972438
000270 40 93 0b be f4 a3 10 3c a4 11 e0 ba 8a d3 13 bc
       -0.1363039 0.008828152 -0.0017095101 -0.009022603
000280 7d d8 f4 3a 52 47 94 3b bd af b2 ba db c7 31 be
       0.0018680241 0.0045251036 -0.0013632696 -0.17361395
000290 2b 63 5c ba 0c 0d 86 3c fe 42 ac 3c b3 16 44 3b
       -0.0008407111 0.016363643 0.021028038 0.0029920756
0002a0 2a dc c8 bc 71 a9 27 3c 56 63 12 3d cd 2a 47 3b
       -0.024519045 0.010233269 0.035739265 0.0030390501
0002b0 e4 5f f8 bd 09 e8 be 3b c7 75 92 ba b7 1e 88 3a
       -0.12127665 0.0058260006 -0.0011174016 0.001038513
0002c0 21 30 4b 3c bc de 82 bb 97 03 0d be 59 70 0a bc
       0.012401612 -0.003993837 -0.137709 -0.008449637
0002d0 1c ae 2e be c4 2d 04 be 08 43 1f be e0 9a 24 3a
       -0.17058605 -0.12908083 -0.15552914 0.00062791817
0002e0 55 89 2f 3d dd 58 5e ba a6 cf 82 3b 36 38 f3 bd
       0.04285558 -0.00084818696 0.003992039 -0.11875956
0002f0 ca a9 e2 3c 14 04 8e 3d 18 eb ae bb 22 f8 d6 ba
       0.027668852 0.069343716 -0.005338084 -0.0016400854
000300 b8 69 0a be c4 af 34 bb 15 5e 1f bb a6 72 47 3b
       -0.13516891 -0.0027570585 -0.0024317552 0.0030433326
000310 c6 4a 6b 3a 23 9d a2 ba 77 68 5e ba 5c dc 72 3a
       0.00089756807 -0.001240645 -0.00084841944 0.00092644035
000320 05 fe b2 3b 80 fe e7 b7 22 f2 0d bb 32 80 18 be
       0.0054624104 -2.7655857e-05 -0.0021659215 -0.14892653
000330 62 99 4f 3a 7b 02 2e bb d9 0c b9 bc d2 b6 14 3b
       0.0007919279 -0.0026551771 -0.022589134 0.0022691977
000340 5c 32 09 be b7 a6 0a 3d b5 3a eb bb 8c 67 c7 3c
       -0.13398117 0.033850398 -0.0071786293 0.024341367
000350 f9 3b 32 be 66 43 fe bd 2e a2 e8 bd 04 a7 2d bb
       -0.1740569 -0.12415199 -0.11359058 -0.0026497254
000360 9f 33 80 3c db d9 08 be 1b 18 28 3b 4a 5b 74 3b
       0.015649615 -0.13364355 0.0025649134 0.0037285858
000370 c9 4e 0e be b2 4d 03 be f0 08 9b 3a e9 12 02 bb
       -0.13897242 -0.12822607 0.0011828225 -0.0019847697
000380 6c f2 7b 3a 83 14 f4 38 80 38 81 39 5b d2 e2 3b
       0.0009611014 0.00011638647 0.00024646893 0.006922049
000390 c3 ba a0 bb c7 f3 13 be 49 61 ca 3c 2d 2c 1b 3d
       -0.004905076 -0.14448462 0.024704592 0.037883926
0003a0 4c c7 f8 ba 56 60 0f bc 42 82 cc 3a ec 07 06 be
       -0.0018980294 -0.008750996 0.0015602785 -0.1308896
0003b0 4c 5f 09 ba 53 56 06 be 47 60 29 be 4c 1a 97 3a
       -0.00052403356 -0.13118868 -0.16540633 0.0011528223
0003c0 14 bc 8d 3c 52 20 f1 ba f9 05 ea ba b3 08 ec 3c
       0.017301597 -0.0018396473 -0.0017854563 0.028812742
0003d0 02 c4 fc bd 23 78 1e 3a 15 ac 5b 3a 0c 56 01 be
       -0.12342073 0.00060451234 0.0008379829 -0.1263048
0003e0 70 3c 15 be ef fe 9e 3c 64 54 08 be 85 5d 5d bb
       -0.14573836 0.019408671 -0.13313442 -0.0033777666
0003f0 2e 6a 08 3b 9d b6 d8 bc df 49 65 bb c9 38 24 be
       0.002081524 -0.026454264 -0.0034986658 -0.16037287

network_body.linear_encoder.seq_layers.0.bias f4 [128]
000000 ea 6a 60 bd 0f 51 04 3c 53 28 21 bc a1 a1 08 bc
       -0.05478946 0.0080759665 -0.009836274 -0.008339317
000010 be 0b 0e bd ff 0d e9 bc cd ab 92 bd ce 1a 3b bc
       -0.034679167 -0.028449057 -0.07161675 -0.011419965
000020 91 f7 fe ba 42 3a 82 3c 1d 44 08 bd 55 f8 7e 3c
       -0.0019452443 0.01589692 -0.033268083 0.015562137
000030 3e 45 7e 3c 05 36 6d bd fb 74 48 3d bd f4 83 bc
       0.015519438 -0.057912845 0.048939686 -0.016107911
000040 c4 80 82 3c 10 3b 09 3b f2 bd 1b bd 7f 61 73 bd
       0.01593054 0.0020939745 -0.038022943 -0.05941915
000050 c4 6a 87 bc 9d 51 8a bd 2a 85 5d bd 42 ce 27 3c
       -0.016530402 -0.06753848 -0.054082073 0.010242047
000060 86 54 81 bc b8 f9 9e bc b6 b0 42 bd bb 6e f4 3a
       -0.015787374 -0.019406185 -0.047531806 0.0018648723
000070 4a 1a 2c bd a1 2f 8a 3c 6b ec 26 bd 51 ed 1d 3c
       -0.04201726 0.016868414 -0.04075281 0.0096391
000080 5c c2 c4 3c c7 78 7a bc 02 31 28 b8 27 71 98 bd
       0.024018459 -0.015287585 -4.0099963e-05 -0.07443457
000090 c8 a3 a8 bb 86 7f c1 bb ae 7c 8e bc c4 24 13 bc
       -0.0051464774 -0.0059050946 -0.017393436 -0.008980934
0000a0 93 49 99 bd 3d a9 0e bd ab ae 85 bc 33 5b c7 3a
       -0.07484736 -0.034829367 -0.01631864 0.0015209675
0000b0 fe e4 ce 3b c6 37 65 bd 56 29 57 3b b9 fb 3d bc
       0.006313919 -0.055961393 0.0032831035 -0.01159566
0000c0 f0 b4 26 3d fa bc 02 3c dd af 0b bc bf 57 1c 3d
       0.0406999 0.007979626 -0.008525816 0.03816962
0000d0 63 b7 2a bd 15 c7 65 bc 11 fa f4 3b 87 a9 00 3d
       -0.041678797 -0.014024516 0.0074760993 0.031411674
0000e0 c1 b1 14 bd 95 57 19 bd 9f 76 16 3c 6c 5b a1 bd
       -0.03630233 -0.03743704 0.009183555 -0.078787655
0000f0 22 bd 39 3b 9c f0 90 3c 42 54 92 3c bf 3e 72 3c
       0.0028341492 0.017692856 0.017862443 0.014785468
000100 ac 6c b0 bc 1f 74 fc bc da 5d 40 bd 1a d1 94 bb
       -0.021536194 -0.03081709 -0.046964504 -0.0045415284
000110 a7 1b d0 bb 89 ed 7d bd f0 91 15 3d 61 24 55 bd
       -0.0063509527 -0.06199411 0.03651613 -0.052036647
000120 93 bb 50 bd 4c 2c f6 bc 97 6b ea bc f3 97 01 bd
       -0.050960135 -0.03005042 -0.028615756 -0.03163905
000130 15 46 24 3d 4e 6e 19 bd 42 d2 a9 bc ce 60 f2 bc
       0.040105898 -0.03745871 -0.020730142 -0.029587176
000140 d9 db 93 3c 79 bf 81 bd 40 19 1d 3c 8f a6 8e bd
       0.018049167 -0.06335349 0.00958854 -0.06965362
000150 e4 57 7c ba 11 99 37 bc cb 8b fe bc cd d2 55 bd
       -0.0009626134 -0.0112059275 -0.031072518 -0.05220299
000160 99 70 f6 3a 4e 23 81 bd 6e 46 41 bd f9 f9 96 ba
       0.0018801867 -0.06305562 -0.047186308 -0.001151859
000170 86 f7 0f bd 36 ef 27 bd ac af cd bd 01 36 15 bc
       -0.035148166 -0.040999614 -0.100432724 -0.009107114
000180 f5 de 9c bd af 02 86 bd 06 18 89 ba f6 6f c6 bb
       -0.07659713 -0.065434806 -0.001045943 -0.0060558273
000190 2c 98 88 bd 7d c8 2e bd 53 dd cf 3c 09 9e b8 3c
       -0.066696495 -0.04267167 0.02537409 0.022536295
0001a0 34 f4 19 3c 0d a1 03 3d cf c7 9f 3c 1f 84 2e bd
       0.0093966015 0.032136012 0.019504456 -0.04260647
0001b0 4f 75 e0 bc 9b dc 06 bd 7b 6d 70 3d 1c 5e 78 bd
       -0.027399687 -0.03292523 0.05869816 -0.060636625
0001c0 0e ef e1 bc e8 9d 15 bd 61 9a 47 bd 58 57 9d bd
       -0.02757981 -0.036527544 -0.04873121 -0.07682675
0001d0 ed c1 13 3c b6 86 92 3c 80 67 1a bd 00 ef 57 3c
       0.0090184035 0.0178865 -0.03769636 0.013179541
0001e0 f5 9f 5a 3c c0 ae 75 3c d9 0d 2c 3b b4 57 c9 bc
       0.013343801 0.014995277 0.002625337 -0.024577953
0001f0 11 be 68 bd 92 ed 89 bd 16 44 06 bd 5c 59 0f bd
       -0.056821886 -0.06734766 -0.032779776 -0.03499733

network_body.linear_encoder.seq_layers.0.weight f4 [128, 77]
000000 6d c2 d9 3d 25 8a 2e bd 4c 35 1a 3d d4 86 91 3d
       0.10632787 -0.042612214 0.037648484 0.071057945
000010 ff 05 39 bd 41 ce 2f bd 96 93 89 bd 93 62 7e bc
       -0.045171734 -0.04292131 -0.06717603 -0.015526432
000020 dc 28 c1 3d be 4e 0f 3d 69 84 8c bc 1d e3 b2 3d
       0.094316214 0.034987204 -0.017152982 0.08734725
000030 4a b2 19 be 3f cd 09 3e 41 04 9f bc 3d e7 11 3c
       -0.15009418 0.13457201 -0.019411208 0.008905229
000040 6a 16 42 bb 4f 6f 24 bd 58 15 b6 3d 24 8c 36 3d
       -0.002961541 -0.040145215 0.0889079 0.044567242
000050 67 da 09 be 4f f2 d7 bd 42 5c 4a bd ee ff c6 3d
       -0.1346222 -0.105442636 -0.04940439 0.097167835
000060 28 e7 c9 bd 9f 0d 22 3d 17 28 eb bb b3 7f d6 3d
       -0.09858543 0.03956377 -0.00717641 0.104735754
000070 72 b5 47 ba 4b 5a 85 bd 7b 11 3c 3e 16 e8 54 3d
       -0.0007618285 -0.06511363 0.18366043 0.051979147
000080 17 68 8b bc 79 d7 1e 3c 66 9d c2 bc 9f b4 bb bd
       -0.017017407 0.009694927 -0.023756694 -0.0916531
000090 2b 57 15 be 5a 05 a4 bd 40 50 36 be 6e 19 61 be
       -0.14584033 -0.08008833 -0.1780405 -0.21982357
0000a0 a0 c6 0b 3d 87 b1 12 bd f8 e4 0d 3e c5 33 3d 3e
       0.03412497 -0.035813835 0.13856876 0.1847678
0000b0 f5 04 08 bd a1 76 b2 3b 63 ae db bc 91 6a c7 bd
       -0.033207852 0.0054462706 -0.026816553 -0.09737123
0000c0 68 86 02 bd 11 c0 7d 3d d3 e0 a5 3d 89 ba 57 be
       -0.03186646 0.061950747 0.080995224 -0.21067251
0000d0 fb c7 87 3d a9 9a 66 ba 7c c3 82 be 6e 16 d7 3d
       0.0662994 -0.000879685 -0.25539768 0.10502325
0000e0 eb 5a 5e bd bc e0 9c bd b2 53 b4 be 58 39 67 3d
       -0.054285925 -0.07660052 -0.35220104 0.05645117
0000f0 d7 3a a3 3b b1 3f b1 3d 2f 12 8a be 86 14 54 3e
       0.0049813795 0.08654726 -0.26966998 0.20710954
000100 f9 4b 4e bd d5 30 5f bd f3 b5 cf 3b 8d 8b ca bd
       -0.050365422 -0.05448993 0.0063388287 -0.098898984
000110 98 f0 6d 3c 3d ae 27 bd 14 ed 16 be 60 77 28 be
       0.014522694 -0.04093765 -0.14738876 -0.16451788
000120 9e 67 a9 bd 86 b5 96 3d 27 57 36 be 3f 89 37 be
       -0.082717165 0.073588416 -0.17806683 -0.17923449
000130 ad 85 74 3d 90 eb f5 bd 98 f7 32 bd a6 af 0b be
       0.059697796 -0.120078206 -0.043693155 -0.13641223
000140 21 ae f2 3d 1f 5d 80 be 4a 05 8e bd 49 f9 08 be
       0.11849619 -0.25071046 -0.069346026 -0.13376345
000150 7b f4 30 3e 29 f1 52 39 78 2e 24 be c3 14 4f bd
       0.17280762 0.00020117 -0.16033351 -0.05055691
000160 da 8f ad 3c 71 95 21 38 1f 82 24 3c 6a e9 3d be
       0.021186758 3.852457e-05 0.010040789 -0.18546072
000170 f0 7a b8 3c b1 56 55 bd 2c 6b cb bc c9 cd 07 3d
       0.022519559 -0.05208463 -0.024831377 0.033155236
000180 89 ac 79 bc 70 f3 a7 3b 58 13 a5 3c 35 3a 27 3c
       -0.0152388895 0.0051254556 0.020150825 0.010206749
000190 03 cc 6d be 2d 87 40 bd 27 d1 40 bc 08 28 24 bd
       -0.23222356 -0.047003914 -0.011768616 -0.04007724
0001a0 cd 14 3a 3d cc d8 16 be eb a9 0d be 27 99 a1 bd
       0.045429993 -0.14731139 -0.1383435 -0.078905396
0001b0 82 99 b2 3d 97 97 b4 3d 14 60 c6 3d e1 ea 81 3d
       0.087206855 0.08817976 0.09686294 0.06343628
0001c0 97 00 71 be 3b 5b 19 be 1a 1c 76 3c c3 09 47 bd
       -0.23535381 -0.14976208 0.015021348 -0.048593294
0001d0 fa 3b e1 bd b3 01 13 bc bf 28 12 bd 3a 58 ed bc
       -0.10997768 -0.008972573 -0.03568339 -0.028972734
0001e0 76 a2 7a bc e3 5a fb 3d bf 60 8f 3c 41 ab 52 3e
       -0.015297523 0.12273195 0.017502187 0.2057314
0001f0 fd 2b 31 3e 92 35 73 3d 9d 18 b2 bd 5a 7a 49 bc
       0.17301936 0.05937726 -0.08696101 -0.012297237
000200 ce 36 76 bd 5d bd 1a bd 92 af 69 bd 71 85 81 bd
       -0.06011086 -0.037778247 -0.057052203 -0.0632428
000210 07 42 ab 3d be ba 1b 3e 6c 5b 8c be 23 09 31 be
       0.08362203 0.15207955 -0.274135 -0.17288642
000220 e4 80 90 3d 71 bc fd 3c a9 c2 3a bd e1 1e 18 3e
       0.07055834 0.030973645 -0.0455958 0.1485553
000230 37 97 70 3c 30 48 ec bd 07 5b df 3d 49 64 9f 3d
       0.01468449 -0.11537206 0.10906034 0.077828
000240 7f 17 61 3c 8c b0 68 bd b2 6c 81 be c1 2e 1f bd
       0.013738512 -0.056808993 -0.2527824 -0.038862947
000250 ed b0 53 3e 82 1f db bd 38 72 1c 3d 42 bc 90 bd
       0.2067296 -0.10699369 0.038194865 -0.07067157
000260 75 f1 9b bd 82 8a 22 3e 80 82 57 3d 68 b0 2a 3d
       -0.07614414 0.15873149 0.05261469 0.04167214
000270 21 7c ca bd 75 12 09 3d 3c 76 01 bd 71 1a 18 3d
       -0.09886957 0.033464868 -0.031606898 0.03713459
000280 ce f9 21 3e 8a c9 4c bd 4e 67 af bc ae 2f 11 be
       0.15817949 -0.04999689 -0.021411564 -0.14178345
000290 a4 62 71 bd c0 e7 fa 3d e8 9b d2 3d 37 c0 80 3d
       -0.05893196 0.12251234 0.10283643 0.06286662
0002a0 1d f9 03 be cf 79 ca bd 06 14 eb 3b ac 48 2e be
       -0.12887998 -0.098865144 0.007174018 -0.1701991
0002b0 1d bb 27 be d9 bd e2 3b 02 28 de bb 55 34 29 bc
       -0.16379972 0.0069196043 -0.0067796716 -0.010327418
0002c0 0f 1e f3 3c 32 c5 d0 3c 73 11 4a 3d c9 35 33 be
       0.029677419 0.025484655 0.049333047 -0.17500986
0002d0 93 39 17 be ed d8 13 3d c2 b6 b7 3d 53 0d f5 3d
       -0.14768057 0.03609555 0.08970405 0.11965432
0002e0 4a 7d 58 3b 2c 62 4a be 6c b9 e4 bd b9 d1 08 bc
       0.0033033662 -0.19764012 -0.11168179 -0.008350783
0002f0 f8 24 32 bd 55 54 2d 3e 41 30 95 3d 41 72 a1 3e
       -0.043492287 0.16926701 0.07284594 0.3153248
000300 b2 82 0a bc 51 db 1f be da b8 a4 bd 74 65 ee bd
       -0.008454012 -0.15611006 -0.0804307 -0.116404444
000310 5b a8 8d 3e 87 ea f2 3c 66 ba 2f 3e 2e be 01 3e
       0.27667508 0.029652847 0.17160949 0.12670204
000320 24 4f 5a be c0 08 7b bc 63 03 6e 3e f9 41 94 ba
       -0.21319252 -0.01532191 0.2324348 -0.0011311165
000330 67 19 d0 bc a0 2b f6 3b 25 a1 0d bd a4 55 9e bd
       -0.025402738 0.0075125247 -0.034577508 -0.077311784
000340 4a ca 8e 3d 04 de 47 3d 50 d3 ad bd 3b 03 ea 3d
       0.06972177 0.048795715 -0.0848757 0.114263974
000350 a3 35 c4 bd 64 fa 93 bd 52 aa e1 3d a0 05 9a bd
       -0.09580543 -0.072254926 0.11018814 -0.07520604
000360 11 1d ac bd f6 a1 04 3e e9 21 40 3c ca f2 27 be
       -0.084039815 0.12952408 0.011726835 -0.1640121
000370 88 2a 49 3d 35 76 20 3e 7f f7 16 3d d2 27 45 be
       0.049112827 0.15670092 0.036857124 -0.19253471
000380 fa af 8f bd fa ef 94 be b9 9e e8 3d 1d 1e 7d bd
       -0.07015987 -0.29089338 0.11358399 -0.061796296
000390 62 30 c5 3d 1b e2 1b be 06 dc 13 bd e3 3c ef bd
       0.09628369 -0.15222971 -0.036098503 -0.11681535
0003a0 af 62 bc 3d 2b 8f 67 bd ce 3d 8d 3d 2c 16 23 bd
       0.0919851 -0.05653302 0.06896554 -0.039816067
0003b0 11 28 8b bd 3c d0 e3 bd a6 d1 55 3e 38 9c 8a 3d
       -0.067947514 -0.11123702 0.20880756 0.067680776
0003c0 74 3d f0 bc f5 dc 8c 3c ef c2 c4 3d 84 49 9e bd
       -0.029326178 0.017195204 0.09607493 -0.07728866
0003d0 ff d0 e1 bd 5c 67 de bd 57 4d e9 3d c3 be 84 3c
       -0.11026191 -0.10859558 0.113917045 0.016204244
0003e0 4d 4b 12 be 94 30 c3 bc 87 f1 f4 3d b1 b6 3e be
       -0.14286537 -0.023826875 0.1196013 -0.18624379
0003f0 61 74 5e 3d 75 16 87 bd af f0 03 bc 02 a9 c0 3d
       0.054310206 -0.0659608 -0.008052989 0.09407236

network_body.linear_encoder.seq_layers.2.bias f4 [128]
000000 22 78 52 bd f4 a2 b7 bc 7d 26 1c be 8c bc 41 be
       -0.0513841 -0.02241657 -0.15249057 -0.18919581
000010 3b 30 f6 bc fb 8f ed bc 90 ca 40 bd d8 ee 24 3c
       -0.030052295 -0.02899932 -0.04706818 0.01006671
000020 78 63 1a 3d c9 32 a4 3b c9 28 03 bc 56 98 45 bc
       0.037692517 0.005010937 -0.008005329 -0.0120602455
000030 7a 0f 1c be f7 17 0d 3d 02 34 08 be 9b db 8e 3d
       -0.15240279 0.034446683 -0.1330109 0.0697548
000040 7e bd 48 bc 88 3c a2 3d 3d c5 b6 bd a2 17 2e bc
       -0.01225221 0.07921702 -0.08924339 -0.010625752
000050 f2 8f 48 bc 20 c6 28 bd 11 cf 0d bc 6c 90 2f bd
       -0.0122413505 -0.04120457 -0.0086553255 -0.04286234
000060 10 00 09 be 7f 04 05 be 87 68 66 3d 07 1e 96 3d
       -0.1337893 -0.12989996 0.05625203 0.07329946
000070 34 c8 f9 bd 1a 63 2f bd a5 cf a1 bc de c1 75 bd
       -0.12196389 -0.04281912 -0.019752333 -0.05999934
000080 c8 80 5d 3c 31 1b a8 bc cc 52 a6 3c 69 64 2b be
       0.013519473 -0.020520778 0.020303153 -0.16737522
000090 50 0d f5 bb 3c 18 65 3d 1e 01 94 bc 11 c1 40 bc
       -0.0074783936 0.055931315 -0.018066939 -0.011764781
0000a0 7c d7 7e bd 7f 4d 0f 3c 03 61 8d 3d 27 70 60 bc
       -0.06221722 0.008746504 0.06903269 -0.013698614
0000b0 0e f1 2a be ab be 43 bc 01 b3 04 bd 5b 4b b5 38
       -0.16693518 -0.011947314 -0.032397274 8.6447886e-05
0000c0 a5 a2 05 bc 37 09 6e 3c 5c 8c 3b be e0 46 ef bc
       -0.008156453 0.014528564 -0.18315262 -0.0292086
0000d0 dc 8c 25 be 6d cb 2c be b7 34 20 be e2 8f bb 3a
       -0.16167015 -0.16874476 -0.15645109 0.0014309848
0000e0 20 22 02 3e a1 8f 0e bd 8d 41 4a bc be 48 5b be
       0.1270833 -0.034804944 -0.01234473 -0.21414468
0000f0 5e af de 3c a4 c1 14 3e eb ce 2c 3a 27 f2 2b 3d
       0.027183231 0.14526993 0.00065921125 0.04197898
000100 f5 50 28 be cd 46 29 3b e7 30 09 bd 26 1b 09 ba
       -0.16437133 0.0025829554 -0.033493903 -0.00052301807
000110 a4 18 84 bc d6 83 22 3c 50 ba 69 bd 0a ad 2f 3c
       -0.01612503 0.009919127 -0.057062447 0.010722408
000120 80 e9 e9 bc 7f f9 e0 bb 9e cb 11 bc 1d e9 3b be
       -0.028553724 -0.0068656798 -0.008898644 -0.18350644
000130 6a 55 08 bc a7 a8 3d 3c 08 7a 7b bd ff fe 53 3b
       -0.008321146 0.011575854 -0.061395675 0.0032348034
000140 b5 1f 48 be d3 80 db 3c 75 a5 06 3d a5 c3 0a bb
       -0.19543345 0.026794827 0.032872636 -0.0021173742
000150 67 47 0b be d9 b2 3e be 5a 1a 28 be 06 ee f0 bb
       -0.13601457 -0.18622912 -0.16416302 -0.0073525934
000160 87 8f d3 3c 62 ec 31 be bb 08 87 bb 41 ce 4c bd
       0.025825275 -0.17375329 -0.004120914 -0.050001387
000170 df e3 27 be 60 51 4f be 4a d9 cd bb 24 a3 54 bc
       -0.1639552 -0.20245886 -0.0062820064 -0.012978349
000180 a3 67 02 bd 9f 25 9c bc 50 20 a6 3c 87 97 a6 bc
       -0.031837117 -0.019060908 0.02027908 -0.020335926
000190 0b 5d 03 bd 92 07 4c be 74 89 37 3b a7 c2 b6 3d
       -0.032071155 -0.19924763 0.0028005512 0.08923846
0001a0 83 c6 a5 bc 6e f9 e4 bb ec a4 14 3c 31 50 28 be
       -0.02023626 -0.006987742 0.009072524 -0.1643684
0001b0 41 b6 91 3a 78 00 ee bd 46 90 2a be e2 35 91 3c
       0.0011116938 -0.11621183 -0.16656598 0.017725889
0001c0 7e f0 43 bd 62 6c ca 3c f2 4f 9d 3c 98 0e 90 bb
       -0.047836773 0.024709884 0.01920316 -0.004396271
0001d0 f9 c4 34 be 99 65 7d bb 70 a6 a5 bc a2 ed 3f be
       -0.17653264 -0.0038665293 -0.020220965 -0.18742993
0001e0 ae 71 39 be f1 21 3e 3d 48 9b 2c be 7f 34 a5 bc
       -0.18109772 0.046419088 -0.1685611 -0.020166634
0001f0 b5 2f bf 3b c3 b2 9b bd 5c bf 99 bb 6a f5 24 be
       0.0058345445 -0.076024555 -0.0046920013 -0.16109243

network_body.linear_encoder.seq_layers.2.weight f4 [128, 128]
000000 00 3e 8d ba 31 ce 70 bd dc 65 aa bd ba d4 9a 3b
       -0.0010775924 -0.05879039 -0.083202094 0.004725066
000010 38 64 6e bd f2 db 85 3d a4 45 2d ba 77 6e 7e 3d
       -0.058201045 0.06536092 -0.00066098035 0.062117066
000020 fb 63 34 3d c0 04 7a bc 4c 91 50 bd 51 bc 1d 3d
       0.04404066 -0.015259922 -0.050919816 0.03850967
000030 32 ba 55 bd 94 53 bd bc 3b 1b 1c 3d f3 34 86 bd
       -0.052179523 -0.023111142 0.038111906 -0.06553068
000040 44 cb 9e 3d ea 96 b5 bd 8a 8e bd bd 60 be 9b 3d
       0.077536136 -0.08866675 -0.09255703 0.076046705
000050 5e c2 10 bd 83 de 05 3e 1a c0 71 3c 23 81 98 bc
       -0.035341613 0.13073163 0.014755273 -0.018616265
000060 e6 a4 e8 bd 03 37 18 be 5d 74 00 3c 83 0b f9 bc
       -0.11359577 -0.14864735 0.007840243 -0.030400997
000070 7a b8 36 bd e6 e8 12 be cf d0 92 bc 9f f2 bb bd
       -0.044609524 -0.14346656 -0.017921833 -0.09177136
000080 1b 2f 6e 3d 5a 95 97 3d 05 48 4c bd 8b cd 9b bc
       0.058150392 0.074015334 -0.04987337 -0.019018909
000090 1a a5 21 bd 90 93 30 3d a4 12 e4 bd 40 f3 2b bc
       -0.039464094 0.043109477 -0.11136368 -0.010495007
0000a0 5b 8d 22 bd 9d 02 c0 3d d7 9a 06 bb c3 a5 98 3d
       -0.03968559 0.093754984 -0.002053907 0.074534915
0000b0 9e 58 53 3c 9d f1 3b bd 4a 25 14 3c d7 ec 47 3c
       0.012899546 -0.045884717 0.0090420935 0.012202463
0000c0 0e e3 33 3b e4 36 82 bc 50 7e c8 3d 0a 80 87 bb
       0.0027448568 -0.015895315 0.09789717 -0.0041351365
0000d0 4e 09 fd bd e2 26 2c 3d c2 86 bb 3c 0c e4 b1 bd
       -0.1235529 0.04202927 0.022891406 -0.086860746
0000e0 d2 ea 16 3e 96 a5 74 3d 3b 4a 16 3d 55 c9 43 be
       0.14738014 0.059728228 0.036691885 -0.19119771
0000f0 8d 2a 9a bb 06 c1 83 3c bc 3e 70 bd c3 15 29 bd
       -0.0047047795 0.016083252 -0.05865358 -0.04128052
000100 57 d7 0b 3e 64 a3 03 be 6e 7b 0a 3d 98 83 54 3c
       0.13656364 -0.12855297 0.033809118 0.0129708275
000110 c8 ca 45 bd f3 99 0f be 69 77 47 3d 0b 83 09 be
       -0.04828909 -0.1402357 0.048697863 -0.13428895
000120 39 76 55 bb 57 5a d8 3d a5 8a e2 3d 1c 9e 4b 3d
       -0.0032571687 0.10564106 0.110616006 0.04971133
000130 08 bd cb 3d 5f 4d eb bd c3 cb 0c 3e d3 cc fe 3b
       0.09948164 -0.11489367 0.13749604 0.007775882
000140 05 32 79 3d e5 10 e5 bb 45 c1 ab 3c 62 b8 c6 bd
       0.060838718 -0.0069905394 0.020966182 -0.09703137
000150 9e 46 93 bd 44 51 26 3b b8 c5 77 bc 99 b1 a2 3c
       -0.071912035 0.0025378028 -0.015122823 0.019860076
000160 6a ed 23 3b 1f e8 0e 3e 80 bd 81 bd 97 38 13 3d
       0.0025013336 0.13955735 -0.063349724 0.03594264
000170 1b 10 15 be a1 5b 8c 3e e6 8f 10 bd d0 cf 4b bc
       -0.14556925 0.27413657 -0.035293482 -0.012439683
000180 54 57 30 bc 4f 21 2e bd fa 6b 57 3d 06 e2 cb bd
       -0.010763008 -0.042512234 0.05259321 -0.0995522
000190 5c 67 20 be 25 69 d4 bb 9d e1 a4 bd 3f a9 5e 3d
       -0.15664428 -0.006482261 -0.08050845 0.054360624
0001a0 24 dc 86 3b 7f 7d 4d bc 96 6f 93 bd 14 fe 01 3d
       0.0041155983 -0.012542128 -0.07199018 0.03173645
0001b0 59 d7 2c be 13 3e 67 bd e9 06 f4 3c 9b ec 77 bc
       -0.16879024 -0.056455683 0.029788451 -0.015132095
0001c0 da 13 fb 3c 6c 46 2a bd 43 3e d9 3c 49 26 17 bb
       0.030649114 -0.041571066 0.026518947 -0.0023063591
0001d0 9b 4f 0c 3d b8 36 a8 3c 04 16 d8 3d ee e7 8f 3d
       0.034255605 0.020533904 0.10551074 0.07026659
0001e0 7a 2e 33 3d b8 88 29 3d 9e 28 ef 3c f6 4f 27 3e
       0.043745495 0.04139015 0.029194172 0.16339096
0001f0 b8 51 05 3d b8 ff a9 3c 3e 7b de 3d 3c 73 4c bc
       0.032548636 0.020751819 0.1086335 -0.012478646
000200 c3 0b 8e bd 2a 53 02 bd 3a 75 4e 3d c1 1f a8 bb
       -0.06935837 -0.031817593 0.050404765 -0.0051307385
000210 d4 70 23 be 01 46 00 be 64 33 80 3d 5f 95 c0 bd
       -0.1596101 -0.12526704 0.06259802 -0.0940349
000220 1d ec 80 be d7 b0 90 3c 74 aa cb bc ff 0b 8d bc
       -0.2518014 0.017662449 -0.024861552 -0.017217634
000230 da 55 2b bd 2a e4 d4 bd b2 0b b3 bd 39 e0 17 be
       -0.04182992 -0.10395081 -0.08742465 -0.14831628
000240 3b a3 75 be 60 f3 1c be ca 41 c4 3d 84 bd a6 bd
       -0.23988049 -0.15327215 0.09582861 -0.08141616
000250 41 d6 76 bd 60 df e2 bc 86 28 96 3d 52 42 9a bd
       -0.060262922 -0.027694404 0.07331948 -0.07532181
000260 e9 80 84 3d ac 92 85 be 20 a8 45 3e af d3 56 3d
       0.064699 -0.26088464 0.19302416 0.05244797
000270 b6 c7 09 3d 38 36 d6 bc 36 59 d9 bd 9f 86 f7 3c
       0.033637725 -0.0261489 -0.10612719 0.03021556
000280 07 9b f9 3d 66 1e 90 3d 2f a7 aa 3d fe 4b 22 3e
       0.12187772 0.07037048 0.08332669 0.15849301
000290 34 84 c5 3d 6b 8f cd 3d 76 b1 75 3c 8f 8b bb bd
       0.09644356 0.100371204 0.014995923 -0.09157478
0002a0 b6 16 0e 3d c1 ab 25 bc 1c 19 48 3d a3 5a 92 be
       0.034689628 -0.01011175 0.04885207 -0.28584775
0002b0 6a e9 2f 3e fc 0e 3e bc 4d c9 ee 3c c3 bb 7f 3d
       0.17178884 -0.011600252 0.029148722 0.062434923
0002c0 65 dc ae bd e6 a7 e3 3d 6f 15 3a bd 02 da ee bd
       -0.08538131 0.111160085 -0.045430597 -0.116626754
0002d0 a3 8d 88 3e bd 13 f2 3d ff 16 a3 3d 0a 6a d2 bd
       0.2667056 0.11820171 0.079633705 -0.102741316
0002e0 92 34 5b 3d 41 3d cb 3d d1 7f 6b bc ef f4 7c bd
       0.05351693 0.09923793 -0.0143737355 -0.061757024
0002f0 e7 51 de bc c2 63 4c 3d 32 0a 7d bd 20 2b 81 bd
       -0.027138663 0.049899824 -0.0617773 -0.063070536
000300 56 5f fd 3c f1 4d 41 bd 3e 30 d9 b9 aa 49 b7 3d
       0.030929249 -0.04719347 -0.0004142541 0.08949597
000310 21 8a b3 3d da 31 12 3e 4f 8f 6b 3d 47 99 b9 bd
       0.087665804 0.1427683 0.057509717 -0.090624385
000320 59 ac 57 3d f4 74 1b 3a 95 90 42 bd fe 06 e5 bd
       0.052654598 0.0005930208 -0.047501165 -0.11182974
000330 0e df 65 be c2 a2 c7 3c c4 ff a3 3b d6 71 95 bd
       -0.2244837 0.024369601 0.005004855 -0.07297103
000340 bc 09 20 3e 74 c0 d4 bd d1 6f a9 3d fe e2 ec 3c
       0.15628713 -0.1038827 0.082732804 0.028916832
000350 a8 ff b1 bb b6 5a 3b b9 50 43 be bc 88 94 80 3c
       -0.005432088 -0.00017867502 -0.023225456 0.015695825
000360 d9 95 39 bd 37 28 d3 3d ff c1 0f bd 83 d9 9c be
       -0.04530892 0.10310405 -0.03509712 -0.30634698
000370 41 4f e1 bd 93 15 96 3d ea af 0e 3c 88 2a 43 3d
       -0.110014446 0.07328334 0.008708933 0.047647983
000380 79 7e e4 3d 74 c2 8c 3d 19 34 01 be 94 e0 82 bd
       0.11156935 0.068730265 -0.1261753 -0.06390491
000390 f7 97 c8 3d e3 cb 74 bd 85 fc 3f bd 6b 29 86 bd
       0.0979461 -0.059764754 -0.04687168 -0.065508686
0003a0 5a 15 f9 bd 3b 1e a3 3d d0 fd a2 3d a4 f6 9d 3d
       -0.121622756 0.079647504 0.07958567 0.077130586
0003b0 3a 67 b3 3d 29 cb 0b bd 4f 07 ae bc 2d 09 9f bc
       0.08759923 -0.034129295 -0.02124372 -0.019413555
0003c0 1e e6 94 bd 2d fb 37 be 5e 5d 6f bb 25 82 48 bc
       -0.07270454 -0.1796691 -0.0036524157 -0.01223806
0003d0 f1 fc 27 be aa fe ad bd 73 d9 00 be 55 ee cb bd
       -0.16405083 -0.08495839 -0.1258295 -0.099575676
0003e0 e9 ee 13 3e 44 51 eb bd e9 d6 4c bc a5 33 ed bd
       0.14446606 -0.114901096 -0.01250241 -0.11582116
0003f0 a2 ee 43 bd 9c 0f 9a bd 8f b9 36 3c b7 7f df bd
       -0.047835 -0.075225085 0.011152639 -0.109130315
