Learning/results/test5/KartAgent/KartAgent-1084720.onnx (onnx, 108737 bytes, 7 tensors)

41 f4 [1, 2]
-0.5979691 -1.0481151
00000000: 8114 19bf a328 86bf

distribution.mu.bias f4 [2]
0.026454298 0.1543198
00000000: afb6 d83c 0206 1e3e

distribution.mu.weight f4 [2, 128]
0.006326201 0.0494818 0.0013619642 -0.009080926 -0.059826 0.0050711776 0.000832286 0.004893343
0.10038422 -0.000733197 0.0023270608 0.0095133195 0.022221804 -0.0058558537 -0.005843023 0.12907092
-0.0015376119 0.12879801 -0.05701232 0.06846315 -0.0011640107 -0.003531014 0.06294145 -0.0037286596
0.0037366988 0.047320724 -0.1537869 -0.17978175 0.0034887076 -0.07441945 0.00036399844 -0.0935186
-0.0035249698 0.0024423476 -0.0005664537 -0.03543311 0.0005161534 -0.14715236 0.057270322 -0.0030280454
-0.0580944 -0.10907713 0.12574337 0.0010056765 0.00080068567 -0.08436358 0.00052342593 -0.0026542926
0.0019625654 0.0010130947 -0.0031135825 -0.0032263815 -0.0008450252 -0.017037345 -0.0024991385 -0.002227201
0.16336447 0.0021651988 0.011715332 -0.007860738 0.095504895 0.18082738 -0.00715211 6.5321256e-06
-0.006384584 -0.0009379455 0.003379747 -0.00036445845 0.0012836504 0.004214367 0.004907691 0.002039132
-0.0011731719 -0.003519764 -0.0051692883 -0.03414449 0.00053276215 -0.007921197 -0.07010904 -0.0024066046
-0.019912653 0.09555077 0.0025676796 0.075388074 0.016499259 -0.017766075 0.010407353 -0.0019351966
-0.12240724 -0.023924788 0.0006770088 0.039837077 -0.004622189 -0.009995822 -0.00075267034 -0.0028470634
0.0026844027 0.003056622 0.00059181795 0.0045201587 -0.0017271579 -0.01569779 0.060992885 0.14513804
0.0022788683 -0.004727704 0.0022585536 -0.021027917 -0.0039205523 0.006565646 -0.015695464 0.002251514
0.04122579 0.0010645009 -0.0018110952 0.07315081 -0.012180894 -0.0039972872 1.6781178e-05 0.0026594081
-0.04583557 -0.13514987 -0.014987128 -0.028741118 -0.0017909466 -0.0598647 -0.0012167535 -0.021149326
-0.0076759364 -0.0024638064 -0.12295974 -0.100617185 0.011144592 -0.0069862925 0.0035873244 -0.007468199
-0.001120449 0.0012237419 -0.003935413 -0.013670028 -0.09740363 0.002993631 -0.16112018 0.027093118
-0.0059192902 0.013077737 -0.00044824652 -0.0027089906 -0.002242523 0.0037461515 0.0028475302 -0.00038457822
-0.13035548 -0.13001102 0.030094929 0.022176733 -0.12066537 0.0043982333 -0.0036911743 -0.0037798549
0.011961868 -0.002628959 0.00019259752 -0.1608851 -0.001266282 0.02497579 0.008506146 -0.005566175
-0.020177882 0.0135642 0.0065691024 -3.6192698e-05 -0.10870348 0.018499065 0.004495545 -0.0021803293
-0.0021785484 0.0014864617 -0.12482879 -0.0026859741 -0.15641327 -0.11747887 -0.14314066 -0.00087388046
0.015275695 0.0005818222 0.0100593 -0.10611739 -0.005031045 0.039937396 0.0088460315 0.002172515
-0.122185424 0.005461933 -0.007868689 -0.003901595 0.0002972574 0.0021156992 -0.0006648518 -0.0013517902
-0.001851676 -0.0013244279 0.0033320775 -0.13509457 0.0015750908 0.0004942727 -0.0027632231 0.00915533
-0.12282873 0.005371592 -0.0013565267 -0.0029727032 -0.1603981 -0.11132421 -0.101263225 2.7574366e-05
0.02278747 -0.12133497 -0.0032281575 -0.01588448 -0.122144625 -0.11706605 0.0010330671 0.0026791329
0.0024147246 -7.3297495e-05 0.00063933345 -0.0037431319 0.00076767674 -0.1313983 -0.0016116097 0.008516178
-0.003795807 0.0011062975 -0.0011922118 -0.11985169 0.00863856 -0.11687423 -0.15131465 -0.00021465762
-0.014716021 -0.004930493 0.0073142606 -0.0077116243 -0.11140737 0.00573019 -0.0021853428 -0.113410376
-0.13325964 0.02581765 -0.12061351 -0.0076060113 -0.00082510145 -0.009761939 0.0023248119 -0.1482979
00000000: 054c cf3b 6ead 4a3d ef83 b23a 2ac8 14bc
00000010: 1c0c 75bd 1f2c a63b c52d 5a3a 5658 a03b
00000020: 3e96 cd3d 0534 40ba 9a81 183b c1dd 1b3c
00000030: 800a b63c 76e2 bfbb d476 bfbb 2b2b 043e
00000040: b289 c9ba a0e3 033e c085 69bd 6836 8c3d
00000050: b891 98ba 9668 67bb 72e7 803d 875c 74bb
00000060: 67e3 743b 60d3 413d 507a 1dbe b518 38be
00000070: cda2 643b 3969 98bd 0bd7 be39 ae86 bfbd
00000080: 2e03 67bb cb0f 203b 107e 14ba 4f22 11bd
00000090: 784e 073a 1caf 16be 4994 6a3d 2c72 46bb
000000a0: 65f4 6dbd d563 dfbd dfc2 003e e7d0 833a
000000b0: 1be5 513a d0c6 acbd 8536 093a a4f3 2dbb
000000c0: 629e 003b d1c9 843a 3f0d 4cbb b371 53bb
000000d0: ae84 5dba e791 8bbc 96c8 23bb 3bf6 11bb
000000e0: 0449 273e 02e6 0d3b aaf1 3f3c 53ca 00bc
000000f0: 1298 c33d d02a 393e 3f5c eabb 882e db36
00000100: c635 d1bb 75e0 75ba bf7e 5d3b c914 bfb9
00000110: 2940 a83a ac18 8a3b b2d0 a03b f5a2 053b
00000120: 1ec5 99ba d7ab 66bb 2263 a9bb 18db 0bbd
00000130: 10a9 0b3a e9c7 01bc 5495 8fbd 20b8 1dbb
00000140: dc1f a3bc 1fb0 c33d 8446 283b 1065 9a3d
00000150: 7429 873c 298a 91bc 9a83 2a3c 6ca6 fdba
00000160: a6b0 fabd ebfd c3bc 4b79 313a 342c 233d
00000170: bb75 97bb 84c5 23bc da4e 45ba cc95 3abb
00000180: ceec 2f3b 9c51 483b 3b24 1b3a d71d 943b
00000190: cd61 e2ba a798 80bc add3 793d 119f 143e
000001a0: 1159 153b dbea 9abb 3e04 143b bd42 acbc
000001b0: fa77 80bb a124 d73b c693 80bc 238e 133b
000001c0: 60dc 283d b986 8b3a 4562 edba 18d0 953d
000001d0: 5f92 47bc adfb 82bb 4ec5 8c37 7749 2e3b
000001e0: 14be 3bbd ba64 0abe 928c 75bc 7e72 ebbc
000001f0: 32be eaba b034 75bd 797b 9fba 5a41 adbc
00000200: 6c86 fbbb d077 21bb 51d2 fbbd 6210 cebd
00000210: cf97 363c 45ed e4bb 5119 6b3b cbb7 f4bb
00000220: 08dc 92ba f765 a03a a3f4 80bb 41f8 5fbc
00000230: 8e7b c7bd cb30 443b b0fc 24be 63f2 dd3c
00000240: 9bf6 c1bb 0144 563c a102 ebb9 5289 31bb
00000250: 4bf7 12bb fe81 753b a19d 3a3b 37a1 c9b9
00000260: e87b 05be 9c21 05be a489 f63c fbab b53c
00000270: 681f f7bd 0e1f 903b a1e7 71bb 71b7 77bb
00000280: b6fb 433c 9d4a 2cbb 01f4 4939 10bf 24be
00000290: 60f9 a5ba 079a cc3c 5d5d 0b3c 7664 b6bb
000002a0: 164c a5bc 613c 5e3c a041 d73b 9dcd 17b8
000002b0: ee9f debd 5a8b 973c 5d4f 933b dbe3 0ebb
000002c0: fac5 0ebb 61d5 c23a 3da6 ffbd 2b07 30bb
000002d0: cd2a 20be c398 f0bd 7793 12be 2015 65ba
000002e0: e946 7a3c 6d85 183a c3cf 243c 1354 d9bd
000002f0: 77db a4bb 6595 233d f2ee 103c c160 0e3b
00000300: 5a3c fabd 04fa b23b aceb 00bc e7b1 7fbb
00000310: 36d9 9b39 8ba7 0a3b 7349 2eba 8d2e b1ba
00000320: f0b3 f2ba 6d98 adba fc5e 5a3b 3b56 0abe
00000330: 4773 ce3a 1492 013a 3117 35bb 3d00 163c
00000340: a18d fbbd 2e04 b03b 7ccd b1ba afd1 42bb
00000350: 663f 24be f3fd e3bd 1863 cfbd 804f e737
00000360: caac ba3c 787e f8bd 7f8f 53bb 2b20 82bc
00000370: f626 fabd 53c0 efbd fb67 873a 6494 2f3b
00000380: 5b40 1e3b 4bb7 99b8 f198 273a 554f 75bb
00000390: ea3d 493a 478d 06be a63c d3ba 7087 0b3c
000003a0: 13c3 78bb 2f01 913a fd43 9cba ce74 f5bd
000003b0: bf88 0d3c c25b efbd 3af2 1abe b715 61b9
000003c0: 771b 71bc f98f a1bb 77ac ef3b cbb1 fcbb
000003d0: 8c29 e4bd 51c4 bb3b f837 0fbb b343 e8bd
000003e0: 3775 08be 897f d33c 3704 f7bd d93b f9bb
000003f0: 9f4b 58ba 8af0 1fbc df5b 183b 68db 17be

network_body.linear_encoder.seq_layers.0.bias f4 [128]
-0.041681763 -0.020610277 -0.016835852 -0.012582932 -0.044310417 -0.023068145 -0.06457342 -0.017761713
-0.020117495 0.013102739 -0.036068927 0.007929635 -0.005606068 -0.0558562 0.046714224 -0.01735221
0.004176628 0.0064529884 -0.026973858 -0.044048123 -0.013282627 -0.0616136 -0.03442595 0.008247699
-0.008874364 -0.02540503 -0.0517832 0.0020110884 -0.024106916 0.014497438 -0.03397361 0.010011852
0.017398022 -0.023359036 0.0008248428 -0.06516179 -0.001628704 -0.012244783 -0.019897414 -0.019742308
-0.075210184 -0.04305184 0.0011635649 -0.004752556 0.0019991975 -0.043158986 0.014465472 -0.020934114
0.034384504 0.004409287 0.0022446946 0.03565698 -0.034203555 -0.004788794 0.0056497287 0.033130452
-0.04228675 -0.032538615 0.004975176 -0.07978725 0.0064866603 0.0053309044 0.029786324 0.014479511
-0.014507515 -0.04802924 -0.03730339 -0.008540105 -0.0027098428 -0.07104312 0.038836077 -0.037929118
-0.04721195 -0.02648812 -0.029627277 -0.030605176 0.045660757 -0.029111674 -0.0121908905 -0.02821954
0.0066371877 -0.04467887 0.009768923 -0.07891567 -1.753253e-05 -0.015191165 -0.027208833 -0.046981703
-0.008651517 -0.031594876 -0.050714802 -0.01396183 -0.044193693 -0.031791568 -0.08166233 -0.032898467
-0.07344174 -0.041140646 0.0014846616 -0.0099243885 -0.058716126 -0.03663509 0.00731477 0.0074142464
0.012126855 0.023197256 0.014232897 -0.03494035 -0.019549938 -0.03474386 0.05038475 -0.059912376
-0.054718394 -0.018169802 -0.06208546 -0.078709655 -0.0035866103 -0.0037249047 -0.03320425 0.013545584
0.005998707 0.014253081 0.0027928173 -0.035227615 -0.06967264 -0.061381124 -0.026274987 -0.019876517
00000000: 7fba 2abd e2d6 a8bc 57eb 89bc a428 4ebc
00000010: d77e 35bd 68f9 bcbc 123f 84bd 0381 91bc
00000020: 72cd a4bc dfac 563c 03bd 13bd 4deb 013c
00000030: 1bb3 b7bb 79c9 64bd 6a57 3f3d 3926 8ebc
00000040: 18dc 883b 9773 d33b 48f8 dcbc ce6b 34bd
00000050: 609f 59bc 8b5e 7cbd 3a02 0dbd 5b21 073c
00000060: c865 11bc 361e d0bc 9f1a 54bd 77cc 033b
00000070: de7b c5bc aa86 6d3c e927 0bbd c008 243c
00000080: 4c86 8e3c 735b bfbc 433a 583a 8b73 85bd
00000090: 3d7a d5ba 589e 48bc e7ff a2bc 9fba a1bc
000000a0: cc07 9abd 2057 30bd c282 983a 54bb 9bbb
000000b0: f804 033b 7ac7 30bd 9600 6d3c 057e abbc
000000c0: c4d6 0c3d c87b 903b ba1b 133b 0e0d 123d
000000d0: 0719 0cbd 51eb 9cbb 5c21 b93b ccb3 073d
000000e0: df34 2dbd 3647 05bd cd06 a33b 7f67 a3bd
000000f0: 0d8e d43b deae ae3b 7302 f43c 793b 6d3c
00000100: eeb0 6dbc 4fba 44bd 71cb 18bd cceb 0bbc
00000110: 9e97 31bb 0e7f 91bd 9412 1f3d 905b 1bbd
00000120: 5161 41bd 9dfd d8bc e7b4 f2bc b5b7 fabc
00000130: c606 3b3d 9b7b eebc 4dbc 47bc aa2c e7bc
00000140: c47c d93b 3101 37bd d50d 203c 8a9e a1bd
00000150: d212 93b7 5de4 78bc 0fe5 debc e36f 40bd
00000160: 18bf 0dbc a169 01bd 53ba 4fbd 29c0 64bc
00000170: 7204 35bd e037 02bd 943e a7bd 8bc0 06bd
00000180: 9f68 96bd 1883 28bd fa98 c23a e799 22bc
00000190: 5280 70bd ad0e 16bd bdb0 ef3b 35f3 f23b
000001a0: b7af 463c 2c08 be3c 1931 693c 9d1d 0fbd
000001b0: 3127 a0bc 944f 0ebd 3d60 4e3d ae66 75bd
000001c0: 6520 60bd d6d8 94bc 534d 7ebd 8732 a1bd
000001d0: 560d 6bbb 881d 74bb 2e01 08bd 4cee 5d3c
000001e0: cd90 c43b c185 693c b307 373b d54a 10bd
000001f0: 87b0 8ebd c66a 7bbd a43e d7bc 14d4 a2bc

network_body.linear_encoder.seq_layers.0.weight f4 [128, 77]
-0.20028578 0.028529545 -0.018440563 -0.04124457 -0.0992903 0.052892327 -0.04037888 -0.091544226
-0.11562228 0.06901835 0.05254955 -0.06607676 0.046684 -0.041548792 0.023356857 -0.19449434
0.06262875 -0.053248283 0.01759035 0.14461204 -0.07676232 0.07293345 0.059075426 -0.12442129
-0.03222071 -0.07375143 -0.08071616 0.022051621 0.16916141 0.11610391 0.007026923 -0.101378344
0.0067721717 0.104472965 0.15938616 -0.0020765907 -0.30770484 0.08563351 0.0019897548 -0.14930278
0.06511061 -0.05077175 0.07299604 -0.22493896 -0.14532161 -0.09024268 -0.2769497 -0.07141021
-0.19388877 -0.055771302 -0.090343416 -0.048220906 -0.03721716 -0.06737713 0.044240184 -0.044569395
0.26002753 0.1328714 -0.2527195 0.01974184 0.12404093 -0.20530242 -0.05439647 -0.22248027
0.26063582 -0.14001839 0.04797474 -0.08199489 -0.26924953 0.4195264 -0.0314846 -0.030949913
-0.19440264 0.39354628 -0.1663264 -0.10108077 -0.058223244 -0.11832359 -0.08680428 -0.01323454
-0.1020731 0.06719417 0.0065542413 0.05959035 0.34301198 -0.25870156 -0.10805016 -0.035434075
-0.08904782 -0.14989604 0.030000802 -0.0028952416 0.08905481 -0.09589106 -0.13171235 -0.011404829
0.05901088 -0.12220504 0.08689042 0.10991885 0.018247044 -0.100469366 0.008500594 0.09875271
-0.0820361 -0.08529866 -0.0055741095 0.07312286 -0.11769409 -0.07813879 -0.12652478 0.03978037
-0.099591084 0.07579364 -0.047886465 -0.01887381 0.027144322 0.15666988 0.12026375 -0.007401026
-0.17279114 0.15158273 -0.048303526 -0.07546516 -0.12621851 -0.43883038 -0.038160734 0.107014425
0.053930838 0.05203281 -0.13970163 -0.0037473543 -0.045015104 -0.1251079 0.056171726 0.19312072
-0.03545122 0.21287853 0.018774228 0.25219172 0.027186092 -0.053663995 0.14147945 0.020189852
-0.071426295 0.20994163 -0.33068582 0.18047 -0.13981569 0.17312314 -0.34458628 0.1114462
-0.21044672 -0.14590815 -0.15460259 0.2420428 -0.066554576 -0.1524248 -0.046318907 0.042179365
-0.069903925 -0.14846763 0.12250734 -0.12566307 -0.13028196 -0.0032526425 0.19259785 -0.02710811
0.0054278444 0.10736142 0.07379801 0.13910326 0.01998111 -0.06028686 -0.06859621 0.022657871
0.10869699 -0.07964926 -0.014718817 -0.05243913 -0.05038789 0.0014582919 0.016239567 -0.120719075
-0.061197974 -0.12211095 0.029265968 -0.0022757913 0.03753846 -0.13054247 -0.10442972 -0.09110637
0.3780052 -0.083174735 -0.0069554583 -0.04549506 0.081720725 0.14720726 -0.017015541 -0.010090113
-0.019298192 -0.00570318 -0.056785952 -0.05364119 -0.096168645 0.017865825 0.07632088 -0.04244906
0.10481632 0.20578331 0.093279645 0.112239875 -0.19189198 -0.14389724 -0.13874292 -0.34845257
-0.10606849 0.11641276 0.10934697 -0.0015426994 0.13694584 -0.15699613 0.16834277 -0.25822413
0.008705319 -0.15258685 0.12083099 -0.25928253 -0.005764501 0.10348737 -0.041797847 0.011742385
-0.010332739 -0.05084142 0.056312427 -0.02833547 -0.17250496 0.14783844 0.06458173 -0.11681526
0.05154824 0.15530229 0.06425718 0.18698132 0.03413663 0.07352537 -0.020247834 -0.011149328
0.16949129 0.0532081 0.035499565 -0.28895614 0.035276283 0.08494702 0.12734793 0.14054441
00000000: b717 4dbe cbb6 e93c aa10 97bc 11f0 28bd
00000010: b658 cbbd a0a5 583d 5364 25bd 8a7b bbbd
00000020: 60cb ecbd 7e59 8d3d 323e 573d 4153 87bd
00000030: b937 3f3d 112f 2abd e156 bf3c 8629 47be
00000040: 8143 803d df1a 5abd a319 903c 2e15 143e
00000050: 9035 9dbd 225e 953d 13f9 713d 97d0 febd
00000060: ddf9 03bd fd0a 97bd 844e a5bd 9aa5 b43c
00000070: a638 2d3e e3c7 ed3d 1a42 e63b 739f cfbd
00000080: 18e9 dd3b ecf5 d53d 2036 233e 6917 08bb
00000090: 7d8b 9dbe 9f60 af3d 8c66 023b d4e2 18be
000000a0: b658 853d 0af6 4fbd f37e 953d 6656 66be
000000b0: 30cf 14be 27d1 b8bd 5acc 8dbe 843f 92bd
000000c0: c78a 46be 7370 64bd f805 b9bd 4983 45bd
000000d0: 0571 18bd 05fd 89bd 3235 353d 668e 36bd
000000e0: 5422 853e 710f 083e 7364 81be a4b9 a13c
000000f0: 2c09 fe3d cc3a 52be d5ce 5ebd ded1 63be
00000100: 0f72 853e fb60 0fbe 2981 443d f0ec a7bd
00000110: 13db 89be 2acc d63e fff5 00bd ac8a fdbc
00000120: 7c11 47be e67e c93e 7851 2abe 6f03 cfbd
00000130: 7f7b 6ebd a353 f2bd 71c6 b1bd afd5 58bc
00000140: b40b d1bd 199d 893d f6c4 d63b 0315 743d
00000150: 449f af3e 8874 84be 6749 ddbd 5223 11bd
00000160: b45e b6bd 597e 19be 3ec4 f53c 18be 3dbb
00000170: 5e62 b63d 8862 c4bd 9adf 06be 52db 3abc
00000180: 64b5 713d a346 fabd 9bf3 b13d 221d e13d
00000190: d37a 953c e2c2 cdbd 1346 0b3c dc3e ca3d
000001a0: 8b02 a8bd 10b1 aebd 05a7 b6bb 70c1 953d
000001b0: 9909 f1bd 3b07 a0bd b68f 01be bef0 223d
000001c0: 69f6 cbbd b239 9b3d 9924 44bd 409d 9abc
000001d0: c55d de3c 126e 203e d74c f63d 4e84 f2bb
000001e0: 29f0 30be 8138 1b3e ebd9 45bd 7a8d 9abd
000001f0: 6d3f 01be 60ae e0be 6e4e 1cbd 612a db3d
00000200: 95e6 5c3d 5b20 553d f20d 0fbe 2c96 75bb
00000210: c261 38bd 491c 00be 5314 663d 70c1 453e
00000220: 4c35 11bd d4fc 593e 69cc 993c 461f 813e
00000230: 5eb5 de3c c7ce 5bbd fddf 103e 3065 a53c
00000240: f347 92bd f0fa 563e a74f a9be 21cd 383e
00000250: d82b 0fbe 3147 313e 9d6d b0be e83d e43d
00000260: 587f 57be f268 15be 2450 1ebe 11da 773e
00000270: c44d 88bd 3f15 1cbe e5b8 3dbd 45c4 2c3d
00000280: ca29 8fbd e607 18be 21e5 fa3d d2ad 00be
00000290: a268 05be 492a 55bb 5f38 453e d411 debc
000002a0: 0fdc b13b 4ee0 db3d 6923 973d 1671 0e3e
000002b0: 6daf a33c 5bef 76bd 2b7c 8cbd 009d b93c
000002c0: 879c de3d 271f a3bd 3127 71bc 6aca 56bd
000002d0: 8863 4ebd 2824 bf3a d708 853c 903b f7bd
000002e0: baaa 7abd 4e15 fabd 2fbf ef3c 7125 15bb
000002f0: eec1 193d edac 05be 40df d5bd fa95 babd
00000300: e689 c13e 8457 aabd 9dea e3bb 0759 3abd
00000310: 325d a73d 80bd 163e 2d64 8bbc 0051 25bc
00000320: 3e17 9ebc bee1 babb 6398 68bd ddb6 5bbd
00000330: 11f4 c4bd 5a5b 923c 1f4e 9c3d 11df 2dbd
00000340: f0a9 d63d dcb8 523e 6609 bf3d 05de e53d
00000350: 557f 44be cc59 13be a012 0ebe 6068 b2be
00000360: 703a d9bd d069 ee3d 4ef1 df3d 6734 caba
00000370: 883b 0c3e 98c3 20be 0c62 2c3e f435 84be
00000380: c1a0 0e3c ba3f 1cbe 3d76 f73d aec0 84be
00000390: 24e4 bcbb 30f1 d33d 3834 2bbd 2263 403c
000003a0: a64a 29bc 183f 50bd dca7 663d ca1f e8bc
000003b0: 24a5 30be f662 173e 6d43 843d d73c efbd
000003c0: 3f24 533d 9007 1f3e 4599 833d 0878 3f3e
000003d0: dad2 0b3d 7894 963d c9de a5bc acab 36bc
000003e0: 208f 2d3e bdf0 593d fe67 113d 0ff2 93be
000003f0: dd7d 103d b4f8 ad3d 7f67 023e e0ea 0f3e

network_body.linear_encoder.seq_layers.2.bias f4 [128]
-0.051416017 -0.019464616 -0.12923443 -0.16410843 -0.028943358 -0.014858595 -0.051197525 0.016877407
0.038751613 0.002832172 -0.008258966 -0.008190847 -0.13650516 0.036277484 -0.11635307 0.060332865
0.003937257 0.07468994 -0.09660058 -0.0061160554 -0.01047063 -0.042035833 -0.0054712635 -0.03630908
-0.12639233 -0.12415691 0.047064524 0.06117404 -0.10396764 -0.03986312 -0.013341908 -0.06832166
-0.004249589 -0.029646857 0.025041897 -0.16524222 -0.01946631 0.04553339 -0.014696913 -0.029690303
-0.073106684 0.0008548344 0.06353033 -0.018704705 -0.1614725 -0.012885928 -0.03757397 0.00010076378
-0.021826562 0.014345945 -0.16572979 -0.009445576 -0.13866162 -0.14300786 -0.139734 0.008374293
0.11999163 -0.033954997 -0.0030857087 -0.18846022 0.030118845 0.13517386 -0.00045028876 0.038857814
-0.1553974 0.002900183 -0.011427604 -0.004870295 -0.030485954 -0.0033597855 -0.056655355 0.0080214
-0.032502245 -0.0040804315 -0.0039244005 -0.17268734 -0.017675985 0.004481478 -0.076006055 -0.00036954027
-0.15737808 0.024936602 0.03178745 0.0022782453 -0.13936415 -0.15170765 -0.11971493 0.0037626098
0.017090043 -0.15279235 -0.003497697 -0.042607192 -0.13293193 -0.17962414 -0.0070559657 -0.007168065
-0.030812588 -0.01713176 0.008466854 -0.036157254 -0.017580248 -0.18746112 0.00639501 0.084263176
-0.0182212 0.010997248 0.015860697 -0.1592538 -0.007760171 -0.102390535 -0.13126493 0.014846196
-0.037935633 0.040484704 0.01046533 -0.0025599839 -0.13963944 -0.020627597 -0.020913009 -0.17579785
-0.168896 0.03767572 -0.16139348 -0.020522406 0.0036863377 -0.08664543 -0.0033495626 -0.14919415
00000000: 9a99 52bd 4274 9fbc 0856 04be 0a0c 28be
00000010: 9f1a edbc 7771 73bc 7fb4 51bd 7d42 8a3c
00000020: 03ba 1e3d f69b 393b 9d50 07bc e732 06bc
00000030: 02c8 0bbe b397 143d 854a eebd 981f 773d
00000040: 1b04 813b 0af7 983d 86d6 c5bd 3169 c8bb
00000050: 018d 2bbc c42d 2cbd 4948 b3bb d4b8 14bd
00000060: fe6c 01be fa45 febd bbc6 403d a191 7a3d
00000070: fcec d4bd 8347 23bd 0598 5abc 3aec 8bbd
00000080: 2340 8bbb f7dd f2bc aa24 cd3c 4235 29be
00000090: d077 9fbc 3881 3a3d 52cb 70bc 1439 f3bc
000000a0: f5b8 95bd f716 603a 311c 823d 9c3a 99bc
000000b0: 0c59 25be 801f 53bc 2ae7 19bd 2451 d338
000000c0: 9ecd b2bc 410b 6b3c 12b5 29be 9ec1 1abc
000000d0: 50fd 0dbe a770 12be 6e16 0fbe 5534 093c
000000e0: 2cbe f53d 6514 0bbd 9a39 4abb b7fb 40be
000000f0: ccbb f63c 046b 0a3e bc14 ecb9 5f29 1f3d
00000100: 7f20 1fbe ff10 3e3b d83a 3bbc ff96 9fbb
00000110: aebd f9bc d92f 5cbb 720f 68bd 316c 033c
00000120: 1321 05bd 24b5 85bb 4298 80bb f3d4 30be
00000130: 3acd 90bc 5dd9 923b 10a9 9bbd dbbe c1b9
00000140: b827 21be d847 cc3c 8f33 023d 9d4e 153b
00000150: 7ab5 0ebe 4059 1bbe 1a2d f5bd 1e96 763b
00000160: 6b00 8c3c 9975 1cbe 9e39 65bb e184 2ebd
00000170: 4f1f 08be 64ef 37be bb35 e7bb 16e2 eabb
00000180: ae6a fcbc e857 8cbc 8fb8 0a3c a119 14bd
00000190: 7404 90bc cff5 3fbe 3b8d d13b 2c92 ac3d
000001a0: a044 95bc cd2d 343c 4bee 813c 6e13 23be
000001b0: 0849 febb 21b2 d1bd 506a 06be 763d 733c
000001c0: 6562 1bbd 4ad3 253d c776 2b3c 67c5 27bb
000001d0: a4fd 0ebe 35fb a8bc c251 abbc 5a04 34be
000001e0: 13f3 2cbe db51 1a3d 5544 25be 9b1e a8bc
000001f0: 7c96 713b 2973 b1bd 5684 5bbb 5ac6 18be

network_body.linear_encoder.seq_layers.2.weight f4 [128, 128]
0.0034928916 -0.055873327 -0.0912379 -0.025118973 -0.047413647 0.056701083 0.0444907 0.06604475
0.056298055 -0.016358465 -0.04063744 0.03646081 -0.024108764 0.005588644 0.041426174 -0.06891711
0.06497189 -0.0629922 -0.09687712 0.08471848 -0.031006673 0.14200015 0.03586362 -0.0127326995
-0.10395459 -0.12856138 -0.033461023 -0.021932127 -0.02436618 -0.12104719 -0.020084836 -0.08117826
0.0126173645 0.07043145 -0.01363277 -0.02181992 -0.040121965 0.067215 -0.089525625 -0.010978266
-0.038771182 0.07529813 0.04390308 0.0698687 -0.037576158 -0.11754366 0.045120664 -0.00640907
0.009340373 -0.059604555 0.099643655 -0.0050978954 -0.11261541 0.04849724 -0.020000983 -0.11168817
0.11060747 0.05198042 0.0429516 -0.19383861 -0.0023818226 -0.02005822 -0.079326265 0.050165992
0.15477788 -0.18090397 -0.014070647 0.016179826 -0.059525173 -0.15345602 0.054656364 -0.1663391
-0.028863087 0.108864225 0.107526205 -0.009623273 0.10207169 -0.11343654 0.11960958 0.03533367
0.075094394 0.0005601098 -0.0054206103 -0.09985286 -0.08887968 -0.0040520304 -0.0090787215 0.017479742
-0.0046369187 0.15195897 -0.09085872 0.04938587 -0.1368572 0.27081034 -0.015517555 -0.019459656
0.0074744276 -0.042908907 0.058044095 -0.06095855 -0.15364031 0.02057553 -0.07820585 0.00831337
-0.01047919 0.029548341 -0.08786669 -0.00829729 -0.14023687 -0.039075404 0.017681375 -0.016412038
0.040327527 -0.011952415 0.027210055 0.021618519 0.102592096 -0.017220777 0.10192005 0.06716253
0.046785697 0.062174544 0.069037825 0.15454237 0.04621222 -0.010327372 0.09795189 -0.035134133
-0.043648552 -0.02447497 0.06114212 -0.020016754 -0.1534287 -0.119548485 0.057752118 -0.08650346
-0.23683839 0.027196495 -0.0009903866 -0.021259835 -0.028096437 -0.08506806 -0.088579595 -0.1520692
-0.22241595 -0.17077547 0.092346914 -0.106600344 -0.05850091 -0.025472946 0.09837216 -0.08241089
0.061133746 -0.25455427 0.16759798 0.047679953 0.0565542 -0.016359134 -0.14139603 -0.0006411523
0.13979448 0.08348767 0.08369889 0.15743561 0.12874086 0.11863803 0.012033929 -0.0784059
0.032386295 -0.003534844 0.049334895 -0.25736532 0.1468262 -0.007391085 0.049704455 0.047444183
-0.066915646 0.09607621 -0.042669874 -0.112460665 0.25471458 0.11850774 0.07114366 -0.08214457
0.05851738 0.11165463 -0.018720705 -0.06334784 -0.04884734 0.03341571 -0.0818484 -0.047649585
0.037222978 -0.05261998 -0.01180294 0.1055334 0.08049166 0.14205675 0.07634558 -0.07902309
0.075217284 0.008949313 -0.062147453 -0.104301974 -0.20721006 0.032108482 0.0021004688 -0.048717186
0.16305695 -0.10933661 0.08740876 0.04331049 0.0068137757 0.015465771 -0.03840157 -0.01565788
-0.04661314 0.101669855 -0.02020976 -0.2827606 -0.109888814 0.07074936 -0.009727467 0.064743996
0.10947607 0.06598285 -0.11665431 -0.057181556 0.08960501 -0.07291132 -0.05371442 -0.03432596
-0.13002475 0.06685405 0.062018536 0.096021675 0.1004334 -0.03687723 -0.019427976 -0.01600845
-0.059352614 -0.19702037 0.0051653846 -0.010232917 -0.15252696 -0.082619034 -0.12602662 -0.09388707
0.12070044 -0.124532826 0.005063463 -0.11614229 -0.042942606 -0.08499759 0.009028669 -0.09475855
00000000: ffe8 643b 6edb 64bd f0da babd 4ec6 cdbc
00000010: d034 42bd 653f 683d e13b 363d 7842 873d
00000020: ca98 663d 3002 86bc 7273 26bd ee57 153d
00000030: be7f c5bc f220 b73b 7eae 293d 6a24 8dbd
00000040: fb0f 853d 0e02 81bd 8367 c6bd e280 ad3d
00000050: b501 febc 7d68 113e bbe5 123d d09c 50bc
00000060: 25e6 d4bd 98a5 03be 6d0e 09bd 01ab b3bc
00000070: 959b c7bc 97e7 f7bd f488 a4bc ca40 a6bd
00000080: 10b9 4e3c 5d3e 903d fb5b 5fbc b0bf b2bc
00000090: ee56 24bd 05a8 893d 3659 b7bd 2fde 33bc
000000a0: 88ce 1ebd e835 9a3d b7d3 333d 5217 8f3d
000000b0: 75e9 19bd bbba f0bd 72d0 383d 2d03 d2bb
000000c0: 5d08 193c e823 74bd f911 cc3d 3f0c a7bb
000000d0: e8a2 e6bd 0ba5 463d 1ad9 a3bc c4bc e4bd
000000e0: 2b86 e23d 6ce9 543d 04ee 2f3d a17d 46be
000000f0: 5a18 1cbb 2351 a4bc cf75 a2bd db7a 4d3d
00000100: 187e 1e3e e43e 39be 9288 66bc 8e8b 843c
00000110: abd0 73bd 9323 1dbe 5adf 5f3d cc54 2abe
00000120: 4872 ecbc 35f4 de3d b336 dc3d efaa 1dbc
00000130: f60a d13d 6b51 e8bd def5 f43d 0aba 103d
00000140: 17cb 993d 55d4 123a 609f b1bb a87f ccbd
00000150: 8d06 b6bd e5c6 84bb ebbe 14bc ad31 8f3c
00000160: 4bf1 97bb 229b 1b3e 2314 babd d748 4a3d
00000170: 4b24 0cbe a7a7 8a3e 583d 7ebc db69 9fbc
00000180: 0bec f43b 40c1 2fbd a5bf 6d3d acaf 79bd
00000190: e353 1dbe 048e a83c 642a a0bd cd34 083c
000001a0: e9b0 2bbc 5d0f f23c 73f3 b3bd 5bf1 07bc
000001b0: 419a 0fbe 880d 20bd 88d8 903c 8a72 86bc
000001c0: 7a2e 253d 10d4 43bc 9fe7 de3c 5219 b13c
000001d0: ce1b d23d 9612 8dbc 76bb d03d 828c 893d
000001e0: 5ca2 3f3d bcaa 7e3d b463 8d3d 5b40 1e3e
000001f0: 0649 3d3d 2334 29bc 009b c83d cfe8 0fbd
00000200: d3c8 32bd bb7f c8bc 2970 7a3d 2dfa a3bc
00000210: 6a1c 1dbe d6d5 f4bd 7c8d 6c3d ba28 b1bd
00000220: c385 72be 2fcb de3c dccf 81ba 1b29 aebc
00000230: 802a e6bc 2a38 aebd 3869 b5bd 07b8 1bbe
00000240: 02c1 63be c4df 2ebe 6120 bd3d 4851 dabd
00000250: a69e 6fbd a4ac d0bc 5877 c93d 0ac7 a8bd
00000260: 6167 7a3d f054 82be ce9e 2b3e 0e4c 433d
00000270: 60a5 673d 9703 86bc 1fca 10be 0113 28ba
00000280: 4926 0f3e 95fb aa3d 536a ab3d cd36 213e
00000290: a5d4 033e 7ff8 f23d f529 453c 4693 a0bd
000002a0: 7ea7 043d d7a8 67bb 6313 4a3d 63c5 83be
000002b0: 9b59 163e ea30 f2bb e696 4b3d d554 423d
000002c0: 120b 89bd 9bc3 c43d 9bc6 2ebd c751 e6bd
000002d0: f369 823e 30b4 f23d c4b3 913d 6a3b a8bd
000002e0: ecaf 6f3d 2fab e43d 2a5c 99bc 83bc 81bd
000002f0: 2614 48bd e9de 083d 22a0 a7bd 362c 43bd
00000300: 1f77 183d 0c88 57bd 1e61 41bc e521 d83d
00000310: d0d8 a43d 5377 113e 125b 9c3d dcd6 a1bd
00000320: 850b 9a3d 24a0 123c 548e 7ebd 469c d5bd
00000330: e02e 54be 2f84 033d 05a8 093b ac8b 47bd
00000340: 67f8 263e dfeb dfbd 5d03 b33d 5766 313d
00000350: 1846 df3b 2564 7d3c f74a 1dbd f444 80bc
00000360: 6bed 3ebd 4938 d03d f08e a5bc ffc5 90be
00000370: 630d e1bd 0ae5 903d f45f 1fbc 8098 843d
00000380: fd34 e03d 0422 873d 74e8 eebd 3537 6abd
00000390: d582 b73d 8852 95bd a703 5cbd 6199 0cbd
000003a0: 3525 05be c7ea 883d 2607 7e3d 03a7 c43d
000003b0: 07b0 cd3d 940c 17bd 6b27 9fbc 2724 83bc
000003c0: ba1b 73bd b5bf 49be 6342 a93b f7a7 27bc
000003d0: 0730 1cbe 2b34 a9bd 1f0d 01be dd47 c0bd
000003e0: cb31 f73d 110b ffbd 68eb a53b 02dc edbd
000003f0: 96e4 2fbd 3713 aebd fcec 133c c510 c2bd
