Learning/results/test5/KartAgent/KartAgent-19224.onnx (onnx, 116929 bytes, 7 tensors)

41 f4 [1, 2]
00000000: fffe 13bf 7423 7cbf
-0.5781097 -0.984916

distribution.mu.bias f4 [2]
00000000: 2120 ca3c 092d 183e
0.024673523 0.1486093

distribution.mu.weight f4 [2, 128]
00000000: 3946 ca3a 4898 403d d193 0f3c c85f 0dbc
00000010: 72e3 77bd 665f 153b edd7 3c3b 8ffd b8ba
00000020: 55b0 c13d 3c5d 85b6 be72 2aba cc77 84b9
00000030: e65e c83c 190e 60ba 0bb5 79bb a923 f13d
00000040: bdcc 2e39 a7c5 f63d 995f 86bd f741 943d
00000050: 7799 313a a5ee 08bb 3002 963d 3a9f 4dbb
00000060: cb8e dd3b ce4a 543d 0231 1fbe 2980 37be
00000070: c4a9 843b 8a9e 92bd 4f5f 283b ba3e cdbd
00000080: 6f61 8b3b 4102 7dba 1427 3db9 d07e 15bd
00000090: 8069 cd3a 2c35 15be 43b4 723d 4f7f 7abc
000000a0: b039 7ebd 0d70 eabd 0f76 fc3d 2f7f 053b
000000b0: 4229 88b9 cb97 aebd e7c3 8a3a 16d8 703a
000000c0: 1a04 193a a337 4c39 e2c9 1136 84f2 573a
000000d0: d00f dcba 2b6c 72bc f2da 4abb 256a 02b8
000000e0: 30fd 253e 8533 5c3b 92d3 263c b129 01bc
000000f0: e6c4 be3d d053 2b3e a113 423a e84b 4d3a
00000100: bbfe 64bb d567 eb39 2a33 343b abca 8e39
00000110: 6c49 023b 0bfd ddba 8515 0f3b 7491 e639
00000120: 19d3 01bb 26d5 85b9 1711 a9b9 5764 08bd
00000130: e304 483a 3301 00ba c52b 88bd 440c f33a
00000140: a344 76bc 2f3f b83d 6ecc 7b3a 750e ab3d
00000150: 8da0 903c f33d 8abc 6abb 0b3c fed2 cb39
00000160: 548f f9bd e156 b4bc 0088 92ba f639 293d
00000170: 84ea aab9 2297 1dbc b9a4 70ba f81f 3fb9
00000180: bd87 baba 941a 6a3b 268d 9c3a 4148 7fb9
00000190: 18bb abb8 4380 76bc 5b33 863d 494a 0b3e
000001a0: fe65 db39 e21b 933b 6430 97b8 6392 7ebc
000001b0: e8c4 f639 7bd1 2e3c 8114 5abc 3d0e 723a
000001c0: b190 483d ef6e ad3a d3d2 a838 e8e7 8e3d
000001d0: ae48 3fbc 2dfb d73a 301e 01ba b5f2 973b
000001e0: 796e 38bd 8008 0ebe d1d7 78bc 5fdf 1cbd
000001f0: f384 513a fea7 6dbd 50ff b8b8 4472 95bc
00000200: 2988 e43a c517 4239 d2e5 b7bd 1215 c3bd
00000210: f955 0e3c d6d4 4b3b 990f 2b3a c098 6539
00000220: b73a f13b 997b 243a 45d9 a63a 5824 deb9
00000230: 4970 a8bd bfda 383a c040 1dbe 695d 863c
00000240: 0d60 22bb b492 2e3c fa0e 633b 6d4c dd3a
00000250: e309 003a 0453 21ba 0ae9 cb3b 9a80 05ba
00000260: bcaf f3bd 00bf d1bd 394d 0b3d 39b5 dd3c
00000270: 678e e1bd c417 583c 5f94 e439 13e8 183c
00000280: a765 5bba 9a0b ffba 40fa d73a cecb 18be
00000290: c881 2f3b c98c f13c 8d00 f23b 9103 d8ba
000002a0: 1cbe 51bb ad88 a83c 01b4 363c 2144 403b
000002b0: 816b cbbd c2db a83c fc5e 7d3a cd67 e539
000002c0: c6f1 083b d4be b53a 09dd edbd 5cd0 65bb
000002d0: 3f92 1abe 32d1 cfbd 1c16 0cbe 0ee4 82bb
000002e0: 809d 903c cdec e9ba ad73 5abb cd26 b1bd
000002f0: c5dd e0ba cecc 153d 70f5 5ebb 3387 a4bb
00000300: 35a9 d2bd 0774 d838 0a8e 6dba 6fa3 b53a
00000310: 1221 a73a a6d2 d0b9 396b 033a 6b6b 64b9
00000320: 3b7d 3db9 a3a9 823a 6d9c cf39 6a2c 00be
00000330: 7ae9 b239 d594 4439 bd9d b53b 4b82 de3a
00000340: 6c61 ccbd da33 5b3c a339 b6ba 1075 e6bb
00000350: 96e9 1cbe eb6d dcbd 11f1 aabd e23e c839
00000360: 80f6 de3c cbf4 e2bd b1d8 9bba 816f 2cbc
00000370: c2ce f1bd 7710 dcbd 3048 c2b8 7837 0ebb
00000380: b8c1 843a 956e c537 858f e4b9 e5db b73b
00000390: f9eb f9b9 4e3a fdbd 4bcb 603c 4463 313c
000003a0: 053c 4bba 41d7 e739 0a0a 3438 3504 9ebd
000003b0: 6deb 26bb 5567 c2bd d7bd 13be 615e e4ba
000003c0: 9a2a 27bb 495d 92ba 0bac cd3a 6c35 473c
000003d0: adf5 d0bd 94b1 9738 7efd 8fba 9b71 c3bd
000003e0: b59a 02be 31e7 043d 6fac d6bd e1bb 213c
000003f0: 31d4 613a f87a ce3b cc2d b83a c68b 0cbe
0.0015432305 0.047020227 0.0087632695 -0.008628793 -0.060519643 0.0022792458 0.0028815225 -0.0014113652
0.09457461 -3.974563e-06 -0.0006502083 -0.00025266258 0.024459314 -0.00085470226 -0.0038102295 0.1177438
0.00016670204 0.12049418 -0.065612026 0.07239144 0.0006774882 -0.0020894196 0.07324636 -0.0031375424
0.006761407 0.05182915 -0.15546039 -0.17919983 0.004048558 -0.07159145 0.0025691574 -0.1002173
0.0042535583 -0.000965152 -0.00018039002 -0.03649789 0.00156717 -0.14571065 0.059253942 -0.015289142
-0.062066734 -0.11447153 0.123272054 0.0020369997 -0.0002597068 -0.08525046 0.0010586948 0.0009187473
0.0005837098 0.00019475682 2.1724195e-06 0.0008237737 -0.001678938 -0.014796297 -0.0030953255 -3.109327e-05
0.16209865 0.0033600044 0.010182278 -0.007883475 0.09314899 0.1673119 0.00074034376 0.00078314403
-0.003494187 0.00044900054 0.0027496316 0.0002723535 0.0019880189 -0.0016936375 0.0021832895 0.0004397739
-0.0019809662 -0.00025526545 -0.00032246925 -0.033298817 0.0007630123 -0.0004882991 -0.066489734 0.0018543084
-0.015031013 0.08996426 0.00096053525 0.08352367 0.017654682 -0.016875243 0.00852857 0.0003887638
-0.12185541 -0.022014083 -0.0011179447 0.04131504 -0.00032599655 -0.009618552 -0.0009179819 -0.00018227089
-0.0014231127 0.0035721408 0.0011943921 -0.00024345612 -8.188764e-05 -0.015045228 0.06552764 0.13602556
0.00041846925 0.004489408 -7.2092545e-05 -0.015537831 0.00047067483 0.010670061 -0.013310553 0.0009233689
0.048966113 0.0013231913 8.050133e-05 0.06977826 -0.011675043 0.0016478054 -0.0004925458 0.004637087
-0.04502723 -0.1387043 -0.015188173 -0.03829896 0.0007992528 -0.058021538 -8.8213594e-05 -0.018242963
0.0017435598 0.00018510137 -0.089793816 -0.09525503 0.00868749 0.0031102202 0.00065254566 0.00021896046
0.0073617357 0.0006274521 0.0012729546 -0.00042370218 -0.08224542 0.00070516387 -0.15356731 0.016401963
-0.002477649 0.010655094 0.0034646378 0.0016883739 0.0004884286 -0.0006154033 0.006222849 -0.00050927105
-0.11898753 -0.102415085 0.034009192 0.027063953 -0.11013489 0.01318926 0.00043598094 0.009332675
-0.00083693344 -0.0019458414 0.0016477779 -0.14921495 0.0026780237 0.029486077 0.0073853196 -0.0016480555
-0.0032004183 0.020572985 0.011151315 0.0029337483 -0.09932614 0.020612601 0.0009665338 0.0004375562
0.0020896061 0.0013866075 -0.11614425 -0.0035066819 -0.15094851 -0.10147323 -0.13680309 -0.0039944714
0.017653227 -0.0017847061 -0.0033333108 -0.08649979 -0.0017155936 0.03657227 -0.0034020804 -0.005021
-0.1028618 0.000103212944 -0.0009061998 0.0013857911 0.0012750945 -0.00039829797 0.0005013231 -0.0002178379
-0.00018071097 0.0009968769 0.00039598663 -0.12516943 0.0003412476 0.00018747461 0.0055424855 0.0016976086
-0.09979519 0.013379062 -0.0013902675 -0.007032998 -0.15323481 -0.10763153 -0.08346761 0.00038193824
0.02721715 -0.11081847 -0.0011890141 -0.0105246315 -0.11807014 -0.10745328 -9.264087e-05 -0.0021700542
0.0010128533 2.3535724e-05 -0.0004359448 0.0056109303 -0.00047668794 -0.12364636 0.013720344 0.010826889
-0.0007752779 0.0004422013 4.2924694e-05 -0.07715646 -0.0025469915 -0.09492365 -0.14427887 -0.0017423147
-0.002550757 -0.0011166717 0.0015691532 0.012158733 -0.10203109 7.2333176e-05 -0.0010985581 -0.09543153
-0.12754329 0.032447044 -0.10482108 0.009871454 0.0008614688 0.00630128 0.0014051734 -0.13725194

network_body.linear_encoder.seq_layers.0.bias f4 [128]
00000000: 078e 07bd 63df 87bc 9364 56bc fdeb b63b
00000010: 462d 3fbd 2273 02bd 28ef 80bd 2f4b b8bb
00000020: 0b0d 92bc 7527 af3c 1eff 81bc b480 2e3b
00000030: dd5d 353b ef72 32bd c18a 573d 30ee 00bc
00000040: 636e ae3b c25a 15bd 2fa4 e5bc 4489 bcbc
00000050: 9035 c5bc 73ab 81bd d966 adbc a5c4 823c
00000060: e9cd 64bb fd6e e6bc b764 58bd 33a2 073d
00000070: 3132 66bc 7c92 6d3c 2a0f b8bc 3158 043c
00000080: 18e3 173d 3f5d adbc ff08 2cbc 350c 7abd
00000090: 2f89 99ba e69a 473a 7817 78bc bc04 5ebc
000000a0: 592b 80bd fe1e 64bd 88a6 8bbc 8dda f1bb
000000b0: f9cb b3bc 09f9 32bd ad45 7e3c 6dfb 46bc
000000c0: 62f6 f43c 9933 4bbb 191f 113c 917e 983c
000000d0: c75e 94bc 1b4f 693b 9c72 903c 9ba4 4e3d
000000e0: 7c58 13bd 70d9 3ebd ff2c 8f3b a543 c5bd
000000f0: a644 bcbb 979d 023d 8c0f bb3c 0108 31bc
00000100: c587 92bc 0586 c1bc 02f2 0fbd 52df 6bbc
00000110: 6012 303b 8b3b 8abd 85b5 363d a022 15bd
00000120: 509f b2bc 6cbc b2bc 5054 f4bc bd5a 2abc
00000130: 8f16 363d 2a62 02bd 88c7 88bb fe3c 86bc
00000140: fe09 ef3c c050 9cbc 3b04 7d3a 3c97 84bd
00000150: bb9d e73b 124b a53c aa56 22bd 82e8 80bd
00000160: 89a5 85bb 5228 40bc 1512 28bd 1628 3bbc
00000170: d759 43bd ceee bdbc f104 9fbd 06a1 e5bc
00000180: 0cc2 82bd 363a 1ebd 09c0 52bb 8504 8abc
00000190: 487c 38bd f338 23bd 8940 233c 73e6 de3c
000001a0: 259e 7b3c d371 ee3c e9d5 903c ab45 47bd
000001b0: 8da4 33bc 34d6 0dbd dd97 5d3d 7861 58bd
000001c0: 5c53 81bd fbc8 91bc 3ec8 89bd 12f9 94bd
000001d0: 995d be3c d070 0e3d 7680 c2bc 0fe3 27bc
000001e0: 8051 b03b be4d 613c 14c0 f53c 9c08 f0bc
000001f0: 752f 82bd cb5d 34bd d39e b2bc 42ef 02bd
-0.033094432 -0.016586011 -0.013085502 0.005582331 -0.046674035 -0.03184808 -0.062956154 -0.005624197
-0.017828485 0.02138112 -0.01586872 0.0026627006 0.0027674355 -0.04356664 0.05262256 -0.007869288
0.0053232177 -0.036463507 -0.02803239 -0.023014672 -0.024073392 -0.063315295 -0.021167206 0.015962908
-0.003491277 -0.028129095 -0.052830424 0.03311367 -0.0140500525 0.014500257 -0.022468168 0.008077667
0.037081808 -0.021162627 -0.010500192 -0.061046798 -0.0011713858 0.0007614329 -0.015142314 -0.013550933
-0.06258268 -0.05569362 -0.017047182 -0.0073807896 -0.021947848 -0.04369453 0.015519542 -0.0121449055
0.02990264 -0.0031006096 0.008857512 0.018615039 -0.0181116 0.003560013 0.017632775 0.05044995
-0.035973057 -0.046594083 0.0043693776 -0.09632043 -0.005745488 0.03188857 0.022834562 -0.010805131
-0.017887006 -0.023623476 -0.035142906 -0.014396505 0.002686642 -0.06749638 0.044606704 -0.036409974
-0.021804482 -0.021818362 -0.02982536 -0.01039761 0.044455107 -0.031831898 -0.0041741766 -0.016386505
0.02917957 -0.019081473 0.00096518145 -0.06474158 0.0070683635 0.020177398 -0.03963343 -0.06294347
-0.004078571 -0.011728363 -0.04103287 -0.011423131 -0.0476931 -0.02318516 -0.077646144 -0.028030884
-0.06384668 -0.038629733 -0.003215792 -0.016847858 -0.0450404 -0.039849233 0.009964117 0.027209496
0.015357529 0.02910701 0.017680125 -0.048650425 -0.010964525 -0.03462811 0.054099906 -0.05282733
-0.06314728 -0.01779603 -0.06727646 -0.07274069 0.02323799 0.034775555 -0.023742896 -0.010247006
0.0053808093 0.013751445 0.029998817 -0.02930098 -0.06356708 -0.04403476 -0.021804249 -0.031966455

network_body.linear_encoder.seq_layers.0.weight f4 [128, 93]
00000000: 1feb 333d aea6 923d d4a5 c0bd a731 723e
00000010: e7d5 963d ae37 e53d b608 c83d fc7b 3d3e
00000020: ca79 22bd 1f38 f2bd 1638 483c 28fe 933d
00000030: 8271 c5bc e985 a6bd eeec e0bd 6eb8 f6bc
00000040: 2e1e 133d ae13 5cbd 3b25 e5bd 66f2 7cbd
00000050: 37b7 acbd d18a a23c e9c8 abbc bf5d 003e
00000060: 1619 fabb ce98 35bc b75b 1fbd 5d69 6c3d
00000070: 916d 733e f5b9 85bb 7886 e23d 1486 193e
00000080: 4cdb afbd 0402 0fbd 8011 2c3e 92d4 923b
00000090: f419 bebd 58f2 06bc 95f4 3a3d 7a68 093e
000000a0: 016a eabd 87cd 0bbe a31b 67bd b782 8a3e
000000b0: a540 323c 6c9b 123e 1f10 b93c a308 33be
000000c0: fc50 c7bd 15c3 f9bd 19f2 0dbe b8a4 6c3e
000000d0: f1c8 78bd 1566 67bd 2366 b13d ec96 0cbe
000000e0: 24ff 7bbc db9b 823d f658 86bd 1622 96bd
000000f0: 39d7 d7bc 63c1 113e 8761 6bbe 9eea 323d
00000100: 0dfd 68bd b4a1 fc3c 75b5 193c f1b6 173e
00000110: d50c 153e 1fad 2abe 1221 b8bd e80b 913d
00000120: a27b 8abd ddc9 6dbc 9e7c ddbb 15df 02bd
00000130: c8a8 133d 57d7 503e 449a b83c a313 0fbe
00000140: 1259 6cbb f0e3 d73d 51ad 76bd 2acd b0bd
00000150: 46e3 abbd 63d6 0ebe 67a9 18bd 0ca0 4e3e
00000160: ba80 243e 4f1f 65bb 6835 0a3e 0a07 453e
00000170: 9f77 d93d 1382 0ebe d5f2 64bc 4a79 843d
00000180: 7659 d83d d549 a93d d9d5 31bc 972c 0a3d
00000190: 46cf 83bb 1803 883e ab18 c43c f5b1 a93d
000001a0: a849 a53c 3ba1 0bbe 7646 9a3d 8989 28be
000001b0: d326 febd e96f b73d 9295 063d bf88 f73c
000001c0: 13e3 a0bc 65c5 0bbd 121a d8bd 7d81 013d
000001d0: 4294 af3d ba15 9b3e a2ce 61bd 7bfe 343e
000001e0: de97 2f3e ea72 e93c a874 4fbe 4f4f b2bd
000001f0: 0c05 0c3d c9e6 8d3d cf21 80bd 26e1 cabd
00000200: d98d 30bc a7a9 bebd 019f c0bc 16fc b93d
00000210: 0467 3fbd a82e 153d c3b5 313c ca32 883d
00000220: 448a 113d c321 b03c 7848 db3d 2ac8 403d
00000230: 97b7 2a3e f254 a8bc f2a6 1cbd 0e6b f5bd
00000240: e139 a43d d2f8 b73c d4a3 18bd e4cf 92bd
00000250: f27d 563d 0b79 663e ada9 993d fe62 06bd
00000260: a805 353e f899 9bbd bace eabd fb26 db3d
00000270: 5381 8dbe cd87 e73c 292c 45be 12d0 1bbd
00000280: 7d06 003d f1b3 f53d 0fc5 c33c 8d61 55bd
00000290: 03da 3d3d a0ef cebd fe7e 45bd 93b7 8f3d
000002a0: ab80 1abe 9128 023c 9202 9ebc 8ce3 c53d
000002b0: 5721 313d 6fec ddbd ec9b 533e 6756 00be
000002c0: 5036 12be 6eeb 763d 1043 17bd 3d7e 633e
000002d0: 7b1f 303d b8e7 d33d 04b8 02bd fcbe 23bd
000002e0: 0627 dbbd a5d4 813d c15c 813d 53ba 3ebe
000002f0: ac7f a7bd 4dd9 52be 5639 873d e388 bf3d
00000300: bd6c 833d 806f 403d 7aea 723d ffc6 bbbd
00000310: d35e 09be 07e1 41bc 040d f4bd f177 723e
00000320: 20f1 483d 3dad c7bd b1a4 0e3d 116c 34bc
00000330: e858 79bc c04e 073e 69c9 05bd eee0 62be
00000340: ec60 9c3b cad5 19be af6f 4bbe e889 9e3c
00000350: cc52 9a3d 391e 8bbd e276 1b3d f554 e43d
00000360: a2b3 283e 4479 19be b905 b23d 71d3 5a3d
00000370: e152 073e eefa 6c3e 90e4 4d3b e1f5 09bd
00000380: 9fc8 a73d a41e 6ebd dd22 5ebc 8fbc 5e3c
00000390: d9fd b53d 4f6c 0bbe a5bf 85bd 7e42 b5bd
000003a0: f310 663d eb46 42bd 2008 e03d 630d 2d3c
000003b0: 4612 77bd 7c5a ee3c 33a2 683d 6651 dc3d
000003c0: 5c61 813d 81ae f7bd da82 36be 45db de3d
000003d0: d55b 80be d5f6 423d b726 c43c 4a77 32bd
000003e0: 5f49 a13d bb79 e5bd ea16 ffbb 06e4 983d
000003f0: 0969 cdbd 8418 143d 5a5a 843d c129 c7bb
0.0439254 0.07160698 -0.09406629 0.23651753 0.073650174 0.11192261 0.097672865 0.18504328
-0.03966693 -0.118271105 0.012220403 0.07226211 -0.024101976 -0.0813101 -0.10982691 -0.03011724
0.035917453 -0.053729706 -0.11188742 -0.061754607 -0.08433383 0.019841583 -0.020969825 0.12535761
-0.007632385 -0.011083795 -0.038905825 0.05771767 0.23772265 -0.0040810057 0.11060804 0.14992553
-0.085867494 -0.03491403 0.1680355 0.0044809068 -0.09282294 -0.00823649 0.045643408 0.13418761
-0.11446 -0.13652621 -0.05642284 0.27052853 0.01087967 0.14317101 0.022590695 -0.17483763
-0.097322434 -0.12195412 -0.13861884 0.2310971 -0.060738508 -0.056493837 0.08662059 -0.13729447
-0.0153806545 0.06377383 -0.06559937 -0.0733072 -0.026347743 0.14233927 -0.22986422 0.04368078
-0.056881953 0.030838825 0.009381642 0.1481588 0.14555676 -0.16667603 -0.08990683 0.07082349
-0.06761862 -0.01451346 -0.0067592403 -0.03195103 0.036049634 0.20394646 0.022534497 -0.13972335
-0.0036063832 0.105415225 -0.06022388 -0.08632882 -0.08392958 -0.1394897 -0.03727093 0.2017824
0.1606473 -0.0034961288 0.13496935 0.19240966 0.10618519 -0.13916807 -0.013973911 0.064684466
0.10563938 0.082660355 -0.010854208 0.03373393 -0.0040225117 0.2656486 0.023937544 0.08285896
0.020176724 -0.13635723 0.075329706 -0.16458715 -0.12409749 0.08956892 0.032857485 0.030216573
-0.019639527 -0.034123797 -0.105518475 0.03161763 0.085732 0.30290014 -0.0551287 0.17675202
0.17147776 0.028497178 -0.20259345 -0.08706533 0.0341845 0.069287844 -0.062564485 -0.09906225
-0.010776007 -0.09309702 -0.023513319 0.09081285 -0.046729103 0.036421448 0.010846558 0.06650312
0.03553225 0.021500474 0.10707182 0.04706589 0.16671596 -0.020548318 -0.03824515 -0.1198331
0.08018852 0.022457514 -0.037265614 -0.07168558 0.052366205 0.22507112 0.07503066 -0.03280925
0.17677939 -0.075977266 -0.11465211 0.10700794 -0.2763773 0.028262997 -0.19255127 -0.03804023
0.031256188 0.11997212 0.023897676 -0.052094985 0.04635049 -0.101042986 -0.048216812 0.07017436
-0.15088145 0.007944242 -0.019288335 0.09662542 0.043244686 -0.10836112 0.20664948 -0.1253296
-0.14278531 0.060283117 -0.03692919 0.22216125 0.042998772 0.10346931 -0.031913772 -0.03997706
-0.107008025 0.06339387 0.063165195 -0.18625765 -0.08178648 -0.20590706 0.06602733 0.09352281
0.064172246 0.046981335 0.059305646 -0.09168815 -0.13415079 -0.011833436 -0.11916545 0.23678567
0.04905808 -0.097498395 0.03482503 -0.011012093 -0.015218951 0.13213634 -0.032662783 -0.22156116
0.004772296 -0.1502296 -0.19866823 0.019352868 0.075353235 -0.06792874 0.037955172 0.11149017
0.16474774 -0.14987665 0.08692498 0.053424302 0.1321521 0.23142597 0.0031416751 -0.033681754
0.08192562 -0.05813469 -0.013558117 0.013594761 0.08886308 -0.13615535 -0.06530694 -0.08850573
0.056168508 -0.047430914 0.1093905 0.010562274 -0.06032016 0.02909588 0.05679531 0.10757713
0.06317398 -0.12093831 -0.17823353 0.10881666 -0.25070062 0.04759868 0.023944242 -0.043570794
0.078753226 -0.11204859 -0.007784714 0.07465367 -0.100297995 0.036156192 0.06462546 -0.0060779755

network_body.linear_encoder.seq_layers.2.bias f4 [128]
00000000: 25a0 1cbd 77bf 51bc 3395 03be b621 1fbe
00000010: 6c26 c6bc 6bf2 77bc af59 2abd 5524 663c
00000020: c19e 2f3d 1a13 983c 7f05 403b b562 54bc
00000030: b111 12be 120d c33c f370 d8bd 560b 6e3d
00000040: 28f4 c53b b858 943d 29f5 b5bd 756f 14ba
00000050: 0015 b0bc 1fda 31bd b63f 48ba b25a d4bc
00000060: d48b fabd eb0c 00be 5e08 333d 08af 6c3d
00000070: e0d0 bdbd 82ec 0cbd 990a 20bb 209a 80bd
00000080: 22fd 833b f15d 48bd b6f2 d83b b79d 21be
00000090: d664 d1bc 0569 343d f7d1 1bbc 437d 15bd
000000a0: b289 89bd 2507 813b bb30 843d 9b92 103c
000000b0: 76ce 1fbe b710 1cbc 8cb8 32bd d73f 9a3a
000000c0: 8f36 a0bc 3d77 cb3c 7212 28be f49d 403b
000000d0: 3634 0dbe 0be4 12be 6904 12be 01af 023d
000000e0: e306 ed3d 271b c1bc 7820 babb 6c20 3abe
000000f0: d39f 0c3d fd78 033e 7c6b 84bb de71 383d
00000100: df7f 1dbe c633 bd3a 4566 b4bc a12c b53b
00000110: e859 95bc 679f 253c f065 56bd 33b8 c73b
00000120: 3883 66bc f265 b73a dee0 b1b9 5903 2abe
00000130: c2d8 943b e00d 923b ff45 98bd 89b1 8cbb
00000140: f883 1ebe ecc9 e83c c262 cebb 6e3d 0a3c
00000150: 44c6 0cbe da77 19be ead9 edbd a570 a7bb
00000160: 5301 8d3c 6021 18be ed9c ff3c 820e 1bbd
00000170: aae6 00be 9012 34be c271 6d3c eac6 deba
00000180: e7c3 07bd 0484 3bbc 098e d63b e165 4cbb
00000190: c7ec 12bd 7e3a 37be b274 4a3c 1ced a83d
000001a0: de18 a5bc 2442 ca3b 8915 40bc 51a9 10be
000001b0: 425c e2bc eb43 c6bd 0eeb fcbd f481 223c
000001c0: 2d52 02bd 96b2 b73c d2ef 393d 90ba d13a
000001d0: e53f 09be 452f 0fbd b75a d6bc dc6b 33be
000001e0: 99fb 1bbe 951e 123d 8757 1cbe fb37 8fbc
000001f0: 3d2b 063c 359a aabd 358f c5ba dea6 0ebe
-0.038238663 -0.012801996 -0.12849884 -0.15540203 -0.024188243 -0.015133481 -0.041589435 0.014046748
0.04287601 0.018563796 0.002930015 -0.012962987 -0.14264561 0.023809943 -0.10568418 0.05811628
0.0060410686 0.07243484 -0.08884651 -0.00056623603 -0.021494389 -0.043420907 -0.0007638888 -0.025922153
-0.12233701 -0.12504928 0.04370915 0.05778411 -0.09268355 -0.03440524 -0.002442038 -0.06279397
0.0040279785 -0.048917715 0.0066207303 -0.1578282 -0.025560778 0.044045467 -0.009510509 -0.036496412
-0.067157164 0.0039376193 0.06454607 0.008824016 -0.15606102 -0.0095254695 -0.04363303 0.0011768293
-0.019557266 0.02483713 -0.16413286 0.0029391022 -0.13789448 -0.14344804 -0.14259495 0.031905178
0.11573579 -0.023572518 -0.00568014 -0.1817643 0.034332108 0.12839122 -0.0040411334 0.045030467
-0.1538081 0.0014434985 -0.022021422 0.005529002 -0.018231347 0.010108805 -0.05234331 0.0060949563
-0.014069371 0.0013992174 -0.0003392761 -0.1660284 0.004542441 0.0044572204 -0.07435226 -0.004293625
-0.1548003 0.028416596 -0.006298394 0.008437498 -0.13747507 -0.14987126 -0.116138294 -0.005109864
0.017212545 -0.14856482 0.031202758 -0.037855633 -0.12587991 -0.17585206 0.014492454 -0.0016996537
-0.03314581 -0.011445049 0.0065476936 -0.0031188654 -0.03587034 -0.17893407 0.012356924 0.0824835
-0.02015346 0.0061724354 -0.011723884 -0.14127089 -0.027631883 -0.09680923 -0.123495206 0.009918679
-0.03181665 0.022424024 0.045394726 0.0016001035 -0.1340328 -0.03495719 -0.026166303 -0.17521614
-0.15232696 0.035673697 -0.15267764 -0.017482748 0.00818902 -0.08330194 -0.0015072586 -0.13930842

network_body.linear_encoder.seq_layers.2.weight f4 [128, 128]
00000000: d92e bb3a eb63 5fbd d6ab f2bd 429f 953c
00000010: dbf4 58bd 1518 803d f8d1 1c3d 6619 5a3d
00000020: 8efb 443d b440 83bc 4ee7 71bd bdb3 bd3c
00000030: cd4f 8dbd 2462 d03b 1edf 3e3d c9a8 1cbd
00000040: 19f9 943d b63b 30bd 2050 b4bd 6241 ad3d
00000050: 88db 1cbd 8785 ed3d 063c 073d 7a11 9cbb
00000060: f5d5 d3bd a15d 15be d1c2 93bc 41a9 a1bc
00000070: 12f1 84bc 411d edbd 34ff 8bbc 8569 80bd
00000080: 5f46 8dbb ebc6 923d 94d7 35bd a298 e1bc
00000090: c3f2 3abd 4b92 68bb 97a0 d6bd 8de8 f2bc
000000a0: 5f55 53bd b074 853d 0f99 3f3d a066 ad3d
000000b0: 6321 ccbc 9c75 9ebd c33f 083d b1bb a43c
000000c0: 5f9b 75bd 09ce dbbb ff6f f63d da8a 29bb
000000d0: ae61 10be 6ab9 6f3d 2029 873c 13de bfbd
000000e0: 7d40 163e e9fa 823d 3ec6 103d 0885 4ebe
000000f0: 3455 173d 96c0 2a3c 9b40 39bd 1f8b ce3c
00000100: 59bc 093e b51e 30be 59f6 443d 5d23 2a3c
00000110: 6a98 50bd ead8 42be 42fc 773d 9124 0dbe
00000120: 7160 bdbc 7277 ec3d b52d f63d f61b a3bb
00000130: c1a8 f03d be44 02be 43e0 fc3d 9fc8 f83c
00000140: 88ed ab3c ac11 a8bc 0042 04bb 3177 cebd
00000150: c317 a2bd b89f f7bc feb5 233d 1151 c13c
00000160: 97b2 88bc 5e0c 123e eb86 adbd 443c 373d
00000170: 86e0 1bbe 5127 823e 53c9 f1bc 5b47 18bd
00000180: 1f0f 34bc 0731 6fbd 5404 493d e755 abbd
00000190: 4250 05be 907d 2f3d 8e67 84bd d41f a6bb
000001a0: e4dc 303c 8dcb a23c 08d9 a1bd dd22 83bc
000001b0: d1f3 fabd 0205 84bd dd90 443d 180b 28bc
000001c0: b018 8a3c 526d f1bc 71d2 373c 7e42 e23c
000001d0: a882 3f3d 492a 08bd 833a 023e 3e99 643d
000001e0: d46a 553d a871 2c3d 6bd3 7a3d 907a 213e
000001f0: 2809 1b3d 0fb3 41bb b292 e73d bd0f ee3c
00000200: 5bc0 6abd ecad 09bd 9be1 7d3d 2903 38bc
00000210: c3c4 1bbe 22d5 03be 1087 4b3d e6a1 96bd
00000220: 853c 74be d7cf 0e3d 7e24 81bc 0d24 e1bc
00000230: 7221 b1bc 117f a9bd 98a8 99bd a95e 19be
00000240: b03b 6abe f09e 28be e9f7 e03d 3223 e7bd
00000250: 489d 5abd 28e4 0abd d1e5 aa3d d066 98bd
00000260: b06b 413d 79d6 83be 62e4 203e 5f58 393d
00000270: 7409 473d 3e0d 66bb f198 0dbe 6a1c d1ba
00000280: 8a19 083e 81df 9c3d 1476 a73d 11e2 133e
00000290: 9f75 123e 7d3f 003e 979d 763b 98c8 b2bd
000002a0: 848c c13c 1951 2abc 14d6 2a3d 1051 77be
000002b0: 355d 0e3e 24d7 0dbc 1b36 303d a7fd 693d
000002c0: e5ce 96bd 9351 da3d d8bd 09bd cbd4 f9bd
000002d0: 8e3f 813e a857 e53d f7da a13d b9b9 a9bd
000002e0: 2611 4f3d c5d5 e73d 6726 43bc 1878 8abd
000002f0: 4189 3dbd 9f7b 303d c178 d4bd 4540 6abd
00000300: 0159 bc3c 8c22 eebc 48f9 17bc f26d d23d
00000310: 5619 c23d 9920 0c3e 0f61 8a3d 9974 d0bd
00000320: 5973 983d cf4c 7e3b e5dc 4abd 7b05 d7bd
00000330: 0a96 4bbe a4ea 3e3c ec9c 8fbb 8095 6fbd
00000340: 6930 2b3e 1ea1 ddbd e48a c23d 604b 1f3d
00000350: aaec 8539 9786 963c 430e 4ebd 5d0e 4fbc
00000360: a62e 51bd 276b d93d 6301 9fbc d260 93be
00000370: 8ace e3bd 6b0d 863d 997d 2b3b 5811 773d
00000380: 1cc1 dc3d c085 663d 17af 03be b452 82bd
00000390: fbb5 af3d f40c 92bd 9ad7 42bd cb1c 6cbd
000003a0: 9f85 16be 66bf 733d e581 7b3d 18c5 af3d
000003b0: 4015 ce3d 9373 f7bc 61cd 84bc 846c a8bc
000003c0: 9ed8 8ebd d5ae 48be f9a4 b53a 8f21 04bc
000003d0: 8036 23be 7d79 9cbd cbc7 ccbd 2a3c c4bd
000003e0: fd62 093e d63c fabd ee20 e63b 2528 e4bd
000003f0: 36e5 44bd 8140 b1bd aead 5dbc efad d7bd
0.001428093 -0.05453865 -0.11849181 0.018264417 -0.052967887 0.06254593 0.03828618 0.053246878
0.048091464 -0.016022064 -0.05905848 0.023156995 -0.068999864 0.0063593555 0.0465995 -0.038246904
0.07274074 -0.043025695 -0.08804345 0.084597364 -0.0382953 0.11597734 0.033016227 -0.0047628256
-0.103435434 -0.14586498 -0.018037232 -0.019734027 -0.016228233 -0.11577845 -0.017089464 -0.06270126
-0.0043113674 0.07166847 -0.044395044 -0.027538601 -0.045641672 -0.0035487588 -0.10479849 -0.029651904
-0.051595088 0.06516397 0.046776827 0.0846684 -0.024918264 -0.07737276 0.033263933 0.02010903
-0.059962627 -0.006707911 0.1203308 -0.0025870115 -0.14099762 0.058526434 0.016499102 -0.09368529
0.14673038 0.063955136 0.03534531 -0.20167935 0.03694649 0.010421893 -0.04522763 0.025212822
0.13450755 -0.17199214 0.048086498 0.010384408 -0.050926603 -0.19028059 0.060543306 -0.1378348
-0.023117276 0.1154622 0.12020437 -0.0049776984 0.11750937 -0.12721536 0.12347462 0.030369101
0.020987287 -0.02051624 -0.002018094 -0.10081328 -0.079146884 -0.030227527 0.039968483 0.023598226
-0.01668672 0.1426253 -0.08472999 0.04473521 -0.15222368 0.2542062 -0.029514944 -0.037177425
-0.010989933 -0.058396365 0.049076393 -0.08365994 -0.13018897 0.042844355 -0.06465064 -0.005069712
0.010794852 0.019872451 -0.079027236 -0.016007835 -0.122535355 -0.06446268 0.047989715 -0.010256551
0.016857475 -0.029471073 0.011219607 0.027619597 0.046755463 -0.03324345 0.12717633 0.055810206
0.052103832 0.04210058 0.06123678 0.1576941 0.03785053 -0.002955619 0.11307277 0.029060239
-0.05731235 -0.03361313 0.061982732 -0.011231222 -0.15211777 -0.12874272 0.049689353 -0.073550984
-0.23851211 0.03486618 -0.015764471 -0.02748301 -0.021622393 -0.08276189 -0.0750286 -0.14977516
-0.22874331 -0.1646688 0.10984785 -0.1128601 -0.05337265 -0.033908993 0.08344615 -0.07441485
0.04722184 -0.25749567 0.15712121 0.045250293 0.048593 -0.0035103108 -0.13827874 -0.0015953903
0.13290992 0.076598175 0.081768185 0.14441706 0.14302681 0.12524219 0.0037630552 -0.087296665
0.023626573 -0.010395312 0.041708067 -0.24152017 0.13902743 -0.008657251 0.04302035 0.057126667
-0.07363681 0.1066009 -0.033628315 -0.1219879 0.252438 0.1119836 0.07903092 -0.08287377
0.050553463 0.1132007 -0.011911011 -0.06761187 -0.046273474 0.043086644 -0.103745945 -0.0571902
0.02299166 -0.029069208 -0.009275742 0.10274877 0.09477489 0.1368431 0.06756794 -0.10178489
0.07443876 0.0038803106 -0.049527068 -0.10499092 -0.19881454 0.011652622 -0.00438272 -0.058492184
0.16717686 -0.10821746 0.094991475 0.038890243 0.00025544065 0.018374724 -0.05030657 -0.012637702
-0.051069878 0.10616141 -0.01940984 -0.28784806 -0.111233786 0.06545528 0.0026167391 0.060319275
0.1077902 0.056279898 -0.1285976 -0.063634306 0.08579632 -0.07131377 -0.047568895 -0.057644647
-0.1469941 0.059508704 0.061403174 0.085825145 0.10062647 -0.030206477 -0.016211214 -0.020559557
-0.0697491 -0.19597943 0.001385837 -0.008064642 -0.15938759 -0.076403596 -0.09999045 -0.09581788
0.13416667 -0.12218635 0.0070229685 -0.111404695 -0.048070155 -0.08654881 -0.013530178 -0.10531222
